…
  stage: ""
}
layer {
  name: "data"
  type: "Data"
  top: "data"
  include {
    phase: TRAIN
  }
  transform_param {
    scale: 0.00390625
  }
  data_param {
    source: "/home/jaychou/code/new_caffe/caffe-master/examples/gender_glasses/gender_glasses_train_lmdb"
    batch_size: 100
    backend: LMDB
  }
}
layer {
  name: "labels"
  type: "Data"
  top: "labels"
  include {
    phase: TRAIN
  }
  data_param {
    source: "/home/jaychou/code/new_caffe/caffe-master/examples/gender_glasses/gender_glasses_train_label_lmdb"
    batch_size: 100
    backend: LMDB
  }
}
layer {
  name: "slice1"
  type: "Slice"
  bottom: "labels"
  top: "glasses"
  top: "gender"
  slice_param {
    slice_dim: 1
    slice_point: 1
  }
}
layer {
  name: "conv1"
  type: "Convolution"
  bottom: "data"
  top: "conv1"
  param {
    lr_mult: 1
  }
  param {
    lr_mult: 0.1
  }
  convolution_param {
    num_output: 20
    pad: 0
    kernel_size: 5
    stride: 1
    weight_filler {
      type: "xavier"
    }
    bias_filler {
      type: "constant"
      value: 0
    }
  }
}
layer {
  name: "relu1"
  type: "PReLU"
  bottom: "conv1"
  top: "conv1"
}
layer {
  name: "pool1"
  type: "Pooling"
  bottom: "conv1"
  top: "pool1"
  pooling_param {
    pool: MAX
    kernel_size: 2
    stride: 2
  }
}
layer {
  name: "conv2"
  type: "Convolution"
  bottom: "pool1"
  top: "conv2"
  param {
    lr_mult: 1
  }
  param {
    lr_mult: 0.1
  }
  convolution_param {
    num_output: 48
    pad: 0
    kernel_size: 5
    stride: 1
    weight_filler {
      type: "xavier"
    }
    bias_filler {
      type: "constant"
      value: 0
    }
  }
}
layer {
  name: "relu2"
  type: "PReLU"
  bottom: "conv2"
  top: "conv2"
}
layer {
  name: "pool2"
  type: "Pooling"
  bottom: "conv2"
  top: "pool2"
  pooling_param {
    pool: MAX
    kernel_size: 2
    stride: 2
  }
}
layer {
  name: "conv3"
  type: "Convolution"
  bottom: "pool2"
  top: "conv3"
  param {
    lr_mult: 0.1
  }
  param {
    lr_mult: 0.1
  }
  convolution_param {
    num_output: 64
    pad: 0
    kernel_size: 3
    stride: 1
    weight_filler {
      type: "xavier"
    }
    bias_filler {
      type: "constant"
      value: 0
    }
  }
}
layer {
  name: "relu3"
  type: "PReLU"
  bottom: "conv3"
  top: "conv3"
}
layer {
  name: "ip1"
  type: "InnerProduct"
  bottom: "conv3"
  top: "ip1"
  inner_product_param {
    num_output: 512
    weight_filler {
      type: "xavier"
    }
    bias_filler {
      type: "constant"
    }
  }
}
layer {
  name: "relu5"
  type: "PReLU"
  bottom: "ip1"
  top: "ip1"
}
layer {
  name: "drop1"
  type: "Dropout"
  bottom: "ip1"
  top: "ip1"
  dropout_param {
    dropout_ratio: 0.5
  }
}
layer {
  name: "ip2"
  type: "InnerProduct"
  bottom: "ip1"
  top: "ip2"
  inner_product_param {
    num_output: 2
    weight_filler {
      type: "xavier"
    }
    bias_filler {
      type: "constant"
    }
  }
}
layer {
  name: "loss1"
  type: "SoftmaxWithLoss"
  bottom: "ip2"
  bottom: "glasses"
  top: "loss1"
  loss_weight: 0.5
}
layer {
  name: "ip3"
  type: "InnerProduct"
  bottom: "ip1"
  top: "ip3"
  inner_product_param {
    num_output: 2
    weight_filler {
      type: "xavier"
    }
    bias_filler {
      type: "constant"
    }
  }
}
layer {
  name: "loss2"
  type: "SoftmaxWithLoss"
  bottom: "ip3"
  bottom: "gender"
  top: "loss2"
  loss_weight: 0.5
}
I0819 08:54:37.390239 13520 layer_factory.hpp:77] Creating layer data
I0819 08:54:37.390722 13520 net.cpp:100] Creating Layer data
I0819 08:54:37.390753 13520 net.cpp:408] data -> data
I0819 08:54:37.391669 13524 db_lmdb.cpp:35] Opened lmdb /home/jaychou/code/new_caffe/caffe-master/examples/gender_glasses/gender_glasses_train_lmdb
I0819 08:54:37.403116 13520 data_layer.cpp:41] output data size: 100,3,80,80
I0819 08:54:37.413506 13520 net.cpp:150] Setting up data
I0819 08:54:37.413554 13520 net.cpp:157] Top shape: 100 3 80 80 (1920000)
I0819 08:54:37.413566 13520 net.cpp:165] Memory required for data: 7680000
I0819 08:54:37.413583 13520 layer_factory.hpp:77] Creating layer labels
I0819 08:54:37.413686 13520 net.cpp:100] Creating Layer labels
I0819 08:54:37.413702 13520 net.cpp:408] labels -> labels
I0819 08:54:37.415495 13526 db_lmdb.cpp:35] Opened lmdb /home/jaychou/code/new_caffe/caffe-master/examples/gender_glasses/gender_glasses_train_label_lmdb
I0819 08:54:37.416231 13520 data_layer.cpp:41] output data size: 100,2,1,1
I0819 08:54:37.416707 13520 net.cpp:150] Setting up labels
I0819 08:54:37.416729 13520 net.cpp:157] Top shape: 100 2 1 1 (200)
I0819 08:54:37.416740 13520 net.cpp:165] Memory required for data: 7680800
I0819 08:54:37.416750 13520 layer_factory.hpp:77] Creating layer slice1
I0819 08:54:37.416766 13520 net.cpp:100] Creating Layer slice1
I0819 08:54:37.416779 13520 net.cpp:434] slice1 <- labels
I0819 08:54:37.416800 13520 net.cpp:408] slice1 -> glasses
I0819 08:54:37.416820 13520 net.cpp:408] slice1 -> gender
I0819 08:54:37.416862 13520 net.cpp:150] Setting up slice1
I0819 08:54:37.416877 13520 net.cpp:157] Top shape: 100 1 1 1 (100)
I0819 08:54:37.416887 13520 net.cpp:157] Top shape: 100 1 1 1 (100)
I0819 08:54:37.416899 13520 net.cpp:165] Memory required for data: 7681600
I0819 08:54:37.416908 13520 layer_factory.hpp:77] Creating layer conv1
I0819 08:54:37.416931 13520 net.cpp:100] Creating Layer conv1
I0819 08:54:37.416942 13520 net.cpp:434] conv1 <- data
I0819 08:54:37.416955 13520 net.cpp:408] conv1 -> conv1
I0819 08:54:37.564952 13520 net.cpp:150] Setting up conv1
I0819 08:54:37.564997 13520 net.cpp:157] Top shape: 100 20 76 76 (11552000)
I0819 08:54:37.565007 13520 net.cpp:165] Memory required for data: 53889600
I0819 08:54:37.565034 13520 layer_factory.hpp:77] Creating layer relu1
I0819 08:54:37.565052 13520 net.cpp:100] Creating Layer relu1
I0819 08:54:37.565065 13520 net.cpp:434] relu1 <- conv1
I0819 08:54:37.565078 13520 net.cpp:395] relu1 -> conv1 (in-place)
I0819 08:54:37.565589 13520 net.cpp:150] Setting up relu1
I0819 08:54:37.565608 13520 net.cpp:157] Top shape: 100 20 76 76 (11552000)
I0819 08:54:37.565618 13520 net.cpp:165] Memory required for data: 100097600
I0819 08:54:37.565631 13520 layer_factory.hpp:77] Creating layer pool1
I0819 08:54:37.565645 13520 net.cpp:100] Creating Layer pool1
I0819 08:54:37.565656 13520 net.cpp:434] pool1 <- conv1
I0819 08:54:37.565670 13520 net.cpp:408] pool1 -> pool1
I0819 08:54:37.565721 13520 net.cpp:150] Setting up pool1
I0819 08:54:37.565735 13520 net.cpp:157] Top shape: 100 20 38 38 (2888000)
I0819 08:54:37.565744 13520 net.cpp:165] Memory required for data: 111649600
I0819 08:54:37.565753 13520 layer_factory.hpp:77] Creating layer conv2
I0819 08:54:37.565773 13520 net.cpp:100] Creating Layer conv2
I0819 08:54:37.565785 13520 net.cpp:434] conv2 <- pool1
I0819 08:54:37.565798 13520 net.cpp:408] conv2 -> conv2
I0819 08:54:37.567148 13520 net.cpp:150] Setting up conv2
I0819 08:54:37.567169 13520 net.cpp:157] Top shape: 100 48 34 34 (5548800)
I0819 08:54:37.567179 13520 net.cpp:165] Memory required for data: 133844800
I0819 08:54:37.567219 13520 layer_factory.hpp:77] Creating layer relu2
I0819 08:54:37.567234 13520 net.cpp:100] Creating Layer relu2
I0819 08:54:37.567243 13520 net.cpp:434] relu2 <- conv2
I0819 08:54:37.567256 13520 net.cpp:395] relu2 -> conv2 (in-place)
I0819 08:54:37.567370 13520 net.cpp:150] Setting up relu2
I0819 08:54:37.567386 13520 net.cpp:157] Top shape: 100 48 34 34 (5548800)
I0819 08:54:37.567395 13520 net.cpp:165] Memory required for data: 156040000
I0819 08:54:37.567406 13520 layer_factory.hpp:77] Creating layer pool2
I0819 08:54:37.567420 13520 net.cpp:100] Creating Layer pool2
I0819 08:54:37.567430 13520 net.cpp:434] pool2 <- conv2
I0819 08:54:37.567442 13520 net.cpp:408] pool2 -> pool2
I0819 08:54:37.567482 13520 net.cpp:150] Setting up pool2
I0819 08:54:37.567497 13520 net.cpp:157] Top shape: 100 48 17 17 (1387200)
I0819 08:54:37.567505 13520 net.cpp:165] Memory required for data: 161588800
I0819 08:54:37.567515 13520 layer_factory.hpp:77] Creating layer conv3
I0819 08:54:37.567533 13520 net.cpp:100] Creating Layer conv3
I0819 08:54:37.567543 13520 net.cpp:434] conv3 <- pool2
I0819 08:54:37.567555 13520 net.cpp:408] conv3 -> conv3
I0819 08:54:37.568434 13520 net.cpp:150] Setting up conv3
I0819 08:54:37.568454 13520 net.cpp:157] Top shape: 100 64 15 15 (1440000)
I0819 08:54:37.568464 13520 net.cpp:165] Memory required for data: 167348800
I0819 08:54:37.568475 13520 layer_factory.hpp:77] Creating layer relu3
I0819 08:54:37.568490 13520 net.cpp:100] Creating Layer relu3
I0819 08:54:37.568501 13520 net.cpp:434] relu3 <- conv3
I0819 08:54:37.568514 13520 net.cpp:395] relu3 -> conv3 (in-place)
I0819 08:54:37.568608 13520 net.cpp:150] Setting up relu3
I0819 08:54:37.568624 13520 net.cpp:157] Top shape: 100 64 15 15 (1440000)
I0819 08:54:37.568632 13520 net.cpp:165] Memory required for data: 173108800
I0819 08:54:37.568648 13520 layer_factory.hpp:77] Creating layer ip1
I0819 08:54:37.568667 13520 net.cpp:100] Creating Layer ip1
I0819 08:54:37.568678 13520 net.cpp:434] ip1 <- conv3
I0819 08:54:37.568691 13520 net.cpp:408] ip1 -> ip1
I0819 08:54:37.625033 13520 net.cpp:150] Setting up ip1
I0819 08:54:37.625079 13520 net.cpp:157] Top shape: 100 512 (51200)
I0819 08:54:37.625090 13520 net.cpp:165] Memory required for data: 173313600
I0819 08:54:37.625108 13520 layer_factory.hpp:77] Creating layer relu5
I0819 08:54:37.625123 13520 net.cpp:100] Creating Layer relu5
I0819 08:54:37.625140 13520 net.cpp:434] relu5 <- ip1
I0819 08:54:37.625154 13520 net.cpp:395] relu5 -> ip1 (in-place)
I0819 08:54:37.625237 13520 net.cpp:150] Setting up relu5
I0819 08:54:37.625252 13520 net.cpp:157] Top shape: 100 512 (51200)
I0819 08:54:37.625262 13520 net.cpp:165] Memory required for data: 173518400
I0819 08:54:37.625272 13520 layer_factory.hpp:77] Creating layer drop1
I0819 08:54:37.625291 13520 net.cpp:100] Creating Layer drop1
I0819 08:54:37.625303 13520 net.cpp:434] drop1 <- ip1
I0819 08:54:37.625314 13520 net.cpp:395] drop1 -> ip1 (in-place)
I0819 08:54:37.625346 13520 net.cpp:150] Setting up drop1
I0819 08:54:37.625360 13520 net.cpp:157] Top shape: 100 512 (51200)
I0819 08:54:37.625368 13520 net.cpp:165] Memory required for data: 173723200
I0819 08:54:37.625378 13520 layer_factory.hpp:77] Creating layer ip1_drop1_0_split
I0819 08:54:37.625392 13520 net.cpp:100] Creating Layer ip1_drop1_0_split
I0819 08:54:37.625401 13520 net.cpp:434] ip1_drop1_0_split <- ip1
I0819 08:54:37.625414 13520 net.cpp:408] ip1_drop1_0_split -> ip1_drop1_0_split_0
I0819 08:54:37.625430 13520 net.cpp:408] ip1_drop1_0_split -> ip1_drop1_0_split_1
I0819 08:54:37.625468 13520 net.cpp:150] Setting up ip1_drop1_0_split
I0819 08:54:37.625481 13520 net.cpp:157] Top shape: 100 512 (51200)
I0819 08:54:37.625491 13520 net.cpp:157] Top shape: 100 512 (51200)
I0819 08:54:37.625500 13520 net.cpp:165] Memory required for data: 174132800
I0819 08:54:37.625509 13520 layer_factory.hpp:77] Creating layer ip2
I0819 08:54:37.625524 13520 net.cpp:100] Creating Layer ip2
I0819 08:54:37.625535 13520 net.cpp:434] ip2 <- ip1_drop1_0_split_0
I0819 08:54:37.625569 13520 net.cpp:408] ip2 -> ip2
I0819 08:54:37.625664 13520 net.cpp:150] Setting up ip2
I0819 08:54:37.625680 13520 net.cpp:157] Top shape: 100 2 (200)
I0819 08:54:37.625689 13520 net.cpp:165] Memory required for data: 174133600
I0819 08:54:37.625702 13520 layer_factory.hpp:77] Creating layer loss1
I0819 08:54:37.625717 13520 net.cpp:100] Creating Layer loss1
I0819 08:54:37.625727 13520 net.cpp:434] loss1 <- ip2
I0819 08:54:37.625737 13520 net.cpp:434] loss1 <- glasses
I0819 08:54:37.625749 13520 net.cpp:408] loss1 -> loss1
I0819 08:54:37.625764 13520 layer_factory.hpp:77] Creating layer loss1
I0819 08:54:37.626163 13520 net.cpp:150] Setting up loss1
I0819 08:54:37.626181 13520 net.cpp:157] Top shape: (1)
I0819 08:54:37.626190 13520 net.cpp:160]     with loss weight 0.5
I0819 08:54:37.626215 13520 net.cpp:165] Memory required for data: 174133604
I0819 08:54:37.626225 13520 layer_factory.hpp:77] Creating layer ip3
I0819 08:54:37.626240 13520 net.cpp:100] Creating Layer ip3
I0819 08:54:37.626251 13520 net.cpp:434] ip3 <- ip1_drop1_0_split_1
I0819 08:54:37.626263 13520 net.cpp:408] ip3 -> ip3
I0819 08:54:37.626359 13520 net.cpp:150] Setting up ip3
I0819 08:54:37.626374 13520 net.cpp:157] Top shape: 100 2 (200)
I0819 08:54:37.626384 13520 net.cpp:165] Memory required for data: 174134404
I0819 08:54:37.626395 13520 layer_factory.hpp:77] Creating layer loss2
I0819 08:54:37.626410 13520 net.cpp:100] Creating Layer loss2
I0819 08:54:37.626420 13520 net.cpp:434] loss2 <- ip3
I0819 08:54:37.626430 13520 net.cpp:434] loss2 <- gender
I0819 08:54:37.626441 13520 net.cpp:408] loss2 -> loss2
I0819 08:54:37.626456 13520 layer_factory.hpp:77] Creating layer loss2
…
  phase: TEST
}
layer {
  name: "data"
  type: "Data"
  top: "data"
  include {
    phase: TEST
  }
  transform_param {
    scale: 0.00390625
  }
  data_param {
    source: "/home/jaychou/code/new_caffe/caffe-master/examples/gender_glasses/gender_glasses_val_lmdb"
    batch_size: 64
    backend: LMDB
  }
}
layer {
  name: "labels"
  type: "Data"
  top: "labels"
  include {
    phase: TEST
  }
  data_param {
    source: "/home/jaychou/code/new_caffe/caffe-master/examples/gender_glasses/gender_glasses_val_label_lmdb"
    batch_size: 64
    backend: LMDB
  }
}
layer {
  name: "slice1"
  type: "Slice"
  bottom: "labels"
  top: "glasses"
  top: "gender"
  slice_param {
    slice_dim: 1
    slice_point: 1
  }
}
layer {
  name: "conv1"
  type: "Convolution"
  bottom: "data"
  top: "conv1"
  param {
    lr_mult: 1
  }
  param {
    lr_mult: 0.1
  }
  convolution_param {
    num_output: 20
    pad: 0
    kernel_size: 5
    stride: 1
    weight_filler {
      type: "xavier"
    }
    bias_filler {
      type: "constant"
      value: 0
    }
  }
}
layer {
  name: "relu1"
  type: "PReLU"
  bottom: "conv1"
  top: "conv1"
}
layer {
  name: "pool1"
  type: "Pooling"
  bottom: "conv1"
  top: "pool1"
  pooling_param {
    pool: MAX
    kernel_size: 2
    stride: 2
  }
}
layer {
  name: "conv2"
  type: "Convolution"
  bottom: "pool1"
  top: "conv2"
  param {
    lr_mult: 1
  }
  param {
    lr_mult: 0.1
  }
  convolution_param {
    num_output: 48
    pad: 0
    kernel_size: 5
    stride: 1
    weight_filler {
      type: "xavier"
    }
    bias_filler {
      type: "constant"
      value: 0
    }
  }
}
layer {
  name: "relu2"
  type: "PReLU"
  bottom: "conv2"
  top: "conv2"
}
layer {
  name: "pool2"
  type: "Pooling"
  bottom: "conv2"
  top: "pool2"
  pooling_param {
    pool: MAX
    kernel_size: 2
    stride: 2
  }
}
layer {
  name: "conv3"
  type: "Convolution"
  bottom: "pool2"
  top: "conv3"
  param {
    lr_mult: 0.1
  }
  param {
    lr_mult: 0.1
  }
  convolution_param {
    num_output: 64
    pad: 0
    kernel_size: 3
    stride: 1
    weight_filler {
      type: "xavier"
    }
    bias_filler {
      type: "constant"
      value: 0
    }
  }
}
layer {
  name: "relu3"
  type: "PReLU"
  bottom: "conv3"
  top: "conv3"
}
layer {
  name: "ip1"
  type: "InnerProduct"
  bottom: "conv3"
  top: "ip1"
  inner_product_param {
    num_output: 512
    weight_filler {
      type: "xavier"
    }
    bias_filler {
      type: "constant"
    }
  }
}
layer {
  name: "relu5"
  type: "PReLU"
  bottom: "ip1"
  top: "ip1"
}
layer {
  name: "drop1"
  type: "Dropout"
  bottom: "ip1"
  top: "ip1"
  dropout_param {
    dropout_ratio: 0.5
  }
}
layer {
  name: "ip2"
  type: "InnerProduct"
  bottom: "ip1"
  top: "ip2"
  inner_product_param {
    num_output: 2
    weight_filler {
      type: "xavier"
    }
    bias_filler {
      type: "constant"
    }
  }
}
layer {
  name: "loss1"
  type: "SoftmaxWithLoss"
  bottom: "ip2"
  bottom: "glasses"
  top: "loss1"
  loss_weight: 0.5
}
layer {
  name: "accuracy_glasses"
  type: "Accuracy"
  bottom: "ip2"
  bottom: "glasses"
  top: "accuracy_glasses"
  include {
    phase: TEST
  }
}
layer {
  name: "ip3"
  type: "InnerProduct"
  bottom: "ip1"
  top: "ip3"
  inner_product_param {
    num_output: 2
    weight_filler {
      type: "xavier"
    }
    bias_filler {
      type: "constant"
    }
  }
}
layer {
  name: "loss2"
  type: "SoftmaxWithLoss"
  bottom: "ip3"
  bottom: "gender"
  top: "loss2"
  loss_weight: 0.5
}
layer {
  name: "accuracy_gender"
  type: "Accuracy"
  bottom: "ip3"
  bottom: "gender"
  top: "accuracy_gender"
  include {
    phase: TEST
  }
}
I0819 08:54:37.628170 13520 layer_factory.hpp:77] Creating layer data
I0819 08:54:37.628263 13520 net.cpp:100] Creating Layer data
I0819 08:54:37.628278 13520 net.cpp:408] data -> data
I0819 08:54:37.629653 13528 db_lmdb.cpp:35] Opened lmdb /home/jaychou/code/new_caffe/caffe-master/examples/gender_glasses/gender_glasses_val_lmdb
I0819 08:54:37.629873 13520 data_layer.cpp:41] output data size: 64,3,80,80
I0819 08:54:37.637758 13520 net.cpp:150] Setting up data
I0819 08:54:37.637815 13520 net.cpp:157] Top shape: 64 3 80 80 (1228800)
I0819 08:54:37.637826 13520 net.cpp:165] Memory required for data: 4915200
I0819 08:54:37.637838 13520 layer_factory.hpp:77] Creating layer labels
I0819 08:54:37.638229 13520 net.cpp:100] Creating Layer labels
I0819 08:54:37.638247 13520 net.cpp:408] labels -> labels
I0819 08:54:37.639523 13530 db_lmdb.cpp:35] Opened lmdb /home/jaychou/code/new_caffe/caffe-master/examples/gender_glasses/gender_glasses_val_label_lmdb
I0819 08:54:37.639716 13520 data_layer.cpp:41] output data size: 64,2,1,1
I0819 08:54:37.640105 13520 net.cpp:150] Setting up labels
I0819 08:54:37.640125 13520 net.cpp:157] Top shape: 64 2 1 1 (128)
I0819 08:54:37.640130 13520 net.cpp:165] Memory required for data: 4915712
I0819 08:54:37.640136 13520 layer_factory.hpp:77] Creating layer slice1
I0819 08:54:37.640146 13520 net.cpp:100] Creating Layer slice1
I0819 08:54:37.640152 13520 net.cpp:434] slice1 <- labels
I0819 08:54:37.640161 13520 net.cpp:408] slice1 -> glasses
I0819 08:54:37.640173 13520 net.cpp:408] slice1 -> gender
I0819 08:54:37.640211 13520 net.cpp:150] Setting up slice1
I0819 08:54:37.640220 13520 net.cpp:157] Top shape: 64 1 1 1 (64)
I0819 08:54:37.640226 13520 net.cpp:157] Top shape: 64 1 1 1 (64)
I0819 08:54:37.640231 13520 net.cpp:165] Memory required for data: 4916224
I0819 08:54:37.640249 13520 layer_factory.hpp:77] Creating layer glasses_slice1_0_split
I0819 08:54:37.640261 13520 net.cpp:100] Creating Layer glasses_slice1_0_split
I0819 08:54:37.640271 13520 net.cpp:434] glasses_slice1_0_split <- glasses
I0819 08:54:37.640286 13520 net.cpp:408] glasses_slice1_0_split -> glasses_slice1_0_split_0
I0819 08:54:37.640301 13520 net.cpp:408] glasses_slice1_0_split -> glasses_slice1_0_split_1
I0819 08:54:37.640341 13520 net.cpp:150] Setting up glasses_slice1_0_split
I0819 08:54:37.640357 13520 net.cpp:157] Top shape: 64 1 1 1 (64)
I0819 08:54:37.640367 13520 net.cpp:157] Top shape: 64 1 1 1 (64)
I0819 08:54:37.640388 13520 net.cpp:165] Memory required for data: 4916736
I0819 08:54:37.640400 13520 layer_factory.hpp:77] Creating layer gender_slice1_1_split
I0819 08:54:37.640413 13520 net.cpp:100] Creating Layer gender_slice1_1_split
I0819 08:54:37.640422 13520 net.cpp:434] gender_slice1_1_split <- gender
I0819 08:54:37.640434 13520 net.cpp:408] gender_slice1_1_split -> gender_slice1_1_split_0
I0819 08:54:37.640445 13520 net.cpp:408] gender_slice1_1_split -> gender_slice1_1_split_1
I0819 08:54:37.640550 13520 net.cpp:150] Setting up gender_slice1_1_split
I0819 08:54:37.640566 13520 net.cpp:157] Top shape: 64 1 1 1 (64)
I0819 08:54:37.640576 13520 net.cpp:157] Top shape: 64 1 1 1 (64)
I0819 08:54:37.640588 13520 net.cpp:165] Memory required for data: 4917248
I0819 08:54:37.640597 13520 layer_factory.hpp:77] Creating layer conv1
I0819 08:54:37.640617 13520 net.cpp:100] Creating Layer conv1
I0819 08:54:37.640627 13520 net.cpp:434] conv1 <- data
I0819 08:54:37.640640 13520 net.cpp:408] conv1 -> conv1
I0819 08:54:37.641950 13520 net.cpp:150] Setting up conv1
I0819 08:54:37.641978 13520 net.cpp:157] Top shape: 64 20 76 76 (7393280)
I0819 08:54:37.641988 13520 net.cpp:165] Memory required for data: 34490368
I0819 08:54:37.642006 13520 layer_factory.hpp:77] Creating layer relu1
I0819 08:54:37.642021 13520 net.cpp:100] Creating Layer relu1
I0819 08:54:37.642032 13520 net.cpp:434] relu1 <- conv1
I0819 08:54:37.642047 13520 net.cpp:395] relu1 -> conv1 (in-place)
I0819 08:54:37.642324 13520 net.cpp:150] Setting up relu1
I0819 08:54:37.642348 13520 net.cpp:157] Top shape: 64 20 76 76 (7393280)
I0819 08:54:37.642359 13520 net.cpp:165] Memory required for data: 64063488
I0819 08:54:37.642374 13520 layer_factory.hpp:77] Creating layer pool1
I0819 08:54:37.642396 13520 net.cpp:100] Creating Layer pool1
I0819 08:54:37.642406 13520 net.cpp:434] pool1 <- conv1
I0819 08:54:37.642419 13520 net.cpp:408] pool1 -> pool1
I0819 08:54:37.642467 13520 net.cpp:150] Setting up pool1
I0819 08:54:37.642482 13520 net.cpp:157] Top shape: 64 20 38 38 (1848320)
I0819 08:54:37.642504 13520 net.cpp:165] Memory required for data: 71456768
I0819 08:54:37.642539 13520 layer_factory.hpp:77] Creating layer conv2
I0819 08:54:37.642567 13520 net.cpp:100] Creating Layer conv2
I0819 08:54:37.642580 13520 net.cpp:434] conv2 <- pool1
I0819 08:54:37.642593 13520 net.cpp:408] conv2 -> conv2
I0819 08:54:37.643785 13520 net.cpp:150] Setting up conv2
I0819 08:54:37.643811 13520 net.cpp:157] Top shape: 64 48 34 34 (3551232)
I0819 08:54:37.643821 13520 net.cpp:165] Memory required for data: 85661696
I0819 08:54:37.643837 13520 layer_factory.hpp:77] Creating layer relu2
I0819 08:54:37.643851 13520 net.cpp:100] Creating Layer relu2
I0819 08:54:37.643862 13520 net.cpp:434] relu2 <- conv2
I0819 08:54:37.643872 13520 net.cpp:395] relu2 -> conv2 (in-place)
I0819 08:54:37.644503 13520 net.cpp:150] Setting up relu2
I0819 08:54:37.644529 13520 net.cpp:157] Top shape: 64 48 34 34 (3551232)
I0819 08:54:37.644539 13520 net.cpp:165] Memory required for data: 99866624
I0819 08:54:37.644551 13520 layer_factory.hpp:77] Creating layer pool2
I0819 08:54:37.644563 13520 net.cpp:100] Creating Layer pool2
I0819 08:54:37.644572 13520 net.cpp:434] pool2 <- conv2
I0819 08:54:37.644583 13520 net.cpp:408] pool2 -> pool2
I0819 08:54:37.644626 13520 net.cpp:150] Setting up pool2
I0819 08:54:37.644640 13520 net.cpp:157] Top shape: 64 48 17 17 (887808)
I0819 08:54:37.644651 13520 net.cpp:165] Memory required for data: 103417856
I0819 08:54:37.644660 13520 layer_factory.hpp:77] Creating layer conv3
I0819 08:54:37.644677 13520 net.cpp:100] Creating Layer conv3
I0819 08:54:37.644687 13520 net.cpp:434] conv3 <- pool2
I0819 08:54:37.644701 13520 net.cpp:408] conv3 -> conv3
I0819 08:54:37.645872 13520 net.cpp:150] Setting up conv3
I0819 08:54:37.645895 13520 net.cpp:157] Top shape: 64 64 15 15 (921600)
I0819 08:54:37.645905 13520 net.cpp:165] Memory required for data: 107104256
I0819 08:54:37.645917 13520 layer_factory.hpp:77] Creating layer relu3
I0819 08:54:37.645930 13520 net.cpp:100] Creating Layer relu3
I0819 08:54:37.645938 13520 net.cpp:434] relu3 <- conv3
I0819 08:54:37.645949 13520 net.cpp:395] relu3 -> conv3 (in-place)
I0819 08:54:37.646056 13520 net.cpp:150] Setting up relu3
I0819 08:54:37.646073 13520 net.cpp:157] Top shape: 64 64 15 15 (921600)
I0819 08:54:37.646082 13520 net.cpp:165] Memory required for data: 110790656
I0819 08:54:37.646096 13520 layer_factory.hpp:77] Creating layer ip1
I0819 08:54:37.646109 13520 net.cpp:100] Creating Layer ip1
I0819 08:54:37.646119 13520 net.cpp:434] ip1 <- conv3
I0819 08:54:37.646131 13520 net.cpp:408] ip1 -> ip1
I0819 08:54:37.705116 13520 net.cpp:150] Setting up ip1
I0819 08:54:37.705163 13520 net.cpp:157] Top shape: 64 512 (32768)
I0819 08:54:37.705174 13520 net.cpp:165] Memory required for data: 110921728
I0819 08:54:37.705193 13520 layer_factory.hpp:77] Creating layer relu5
I0819 08:54:37.705209 13520 net.cpp:100] Creating Layer relu5
I0819 08:54:37.705220 13520 net.cpp:434] relu5 <- ip1
I0819 08:54:37.705234 13520 net.cpp:395] relu5 -> ip1 (in-place)
I0819 08:54:37.705330 13520 net.cpp:150] Setting up relu5
I0819 08:54:37.705346 13520 net.cpp:157] Top shape: 64 512 (32768)
I0819 08:54:37.705356 13520 net.cpp:165] Memory required for data: 111052800
I0819 08:54:37.705368 13520 layer_factory.hpp:77] Creating layer drop1
I0819 08:54:37.705384 13520 net.cpp:100] Creating Layer drop1
I0819 08:54:37.705394 13520 net.cpp:434] drop1 <- ip1
I0819 08:54:37.705404 13520 net.cpp:395] drop1 -> ip1 (in-place)
I0819 08:54:37.705440 13520 net.cpp:150] Setting up drop1
I0819 08:54:37.705454 13520 net.cpp:157] Top shape: 64 512 (32768)
I0819 08:54:37.705463 13520 net.cpp:165] Memory required for data: 111183872
I0819 08:54:37.705472 13520 layer_factory.hpp:77] Creating layer ip1_drop1_0_split
I0819 08:54:37.705489 13520 net.cpp:100] Creating Layer ip1_drop1_0_split
I0819 08:54:37.705499 13520 net.cpp:434] ip1_drop1_0_split <- ip1
I0819 08:54:37.705510 13520 net.cpp:408] ip1_drop1_0_split -> ip1_drop1_0_split_0
I0819 08:54:37.705529 13520 net.cpp:408] ip1_drop1_0_split -> ip1_drop1_0_split_1
I0819 08:54:37.705570 13520 net.cpp:150] Setting up ip1_drop1_0_split
I0819 08:54:37.705608 13520 net.cpp:157] Top shape: 64 512 (32768)
I0819 08:54:37.705620 13520 net.cpp:157] Top shape: 64 512 (32768)
I0819 08:54:37.705628 13520 net.cpp:165] Memory required for data: 111446016
I0819 08:54:37.705637 13520 layer_factory.hpp:77] Creating layer ip2
I0819 08:54:37.705651 13520 net.cpp:100] Creating Layer ip2
I0819 08:54:37.705659 13520 net.cpp:434] ip2 <- ip1_drop1_0_split_0
I0819 08:54:37.705672 13520 net.cpp:408] ip2 -> ip2
I0819 08:54:37.705783 13520 net.cpp:150] Setting up ip2
I0819 08:54:37.705799 13520 net.cpp:157] Top shape: 64 2 (128)
I0819 08:54:37.705809 13520 net.cpp:165] Memory required for data: 111446528
I0819 08:54:37.705821 13520 layer_factory.hpp:77] Creating layer ip2_ip2_0_split
I0819 08:54:37.705832 13520 net.cpp:100] Creating Layer ip2_ip2_0_split
I0819 08:54:37.705842 13520 net.cpp:434] ip2_ip2_0_split <- ip2
I0819 08:54:37.705855 13520 net.cpp:408] ip2_ip2_0_split -> ip2_ip2_0_split_0
I0819 08:54:37.705869 13520 net.cpp:408] ip2_ip2_0_split -> ip2_ip2_0_split_1
I0819 08:54:37.705906 13520 net.cpp:150] Setting up ip2_ip2_0_split
I0819 08:54:37.705920 13520 net.cpp:157] Top shape: 64 2 (128)
I0819 08:54:37.705930 13520 net.cpp:157] Top shape: 64 2 (128)
I0819 08:54:37.705940 13520 net.cpp:165] Memory required for data: 111447552
I0819 08:54:37.705948 13520 layer_factory.hpp:77] Creating layer loss1
I0819 08:54:37.705962 13520 net.cpp:100] Creating Layer loss1
I0819 08:54:37.705972 13520 net.cpp:434] loss1 <- ip2_ip2_0_split_0
I0819 08:54:37.705983 13520 net.cpp:434] loss1 <- glasses_slice1_0_split_0
I0819 08:54:37.705994 13520 net.cpp:408] loss1 -> loss1
…
