…
  stage: ""
}
layer {
  name: "data"
  type: "Data"
  top: "data"
  include {
    phase: TRAIN
  }
  transform_param {
    scale: 0.00390625
  }
  data_param {
    source: "/home/jaychou/code/new_caffe/caffe-master/examples/gender_glasses/gender_glasses_train_lmdb"
    batch_size: 100
    backend: LMDB
  }
}
layer {
  name: "labels"
  type: "Data"
  top: "labels"
  include {
    phase: TRAIN
  }
  data_param {
    source: "/home/jaychou/code/new_caffe/caffe-master/examples/gender_glasses/gender_glasses_train_label_lmdb"
    batch_size: 100
    backend: LMDB
  }
}
layer {
  name: "slice1"
  type: "Slice"
  bottom: "labels"
  top: "glasses"
  top: "gender"
  slice_param {
    slice_dim: 1
    slice_point: 1
  }
}
layer {
  name: "conv1"
  type: "Convolution"
  bottom: "data"
  top: "conv1"
  param {
    lr_mult: 1
  }
  param {
    lr_mult: 0.1
  }
  convolution_param {
    num_output: 20
    pad: 0
    kernel_size: 5
    stride: 1
    weight_filler {
      type: "xavier"
    }
    bias_filler {
      type: "constant"
      value: 0
    }
  }
}
layer {
  name: "relu1"
  type: "PReLU"
  bottom: "conv1"
  top: "conv1"
}
layer {
  name: "pool1"
  type: "Pooling"
  bottom: "conv1"
  top: "pool1"
  pooling_param {
    pool: MAX
    kernel_size: 2
    stride: 2
  }
}
layer {
  name: "conv2"
  type: "Convolution"
  bottom: "pool1"
  top: "conv2"
  param {
    lr_mult: 1
  }
  param {
    lr_mult: 0.1
  }
  convolution_param {
    num_output: 48
    pad: 0
    kernel_size: 5
    stride: 1
    weight_filler {
      type: "xavier"
    }
    bias_filler {
      type: "constant"
      value: 0
    }
  }
}
layer {
  name: "relu2"
  type: "PReLU"
  bottom: "conv2"
  top: "conv2"
}
layer {
  name: "pool2"
  type: "Pooling"
  bottom: "conv2"
  top: "pool2"
  pooling_param {
    pool: MAX
    kernel_size: 2
    stride: 2
  }
}
layer {
  name: "conv3"
  type: "Convolution"
  bottom: "pool2"
  top: "conv3"
  param {
    lr_mult: 0.1
  }
  param {
    lr_mult: 0.1
  }
  convolution_param {
    num_output: 64
    pad: 0
    kernel_size: 3
    stride: 1
    weight_filler {
      type: "xavier"
    }
    bias_filler {
      type: "constant"
      value: 0
    }
  }
}
layer {
  name: "relu3"
  type: "PReLU"
  bottom: "conv3"
  top: "conv3"
}
layer {
  name: "pool3"
  type: "Pooling"
  bottom: "conv3"
  top: "pool3"
  pooling_param {
    pool: MAX
    kernel_size: 2
    stride: 2
  }
}
layer {
  name: "ip1"
  type: "InnerProduct"
  bottom: "pool3"
  top: "ip1"
  inner_product_param {
    num_output: 512
    weight_filler {
      type: "xavier"
    }
    bias_filler {
      type: "constant"
    }
  }
}
layer {
  name: "relu5"
  type: "PReLU"
  bottom: "ip1"
  top: "ip1"
}
layer {
  name: "drop1"
  type: "Dropout"
  bottom: "ip1"
  top: "ip1"
  dropout_param {
    dropout_ratio: 0.5
  }
}
layer {
  name: "ip2"
  type: "InnerProduct"
  bottom: "ip1"
  top: "ip2"
  inner_product_param {
    num_output: 2
    weight_filler {
      type: "xavier"
    }
    bias_filler {
      type: "constant"
    }
  }
}
layer {
  name: "loss1"
  type: "SoftmaxWithLoss"
  bottom: "ip2"
  bottom: "glasses"
  top: "loss1"
  loss_weight: 0.5
}
layer {
  name: "ip3"
  type: "InnerProduct"
  bottom: "ip1"
  top: "ip3"
  inner_product_param {
    num_output: 512
    weight_filler {
      type: "xavier"
    }
    bias_filler {
      type: "constant"
    }
  }
}
layer {
  name: "loss2"
  type: "SoftmaxWithLoss"
  bottom: "ip3"
  bottom: "gender"
  top: "loss2"
  loss_weight: 0.5
}
I0815 10:55:43.999820  9928 layer_factory.hpp:77] Creating layer data
I0815 10:55:44.000185  9928 net.cpp:100] Creating Layer data
I0815 10:55:44.000207  9928 net.cpp:408] data -> data
I0815 10:55:44.001220  9937 db_lmdb.cpp:35] Opened lmdb /home/jaychou/code/new_caffe/caffe-master/examples/gender_glasses/gender_glasses_train_lmdb
I0815 10:55:44.010813  9928 data_layer.cpp:41] output data size: 100,3,100,100
I0815 10:55:44.060497  9928 net.cpp:150] Setting up data
I0815 10:55:44.060546  9928 net.cpp:157] Top shape: 100 3 100 100 (3000000)
I0815 10:55:44.060556  9928 net.cpp:165] Memory required for data: 12000000
I0815 10:55:44.060572  9928 layer_factory.hpp:77] Creating layer labels
I0815 10:55:44.068022  9928 net.cpp:100] Creating Layer labels
I0815 10:55:44.068079  9928 net.cpp:408] labels -> labels
I0815 10:55:44.068912  9939 db_lmdb.cpp:35] Opened lmdb /home/jaychou/code/new_caffe/caffe-master/examples/gender_glasses/gender_glasses_train_label_lmdb
I0815 10:55:44.069443  9928 data_layer.cpp:41] output data size: 100,2,1,1
I0815 10:55:44.069804  9928 net.cpp:150] Setting up labels
I0815 10:55:44.069833  9928 net.cpp:157] Top shape: 100 2 1 1 (200)
I0815 10:55:44.069842  9928 net.cpp:165] Memory required for data: 12000800
I0815 10:55:44.069852  9928 layer_factory.hpp:77] Creating layer slice1
I0815 10:55:44.069869  9928 net.cpp:100] Creating Layer slice1
I0815 10:55:44.069882  9928 net.cpp:434] slice1 <- labels
I0815 10:55:44.069900  9928 net.cpp:408] slice1 -> glasses
I0815 10:55:44.069919  9928 net.cpp:408] slice1 -> gender
I0815 10:55:44.069965  9928 net.cpp:150] Setting up slice1
I0815 10:55:44.069982  9928 net.cpp:157] Top shape: 100 1 1 1 (100)
I0815 10:55:44.069991  9928 net.cpp:157] Top shape: 100 1 1 1 (100)
I0815 10:55:44.069999  9928 net.cpp:165] Memory required for data: 12001600
I0815 10:55:44.070008  9928 layer_factory.hpp:77] Creating layer conv1
I0815 10:55:44.070030  9928 net.cpp:100] Creating Layer conv1
I0815 10:55:44.070039  9928 net.cpp:434] conv1 <- data
I0815 10:55:44.070052  9928 net.cpp:408] conv1 -> conv1
I0815 10:55:44.221518  9928 net.cpp:150] Setting up conv1
I0815 10:55:44.221568  9928 net.cpp:157] Top shape: 100 20 96 96 (18432000)
I0815 10:55:44.221580  9928 net.cpp:165] Memory required for data: 85729600
I0815 10:55:44.221607  9928 layer_factory.hpp:77] Creating layer relu1
I0815 10:55:44.221628  9928 net.cpp:100] Creating Layer relu1
I0815 10:55:44.221638  9928 net.cpp:434] relu1 <- conv1
I0815 10:55:44.221649  9928 net.cpp:395] relu1 -> conv1 (in-place)
I0815 10:55:44.222208  9928 net.cpp:150] Setting up relu1
I0815 10:55:44.222228  9928 net.cpp:157] Top shape: 100 20 96 96 (18432000)
I0815 10:55:44.222236  9928 net.cpp:165] Memory required for data: 159457600
I0815 10:55:44.222250  9928 layer_factory.hpp:77] Creating layer pool1
I0815 10:55:44.222265  9928 net.cpp:100] Creating Layer pool1
I0815 10:55:44.222273  9928 net.cpp:434] pool1 <- conv1
I0815 10:55:44.222285  9928 net.cpp:408] pool1 -> pool1
I0815 10:55:44.222337  9928 net.cpp:150] Setting up pool1
I0815 10:55:44.222352  9928 net.cpp:157] Top shape: 100 20 48 48 (4608000)
I0815 10:55:44.222360  9928 net.cpp:165] Memory required for data: 177889600
I0815 10:55:44.222369  9928 layer_factory.hpp:77] Creating layer conv2
I0815 10:55:44.222386  9928 net.cpp:100] Creating Layer conv2
I0815 10:55:44.222398  9928 net.cpp:434] conv2 <- pool1
I0815 10:55:44.222409  9928 net.cpp:408] conv2 -> conv2
I0815 10:55:44.223790  9928 net.cpp:150] Setting up conv2
I0815 10:55:44.223814  9928 net.cpp:157] Top shape: 100 48 44 44 (9292800)
I0815 10:55:44.223822  9928 net.cpp:165] Memory required for data: 215060800
I0815 10:55:44.223837  9928 layer_factory.hpp:77] Creating layer relu2
I0815 10:55:44.223850  9928 net.cpp:100] Creating Layer relu2
I0815 10:55:44.223858  9928 net.cpp:434] relu2 <- conv2
I0815 10:55:44.223868  9928 net.cpp:395] relu2 -> conv2 (in-place)
I0815 10:55:44.224354  9928 net.cpp:150] Setting up relu2
I0815 10:55:44.224373  9928 net.cpp:157] Top shape: 100 48 44 44 (9292800)
I0815 10:55:44.224382  9928 net.cpp:165] Memory required for data: 252232000
I0815 10:55:44.224393  9928 layer_factory.hpp:77] Creating layer pool2
I0815 10:55:44.224407  9928 net.cpp:100] Creating Layer pool2
I0815 10:55:44.224416  9928 net.cpp:434] pool2 <- conv2
I0815 10:55:44.224426  9928 net.cpp:408] pool2 -> pool2
I0815 10:55:44.224465  9928 net.cpp:150] Setting up pool2
I0815 10:55:44.224478  9928 net.cpp:157] Top shape: 100 48 22 22 (2323200)
I0815 10:55:44.224488  9928 net.cpp:165] Memory required for data: 261524800
I0815 10:55:44.224495  9928 layer_factory.hpp:77] Creating layer conv3
I0815 10:55:44.224510  9928 net.cpp:100] Creating Layer conv3
I0815 10:55:44.224519  9928 net.cpp:434] conv3 <- pool2
I0815 10:55:44.224529  9928 net.cpp:408] conv3 -> conv3
I0815 10:55:44.225713  9928 net.cpp:150] Setting up conv3
I0815 10:55:44.225733  9928 net.cpp:157] Top shape: 100 64 20 20 (2560000)
I0815 10:55:44.225744  9928 net.cpp:165] Memory required for data: 271764800
I0815 10:55:44.225755  9928 layer_factory.hpp:77] Creating layer relu3
I0815 10:55:44.225766  9928 net.cpp:100] Creating Layer relu3
I0815 10:55:44.225775  9928 net.cpp:434] relu3 <- conv3
I0815 10:55:44.225785  9928 net.cpp:395] relu3 -> conv3 (in-place)
I0815 10:55:44.225883  9928 net.cpp:150] Setting up relu3
I0815 10:55:44.225898  9928 net.cpp:157] Top shape: 100 64 20 20 (2560000)
I0815 10:55:44.225908  9928 net.cpp:165] Memory required for data: 282004800
I0815 10:55:44.225920  9928 layer_factory.hpp:77] Creating layer pool3
I0815 10:55:44.225932  9928 net.cpp:100] Creating Layer pool3
I0815 10:55:44.225940  9928 net.cpp:434] pool3 <- conv3
I0815 10:55:44.225951  9928 net.cpp:408] pool3 -> pool3
I0815 10:55:44.225991  9928 net.cpp:150] Setting up pool3
I0815 10:55:44.226004  9928 net.cpp:157] Top shape: 100 64 10 10 (640000)
I0815 10:55:44.226012  9928 net.cpp:165] Memory required for data: 284564800
I0815 10:55:44.226021  9928 layer_factory.hpp:77] Creating layer ip1
I0815 10:55:44.226038  9928 net.cpp:100] Creating Layer ip1
I0815 10:55:44.226047  9928 net.cpp:434] ip1 <- pool3
I0815 10:55:44.226058  9928 net.cpp:408] ip1 -> ip1
I0815 10:55:44.250468  9928 net.cpp:150] Setting up ip1
I0815 10:55:44.250511  9928 net.cpp:157] Top shape: 100 512 (51200)
I0815 10:55:44.250520  9928 net.cpp:165] Memory required for data: 284769600
I0815 10:55:44.250536  9928 layer_factory.hpp:77] Creating layer relu5
I0815 10:55:44.250550  9928 net.cpp:100] Creating Layer relu5
I0815 10:55:44.250565  9928 net.cpp:434] relu5 <- ip1
I0815 10:55:44.250581  9928 net.cpp:395] relu5 -> ip1 (in-place)
I0815 10:55:44.250664  9928 net.cpp:150] Setting up relu5
I0815 10:55:44.250679  9928 net.cpp:157] Top shape: 100 512 (51200)
I0815 10:55:44.250686  9928 net.cpp:165] Memory required for data: 284974400
I0815 10:55:44.250696  9928 layer_factory.hpp:77] Creating layer drop1
I0815 10:55:44.250717  9928 net.cpp:100] Creating Layer drop1
I0815 10:55:44.250727  9928 net.cpp:434] drop1 <- ip1
I0815 10:55:44.250738  9928 net.cpp:395] drop1 -> ip1 (in-place)
I0815 10:55:44.250769  9928 net.cpp:150] Setting up drop1
I0815 10:55:44.250782  9928 net.cpp:157] Top shape: 100 512 (51200)
I0815 10:55:44.250790  9928 net.cpp:165] Memory required for data: 285179200
I0815 10:55:44.250799  9928 layer_factory.hpp:77] Creating layer ip1_drop1_0_split
I0815 10:55:44.250813  9928 net.cpp:100] Creating Layer ip1_drop1_0_split
I0815 10:55:44.250821  9928 net.cpp:434] ip1_drop1_0_split <- ip1
I0815 10:55:44.250833  9928 net.cpp:408] ip1_drop1_0_split -> ip1_drop1_0_split_0
I0815 10:55:44.250869  9928 net.cpp:408] ip1_drop1_0_split -> ip1_drop1_0_split_1
I0815 10:55:44.250907  9928 net.cpp:150] Setting up ip1_drop1_0_split
I0815 10:55:44.250921  9928 net.cpp:157] Top shape: 100 512 (51200)
I0815 10:55:44.250931  9928 net.cpp:157] Top shape: 100 512 (51200)
I0815 10:55:44.250937  9928 net.cpp:165] Memory required for data: 285588800
I0815 10:55:44.250946  9928 layer_factory.hpp:77] Creating layer ip2
I0815 10:55:44.250962  9928 net.cpp:100] Creating Layer ip2
I0815 10:55:44.250972  9928 net.cpp:434] ip2 <- ip1_drop1_0_split_0
I0815 10:55:44.250984  9928 net.cpp:408] ip2 -> ip2
I0815 10:55:44.251078  9928 net.cpp:150] Setting up ip2
I0815 10:55:44.251093  9928 net.cpp:157] Top shape: 100 2 (200)
I0815 10:55:44.251101  9928 net.cpp:165] Memory required for data: 285589600
I0815 10:55:44.251112  9928 layer_factory.hpp:77] Creating layer loss1
I0815 10:55:44.251124  9928 net.cpp:100] Creating Layer loss1
I0815 10:55:44.251132  9928 net.cpp:434] loss1 <- ip2
I0815 10:55:44.251142  9928 net.cpp:434] loss1 <- glasses
I0815 10:55:44.251152  9928 net.cpp:408] loss1 -> loss1
I0815 10:55:44.251166  9928 layer_factory.hpp:77] Creating layer loss1
I0815 10:55:44.251631  9928 net.cpp:150] Setting up loss1
I0815 10:55:44.251652  9928 net.cpp:157] Top shape: (1)
I0815 10:55:44.251660  9928 net.cpp:160]     with loss weight 0.5
I0815 10:55:44.251688  9928 net.cpp:165] Memory required for data: 285589604
I0815 10:55:44.251696  9928 layer_factory.hpp:77] Creating layer ip3
I0815 10:55:44.251709  9928 net.cpp:100] Creating Layer ip3
I0815 10:55:44.251719  9928 net.cpp:434] ip3 <- ip1_drop1_0_split_1
I0815 10:55:44.251730  9928 net.cpp:408] ip3 -> ip3
I0815 10:55:44.253821  9928 net.cpp:150] Setting up ip3
I0815 10:55:44.253841  9928 net.cpp:157] Top shape: 100 512 (51200)
I0815 10:55:44.253850  9928 net.cpp:165] Memory required for data: 285794404
I0815 10:55:44.253861  9928 layer_factory.hpp:77] Creating layer loss2
I0815 10:55:44.253875  9928 net.cpp:100] Creating Layer loss2
I0815 10:55:44.253883  9928 net.cpp:434] loss2 <- ip3
I0815 10:55:44.253893  9928 net.cpp:434] loss2 <- gender
I0815 10:55:44.253903  9928 net.cpp:408] loss2 -> loss2
I0815 10:55:44.253918  9928 layer_factory.hpp:77] Creating layer loss2
…
  phase: TEST
}
layer {
  name: "data"
  type: "Data"
  top: "data"
  include {
    phase: TEST
  }
  transform_param {
    scale: 0.00390625
  }
  data_param {
    source: "/home/jaychou/code/new_caffe/caffe-master/examples/gender_glasses/gender_glasses_val_lmdb"
    batch_size: 64
    backend: LMDB
  }
}
layer {
  name: "labels"
  type: "Data"
  top: "labels"
  include {
    phase: TEST
  }
  data_param {
    source: "/home/jaychou/code/new_caffe/caffe-master/examples/gender_glasses/gender_glasses_val_label_lmdb"
    batch_size: 64
    backend: LMDB
  }
}
layer {
  name: "slice1"
  type: "Slice"
  bottom: "labels"
  top: "glasses"
  top: "gender"
  slice_param {
    slice_dim: 1
    slice_point: 1
  }
}
layer {
  name: "conv1"
  type: "Convolution"
  bottom: "data"
  top: "conv1"
  param {
    lr_mult: 1
  }
  param {
    lr_mult: 0.1
  }
  convolution_param {
    num_output: 20
    pad: 0
    kernel_size: 5
    stride: 1
    weight_filler {
      type: "xavier"
    }
    bias_filler {
      type: "constant"
      value: 0
    }
  }
}
layer {
  name: "relu1"
  type: "PReLU"
  bottom: "conv1"
  top: "conv1"
}
layer {
  name: "pool1"
  type: "Pooling"
  bottom: "conv1"
  top: "pool1"
  pooling_param {
    pool: MAX
    kernel_size: 2
    stride: 2
  }
}
layer {
  name: "conv2"
  type: "Convolution"
  bottom: "pool1"
  top: "conv2"
  param {
    lr_mult: 1
  }
  param {
    lr_mult: 0.1
  }
  convolution_param {
    num_output: 48
    pad: 0
    kernel_size: 5
    stride: 1
    weight_filler {
      type: "xavier"
    }
    bias_filler {
      type: "constant"
      value: 0
    }
  }
}
layer {
  name: "relu2"
  type: "PReLU"
  bottom: "conv2"
  top: "conv2"
}
layer {
  name: "pool2"
  type: "Pooling"
  bottom: "conv2"
  top: "pool2"
  pooling_param {
    pool: MAX
    kernel_size: 2
    stride: 2
  }
}
layer {
  name: "conv3"
  type: "Convolution"
  bottom: "pool2"
  top: "conv3"
  param {
    lr_mult: 0.1
  }
  param {
    lr_mult: 0.1
  }
  convolution_param {
    num_output: 64
    pad: 0
    kernel_size: 3
    stride: 1
    weight_filler {
      type: "xavier"
    }
    bias_filler {
      type: "constant"
      value: 0
    }
  }
}
layer {
  name: "relu3"
  type: "PReLU"
  bottom: "conv3"
  top: "conv3"
}
layer {
  name: "pool3"
  type: "Pooling"
  bottom: "conv3"
  top: "pool3"
  pooling_param {
    pool: MAX
    kernel_size: 2
    stride: 2
  }
}
layer {
  name: "ip1"
  type: "InnerProduct"
  bottom: "pool3"
  top: "ip1"
  inner_product_param {
    num_output: 512
    weight_filler {
      type: "xavier"
    }
    bias_filler {
      type: "constant"
    }
  }
}
layer {
  name: "relu5"
  type: "PReLU"
  bottom: "ip1"
  top: "ip1"
}
layer {
  name: "drop1"
  type: "Dropout"
  bottom: "ip1"
  top: "ip1"
  dropout_param {
    dropout_ratio: 0.5
  }
}
layer {
  name: "ip2"
  type: "InnerProduct"
  bottom: "ip1"
  top: "ip2"
  inner_product_param {
    num_output: 2
    weight_filler {
      type: "xavier"
    }
    bias_filler {
      type: "constant"
    }
  }
}
layer {
  name: "loss1"
  type: "SoftmaxWithLoss"
  bottom: "ip2"
  bottom: "glasses"
  top: "loss1"
  loss_weight: 0.5
}
layer {
  name: "accuracy_glasses"
  type: "Accuracy"
  bottom: "ip2"
  bottom: "glasses"
  top: "accuracy_glasses"
  include {
    phase: TEST
  }
}
layer {
  name: "ip3"
  type: "InnerProduct"
  bottom: "ip1"
  top: "ip3"
  inner_product_param {
    num_output: 512
    weight_filler {
      type: "xavier"
    }
    bias_filler {
      type: "constant"
    }
  }
}
layer {
  name: "loss2"
  type: "SoftmaxWithLoss"
  bottom: "ip3"
  bottom: "gender"
  top: "loss2"
  loss_weight: 0.5
}
layer {
  name: "accuracy_gender"
  type: "Accuracy"
  bottom: "ip3"
  bottom: "gender"
  top: "accuracy_gender"
  include {
    phase: TEST
  }
}
I0815 10:55:44.255744  9928 layer_factory.hpp:77] Creating layer data
I0815 10:55:44.255837  9928 net.cpp:100] Creating Layer data
I0815 10:55:44.255851  9928 net.cpp:408] data -> data
I0815 10:55:44.256769  9941 db_lmdb.cpp:35] Opened lmdb /home/jaychou/code/new_caffe/caffe-master/examples/gender_glasses/gender_glasses_val_lmdb
I0815 10:55:44.256894  9928 data_layer.cpp:41] output data size: 64,3,100,100
I0815 10:55:44.270699  9928 net.cpp:150] Setting up data
I0815 10:55:44.270741  9928 net.cpp:157] Top shape: 64 3 100 100 (1920000)
I0815 10:55:44.270750  9928 net.cpp:165] Memory required for data: 7680000
I0815 10:55:44.270761  9928 layer_factory.hpp:77] Creating layer labels
I0815 10:55:44.270844  9928 net.cpp:100] Creating Layer labels
I0815 10:55:44.270859  9928 net.cpp:408] labels -> labels
I0815 10:55:44.272472  9943 db_lmdb.cpp:35] Opened lmdb /home/jaychou/code/new_caffe/caffe-master/examples/gender_glasses/gender_glasses_val_label_lmdb
I0815 10:55:44.273100  9928 data_layer.cpp:41] output data size: 64,2,1,1
I0815 10:55:44.273411  9928 net.cpp:150] Setting up labels
I0815 10:55:44.273430  9928 net.cpp:157] Top shape: 64 2 1 1 (128)
I0815 10:55:44.273439  9928 net.cpp:165] Memory required for data: 7680512
I0815 10:55:44.273447  9928 layer_factory.hpp:77] Creating layer slice1
I0815 10:55:44.273461  9928 net.cpp:100] Creating Layer slice1
I0815 10:55:44.273470  9928 net.cpp:434] slice1 <- labels
I0815 10:55:44.273481  9928 net.cpp:408] slice1 -> glasses
I0815 10:55:44.273499  9928 net.cpp:408] slice1 -> gender
I0815 10:55:44.273538  9928 net.cpp:150] Setting up slice1
I0815 10:55:44.273551  9928 net.cpp:157] Top shape: 64 1 1 1 (64)
I0815 10:55:44.273561  9928 net.cpp:157] Top shape: 64 1 1 1 (64)
I0815 10:55:44.273568  9928 net.cpp:165] Memory required for data: 7681024
I0815 10:55:44.273576  9928 layer_factory.hpp:77] Creating layer glasses_slice1_0_split
I0815 10:55:44.273586  9928 net.cpp:100] Creating Layer glasses_slice1_0_split
I0815 10:55:44.273594  9928 net.cpp:434] glasses_slice1_0_split <- glasses
I0815 10:55:44.273605  9928 net.cpp:408] glasses_slice1_0_split -> glasses_slice1_0_split_0
I0815 10:55:44.273617  9928 net.cpp:408] glasses_slice1_0_split -> glasses_slice1_0_split_1
I0815 10:55:44.273656  9928 net.cpp:150] Setting up glasses_slice1_0_split
I0815 10:55:44.273669  9928 net.cpp:157] Top shape: 64 1 1 1 (64)
I0815 10:55:44.273679  9928 net.cpp:157] Top shape: 64 1 1 1 (64)
I0815 10:55:44.273685  9928 net.cpp:165] Memory required for data: 7681536
I0815 10:55:44.273694  9928 layer_factory.hpp:77] Creating layer gender_slice1_1_split
I0815 10:55:44.273706  9928 net.cpp:100] Creating Layer gender_slice1_1_split
I0815 10:55:44.273715  9928 net.cpp:434] gender_slice1_1_split <- gender
I0815 10:55:44.273725  9928 net.cpp:408] gender_slice1_1_split -> gender_slice1_1_split_0
I0815 10:55:44.273736  9928 net.cpp:408] gender_slice1_1_split -> gender_slice1_1_split_1
I0815 10:55:44.273772  9928 net.cpp:150] Setting up gender_slice1_1_split
I0815 10:55:44.273785  9928 net.cpp:157] Top shape: 64 1 1 1 (64)
I0815 10:55:44.273797  9928 net.cpp:157] Top shape: 64 1 1 1 (64)
I0815 10:55:44.273804  9928 net.cpp:165] Memory required for data: 7682048
I0815 10:55:44.273811  9928 layer_factory.hpp:77] Creating layer conv1
I0815 10:55:44.273828  9928 net.cpp:100] Creating Layer conv1
I0815 10:55:44.273838  9928 net.cpp:434] conv1 <- data
I0815 10:55:44.273849  9928 net.cpp:408] conv1 -> conv1
I0815 10:55:44.274977  9928 net.cpp:150] Setting up conv1
I0815 10:55:44.274997  9928 net.cpp:157] Top shape: 64 20 96 96 (11796480)
I0815 10:55:44.275008  9928 net.cpp:165] Memory required for data: 54867968
I0815 10:55:44.275050  9928 layer_factory.hpp:77] Creating layer relu1
I0815 10:55:44.275091  9928 net.cpp:100] Creating Layer relu1
I0815 10:55:44.275102  9928 net.cpp:434] relu1 <- conv1
I0815 10:55:44.275113  9928 net.cpp:395] relu1 -> conv1 (in-place)
I0815 10:55:44.275705  9928 net.cpp:150] Setting up relu1
I0815 10:55:44.275722  9928 net.cpp:157] Top shape: 64 20 96 96 (11796480)
I0815 10:55:44.275732  9928 net.cpp:165] Memory required for data: 102053888
I0815 10:55:44.275744  9928 layer_factory.hpp:77] Creating layer pool1
I0815 10:55:44.275758  9928 net.cpp:100] Creating Layer pool1
I0815 10:55:44.275765  9928 net.cpp:434] pool1 <- conv1
I0815 10:55:44.275777  9928 net.cpp:408] pool1 -> pool1
I0815 10:55:44.275820  9928 net.cpp:150] Setting up pool1
I0815 10:55:44.275835  9928 net.cpp:157] Top shape: 64 20 48 48 (2949120)
I0815 10:55:44.275842  9928 net.cpp:165] Memory required for data: 113850368
I0815 10:55:44.275851  9928 layer_factory.hpp:77] Creating layer conv2
I0815 10:55:44.275869  9928 net.cpp:100] Creating Layer conv2
I0815 10:55:44.275878  9928 net.cpp:434] conv2 <- pool1
I0815 10:55:44.275889  9928 net.cpp:408] conv2 -> conv2
I0815 10:55:44.276994  9928 net.cpp:150] Setting up conv2
I0815 10:55:44.277014  9928 net.cpp:157] Top shape: 64 48 44 44 (5947392)
I0815 10:55:44.277021  9928 net.cpp:165] Memory required for data: 137639936
I0815 10:55:44.277035  9928 layer_factory.hpp:77] Creating layer relu2
I0815 10:55:44.277050  9928 net.cpp:100] Creating Layer relu2
I0815 10:55:44.277058  9928 net.cpp:434] relu2 <- conv2
I0815 10:55:44.277068  9928 net.cpp:395] relu2 -> conv2 (in-place)
I0815 10:55:44.277267  9928 net.cpp:150] Setting up relu2
I0815 10:55:44.277281  9928 net.cpp:157] Top shape: 64 48 44 44 (5947392)
I0815 10:55:44.277289  9928 net.cpp:165] Memory required for data: 161429504
I0815 10:55:44.277302  9928 layer_factory.hpp:77] Creating layer pool2
I0815 10:55:44.277312  9928 net.cpp:100] Creating Layer pool2
I0815 10:55:44.277320  9928 net.cpp:434] pool2 <- conv2
I0815 10:55:44.277331  9928 net.cpp:408] pool2 -> pool2
I0815 10:55:44.277371  9928 net.cpp:150] Setting up pool2
I0815 10:55:44.277385  9928 net.cpp:157] Top shape: 64 48 22 22 (1486848)
I0815 10:55:44.277393  9928 net.cpp:165] Memory required for data: 167376896
I0815 10:55:44.277401  9928 layer_factory.hpp:77] Creating layer conv3
I0815 10:55:44.277417  9928 net.cpp:100] Creating Layer conv3
I0815 10:55:44.277426  9928 net.cpp:434] conv3 <- pool2
I0815 10:55:44.277437  9928 net.cpp:408] conv3 -> conv3
I0815 10:55:44.278642  9928 net.cpp:150] Setting up conv3
I0815 10:55:44.278662  9928 net.cpp:157] Top shape: 64 64 20 20 (1638400)
I0815 10:55:44.278672  9928 net.cpp:165] Memory required for data: 173930496
I0815 10:55:44.278684  9928 layer_factory.hpp:77] Creating layer relu3
I0815 10:55:44.278699  9928 net.cpp:100] Creating Layer relu3
I0815 10:55:44.278708  9928 net.cpp:434] relu3 <- conv3
I0815 10:55:44.278719  9928 net.cpp:395] relu3 -> conv3 (in-place)
I0815 10:55:44.278842  9928 net.cpp:150] Setting up relu3
I0815 10:55:44.278856  9928 net.cpp:157] Top shape: 64 64 20 20 (1638400)
I0815 10:55:44.278863  9928 net.cpp:165] Memory required for data: 180484096
I0815 10:55:44.278877  9928 layer_factory.hpp:77] Creating layer pool3
I0815 10:55:44.278890  9928 net.cpp:100] Creating Layer pool3
I0815 10:55:44.278899  9928 net.cpp:434] pool3 <- conv3
I0815 10:55:44.278908  9928 net.cpp:408] pool3 -> pool3
I0815 10:55:44.278950  9928 net.cpp:150] Setting up pool3
I0815 10:55:44.278964  9928 net.cpp:157] Top shape: 64 64 10 10 (409600)
I0815 10:55:44.278971  9928 net.cpp:165] Memory required for data: 182122496
I0815 10:55:44.278978  9928 layer_factory.hpp:77] Creating layer ip1
I0815 10:55:44.278991  9928 net.cpp:100] Creating Layer ip1
I0815 10:55:44.279000  9928 net.cpp:434] ip1 <- pool3
I0815 10:55:44.279011  9928 net.cpp:408] ip1 -> ip1
I0815 10:55:44.304461  9928 net.cpp:150] Setting up ip1
I0815 10:55:44.304502  9928 net.cpp:157] Top shape: 64 512 (32768)
I0815 10:55:44.304512  9928 net.cpp:165] Memory required for data: 182253568
I0815 10:55:44.304550  9928 layer_factory.hpp:77] Creating layer relu5
I0815 10:55:44.304566  9928 net.cpp:100] Creating Layer relu5
I0815 10:55:44.304576  9928 net.cpp:434] relu5 <- ip1
I0815 10:55:44.304587  9928 net.cpp:395] relu5 -> ip1 (in-place)
I0815 10:55:44.304671  9928 net.cpp:150] Setting up relu5
I0815 10:55:44.304683  9928 net.cpp:157] Top shape: 64 512 (32768)
I0815 10:55:44.304692  9928 net.cpp:165] Memory required for data: 182384640
I0815 10:55:44.304702  9928 layer_factory.hpp:77] Creating layer drop1
I0815 10:55:44.304715  9928 net.cpp:100] Creating Layer drop1
I0815 10:55:44.304724  9928 net.cpp:434] drop1 <- ip1
I0815 10:55:44.304734  9928 net.cpp:395] drop1 -> ip1 (in-place)
I0815 10:55:44.304762  9928 net.cpp:150] Setting up drop1
I0815 10:55:44.304774  9928 net.cpp:157] Top shape: 64 512 (32768)
I0815 10:55:44.304782  9928 net.cpp:165] Memory required for data: 182515712
I0815 10:55:44.304790  9928 layer_factory.hpp:77] Creating layer ip1_drop1_0_split
I0815 10:55:44.304805  9928 net.cpp:100] Creating Layer ip1_drop1_0_split
I0815 10:55:44.304813  9928 net.cpp:434] ip1_drop1_0_split <- ip1
I0815 10:55:44.304824  9928 net.cpp:408] ip1_drop1_0_split -> ip1_drop1_0_split_0
I0815 10:55:44.304836  9928 net.cpp:408] ip1_drop1_0_split -> ip1_drop1_0_split_1
I0815 10:55:44.304883  9928 net.cpp:150] Setting up ip1_drop1_0_split
I0815 10:55:44.304896  9928 net.cpp:157] Top shape: 64 512 (32768)
I0815 10:55:44.304908  9928 net.cpp:157] Top shape: 64 512 (32768)
I0815 10:55:44.304915  9928 net.cpp:165] Memory required for data: 182777856
I0815 10:55:44.304924  9928 layer_factory.hpp:77] Creating layer ip2
I0815 10:55:44.304935  9928 net.cpp:100] Creating Layer ip2
I0815 10:55:44.304944  9928 net.cpp:434] ip2 <- ip1_drop1_0_split_0
I0815 10:55:44.304954  9928 net.cpp:408] ip2 -> ip2
I0815 10:55:44.305052  9928 net.cpp:150] Setting up ip2
I0815 10:55:44.305065  9928 net.cpp:157] Top shape: 64 2 (128)
I0815 10:55:44.305073  9928 net.cpp:165] Memory required for data: 182778368
I0815 10:55:44.305084  9928 layer_factory.hpp:77] Creating layer ip2_ip2_0_split
I0815 10:55:44.305094  9928 net.cpp:100] Creating Layer ip2_ip2_0_split
I0815 10:55:44.305102  9928 net.cpp:434] ip2_ip2_0_split <- ip2
I0815 10:55:44.305114  9928 net.cpp:408] ip2_ip2_0_split -> ip2_ip2_0_split_0
I0815 10:55:44.305125  9928 net.cpp:408] ip2_ip2_0_split -> ip2_ip2_0_split_1
I0815 10:55:44.305162  9928 net.cpp:150] Setting up ip2_ip2_0_split
I0815 10:55:44.305174  9928 net.cpp:157] Top shape: 64 2 (128)
I0815 10:55:44.305183  9928 net.cpp:157] Top shape: 64 2 (128)
I0815 10:55:44.305191  9928 net.cpp:165] Memory required for data: 182779392
I0815 10:55:44.305199  9928 layer_factory.hpp:77] Creating layer loss1
I0815 10:55:44.305209  9928 net.cpp:100] Creating Layer loss1
I0815 10:55:44.305217  9928 net.cpp:434] loss1 <- ip2_ip2_0_split_0
I0815 10:55:44.305227  9928 net.cpp:434] loss1 <- glasses_slice1_0_split_0
I0815 10:55:44.305236  9928 net.cpp:408] loss1 -> loss1
…
