…
I0814 14:11:22.897730 28975 net.cpp:58] Initializing net from parameters: 
name: "multi_task"
state {
  phase: TRAIN
  level: 0
  stage: ""
}
layer {
  name: "data"
  type: "Data"
  top: "data"
  include {
    phase: TRAIN
  }
  transform_param {
    mirror: true
  }
  data_param {
    source: "examples/gender_glasses/gender_glasses_train_lmdb"
    batch_size: 100
    backend: LMDB
  }
}
layer {
  name: "labels"
  type: "Data"
  top: "labels"
  include {
    phase: TRAIN
  }
  data_param {
    source: "examples/gender_glasses/gender_glasses_train_label_lmdb"
    batch_size: 100
    backend: LMDB
  }
}
layer {
  name: "slice1"
  type: "Slice"
  bottom: "labels"
  top: "glasses"
  top: "gender"
  slice_param {
    slice_dim: 1
    slice_point: 1
  }
}
layer {
  name: "conv1"
  type: "Convolution"
  bottom: "data"
  top: "conv1"
  param {
    lr_mult: 1
  }
  param {
    lr_mult: 0.1
  }
  convolution_param {
    num_output: 20
    pad: 0
    kernel_size: 5
    stride: 1
    weight_filler {
      type: "xavier"
    }
    bias_filler {
      type: "constant"
      value: 0
    }
  }
}
layer {
  name: "relu1"
  type: "ReLU"
  bottom: "conv1"
  top: "conv1"
}
layer {
  name: "pool1"
  type: "Pooling"
  bottom: "conv1"
  top: "pool1"
  pooling_param {
    pool: MAX
    kernel_size: 2
    stride: 2
  }
}
layer {
  name: "conv2"
  type: "Convolution"
  bottom: "pool1"
  top: "conv2"
  param {
    lr_mult: 1
  }
  param {
    lr_mult: 0.1
  }
  convolution_param {
    num_output: 48
    pad: 0
    kernel_size: 5
    stride: 1
    weight_filler {
      type: "xavier"
    }
    bias_filler {
      type: "constant"
      value: 0
    }
  }
}
layer {
  name: "relu2"
  type: "ReLU"
  bottom: "conv2"
  top: "conv2"
}
layer {
  name: "pool2"
  type: "Pooling"
  bottom: "conv2"
  top: "pool2"
  pooling_param {
    pool: MAX
    kernel_size: 2
    stride: 2
  }
}
layer {
  name: "conv3"
  type: "Convolution"
  bottom: "pool2"
  top: "conv3"
  param {
    lr_mult: 0.1
  }
  param {
    lr_mult: 0.1
  }
  convolution_param {
    num_output: 64
    pad: 0
    kernel_size: 3
    stride: 1
    weight_filler {
      type: "xavier"
    }
    bias_filler {
      type: "constant"
      value: 0
    }
  }
}
layer {
  name: "relu3"
  type: "ReLU"
  bottom: "conv3"
  top: "conv3"
}
layer {
  name: "conv4"
  type: "Convolution"
  bottom: "conv3"
  top: "conv4"
  param {
    lr_mult: 0.1
  }
  param {
    lr_mult: 0.1
  }
  convolution_param {
    num_output: 80
    pad: 0
    kernel_size: 3
    stride: 1
    weight_filler {
      type: "xavier"
    }
    bias_filler {
      type: "constant"
      value: 0
    }
  }
}
layer {
  name: "relu4"
  type: "ReLU"
  bottom: "conv4"
  top: "conv4"
}
layer {
  name: "ip1"
  type: "InnerProduct"
  bottom: "conv4"
  top: "ip1"
  inner_product_param {
    num_output: 512
    weight_filler {
      type: "xavier"
    }
    bias_filler {
      type: "constant"
    }
  }
}
layer {
  name: "relu5"
  type: "ReLU"
  bottom: "ip1"
  top: "ip1"
}
layer {
  name: "drop1"
  type: "Dropout"
  bottom: "ip1"
  top: "ip1"
  dropout_param {
    dropout_ratio: 0.5
  }
}
layer {
  name: "ip2"
  type: "InnerProduct"
  bottom: "ip1"
  top: "ip2"
  inner_product_param {
    num_output: 2
    weight_filler {
      type: "xavier"
    }
    bias_filler {
      type: "constant"
    }
  }
}
layer {
  name: "loss1"
  type: "SoftmaxWithLoss"
  bottom: "ip2"
  bottom: "glasses"
  top: "loss1"
  loss_weight: 0.5
}
layer {
  name: "ip3"
  type: "InnerProduct"
  bottom: "ip1"
  top: "ip3"
  inner_product_param {
    num_output: 512
    weight_filler {
      type: "xavier"
    }
    bias_filler {
      type: "constant"
    }
  }
}
layer {
  name: "loss2"
  type: "SoftmaxWithLoss"
  bottom: "ip3"
  bottom: "gender"
  top: "loss2"
  loss_weight: 0.5
}
I0814 14:11:22.898380 28975 layer_factory.hpp:77] Creating layer data
I0814 14:11:22.898753 28975 net.cpp:100] Creating Layer data
I0814 14:11:22.898771 28975 net.cpp:408] data -> data
I0814 14:11:22.900271 28979 db_lmdb.cpp:35] Opened lmdb examples/gender_glasses/gender_glasses_train_lmdb
I0814 14:11:22.912060 28975 data_layer.cpp:41] output data size: 100,3,100,100
I0814 14:11:22.930590 28975 net.cpp:150] Setting up data
I0814 14:11:22.930639 28975 net.cpp:157] Top shape: 100 3 100 100 (3000000)
I0814 14:11:22.930649 28975 net.cpp:165] Memory required for data: 12000000
I0814 14:11:22.930663 28975 layer_factory.hpp:77] Creating layer labels
I0814 14:11:22.930766 28975 net.cpp:100] Creating Layer labels
I0814 14:11:22.930790 28975 net.cpp:408] labels -> labels
I0814 14:11:22.932346 28981 db_lmdb.cpp:35] Opened lmdb examples/gender_glasses/gender_glasses_train_label_lmdb
I0814 14:11:22.933264 28975 data_layer.cpp:41] output data size: 100,2,1,1
I0814 14:11:22.933755 28975 net.cpp:150] Setting up labels
I0814 14:11:22.933775 28975 net.cpp:157] Top shape: 100 2 1 1 (200)
I0814 14:11:22.933784 28975 net.cpp:165] Memory required for data: 12000800
I0814 14:11:22.933794 28975 layer_factory.hpp:77] Creating layer slice1
I0814 14:11:22.933811 28975 net.cpp:100] Creating Layer slice1
I0814 14:11:22.933823 28975 net.cpp:434] slice1 <- labels
I0814 14:11:22.933840 28975 net.cpp:408] slice1 -> glasses
I0814 14:11:22.933859 28975 net.cpp:408] slice1 -> gender
I0814 14:11:22.933902 28975 net.cpp:150] Setting up slice1
I0814 14:11:22.933917 28975 net.cpp:157] Top shape: 100 1 1 1 (100)
I0814 14:11:22.933926 28975 net.cpp:157] Top shape: 100 1 1 1 (100)
I0814 14:11:22.933934 28975 net.cpp:165] Memory required for data: 12001600
I0814 14:11:22.933943 28975 layer_factory.hpp:77] Creating layer conv1
I0814 14:11:22.933966 28975 net.cpp:100] Creating Layer conv1
I0814 14:11:22.933977 28975 net.cpp:434] conv1 <- data
I0814 14:11:22.933990 28975 net.cpp:408] conv1 -> conv1
I0814 14:11:23.082085 28975 net.cpp:150] Setting up conv1
I0814 14:11:23.082134 28975 net.cpp:157] Top shape: 100 20 96 96 (18432000)
I0814 14:11:23.082144 28975 net.cpp:165] Memory required for data: 85729600
I0814 14:11:23.082170 28975 layer_factory.hpp:77] Creating layer relu1
I0814 14:11:23.082190 28975 net.cpp:100] Creating Layer relu1
I0814 14:11:23.082200 28975 net.cpp:434] relu1 <- conv1
I0814 14:11:23.082211 28975 net.cpp:395] relu1 -> conv1 (in-place)
I0814 14:11:23.082340 28975 net.cpp:150] Setting up relu1
I0814 14:11:23.082357 28975 net.cpp:157] Top shape: 100 20 96 96 (18432000)
I0814 14:11:23.082366 28975 net.cpp:165] Memory required for data: 159457600
I0814 14:11:23.082376 28975 layer_factory.hpp:77] Creating layer pool1
I0814 14:11:23.082387 28975 net.cpp:100] Creating Layer pool1
I0814 14:11:23.082396 28975 net.cpp:434] pool1 <- conv1
I0814 14:11:23.082406 28975 net.cpp:408] pool1 -> pool1
I0814 14:11:23.082458 28975 net.cpp:150] Setting up pool1
I0814 14:11:23.082473 28975 net.cpp:157] Top shape: 100 20 48 48 (4608000)
I0814 14:11:23.082480 28975 net.cpp:165] Memory required for data: 177889600
I0814 14:11:23.082489 28975 layer_factory.hpp:77] Creating layer conv2
I0814 14:11:23.082506 28975 net.cpp:100] Creating Layer conv2
I0814 14:11:23.082515 28975 net.cpp:434] conv2 <- pool1
I0814 14:11:23.082550 28975 net.cpp:408] conv2 -> conv2
I0814 14:11:23.083947 28975 net.cpp:150] Setting up conv2
I0814 14:11:23.083968 28975 net.cpp:157] Top shape: 100 48 44 44 (9292800)
I0814 14:11:23.083978 28975 net.cpp:165] Memory required for data: 215060800
I0814 14:11:23.083992 28975 layer_factory.hpp:77] Creating layer relu2
I0814 14:11:23.084003 28975 net.cpp:100] Creating Layer relu2
I0814 14:11:23.084012 28975 net.cpp:434] relu2 <- conv2
I0814 14:11:23.084023 28975 net.cpp:395] relu2 -> conv2 (in-place)
I0814 14:11:23.084290 28975 net.cpp:150] Setting up relu2
I0814 14:11:23.084307 28975 net.cpp:157] Top shape: 100 48 44 44 (9292800)
I0814 14:11:23.084316 28975 net.cpp:165] Memory required for data: 252232000
I0814 14:11:23.084324 28975 layer_factory.hpp:77] Creating layer pool2
I0814 14:11:23.084337 28975 net.cpp:100] Creating Layer pool2
I0814 14:11:23.084345 28975 net.cpp:434] pool2 <- conv2
I0814 14:11:23.084357 28975 net.cpp:408] pool2 -> pool2
I0814 14:11:23.084396 28975 net.cpp:150] Setting up pool2
I0814 14:11:23.084409 28975 net.cpp:157] Top shape: 100 48 22 22 (2323200)
I0814 14:11:23.084419 28975 net.cpp:165] Memory required for data: 261524800
I0814 14:11:23.084426 28975 layer_factory.hpp:77] Creating layer conv3
I0814 14:11:23.084440 28975 net.cpp:100] Creating Layer conv3
I0814 14:11:23.084450 28975 net.cpp:434] conv3 <- pool2
I0814 14:11:23.084460 28975 net.cpp:408] conv3 -> conv3
I0814 14:11:23.085656 28975 net.cpp:150] Setting up conv3
I0814 14:11:23.085676 28975 net.cpp:157] Top shape: 100 64 20 20 (2560000)
I0814 14:11:23.085685 28975 net.cpp:165] Memory required for data: 271764800
I0814 14:11:23.085700 28975 layer_factory.hpp:77] Creating layer relu3
I0814 14:11:23.085713 28975 net.cpp:100] Creating Layer relu3
I0814 14:11:23.085722 28975 net.cpp:434] relu3 <- conv3
I0814 14:11:23.085732 28975 net.cpp:395] relu3 -> conv3 (in-place)
I0814 14:11:23.086006 28975 net.cpp:150] Setting up relu3
I0814 14:11:23.086024 28975 net.cpp:157] Top shape: 100 64 20 20 (2560000)
I0814 14:11:23.086032 28975 net.cpp:165] Memory required for data: 282004800
I0814 14:11:23.086041 28975 layer_factory.hpp:77] Creating layer conv4
I0814 14:11:23.086057 28975 net.cpp:100] Creating Layer conv4
I0814 14:11:23.086066 28975 net.cpp:434] conv4 <- conv3
I0814 14:11:23.086081 28975 net.cpp:408] conv4 -> conv4
I0814 14:11:23.087297 28975 net.cpp:150] Setting up conv4
I0814 14:11:23.087317 28975 net.cpp:157] Top shape: 100 80 18 18 (2592000)
I0814 14:11:23.087327 28975 net.cpp:165] Memory required for data: 292372800
I0814 14:11:23.087337 28975 layer_factory.hpp:77] Creating layer relu4
I0814 14:11:23.087350 28975 net.cpp:100] Creating Layer relu4
I0814 14:11:23.087360 28975 net.cpp:434] relu4 <- conv4
I0814 14:11:23.087370 28975 net.cpp:395] relu4 -> conv4 (in-place)
I0814 14:11:23.087492 28975 net.cpp:150] Setting up relu4
I0814 14:11:23.087507 28975 net.cpp:157] Top shape: 100 80 18 18 (2592000)
I0814 14:11:23.087515 28975 net.cpp:165] Memory required for data: 302740800
I0814 14:11:23.087523 28975 layer_factory.hpp:77] Creating layer ip1
I0814 14:11:23.087537 28975 net.cpp:100] Creating Layer ip1
I0814 14:11:23.087544 28975 net.cpp:434] ip1 <- conv4
I0814 14:11:23.087556 28975 net.cpp:408] ip1 -> ip1
I0814 14:11:23.183573 28975 net.cpp:150] Setting up ip1
I0814 14:11:23.183620 28975 net.cpp:157] Top shape: 100 512 (51200)
I0814 14:11:23.183630 28975 net.cpp:165] Memory required for data: 302945600
I0814 14:11:23.183651 28975 layer_factory.hpp:77] Creating layer relu5
I0814 14:11:23.183668 28975 net.cpp:100] Creating Layer relu5
I0814 14:11:23.183677 28975 net.cpp:434] relu5 <- ip1
I0814 14:11:23.183691 28975 net.cpp:395] relu5 -> ip1 (in-place)
I0814 14:11:23.184084 28975 net.cpp:150] Setting up relu5
I0814 14:11:23.184103 28975 net.cpp:157] Top shape: 100 512 (51200)
I0814 14:11:23.184111 28975 net.cpp:165] Memory required for data: 303150400
I0814 14:11:23.184120 28975 layer_factory.hpp:77] Creating layer drop1
I0814 14:11:23.184142 28975 net.cpp:100] Creating Layer drop1
I0814 14:11:23.184175 28975 net.cpp:434] drop1 <- ip1
I0814 14:11:23.184187 28975 net.cpp:395] drop1 -> ip1 (in-place)
I0814 14:11:23.184221 28975 net.cpp:150] Setting up drop1
I0814 14:11:23.184236 28975 net.cpp:157] Top shape: 100 512 (51200)
I0814 14:11:23.184243 28975 net.cpp:165] Memory required for data: 303355200
I0814 14:11:23.184252 28975 layer_factory.hpp:77] Creating layer ip1_drop1_0_split
I0814 14:11:23.184269 28975 net.cpp:100] Creating Layer ip1_drop1_0_split
I0814 14:11:23.184279 28975 net.cpp:434] ip1_drop1_0_split <- ip1
I0814 14:11:23.184290 28975 net.cpp:408] ip1_drop1_0_split -> ip1_drop1_0_split_0
I0814 14:11:23.184303 28975 net.cpp:408] ip1_drop1_0_split -> ip1_drop1_0_split_1
I0814 14:11:23.184347 28975 net.cpp:150] Setting up ip1_drop1_0_split
I0814 14:11:23.184360 28975 net.cpp:157] Top shape: 100 512 (51200)
I0814 14:11:23.184370 28975 net.cpp:157] Top shape: 100 512 (51200)
I0814 14:11:23.184377 28975 net.cpp:165] Memory required for data: 303764800
I0814 14:11:23.184386 28975 layer_factory.hpp:77] Creating layer ip2
I0814 14:11:23.184398 28975 net.cpp:100] Creating Layer ip2
I0814 14:11:23.184407 28975 net.cpp:434] ip2 <- ip1_drop1_0_split_0
I0814 14:11:23.184418 28975 net.cpp:408] ip2 -> ip2
I0814 14:11:23.184517 28975 net.cpp:150] Setting up ip2
I0814 14:11:23.184531 28975 net.cpp:157] Top shape: 100 2 (200)
I0814 14:11:23.184540 28975 net.cpp:165] Memory required for data: 303765600
I0814 14:11:23.184551 28975 layer_factory.hpp:77] Creating layer loss1
I0814 14:11:23.184562 28975 net.cpp:100] Creating Layer loss1
I0814 14:11:23.184571 28975 net.cpp:434] loss1 <- ip2
I0814 14:11:23.184581 28975 net.cpp:434] loss1 <- glasses
I0814 14:11:23.184592 28975 net.cpp:408] loss1 -> loss1
I0814 14:11:23.184608 28975 layer_factory.hpp:77] Creating layer loss1
I0814 14:11:23.184814 28975 net.cpp:150] Setting up loss1
I0814 14:11:23.184830 28975 net.cpp:157] Top shape: (1)
I0814 14:11:23.184839 28975 net.cpp:160]     with loss weight 0.5
I0814 14:11:23.184862 28975 net.cpp:165] Memory required for data: 303765604
I0814 14:11:23.184871 28975 layer_factory.hpp:77] Creating layer ip3
I0814 14:11:23.184882 28975 net.cpp:100] Creating Layer ip3
I0814 14:11:23.184891 28975 net.cpp:434] ip3 <- ip1_drop1_0_split_1
I0814 14:11:23.184903 28975 net.cpp:408] ip3 -> ip3
I0814 14:11:23.186918 28975 net.cpp:150] Setting up ip3
I0814 14:11:23.186935 28975 net.cpp:157] Top shape: 100 512 (51200)
I0814 14:11:23.186944 28975 net.cpp:165] Memory required for data: 303970404
I0814 14:11:23.186956 28975 layer_factory.hpp:77] Creating layer loss2
I0814 14:11:23.186971 28975 net.cpp:100] Creating Layer loss2
I0814 14:11:23.186981 28975 net.cpp:434] loss2 <- ip3
I0814 14:11:23.186990 28975 net.cpp:434] loss2 <- gender
I0814 14:11:23.187002 28975 net.cpp:408] loss2 -> loss2
I0814 14:11:23.187017 28975 layer_factory.hpp:77] Creating layer loss2
…
I0814 14:11:23.188406 28975 net.cpp:58] Initializing net from parameters: 
name: "multi_task"
state {
  phase: TEST
}
layer {
  name: "data"
  type: "Data"
  top: "data"
  include {
    phase: TEST
  }
  transform_param {
    mirror: false
  }
  data_param {
    source: "examples/gender_glasses/gender_glasses_val_lmdb"
    batch_size: 64
    backend: LMDB
  }
}
layer {
  name: "labels"
  type: "Data"
  top: "labels"
  include {
    phase: TEST
  }
  data_param {
    source: "examples/gender_glasses/gender_glasses_val_label_lmdb"
    batch_size: 64
    backend: LMDB
  }
}
layer {
  name: "slice1"
  type: "Slice"
  bottom: "labels"
  top: "glasses"
  top: "gender"
  slice_param {
    slice_dim: 1
    slice_point: 1
  }
}
layer {
  name: "conv1"
  type: "Convolution"
  bottom: "data"
  top: "conv1"
  param {
    lr_mult: 1
  }
  param {
    lr_mult: 0.1
  }
  convolution_param {
    num_output: 20
    pad: 0
    kernel_size: 5
    stride: 1
    weight_filler {
      type: "xavier"
    }
    bias_filler {
      type: "constant"
      value: 0
    }
  }
}
layer {
  name: "relu1"
  type: "ReLU"
  bottom: "conv1"
  top: "conv1"
}
layer {
  name: "pool1"
  type: "Pooling"
  bottom: "conv1"
  top: "pool1"
  pooling_param {
    pool: MAX
    kernel_size: 2
    stride: 2
  }
}
layer {
  name: "conv2"
  type: "Convolution"
  bottom: "pool1"
  top: "conv2"
  param {
    lr_mult: 1
  }
  param {
    lr_mult: 0.1
  }
  convolution_param {
    num_output: 48
    pad: 0
    kernel_size: 5
    stride: 1
    weight_filler {
      type: "xavier"
    }
    bias_filler {
      type: "constant"
      value: 0
    }
  }
}
layer {
  name: "relu2"
  type: "ReLU"
  bottom: "conv2"
  top: "conv2"
}
layer {
  name: "pool2"
  type: "Pooling"
  bottom: "conv2"
  top: "pool2"
  pooling_param {
    pool: MAX
    kernel_size: 2
    stride: 2
  }
}
layer {
  name: "conv3"
  type: "Convolution"
  bottom: "pool2"
  top: "conv3"
  param {
    lr_mult: 0.1
  }
  param {
    lr_mult: 0.1
  }
  convolution_param {
    num_output: 64
    pad: 0
    kernel_size: 3
    stride: 1
    weight_filler {
      type: "xavier"
    }
    bias_filler {
      type: "constant"
      value: 0
    }
  }
}
layer {
  name: "relu3"
  type: "ReLU"
  bottom: "conv3"
  top: "conv3"
}
layer {
  name: "conv4"
  type: "Convolution"
  bottom: "conv3"
  top: "conv4"
  param {
    lr_mult: 0.1
  }
  param {
    lr_mult: 0.1
  }
  convolution_param {
    num_output: 80
    pad: 0
    kernel_size: 3
    stride: 1
    weight_filler {
      type: "xavier"
    }
    bias_filler {
      type: "constant"
      value: 0
    }
  }
}
layer {
  name: "relu4"
  type: "ReLU"
  bottom: "conv4"
  top: "conv4"
}
layer {
  name: "ip1"
  type: "InnerProduct"
  bottom: "conv4"
  top: "ip1"
  inner_product_param {
    num_output: 512
    weight_filler {
      type: "xavier"
    }
    bias_filler {
      type: "constant"
    }
  }
}
layer {
  name: "relu5"
  type: "ReLU"
  bottom: "ip1"
  top: "ip1"
}
layer {
  name: "drop1"
  type: "Dropout"
  bottom: "ip1"
  top: "ip1"
  dropout_param {
    dropout_ratio: 0.5
  }
}
layer {
  name: "ip2"
  type: "InnerProduct"
  bottom: "ip1"
  top: "ip2"
  inner_product_param {
    num_output: 2
    weight_filler {
      type: "xavier"
    }
    bias_filler {
      type: "constant"
    }
  }
}
layer {
  name: "loss1"
  type: "SoftmaxWithLoss"
  bottom: "ip2"
  bottom: "glasses"
  top: "loss1"
  loss_weight: 0.5
}
layer {
  name: "accuracy_glasses"
  type: "Accuracy"
  bottom: "ip2"
  bottom: "glasses"
  top: "accuracy_glasses"
  include {
    phase: TEST
  }
}
layer {
  name: "ip3"
  type: "InnerProduct"
  bottom: "ip1"
  top: "ip3"
  inner_product_param {
    num_output: 512
    weight_filler {
      type: "xavier"
    }
    bias_filler {
      type: "constant"
    }
  }
}
layer {
  name: "loss2"
  type: "SoftmaxWithLoss"
  bottom: "ip3"
  bottom: "gender"
  top: "loss2"
  loss_weight: 0.5
}
layer {
  name: "accuracy_gender"
  type: "Accuracy"
  bottom: "ip3"
  bottom: "gender"
  top: "accuracy_gender"
  include {
    phase: TEST
  }
}
I0814 14:11:23.189045 28975 layer_factory.hpp:77] Creating layer data
I0814 14:11:23.189137 28975 net.cpp:100] Creating Layer data
I0814 14:11:23.189152 28975 net.cpp:408] data -> data
I0814 14:11:23.190685 28983 db_lmdb.cpp:35] Opened lmdb examples/gender_glasses/gender_glasses_val_lmdb
I0814 14:11:23.190871 28975 data_layer.cpp:41] output data size: 64,3,100,100
I0814 14:11:23.204418 28975 net.cpp:150] Setting up data
I0814 14:11:23.204468 28975 net.cpp:157] Top shape: 64 3 100 100 (1920000)
I0814 14:11:23.204479 28975 net.cpp:165] Memory required for data: 7680000
I0814 14:11:23.204491 28975 layer_factory.hpp:77] Creating layer labels
I0814 14:11:23.204572 28975 net.cpp:100] Creating Layer labels
I0814 14:11:23.204588 28975 net.cpp:408] labels -> labels
I0814 14:11:23.206758 28985 db_lmdb.cpp:35] Opened lmdb examples/gender_glasses/gender_glasses_val_label_lmdb
I0814 14:11:23.207330 28975 data_layer.cpp:41] output data size: 64,2,1,1
I0814 14:11:23.207656 28975 net.cpp:150] Setting up labels
I0814 14:11:23.207674 28975 net.cpp:157] Top shape: 64 2 1 1 (128)
I0814 14:11:23.207684 28975 net.cpp:165] Memory required for data: 7680512
I0814 14:11:23.207693 28975 layer_factory.hpp:77] Creating layer slice1
I0814 14:11:23.207707 28975 net.cpp:100] Creating Layer slice1
I0814 14:11:23.207716 28975 net.cpp:434] slice1 <- labels
I0814 14:11:23.207729 28975 net.cpp:408] slice1 -> glasses
I0814 14:11:23.207744 28975 net.cpp:408] slice1 -> gender
I0814 14:11:23.207784 28975 net.cpp:150] Setting up slice1
I0814 14:11:23.207800 28975 net.cpp:157] Top shape: 64 1 1 1 (64)
I0814 14:11:23.207809 28975 net.cpp:157] Top shape: 64 1 1 1 (64)
I0814 14:11:23.207818 28975 net.cpp:165] Memory required for data: 7681024
I0814 14:11:23.207826 28975 layer_factory.hpp:77] Creating layer glasses_slice1_0_split
I0814 14:11:23.207839 28975 net.cpp:100] Creating Layer glasses_slice1_0_split
I0814 14:11:23.207847 28975 net.cpp:434] glasses_slice1_0_split <- glasses
I0814 14:11:23.207857 28975 net.cpp:408] glasses_slice1_0_split -> glasses_slice1_0_split_0
I0814 14:11:23.207870 28975 net.cpp:408] glasses_slice1_0_split -> glasses_slice1_0_split_1
I0814 14:11:23.207911 28975 net.cpp:150] Setting up glasses_slice1_0_split
I0814 14:11:23.207923 28975 net.cpp:157] Top shape: 64 1 1 1 (64)
I0814 14:11:23.207932 28975 net.cpp:157] Top shape: 64 1 1 1 (64)
I0814 14:11:23.207940 28975 net.cpp:165] Memory required for data: 7681536
I0814 14:11:23.207949 28975 layer_factory.hpp:77] Creating layer gender_slice1_1_split
I0814 14:11:23.207962 28975 net.cpp:100] Creating Layer gender_slice1_1_split
I0814 14:11:23.207970 28975 net.cpp:434] gender_slice1_1_split <- gender
I0814 14:11:23.207980 28975 net.cpp:408] gender_slice1_1_split -> gender_slice1_1_split_0
I0814 14:11:23.207991 28975 net.cpp:408] gender_slice1_1_split -> gender_slice1_1_split_1
I0814 14:11:23.208027 28975 net.cpp:150] Setting up gender_slice1_1_split
I0814 14:11:23.208057 28975 net.cpp:157] Top shape: 64 1 1 1 (64)
I0814 14:11:23.208067 28975 net.cpp:157] Top shape: 64 1 1 1 (64)
I0814 14:11:23.208076 28975 net.cpp:165] Memory required for data: 7682048
I0814 14:11:23.208084 28975 layer_factory.hpp:77] Creating layer conv1
I0814 14:11:23.208102 28975 net.cpp:100] Creating Layer conv1
I0814 14:11:23.208112 28975 net.cpp:434] conv1 <- data
I0814 14:11:23.208124 28975 net.cpp:408] conv1 -> conv1
I0814 14:11:23.209390 28975 net.cpp:150] Setting up conv1
I0814 14:11:23.209417 28975 net.cpp:157] Top shape: 64 20 96 96 (11796480)
I0814 14:11:23.209429 28975 net.cpp:165] Memory required for data: 54867968
I0814 14:11:23.209446 28975 layer_factory.hpp:77] Creating layer relu1
I0814 14:11:23.209460 28975 net.cpp:100] Creating Layer relu1
I0814 14:11:23.209470 28975 net.cpp:434] relu1 <- conv1
I0814 14:11:23.209486 28975 net.cpp:395] relu1 -> conv1 (in-place)
I0814 14:11:23.209641 28975 net.cpp:150] Setting up relu1
I0814 14:11:23.209661 28975 net.cpp:157] Top shape: 64 20 96 96 (11796480)
I0814 14:11:23.209671 28975 net.cpp:165] Memory required for data: 102053888
I0814 14:11:23.209686 28975 layer_factory.hpp:77] Creating layer pool1
I0814 14:11:23.209697 28975 net.cpp:100] Creating Layer pool1
I0814 14:11:23.209707 28975 net.cpp:434] pool1 <- conv1
I0814 14:11:23.209720 28975 net.cpp:408] pool1 -> pool1
I0814 14:11:23.209772 28975 net.cpp:150] Setting up pool1
I0814 14:11:23.209786 28975 net.cpp:157] Top shape: 64 20 48 48 (2949120)
I0814 14:11:23.209796 28975 net.cpp:165] Memory required for data: 113850368
I0814 14:11:23.209805 28975 layer_factory.hpp:77] Creating layer conv2
I0814 14:11:23.209826 28975 net.cpp:100] Creating Layer conv2
I0814 14:11:23.209836 28975 net.cpp:434] conv2 <- pool1
I0814 14:11:23.209848 28975 net.cpp:408] conv2 -> conv2
I0814 14:11:23.211192 28975 net.cpp:150] Setting up conv2
I0814 14:11:23.211220 28975 net.cpp:157] Top shape: 64 48 44 44 (5947392)
I0814 14:11:23.211228 28975 net.cpp:165] Memory required for data: 137639936
I0814 14:11:23.211246 28975 layer_factory.hpp:77] Creating layer relu2
I0814 14:11:23.211261 28975 net.cpp:100] Creating Layer relu2
I0814 14:11:23.211272 28975 net.cpp:434] relu2 <- conv2
I0814 14:11:23.211283 28975 net.cpp:395] relu2 -> conv2 (in-place)
I0814 14:11:23.211578 28975 net.cpp:150] Setting up relu2
I0814 14:11:23.211596 28975 net.cpp:157] Top shape: 64 48 44 44 (5947392)
I0814 14:11:23.211604 28975 net.cpp:165] Memory required for data: 161429504
I0814 14:11:23.211612 28975 layer_factory.hpp:77] Creating layer pool2
I0814 14:11:23.211623 28975 net.cpp:100] Creating Layer pool2
I0814 14:11:23.211634 28975 net.cpp:434] pool2 <- conv2
I0814 14:11:23.211647 28975 net.cpp:408] pool2 -> pool2
I0814 14:11:23.211712 28975 net.cpp:150] Setting up pool2
I0814 14:11:23.211730 28975 net.cpp:157] Top shape: 64 48 22 22 (1486848)
I0814 14:11:23.211738 28975 net.cpp:165] Memory required for data: 167376896
I0814 14:11:23.211748 28975 layer_factory.hpp:77] Creating layer conv3
I0814 14:11:23.211779 28975 net.cpp:100] Creating Layer conv3
I0814 14:11:23.211791 28975 net.cpp:434] conv3 <- pool2
I0814 14:11:23.211802 28975 net.cpp:408] conv3 -> conv3
I0814 14:11:23.212865 28975 net.cpp:150] Setting up conv3
I0814 14:11:23.212887 28975 net.cpp:157] Top shape: 64 64 20 20 (1638400)
I0814 14:11:23.212896 28975 net.cpp:165] Memory required for data: 173930496
I0814 14:11:23.212911 28975 layer_factory.hpp:77] Creating layer relu3
I0814 14:11:23.212924 28975 net.cpp:100] Creating Layer relu3
I0814 14:11:23.212932 28975 net.cpp:434] relu3 <- conv3
I0814 14:11:23.212944 28975 net.cpp:395] relu3 -> conv3 (in-place)
I0814 14:11:23.213224 28975 net.cpp:150] Setting up relu3
I0814 14:11:23.213243 28975 net.cpp:157] Top shape: 64 64 20 20 (1638400)
I0814 14:11:23.213251 28975 net.cpp:165] Memory required for data: 180484096
I0814 14:11:23.213259 28975 layer_factory.hpp:77] Creating layer conv4
I0814 14:11:23.213276 28975 net.cpp:100] Creating Layer conv4
I0814 14:11:23.213287 28975 net.cpp:434] conv4 <- conv3
I0814 14:11:23.213321 28975 net.cpp:408] conv4 -> conv4
I0814 14:11:23.214591 28975 net.cpp:150] Setting up conv4
I0814 14:11:23.214612 28975 net.cpp:157] Top shape: 64 80 18 18 (1658880)
I0814 14:11:23.214620 28975 net.cpp:165] Memory required for data: 187119616
I0814 14:11:23.214633 28975 layer_factory.hpp:77] Creating layer relu4
I0814 14:11:23.214645 28975 net.cpp:100] Creating Layer relu4
I0814 14:11:23.214656 28975 net.cpp:434] relu4 <- conv4
I0814 14:11:23.214666 28975 net.cpp:395] relu4 -> conv4 (in-place)
I0814 14:11:23.214794 28975 net.cpp:150] Setting up relu4
I0814 14:11:23.214810 28975 net.cpp:157] Top shape: 64 80 18 18 (1658880)
I0814 14:11:23.214819 28975 net.cpp:165] Memory required for data: 193755136
I0814 14:11:23.214828 28975 layer_factory.hpp:77] Creating layer ip1
I0814 14:11:23.214843 28975 net.cpp:100] Creating Layer ip1
I0814 14:11:23.214854 28975 net.cpp:434] ip1 <- conv4
I0814 14:11:23.214869 28975 net.cpp:408] ip1 -> ip1
I0814 14:11:23.313971 28975 net.cpp:150] Setting up ip1
I0814 14:11:23.314018 28975 net.cpp:157] Top shape: 64 512 (32768)
I0814 14:11:23.314026 28975 net.cpp:165] Memory required for data: 193886208
I0814 14:11:23.314049 28975 layer_factory.hpp:77] Creating layer relu5
I0814 14:11:23.314069 28975 net.cpp:100] Creating Layer relu5
I0814 14:11:23.314080 28975 net.cpp:434] relu5 <- ip1
I0814 14:11:23.314091 28975 net.cpp:395] relu5 -> ip1 (in-place)
I0814 14:11:23.314487 28975 net.cpp:150] Setting up relu5
I0814 14:11:23.314505 28975 net.cpp:157] Top shape: 64 512 (32768)
I0814 14:11:23.314514 28975 net.cpp:165] Memory required for data: 194017280
I0814 14:11:23.314523 28975 layer_factory.hpp:77] Creating layer drop1
I0814 14:11:23.314538 28975 net.cpp:100] Creating Layer drop1
I0814 14:11:23.314546 28975 net.cpp:434] drop1 <- ip1
I0814 14:11:23.314556 28975 net.cpp:395] drop1 -> ip1 (in-place)
I0814 14:11:23.314594 28975 net.cpp:150] Setting up drop1
I0814 14:11:23.314607 28975 net.cpp:157] Top shape: 64 512 (32768)
I0814 14:11:23.314615 28975 net.cpp:165] Memory required for data: 194148352
I0814 14:11:23.314623 28975 layer_factory.hpp:77] Creating layer ip1_drop1_0_split
I0814 14:11:23.314636 28975 net.cpp:100] Creating Layer ip1_drop1_0_split
I0814 14:11:23.314646 28975 net.cpp:434] ip1_drop1_0_split <- ip1
I0814 14:11:23.314657 28975 net.cpp:408] ip1_drop1_0_split -> ip1_drop1_0_split_0
I0814 14:11:23.314671 28975 net.cpp:408] ip1_drop1_0_split -> ip1_drop1_0_split_1
I0814 14:11:23.314713 28975 net.cpp:150] Setting up ip1_drop1_0_split
I0814 14:11:23.314728 28975 net.cpp:157] Top shape: 64 512 (32768)
I0814 14:11:23.314738 28975 net.cpp:157] Top shape: 64 512 (32768)
I0814 14:11:23.314746 28975 net.cpp:165] Memory required for data: 194410496
I0814 14:11:23.314754 28975 layer_factory.hpp:77] Creating layer ip2
I0814 14:11:23.314767 28975 net.cpp:100] Creating Layer ip2
I0814 14:11:23.314775 28975 net.cpp:434] ip2 <- ip1_drop1_0_split_0
I0814 14:11:23.314793 28975 net.cpp:408] ip2 -> ip2
I0814 14:11:23.314901 28975 net.cpp:150] Setting up ip2
I0814 14:11:23.314915 28975 net.cpp:157] Top shape: 64 2 (128)
I0814 14:11:23.314924 28975 net.cpp:165] Memory required for data: 194411008
I0814 14:11:23.314935 28975 layer_factory.hpp:77] Creating layer ip2_ip2_0_split
I0814 14:11:23.314947 28975 net.cpp:100] Creating Layer ip2_ip2_0_split
I0814 14:11:23.314956 28975 net.cpp:434] ip2_ip2_0_split <- ip2
I0814 14:11:23.314966 28975 net.cpp:408] ip2_ip2_0_split -> ip2_ip2_0_split_0
I0814 14:11:23.314978 28975 net.cpp:408] ip2_ip2_0_split -> ip2_ip2_0_split_1
I0814 14:11:23.315018 28975 net.cpp:150] Setting up ip2_ip2_0_split
I0814 14:11:23.315032 28975 net.cpp:157] Top shape: 64 2 (128)
I0814 14:11:23.315040 28975 net.cpp:157] Top shape: 64 2 (128)
I0814 14:11:23.315048 28975 net.cpp:165] Memory required for data: 194412032
I0814 14:11:23.315057 28975 layer_factory.hpp:77] Creating layer loss1
I0814 14:11:23.315068 28975 net.cpp:100] Creating Layer loss1
I0814 14:11:23.315078 28975 net.cpp:434] loss1 <- ip2_ip2_0_split_0
I0814 14:11:23.315086 28975 net.cpp:434] loss1 <- glasses_slice1_0_split_0
I0814 14:11:23.315119 28975 net.cpp:408] loss1 -> loss1
…
