…
  stage: ""
}
layer {
  name: "data"
  type: "Data"
  top: "data"
  include {
    phase: TRAIN
  }
  transform_param {
    scale: 0.00390625
  }
  data_param {
    source: "/home/jaychou/code/new_caffe/caffe-master/examples/gender_glasses/gender_glasses_train_lmdb"
    batch_size: 100
    backend: LMDB
  }
}
layer {
  name: "labels"
  type: "Data"
  top: "labels"
  include {
    phase: TRAIN
  }
  data_param {
    source: "/home/jaychou/code/new_caffe/caffe-master/examples/gender_glasses/gender_glasses_train_label_lmdb"
    batch_size: 100
    backend: LMDB
  }
}
layer {
  name: "slice1"
  type: "Slice"
  bottom: "labels"
  top: "glasses"
  top: "gender"
  slice_param {
    slice_dim: 1
    slice_point: 1
  }
}
layer {
  name: "conv1"
  type: "Convolution"
  bottom: "data"
  top: "conv1"
  param {
    lr_mult: 1
  }
  param {
    lr_mult: 0.1
  }
  convolution_param {
    num_output: 20
    pad: 0
    kernel_size: 5
    stride: 1
    weight_filler {
      type: "xavier"
    }
    bias_filler {
      type: "constant"
      value: 0
    }
  }
}
layer {
  name: "relu1"
  type: "ReLU"
  bottom: "conv1"
  top: "conv1"
}
layer {
  name: "pool1"
  type: "Pooling"
  bottom: "conv1"
  top: "pool1"
  pooling_param {
    pool: MAX
    kernel_size: 2
    stride: 2
  }
}
layer {
  name: "conv2"
  type: "Convolution"
  bottom: "pool1"
  top: "conv2"
  param {
    lr_mult: 1
  }
  param {
    lr_mult: 0.1
  }
  convolution_param {
    num_output: 48
    pad: 0
    kernel_size: 5
    stride: 1
    weight_filler {
      type: "xavier"
    }
    bias_filler {
      type: "constant"
      value: 0
    }
  }
}
layer {
  name: "relu2"
  type: "ReLU"
  bottom: "conv2"
  top: "conv2"
}
layer {
  name: "pool2"
  type: "Pooling"
  bottom: "conv2"
  top: "pool2"
  pooling_param {
    pool: MAX
    kernel_size: 2
    stride: 2
  }
}
layer {
  name: "conv3"
  type: "Convolution"
  bottom: "pool2"
  top: "conv3"
  param {
    lr_mult: 0.1
  }
  param {
    lr_mult: 0.1
  }
  convolution_param {
    num_output: 64
    pad: 0
    kernel_size: 3
    stride: 1
    weight_filler {
      type: "xavier"
    }
    bias_filler {
      type: "constant"
      value: 0
    }
  }
}
layer {
  name: "relu3"
  type: "ReLU"
  bottom: "conv3"
  top: "conv3"
}
layer {
  name: "conv4"
  type: "Convolution"
  bottom: "conv3"
  top: "conv4"
  param {
    lr_mult: 0.1
  }
  param {
    lr_mult: 0.1
  }
  convolution_param {
    num_output: 80
    pad: 0
    kernel_size: 3
    stride: 1
    weight_filler {
      type: "xavier"
    }
    bias_filler {
      type: "constant"
      value: 0
    }
  }
}
layer {
  name: "relu4"
  type: "ReLU"
  bottom: "conv4"
  top: "conv4"
}
layer {
  name: "ip1"
  type: "InnerProduct"
  bottom: "conv4"
  top: "ip1"
  inner_product_param {
    num_output: 512
    weight_filler {
      type: "xavier"
    }
    bias_filler {
      type: "constant"
    }
  }
}
layer {
  name: "relu5"
  type: "ReLU"
  bottom: "ip1"
  top: "ip1"
}
layer {
  name: "drop1"
  type: "Dropout"
  bottom: "ip1"
  top: "ip1"
  dropout_param {
    dropout_ratio: 0.5
  }
}
layer {
  name: "ip2"
  type: "InnerProduct"
  bottom: "ip1"
  top: "ip2"
  inner_product_param {
    num_output: 2
    weight_filler {
      type: "xavier"
    }
    bias_filler {
      type: "constant"
    }
  }
}
layer {
  name: "loss1"
  type: "SoftmaxWithLoss"
  bottom: "ip2"
  bottom: "glasses"
  top: "loss1"
  loss_weight: 0.5
}
layer {
  name: "ip3"
  type: "InnerProduct"
  bottom: "ip1"
  top: "ip3"
  inner_product_param {
    num_output: 512
    weight_filler {
      type: "xavier"
    }
    bias_filler {
      type: "constant"
    }
  }
}
layer {
  name: "loss2"
  type: "SoftmaxWithLoss"
  bottom: "ip3"
  bottom: "gender"
  top: "loss2"
  loss_weight: 0.5
}
I0814 16:41:31.184206   659 layer_factory.hpp:77] Creating layer data
I0814 16:41:31.184572   659 net.cpp:100] Creating Layer data
I0814 16:41:31.184603   659 net.cpp:408] data -> data
I0814 16:41:31.185603   665 db_lmdb.cpp:35] Opened lmdb /home/jaychou/code/new_caffe/caffe-master/examples/gender_glasses/gender_glasses_train_lmdb
I0814 16:41:31.195652   659 data_layer.cpp:41] output data size: 100,3,100,100
I0814 16:41:31.213526   659 net.cpp:150] Setting up data
I0814 16:41:31.213647   659 net.cpp:157] Top shape: 100 3 100 100 (3000000)
I0814 16:41:31.213659   659 net.cpp:165] Memory required for data: 12000000
I0814 16:41:31.213675   659 layer_factory.hpp:77] Creating layer labels
I0814 16:41:31.214112   659 net.cpp:100] Creating Layer labels
I0814 16:41:31.214133   659 net.cpp:408] labels -> labels
I0814 16:41:31.215360   667 db_lmdb.cpp:35] Opened lmdb /home/jaychou/code/new_caffe/caffe-master/examples/gender_glasses/gender_glasses_train_label_lmdb
I0814 16:41:31.216153   659 data_layer.cpp:41] output data size: 100,2,1,1
I0814 16:41:31.216486   659 net.cpp:150] Setting up labels
I0814 16:41:31.216506   659 net.cpp:157] Top shape: 100 2 1 1 (200)
I0814 16:41:31.216516   659 net.cpp:165] Memory required for data: 12000800
I0814 16:41:31.216524   659 layer_factory.hpp:77] Creating layer slice1
I0814 16:41:31.216538   659 net.cpp:100] Creating Layer slice1
I0814 16:41:31.216549   659 net.cpp:434] slice1 <- labels
I0814 16:41:31.216565   659 net.cpp:408] slice1 -> glasses
I0814 16:41:31.216583   659 net.cpp:408] slice1 -> gender
I0814 16:41:31.216626   659 net.cpp:150] Setting up slice1
I0814 16:41:31.216639   659 net.cpp:157] Top shape: 100 1 1 1 (100)
I0814 16:41:31.216650   659 net.cpp:157] Top shape: 100 1 1 1 (100)
I0814 16:41:31.216657   659 net.cpp:165] Memory required for data: 12001600
I0814 16:41:31.216665   659 layer_factory.hpp:77] Creating layer conv1
I0814 16:41:31.216687   659 net.cpp:100] Creating Layer conv1
I0814 16:41:31.216697   659 net.cpp:434] conv1 <- data
I0814 16:41:31.216708   659 net.cpp:408] conv1 -> conv1
I0814 16:41:31.364593   659 net.cpp:150] Setting up conv1
I0814 16:41:31.364641   659 net.cpp:157] Top shape: 100 20 96 96 (18432000)
I0814 16:41:31.364651   659 net.cpp:165] Memory required for data: 85729600
I0814 16:41:31.364678   659 layer_factory.hpp:77] Creating layer relu1
I0814 16:41:31.364697   659 net.cpp:100] Creating Layer relu1
I0814 16:41:31.364708   659 net.cpp:434] relu1 <- conv1
I0814 16:41:31.364720   659 net.cpp:395] relu1 -> conv1 (in-place)
I0814 16:41:31.364861   659 net.cpp:150] Setting up relu1
I0814 16:41:31.364878   659 net.cpp:157] Top shape: 100 20 96 96 (18432000)
I0814 16:41:31.364886   659 net.cpp:165] Memory required for data: 159457600
I0814 16:41:31.364895   659 layer_factory.hpp:77] Creating layer pool1
I0814 16:41:31.364907   659 net.cpp:100] Creating Layer pool1
I0814 16:41:31.364917   659 net.cpp:434] pool1 <- conv1
I0814 16:41:31.364926   659 net.cpp:408] pool1 -> pool1
I0814 16:41:31.364979   659 net.cpp:150] Setting up pool1
I0814 16:41:31.364992   659 net.cpp:157] Top shape: 100 20 48 48 (4608000)
I0814 16:41:31.365001   659 net.cpp:165] Memory required for data: 177889600
I0814 16:41:31.365034   659 layer_factory.hpp:77] Creating layer conv2
I0814 16:41:31.365052   659 net.cpp:100] Creating Layer conv2
I0814 16:41:31.365062   659 net.cpp:434] conv2 <- pool1
I0814 16:41:31.365073   659 net.cpp:408] conv2 -> conv2
I0814 16:41:31.366484   659 net.cpp:150] Setting up conv2
I0814 16:41:31.366504   659 net.cpp:157] Top shape: 100 48 44 44 (9292800)
I0814 16:41:31.366513   659 net.cpp:165] Memory required for data: 215060800
I0814 16:41:31.366528   659 layer_factory.hpp:77] Creating layer relu2
I0814 16:41:31.366539   659 net.cpp:100] Creating Layer relu2
I0814 16:41:31.366549   659 net.cpp:434] relu2 <- conv2
I0814 16:41:31.366564   659 net.cpp:395] relu2 -> conv2 (in-place)
I0814 16:41:31.366832   659 net.cpp:150] Setting up relu2
I0814 16:41:31.366848   659 net.cpp:157] Top shape: 100 48 44 44 (9292800)
I0814 16:41:31.366858   659 net.cpp:165] Memory required for data: 252232000
I0814 16:41:31.366866   659 layer_factory.hpp:77] Creating layer pool2
I0814 16:41:31.366878   659 net.cpp:100] Creating Layer pool2
I0814 16:41:31.366888   659 net.cpp:434] pool2 <- conv2
I0814 16:41:31.366899   659 net.cpp:408] pool2 -> pool2
I0814 16:41:31.366937   659 net.cpp:150] Setting up pool2
I0814 16:41:31.366951   659 net.cpp:157] Top shape: 100 48 22 22 (2323200)
I0814 16:41:31.366960   659 net.cpp:165] Memory required for data: 261524800
I0814 16:41:31.366968   659 layer_factory.hpp:77] Creating layer conv3
I0814 16:41:31.366981   659 net.cpp:100] Creating Layer conv3
I0814 16:41:31.366991   659 net.cpp:434] conv3 <- pool2
I0814 16:41:31.367002   659 net.cpp:408] conv3 -> conv3
I0814 16:41:31.368206   659 net.cpp:150] Setting up conv3
I0814 16:41:31.368227   659 net.cpp:157] Top shape: 100 64 20 20 (2560000)
I0814 16:41:31.368237   659 net.cpp:165] Memory required for data: 271764800
I0814 16:41:31.368252   659 layer_factory.hpp:77] Creating layer relu3
I0814 16:41:31.368263   659 net.cpp:100] Creating Layer relu3
I0814 16:41:31.368271   659 net.cpp:434] relu3 <- conv3
I0814 16:41:31.368281   659 net.cpp:395] relu3 -> conv3 (in-place)
I0814 16:41:31.368557   659 net.cpp:150] Setting up relu3
I0814 16:41:31.368574   659 net.cpp:157] Top shape: 100 64 20 20 (2560000)
I0814 16:41:31.368583   659 net.cpp:165] Memory required for data: 282004800
I0814 16:41:31.368592   659 layer_factory.hpp:77] Creating layer conv4
I0814 16:41:31.368609   659 net.cpp:100] Creating Layer conv4
I0814 16:41:31.368619   659 net.cpp:434] conv4 <- conv3
I0814 16:41:31.368631   659 net.cpp:408] conv4 -> conv4
I0814 16:41:31.369832   659 net.cpp:150] Setting up conv4
I0814 16:41:31.369850   659 net.cpp:157] Top shape: 100 80 18 18 (2592000)
I0814 16:41:31.369859   659 net.cpp:165] Memory required for data: 292372800
I0814 16:41:31.369871   659 layer_factory.hpp:77] Creating layer relu4
I0814 16:41:31.369884   659 net.cpp:100] Creating Layer relu4
I0814 16:41:31.369894   659 net.cpp:434] relu4 <- conv4
I0814 16:41:31.369904   659 net.cpp:395] relu4 -> conv4 (in-place)
I0814 16:41:31.370043   659 net.cpp:150] Setting up relu4
I0814 16:41:31.370057   659 net.cpp:157] Top shape: 100 80 18 18 (2592000)
I0814 16:41:31.370066   659 net.cpp:165] Memory required for data: 302740800
I0814 16:41:31.370074   659 layer_factory.hpp:77] Creating layer ip1
I0814 16:41:31.370088   659 net.cpp:100] Creating Layer ip1
I0814 16:41:31.370097   659 net.cpp:434] ip1 <- conv4
I0814 16:41:31.370107   659 net.cpp:408] ip1 -> ip1
I0814 16:41:31.466085   659 net.cpp:150] Setting up ip1
I0814 16:41:31.466132   659 net.cpp:157] Top shape: 100 512 (51200)
I0814 16:41:31.466142   659 net.cpp:165] Memory required for data: 302945600
I0814 16:41:31.466164   659 layer_factory.hpp:77] Creating layer relu5
I0814 16:41:31.466181   659 net.cpp:100] Creating Layer relu5
I0814 16:41:31.466190   659 net.cpp:434] relu5 <- ip1
I0814 16:41:31.466203   659 net.cpp:395] relu5 -> ip1 (in-place)
I0814 16:41:31.466593   659 net.cpp:150] Setting up relu5
I0814 16:41:31.466612   659 net.cpp:157] Top shape: 100 512 (51200)
I0814 16:41:31.466621   659 net.cpp:165] Memory required for data: 303150400
I0814 16:41:31.466655   659 layer_factory.hpp:77] Creating layer drop1
I0814 16:41:31.466672   659 net.cpp:100] Creating Layer drop1
I0814 16:41:31.466682   659 net.cpp:434] drop1 <- ip1
I0814 16:41:31.466692   659 net.cpp:395] drop1 -> ip1 (in-place)
I0814 16:41:31.466728   659 net.cpp:150] Setting up drop1
I0814 16:41:31.466742   659 net.cpp:157] Top shape: 100 512 (51200)
I0814 16:41:31.466750   659 net.cpp:165] Memory required for data: 303355200
I0814 16:41:31.466758   659 layer_factory.hpp:77] Creating layer ip1_drop1_0_split
I0814 16:41:31.466776   659 net.cpp:100] Creating Layer ip1_drop1_0_split
I0814 16:41:31.466785   659 net.cpp:434] ip1_drop1_0_split <- ip1
I0814 16:41:31.466795   659 net.cpp:408] ip1_drop1_0_split -> ip1_drop1_0_split_0
I0814 16:41:31.466809   659 net.cpp:408] ip1_drop1_0_split -> ip1_drop1_0_split_1
I0814 16:41:31.466847   659 net.cpp:150] Setting up ip1_drop1_0_split
I0814 16:41:31.466861   659 net.cpp:157] Top shape: 100 512 (51200)
I0814 16:41:31.466871   659 net.cpp:157] Top shape: 100 512 (51200)
I0814 16:41:31.466878   659 net.cpp:165] Memory required for data: 303764800
I0814 16:41:31.466886   659 layer_factory.hpp:77] Creating layer ip2
I0814 16:41:31.466898   659 net.cpp:100] Creating Layer ip2
I0814 16:41:31.466907   659 net.cpp:434] ip2 <- ip1_drop1_0_split_0
I0814 16:41:31.466919   659 net.cpp:408] ip2 -> ip2
I0814 16:41:31.467018   659 net.cpp:150] Setting up ip2
I0814 16:41:31.467032   659 net.cpp:157] Top shape: 100 2 (200)
I0814 16:41:31.467041   659 net.cpp:165] Memory required for data: 303765600
I0814 16:41:31.467051   659 layer_factory.hpp:77] Creating layer loss1
I0814 16:41:31.467063   659 net.cpp:100] Creating Layer loss1
I0814 16:41:31.467072   659 net.cpp:434] loss1 <- ip2
I0814 16:41:31.467082   659 net.cpp:434] loss1 <- glasses
I0814 16:41:31.467093   659 net.cpp:408] loss1 -> loss1
I0814 16:41:31.467109   659 layer_factory.hpp:77] Creating layer loss1
I0814 16:41:31.467315   659 net.cpp:150] Setting up loss1
I0814 16:41:31.467330   659 net.cpp:157] Top shape: (1)
I0814 16:41:31.467339   659 net.cpp:160]     with loss weight 0.5
I0814 16:41:31.467365   659 net.cpp:165] Memory required for data: 303765604
I0814 16:41:31.467373   659 layer_factory.hpp:77] Creating layer ip3
I0814 16:41:31.467386   659 net.cpp:100] Creating Layer ip3
I0814 16:41:31.467396   659 net.cpp:434] ip3 <- ip1_drop1_0_split_1
I0814 16:41:31.467406   659 net.cpp:408] ip3 -> ip3
I0814 16:41:31.469405   659 net.cpp:150] Setting up ip3
I0814 16:41:31.469422   659 net.cpp:157] Top shape: 100 512 (51200)
I0814 16:41:31.469431   659 net.cpp:165] Memory required for data: 303970404
I0814 16:41:31.469444   659 layer_factory.hpp:77] Creating layer loss2
I0814 16:41:31.469455   659 net.cpp:100] Creating Layer loss2
I0814 16:41:31.469463   659 net.cpp:434] loss2 <- ip3
I0814 16:41:31.469472   659 net.cpp:434] loss2 <- gender
I0814 16:41:31.469482   659 net.cpp:408] loss2 -> loss2
I0814 16:41:31.469499   659 layer_factory.hpp:77] Creating layer loss2
…
  phase: TEST
}
layer {
  name: "data"
  type: "Data"
  top: "data"
  include {
    phase: TEST
  }
  transform_param {
    scale: 0.00390625
  }
  data_param {
    source: "/home/jaychou/code/new_caffe/caffe-master/examples/gender_glasses/gender_glasses_val_lmdb"
    batch_size: 64
    backend: LMDB
  }
}
layer {
  name: "labels"
  type: "Data"
  top: "labels"
  include {
    phase: TEST
  }
  data_param {
    source: "/home/jaychou/code/new_caffe/caffe-master/examples/gender_glasses/gender_glasses_val_label_lmdb"
    batch_size: 64
    backend: LMDB
  }
}
layer {
  name: "slice1"
  type: "Slice"
  bottom: "labels"
  top: "glasses"
  top: "gender"
  slice_param {
    slice_dim: 1
    slice_point: 1
  }
}
layer {
  name: "conv1"
  type: "Convolution"
  bottom: "data"
  top: "conv1"
  param {
    lr_mult: 1
  }
  param {
    lr_mult: 0.1
  }
  convolution_param {
    num_output: 20
    pad: 0
    kernel_size: 5
    stride: 1
    weight_filler {
      type: "xavier"
    }
    bias_filler {
      type: "constant"
      value: 0
    }
  }
}
layer {
  name: "relu1"
  type: "ReLU"
  bottom: "conv1"
  top: "conv1"
}
layer {
  name: "pool1"
  type: "Pooling"
  bottom: "conv1"
  top: "pool1"
  pooling_param {
    pool: MAX
    kernel_size: 2
    stride: 2
  }
}
layer {
  name: "conv2"
  type: "Convolution"
  bottom: "pool1"
  top: "conv2"
  param {
    lr_mult: 1
  }
  param {
    lr_mult: 0.1
  }
  convolution_param {
    num_output: 48
    pad: 0
    kernel_size: 5
    stride: 1
    weight_filler {
      type: "xavier"
    }
    bias_filler {
      type: "constant"
      value: 0
    }
  }
}
layer {
  name: "relu2"
  type: "ReLU"
  bottom: "conv2"
  top: "conv2"
}
layer {
  name: "pool2"
  type: "Pooling"
  bottom: "conv2"
  top: "pool2"
  pooling_param {
    pool: MAX
    kernel_size: 2
    stride: 2
  }
}
layer {
  name: "conv3"
  type: "Convolution"
  bottom: "pool2"
  top: "conv3"
  param {
    lr_mult: 0.1
  }
  param {
    lr_mult: 0.1
  }
  convolution_param {
    num_output: 64
    pad: 0
    kernel_size: 3
    stride: 1
    weight_filler {
      type: "xavier"
    }
    bias_filler {
      type: "constant"
      value: 0
    }
  }
}
layer {
  name: "relu3"
  type: "ReLU"
  bottom: "conv3"
  top: "conv3"
}
layer {
  name: "conv4"
  type: "Convolution"
  bottom: "conv3"
  top: "conv4"
  param {
    lr_mult: 0.1
  }
  param {
    lr_mult: 0.1
  }
  convolution_param {
    num_output: 80
    pad: 0
    kernel_size: 3
    stride: 1
    weight_filler {
      type: "xavier"
    }
    bias_filler {
      type: "constant"
      value: 0
    }
  }
}
layer {
  name: "relu4"
  type: "ReLU"
  bottom: "conv4"
  top: "conv4"
}
layer {
  name: "ip1"
  type: "InnerProduct"
  bottom: "conv4"
  top: "ip1"
  inner_product_param {
    num_output: 512
    weight_filler {
      type: "xavier"
    }
    bias_filler {
      type: "constant"
    }
  }
}
layer {
  name: "relu5"
  type: "ReLU"
  bottom: "ip1"
  top: "ip1"
}
layer {
  name: "drop1"
  type: "Dropout"
  bottom: "ip1"
  top: "ip1"
  dropout_param {
    dropout_ratio: 0.5
  }
}
layer {
  name: "ip2"
  type: "InnerProduct"
  bottom: "ip1"
  top: "ip2"
  inner_product_param {
    num_output: 2
    weight_filler {
      type: "xavier"
    }
    bias_filler {
      type: "constant"
    }
  }
}
layer {
  name: "loss1"
  type: "SoftmaxWithLoss"
  bottom: "ip2"
  bottom: "glasses"
  top: "loss1"
  loss_weight: 0.5
}
layer {
  name: "accuracy_glasses"
  type: "Accuracy"
  bottom: "ip2"
  bottom: "glasses"
  top: "accuracy_glasses"
  include {
    phase: TEST
  }
}
layer {
  name: "ip3"
  type: "InnerProduct"
  bottom: "ip1"
  top: "ip3"
  inner_product_param {
    num_output: 512
    weight_filler {
      type: "xavier"
    }
    bias_filler {
      type: "constant"
    }
  }
}
layer {
  name: "loss2"
  type: "SoftmaxWithLoss"
  bottom: "ip3"
  bottom: "gender"
  top: "loss2"
  loss_weight: 0.5
}
layer {
  name: "accuracy_gender"
  type: "Accuracy"
  bottom: "ip3"
  bottom: "gender"
  top: "accuracy_gender"
  include {
    phase: TEST
  }
}
I0814 16:41:31.471549   659 layer_factory.hpp:77] Creating layer data
I0814 16:41:31.471642   659 net.cpp:100] Creating Layer data
I0814 16:41:31.471657   659 net.cpp:408] data -> data
I0814 16:41:31.472573   669 db_lmdb.cpp:35] Opened lmdb /home/jaychou/code/new_caffe/caffe-master/examples/gender_glasses/gender_glasses_val_lmdb
I0814 16:41:31.472741   659 data_layer.cpp:41] output data size: 64,3,100,100
I0814 16:41:31.487121   659 net.cpp:150] Setting up data
I0814 16:41:31.487167   659 net.cpp:157] Top shape: 64 3 100 100 (1920000)
I0814 16:41:31.487177   659 net.cpp:165] Memory required for data: 7680000
I0814 16:41:31.487190   659 layer_factory.hpp:77] Creating layer labels
I0814 16:41:31.487273   659 net.cpp:100] Creating Layer labels
I0814 16:41:31.487289   659 net.cpp:408] labels -> labels
I0814 16:41:31.489573   671 db_lmdb.cpp:35] Opened lmdb /home/jaychou/code/new_caffe/caffe-master/examples/gender_glasses/gender_glasses_val_label_lmdb
I0814 16:41:31.490109   659 data_layer.cpp:41] output data size: 64,2,1,1
I0814 16:41:31.490459   659 net.cpp:150] Setting up labels
I0814 16:41:31.490478   659 net.cpp:157] Top shape: 64 2 1 1 (128)
I0814 16:41:31.490488   659 net.cpp:165] Memory required for data: 7680512
I0814 16:41:31.490496   659 layer_factory.hpp:77] Creating layer slice1
I0814 16:41:31.490510   659 net.cpp:100] Creating Layer slice1
I0814 16:41:31.490523   659 net.cpp:434] slice1 <- labels
I0814 16:41:31.490535   659 net.cpp:408] slice1 -> glasses
I0814 16:41:31.490550   659 net.cpp:408] slice1 -> gender
I0814 16:41:31.490597   659 net.cpp:150] Setting up slice1
I0814 16:41:31.490613   659 net.cpp:157] Top shape: 64 1 1 1 (64)
I0814 16:41:31.490623   659 net.cpp:157] Top shape: 64 1 1 1 (64)
I0814 16:41:31.490631   659 net.cpp:165] Memory required for data: 7681024
I0814 16:41:31.490641   659 layer_factory.hpp:77] Creating layer glasses_slice1_0_split
I0814 16:41:31.490653   659 net.cpp:100] Creating Layer glasses_slice1_0_split
I0814 16:41:31.490660   659 net.cpp:434] glasses_slice1_0_split <- glasses
I0814 16:41:31.490670   659 net.cpp:408] glasses_slice1_0_split -> glasses_slice1_0_split_0
I0814 16:41:31.490682   659 net.cpp:408] glasses_slice1_0_split -> glasses_slice1_0_split_1
I0814 16:41:31.490720   659 net.cpp:150] Setting up glasses_slice1_0_split
I0814 16:41:31.490733   659 net.cpp:157] Top shape: 64 1 1 1 (64)
I0814 16:41:31.490743   659 net.cpp:157] Top shape: 64 1 1 1 (64)
I0814 16:41:31.490751   659 net.cpp:165] Memory required for data: 7681536
I0814 16:41:31.490759   659 layer_factory.hpp:77] Creating layer gender_slice1_1_split
I0814 16:41:31.490787   659 net.cpp:100] Creating Layer gender_slice1_1_split
I0814 16:41:31.490797   659 net.cpp:434] gender_slice1_1_split <- gender
I0814 16:41:31.490809   659 net.cpp:408] gender_slice1_1_split -> gender_slice1_1_split_0
I0814 16:41:31.490821   659 net.cpp:408] gender_slice1_1_split -> gender_slice1_1_split_1
I0814 16:41:31.490859   659 net.cpp:150] Setting up gender_slice1_1_split
I0814 16:41:31.490874   659 net.cpp:157] Top shape: 64 1 1 1 (64)
I0814 16:41:31.490882   659 net.cpp:157] Top shape: 64 1 1 1 (64)
I0814 16:41:31.490890   659 net.cpp:165] Memory required for data: 7682048
I0814 16:41:31.490898   659 layer_factory.hpp:77] Creating layer conv1
I0814 16:41:31.490916   659 net.cpp:100] Creating Layer conv1
I0814 16:41:31.490926   659 net.cpp:434] conv1 <- data
I0814 16:41:31.490938   659 net.cpp:408] conv1 -> conv1
I0814 16:41:31.492167   659 net.cpp:150] Setting up conv1
I0814 16:41:31.492193   659 net.cpp:157] Top shape: 64 20 96 96 (11796480)
I0814 16:41:31.492211   659 net.cpp:165] Memory required for data: 54867968
I0814 16:41:31.492229   659 layer_factory.hpp:77] Creating layer relu1
I0814 16:41:31.492244   659 net.cpp:100] Creating Layer relu1
I0814 16:41:31.492254   659 net.cpp:434] relu1 <- conv1
I0814 16:41:31.492264   659 net.cpp:395] relu1 -> conv1 (in-place)
I0814 16:41:31.492396   659 net.cpp:150] Setting up relu1
I0814 16:41:31.492413   659 net.cpp:157] Top shape: 64 20 96 96 (11796480)
I0814 16:41:31.492422   659 net.cpp:165] Memory required for data: 102053888
I0814 16:41:31.492435   659 layer_factory.hpp:77] Creating layer pool1
I0814 16:41:31.492449   659 net.cpp:100] Creating Layer pool1
I0814 16:41:31.492460   659 net.cpp:434] pool1 <- conv1
I0814 16:41:31.492478   659 net.cpp:408] pool1 -> pool1
I0814 16:41:31.492529   659 net.cpp:150] Setting up pool1
I0814 16:41:31.492544   659 net.cpp:157] Top shape: 64 20 48 48 (2949120)
I0814 16:41:31.492553   659 net.cpp:165] Memory required for data: 113850368
I0814 16:41:31.492563   659 layer_factory.hpp:77] Creating layer conv2
I0814 16:41:31.492584   659 net.cpp:100] Creating Layer conv2
I0814 16:41:31.492594   659 net.cpp:434] conv2 <- pool1
I0814 16:41:31.492604   659 net.cpp:408] conv2 -> conv2
I0814 16:41:31.493918   659 net.cpp:150] Setting up conv2
I0814 16:41:31.493940   659 net.cpp:157] Top shape: 64 48 44 44 (5947392)
I0814 16:41:31.493949   659 net.cpp:165] Memory required for data: 137639936
I0814 16:41:31.493965   659 layer_factory.hpp:77] Creating layer relu2
I0814 16:41:31.493980   659 net.cpp:100] Creating Layer relu2
I0814 16:41:31.493989   659 net.cpp:434] relu2 <- conv2
I0814 16:41:31.493999   659 net.cpp:395] relu2 -> conv2 (in-place)
I0814 16:41:31.494663   659 net.cpp:150] Setting up relu2
I0814 16:41:31.494683   659 net.cpp:157] Top shape: 64 48 44 44 (5947392)
I0814 16:41:31.494693   659 net.cpp:165] Memory required for data: 161429504
I0814 16:41:31.494701   659 layer_factory.hpp:77] Creating layer pool2
I0814 16:41:31.494714   659 net.cpp:100] Creating Layer pool2
I0814 16:41:31.494721   659 net.cpp:434] pool2 <- conv2
I0814 16:41:31.494833   659 net.cpp:408] pool2 -> pool2
I0814 16:41:31.494890   659 net.cpp:150] Setting up pool2
I0814 16:41:31.494904   659 net.cpp:157] Top shape: 64 48 22 22 (1486848)
I0814 16:41:31.494912   659 net.cpp:165] Memory required for data: 167376896
I0814 16:41:31.494920   659 layer_factory.hpp:77] Creating layer conv3
I0814 16:41:31.494940   659 net.cpp:100] Creating Layer conv3
I0814 16:41:31.494949   659 net.cpp:434] conv3 <- pool2
I0814 16:41:31.494961   659 net.cpp:408] conv3 -> conv3
I0814 16:41:31.496196   659 net.cpp:150] Setting up conv3
I0814 16:41:31.496214   659 net.cpp:157] Top shape: 64 64 20 20 (1638400)
I0814 16:41:31.496223   659 net.cpp:165] Memory required for data: 173930496
I0814 16:41:31.496239   659 layer_factory.hpp:77] Creating layer relu3
I0814 16:41:31.496253   659 net.cpp:100] Creating Layer relu3
I0814 16:41:31.496263   659 net.cpp:434] relu3 <- conv3
I0814 16:41:31.496273   659 net.cpp:395] relu3 -> conv3 (in-place)
I0814 16:41:31.497992   659 net.cpp:150] Setting up relu3
I0814 16:41:31.498040   659 net.cpp:157] Top shape: 64 64 20 20 (1638400)
I0814 16:41:31.498050   659 net.cpp:165] Memory required for data: 180484096
I0814 16:41:31.498059   659 layer_factory.hpp:77] Creating layer conv4
I0814 16:41:31.498076   659 net.cpp:100] Creating Layer conv4
I0814 16:41:31.498088   659 net.cpp:434] conv4 <- conv3
I0814 16:41:31.498106   659 net.cpp:408] conv4 -> conv4
I0814 16:41:31.499644   659 net.cpp:150] Setting up conv4
I0814 16:41:31.499677   659 net.cpp:157] Top shape: 64 80 18 18 (1658880)
I0814 16:41:31.499686   659 net.cpp:165] Memory required for data: 187119616
I0814 16:41:31.499701   659 layer_factory.hpp:77] Creating layer relu4
I0814 16:41:31.499714   659 net.cpp:100] Creating Layer relu4
I0814 16:41:31.499724   659 net.cpp:434] relu4 <- conv4
I0814 16:41:31.499737   659 net.cpp:395] relu4 -> conv4 (in-place)
I0814 16:41:31.499876   659 net.cpp:150] Setting up relu4
I0814 16:41:31.499894   659 net.cpp:157] Top shape: 64 80 18 18 (1658880)
I0814 16:41:31.499903   659 net.cpp:165] Memory required for data: 193755136
I0814 16:41:31.499912   659 layer_factory.hpp:77] Creating layer ip1
I0814 16:41:31.499925   659 net.cpp:100] Creating Layer ip1
I0814 16:41:31.499936   659 net.cpp:434] ip1 <- conv4
I0814 16:41:31.499948   659 net.cpp:408] ip1 -> ip1
I0814 16:41:31.599949   659 net.cpp:150] Setting up ip1
I0814 16:41:31.599997   659 net.cpp:157] Top shape: 64 512 (32768)
I0814 16:41:31.600005   659 net.cpp:165] Memory required for data: 193886208
I0814 16:41:31.600030   659 layer_factory.hpp:77] Creating layer relu5
I0814 16:41:31.600049   659 net.cpp:100] Creating Layer relu5
I0814 16:41:31.600060   659 net.cpp:434] relu5 <- ip1
I0814 16:41:31.600071   659 net.cpp:395] relu5 -> ip1 (in-place)
I0814 16:41:31.600477   659 net.cpp:150] Setting up relu5
I0814 16:41:31.600495   659 net.cpp:157] Top shape: 64 512 (32768)
I0814 16:41:31.600504   659 net.cpp:165] Memory required for data: 194017280
I0814 16:41:31.600513   659 layer_factory.hpp:77] Creating layer drop1
I0814 16:41:31.600525   659 net.cpp:100] Creating Layer drop1
I0814 16:41:31.600534   659 net.cpp:434] drop1 <- ip1
I0814 16:41:31.600546   659 net.cpp:395] drop1 -> ip1 (in-place)
I0814 16:41:31.600579   659 net.cpp:150] Setting up drop1
I0814 16:41:31.600592   659 net.cpp:157] Top shape: 64 512 (32768)
I0814 16:41:31.600601   659 net.cpp:165] Memory required for data: 194148352
I0814 16:41:31.600610   659 layer_factory.hpp:77] Creating layer ip1_drop1_0_split
I0814 16:41:31.600620   659 net.cpp:100] Creating Layer ip1_drop1_0_split
I0814 16:41:31.600628   659 net.cpp:434] ip1_drop1_0_split <- ip1
I0814 16:41:31.600638   659 net.cpp:408] ip1_drop1_0_split -> ip1_drop1_0_split_0
I0814 16:41:31.600653   659 net.cpp:408] ip1_drop1_0_split -> ip1_drop1_0_split_1
I0814 16:41:31.600695   659 net.cpp:150] Setting up ip1_drop1_0_split
I0814 16:41:31.600708   659 net.cpp:157] Top shape: 64 512 (32768)
I0814 16:41:31.600726   659 net.cpp:157] Top shape: 64 512 (32768)
I0814 16:41:31.600735   659 net.cpp:165] Memory required for data: 194410496
I0814 16:41:31.600744   659 layer_factory.hpp:77] Creating layer ip2
I0814 16:41:31.600756   659 net.cpp:100] Creating Layer ip2
I0814 16:41:31.600765   659 net.cpp:434] ip2 <- ip1_drop1_0_split_0
I0814 16:41:31.600777   659 net.cpp:408] ip2 -> ip2
I0814 16:41:31.600886   659 net.cpp:150] Setting up ip2
I0814 16:41:31.600901   659 net.cpp:157] Top shape: 64 2 (128)
I0814 16:41:31.600910   659 net.cpp:165] Memory required for data: 194411008
I0814 16:41:31.600922   659 layer_factory.hpp:77] Creating layer ip2_ip2_0_split
I0814 16:41:31.600932   659 net.cpp:100] Creating Layer ip2_ip2_0_split
I0814 16:41:31.600941   659 net.cpp:434] ip2_ip2_0_split <- ip2
I0814 16:41:31.600951   659 net.cpp:408] ip2_ip2_0_split -> ip2_ip2_0_split_0
I0814 16:41:31.600963   659 net.cpp:408] ip2_ip2_0_split -> ip2_ip2_0_split_1
I0814 16:41:31.601001   659 net.cpp:150] Setting up ip2_ip2_0_split
I0814 16:41:31.601014   659 net.cpp:157] Top shape: 64 2 (128)
I0814 16:41:31.601023   659 net.cpp:157] Top shape: 64 2 (128)
I0814 16:41:31.601054   659 net.cpp:165] Memory required for data: 194412032
I0814 16:41:31.601063   659 layer_factory.hpp:77] Creating layer loss1
I0814 16:41:31.601074   659 net.cpp:100] Creating Layer loss1
I0814 16:41:31.601083   659 net.cpp:434] loss1 <- ip2_ip2_0_split_0
I0814 16:41:31.601094   659 net.cpp:434] loss1 <- glasses_slice1_0_split_0
I0814 16:41:31.601107   659 net.cpp:408] loss1 -> loss1
…
