…
  phase: TRAIN
  level: 0
  stage: ""
}
layer {
  name: "data"
  type: "Data"
  top: "data"
  include {
    phase: TRAIN
  }
  transform_param {
    mirror: true
    mean_file: "data/gender_glasses/gg_mean.binaryproto"
  }
  data_param {
    source: "examples/gender_glasses/gender_glasses_train_lmdb"
    batch_size: 100
    backend: LMDB
  }
}
layer {
  name: "labels"
  type: "Data"
  top: "labels"
  include {
    phase: TRAIN
  }
  data_param {
    source: "examples/gender_glasses/gender_glasses_train_label_lmdb"
    batch_size: 100
    backend: LMDB
  }
}
layer {
  name: "slice1"
  type: "Slice"
  bottom: "labels"
  top: "glasses"
  top: "gender"
  slice_param {
    slice_dim: 1
    slice_point: 1
  }
}
layer {
  name: "conv1"
  type: "Convolution"
  bottom: "data"
  top: "conv1"
  param {
    lr_mult: 1
  }
  param {
    lr_mult: 0.1
  }
  convolution_param {
    num_output: 20
    pad: 0
    kernel_size: 5
    stride: 1
    weight_filler {
      type: "xavier"
    }
    bias_filler {
      type: "constant"
      value: 0
    }
  }
}
layer {
  name: "relu1"
  type: "ReLU"
  bottom: "conv1"
  top: "conv1"
}
layer {
  name: "pool1"
  type: "Pooling"
  bottom: "conv1"
  top: "pool1"
  pooling_param {
    pool: MAX
    kernel_size: 2
    stride: 2
  }
}
layer {
  name: "conv2"
  type: "Convolution"
  bottom: "pool1"
  top: "conv2"
  param {
    lr_mult: 1
  }
  param {
    lr_mult: 0.1
  }
  convolution_param {
    num_output: 48
    pad: 0
    kernel_size: 5
    stride: 1
    weight_filler {
      type: "xavier"
    }
    bias_filler {
      type: "constant"
      value: 0
    }
  }
}
layer {
  name: "relu2"
  type: "ReLU"
  bottom: "conv2"
  top: "conv2"
}
layer {
  name: "pool2"
  type: "Pooling"
  bottom: "conv2"
  top: "pool2"
  pooling_param {
    pool: MAX
    kernel_size: 2
    stride: 2
  }
}
layer {
  name: "conv3"
  type: "Convolution"
  bottom: "pool2"
  top: "conv3"
  param {
    lr_mult: 0.1
  }
  param {
    lr_mult: 0.1
  }
  convolution_param {
    num_output: 64
    pad: 0
    kernel_size: 3
    stride: 1
    weight_filler {
      type: "xavier"
    }
    bias_filler {
      type: "constant"
      value: 0
    }
  }
}
layer {
  name: "relu3"
  type: "ReLU"
  bottom: "conv3"
  top: "conv3"
}
layer {
  name: "conv4"
  type: "Convolution"
  bottom: "conv3"
  top: "conv4"
  param {
    lr_mult: 0.1
  }
  param {
    lr_mult: 0.1
  }
  convolution_param {
    num_output: 80
    pad: 0
    kernel_size: 3
    stride: 1
    weight_filler {
      type: "xavier"
    }
    bias_filler {
      type: "constant"
      value: 0
    }
  }
}
layer {
  name: "relu4"
  type: "ReLU"
  bottom: "conv4"
  top: "conv4"
}
layer {
  name: "ip1"
  type: "InnerProduct"
  bottom: "conv4"
  top: "ip1"
  inner_product_param {
    num_output: 512
    weight_filler {
      type: "xavier"
    }
    bias_filler {
      type: "constant"
    }
  }
}
layer {
  name: "relu5"
  type: "ReLU"
  bottom: "ip1"
  top: "ip1"
}
layer {
  name: "drop1"
  type: "Dropout"
  bottom: "ip1"
  top: "ip1"
  dropout_param {
    dropout_ratio: 0.5
  }
}
layer {
  name: "ip2"
  type: "InnerProduct"
  bottom: "ip1"
  top: "ip2"
  inner_product_param {
    num_output: 2
    weight_filler {
      type: "xavier"
    }
    bias_filler {
      type: "constant"
    }
  }
}
layer {
  name: "loss1"
  type: "SoftmaxWithLoss"
  bottom: "ip2"
  bottom: "glasses"
  top: "loss1"
  loss_weight: 0.5
}
layer {
  name: "ip3"
  type: "InnerProduct"
  bottom: "ip1"
  top: "ip3"
  inner_product_param {
    num_output: 512
    weight_filler {
      type: "xavier"
    }
    bias_filler {
      type: "constant"
    }
  }
}
layer {
  name: "loss2"
  type: "SoftmaxWithLoss"
  bottom: "ip3"
  bottom: "gender"
  top: "loss2"
  loss_weight: 0.5
}
I0814 13:46:22.808238 28256 layer_factory.hpp:77] Creating layer data
I0814 13:46:22.808807 28256 net.cpp:100] Creating Layer data
I0814 13:46:22.808863 28256 net.cpp:408] data -> data
I0814 13:46:22.808907 28256 data_transformer.cpp:25] Loading mean file from: data/gender_glasses/gg_mean.binaryproto
I0814 13:46:22.810091 28260 db_lmdb.cpp:35] Opened lmdb examples/gender_glasses/gender_glasses_train_lmdb
I0814 13:46:22.826728 28256 data_layer.cpp:41] output data size: 100,3,100,100
I0814 13:46:22.847832 28256 net.cpp:150] Setting up data
I0814 13:46:22.847887 28256 net.cpp:157] Top shape: 100 3 100 100 (3000000)
I0814 13:46:22.847903 28256 net.cpp:165] Memory required for data: 12000000
I0814 13:46:22.847923 28256 layer_factory.hpp:77] Creating layer labels
I0814 13:46:22.848049 28256 net.cpp:100] Creating Layer labels
I0814 13:46:22.848073 28256 net.cpp:408] labels -> labels
I0814 13:46:22.850736 28262 db_lmdb.cpp:35] Opened lmdb examples/gender_glasses/gender_glasses_train_label_lmdb
I0814 13:46:22.851670 28256 data_layer.cpp:41] output data size: 100,2,1,1
I0814 13:46:22.852038 28256 net.cpp:150] Setting up labels
I0814 13:46:22.852063 28256 net.cpp:157] Top shape: 100 2 1 1 (200)
I0814 13:46:22.852077 28256 net.cpp:165] Memory required for data: 12000800
I0814 13:46:22.852089 28256 layer_factory.hpp:77] Creating layer slice1
I0814 13:46:22.852108 28256 net.cpp:100] Creating Layer slice1
I0814 13:46:22.852195 28256 net.cpp:434] slice1 <- labels
I0814 13:46:22.852227 28256 net.cpp:408] slice1 -> glasses
I0814 13:46:22.852252 28256 net.cpp:408] slice1 -> gender
I0814 13:46:22.852306 28256 net.cpp:150] Setting up slice1
I0814 13:46:22.852327 28256 net.cpp:157] Top shape: 100 1 1 1 (100)
I0814 13:46:22.852341 28256 net.cpp:157] Top shape: 100 1 1 1 (100)
I0814 13:46:22.852352 28256 net.cpp:165] Memory required for data: 12001600
I0814 13:46:22.852365 28256 layer_factory.hpp:77] Creating layer conv1
I0814 13:46:22.852393 28256 net.cpp:100] Creating Layer conv1
I0814 13:46:22.852407 28256 net.cpp:434] conv1 <- data
I0814 13:46:22.852423 28256 net.cpp:408] conv1 -> conv1
I0814 13:46:23.013329 28256 net.cpp:150] Setting up conv1
I0814 13:46:23.013380 28256 net.cpp:157] Top shape: 100 20 96 96 (18432000)
I0814 13:46:23.013391 28256 net.cpp:165] Memory required for data: 85729600
I0814 13:46:23.013417 28256 layer_factory.hpp:77] Creating layer relu1
I0814 13:46:23.013434 28256 net.cpp:100] Creating Layer relu1
I0814 13:46:23.013445 28256 net.cpp:434] relu1 <- conv1
I0814 13:46:23.013458 28256 net.cpp:395] relu1 -> conv1 (in-place)
I0814 13:46:23.013595 28256 net.cpp:150] Setting up relu1
I0814 13:46:23.013612 28256 net.cpp:157] Top shape: 100 20 96 96 (18432000)
I0814 13:46:23.013620 28256 net.cpp:165] Memory required for data: 159457600
I0814 13:46:23.013629 28256 layer_factory.hpp:77] Creating layer pool1
I0814 13:46:23.013643 28256 net.cpp:100] Creating Layer pool1
I0814 13:46:23.013650 28256 net.cpp:434] pool1 <- conv1
I0814 13:46:23.013661 28256 net.cpp:408] pool1 -> pool1
I0814 13:46:23.013713 28256 net.cpp:150] Setting up pool1
I0814 13:46:23.013727 28256 net.cpp:157] Top shape: 100 20 48 48 (4608000)
I0814 13:46:23.013736 28256 net.cpp:165] Memory required for data: 177889600
I0814 13:46:23.013770 28256 layer_factory.hpp:77] Creating layer conv2
I0814 13:46:23.013788 28256 net.cpp:100] Creating Layer conv2
I0814 13:46:23.013797 28256 net.cpp:434] conv2 <- pool1
I0814 13:46:23.013809 28256 net.cpp:408] conv2 -> conv2
I0814 13:46:23.014883 28256 net.cpp:150] Setting up conv2
I0814 13:46:23.014904 28256 net.cpp:157] Top shape: 100 48 44 44 (9292800)
I0814 13:46:23.014914 28256 net.cpp:165] Memory required for data: 215060800
I0814 13:46:23.014927 28256 layer_factory.hpp:77] Creating layer relu2
I0814 13:46:23.014940 28256 net.cpp:100] Creating Layer relu2
I0814 13:46:23.014948 28256 net.cpp:434] relu2 <- conv2
I0814 13:46:23.014958 28256 net.cpp:395] relu2 -> conv2 (in-place)
I0814 13:46:23.015220 28256 net.cpp:150] Setting up relu2
I0814 13:46:23.015238 28256 net.cpp:157] Top shape: 100 48 44 44 (9292800)
I0814 13:46:23.015246 28256 net.cpp:165] Memory required for data: 252232000
I0814 13:46:23.015255 28256 layer_factory.hpp:77] Creating layer pool2
I0814 13:46:23.015269 28256 net.cpp:100] Creating Layer pool2
I0814 13:46:23.015277 28256 net.cpp:434] pool2 <- conv2
I0814 13:46:23.015288 28256 net.cpp:408] pool2 -> pool2
I0814 13:46:23.015327 28256 net.cpp:150] Setting up pool2
I0814 13:46:23.015341 28256 net.cpp:157] Top shape: 100 48 22 22 (2323200)
I0814 13:46:23.015350 28256 net.cpp:165] Memory required for data: 261524800
I0814 13:46:23.015358 28256 layer_factory.hpp:77] Creating layer conv3
I0814 13:46:23.015372 28256 net.cpp:100] Creating Layer conv3
I0814 13:46:23.015382 28256 net.cpp:434] conv3 <- pool2
I0814 13:46:23.015393 28256 net.cpp:408] conv3 -> conv3
I0814 13:46:23.016595 28256 net.cpp:150] Setting up conv3
I0814 13:46:23.016616 28256 net.cpp:157] Top shape: 100 64 20 20 (2560000)
I0814 13:46:23.016626 28256 net.cpp:165] Memory required for data: 271764800
I0814 13:46:23.016641 28256 layer_factory.hpp:77] Creating layer relu3
I0814 13:46:23.016652 28256 net.cpp:100] Creating Layer relu3
I0814 13:46:23.016661 28256 net.cpp:434] relu3 <- conv3
I0814 13:46:23.016674 28256 net.cpp:395] relu3 -> conv3 (in-place)
I0814 13:46:23.016947 28256 net.cpp:150] Setting up relu3
I0814 13:46:23.016965 28256 net.cpp:157] Top shape: 100 64 20 20 (2560000)
I0814 13:46:23.016974 28256 net.cpp:165] Memory required for data: 282004800
I0814 13:46:23.016983 28256 layer_factory.hpp:77] Creating layer conv4
I0814 13:46:23.017000 28256 net.cpp:100] Creating Layer conv4
I0814 13:46:23.017011 28256 net.cpp:434] conv4 <- conv3
I0814 13:46:23.017024 28256 net.cpp:408] conv4 -> conv4
I0814 13:46:23.018281 28256 net.cpp:150] Setting up conv4
I0814 13:46:23.018301 28256 net.cpp:157] Top shape: 100 80 18 18 (2592000)
I0814 13:46:23.018311 28256 net.cpp:165] Memory required for data: 292372800
I0814 13:46:23.018322 28256 layer_factory.hpp:77] Creating layer relu4
I0814 13:46:23.018333 28256 net.cpp:100] Creating Layer relu4
I0814 13:46:23.018342 28256 net.cpp:434] relu4 <- conv4
I0814 13:46:23.018352 28256 net.cpp:395] relu4 -> conv4 (in-place)
I0814 13:46:23.018477 28256 net.cpp:150] Setting up relu4
I0814 13:46:23.018494 28256 net.cpp:157] Top shape: 100 80 18 18 (2592000)
I0814 13:46:23.018503 28256 net.cpp:165] Memory required for data: 302740800
I0814 13:46:23.018512 28256 layer_factory.hpp:77] Creating layer ip1
I0814 13:46:23.018524 28256 net.cpp:100] Creating Layer ip1
I0814 13:46:23.018532 28256 net.cpp:434] ip1 <- conv4
I0814 13:46:23.018543 28256 net.cpp:408] ip1 -> ip1
I0814 13:46:23.115341 28256 net.cpp:150] Setting up ip1
I0814 13:46:23.115391 28256 net.cpp:157] Top shape: 100 512 (51200)
I0814 13:46:23.115401 28256 net.cpp:165] Memory required for data: 302945600
I0814 13:46:23.115422 28256 layer_factory.hpp:77] Creating layer relu5
I0814 13:46:23.115439 28256 net.cpp:100] Creating Layer relu5
I0814 13:46:23.115450 28256 net.cpp:434] relu5 <- ip1
I0814 13:46:23.115463 28256 net.cpp:395] relu5 -> ip1 (in-place)
I0814 13:46:23.115875 28256 net.cpp:150] Setting up relu5
I0814 13:46:23.115893 28256 net.cpp:157] Top shape: 100 512 (51200)
I0814 13:46:23.115903 28256 net.cpp:165] Memory required for data: 303150400
I0814 13:46:23.115936 28256 layer_factory.hpp:77] Creating layer drop1
I0814 13:46:23.115955 28256 net.cpp:100] Creating Layer drop1
I0814 13:46:23.115964 28256 net.cpp:434] drop1 <- ip1
I0814 13:46:23.115978 28256 net.cpp:395] drop1 -> ip1 (in-place)
I0814 13:46:23.116019 28256 net.cpp:150] Setting up drop1
I0814 13:46:23.116034 28256 net.cpp:157] Top shape: 100 512 (51200)
I0814 13:46:23.116042 28256 net.cpp:165] Memory required for data: 303355200
I0814 13:46:23.116051 28256 layer_factory.hpp:77] Creating layer ip1_drop1_0_split
I0814 13:46:23.116066 28256 net.cpp:100] Creating Layer ip1_drop1_0_split
I0814 13:46:23.116076 28256 net.cpp:434] ip1_drop1_0_split <- ip1
I0814 13:46:23.116086 28256 net.cpp:408] ip1_drop1_0_split -> ip1_drop1_0_split_0
I0814 13:46:23.116101 28256 net.cpp:408] ip1_drop1_0_split -> ip1_drop1_0_split_1
I0814 13:46:23.116143 28256 net.cpp:150] Setting up ip1_drop1_0_split
I0814 13:46:23.116156 28256 net.cpp:157] Top shape: 100 512 (51200)
I0814 13:46:23.116166 28256 net.cpp:157] Top shape: 100 512 (51200)
I0814 13:46:23.116174 28256 net.cpp:165] Memory required for data: 303764800
I0814 13:46:23.116183 28256 layer_factory.hpp:77] Creating layer ip2
I0814 13:46:23.116197 28256 net.cpp:100] Creating Layer ip2
I0814 13:46:23.116206 28256 net.cpp:434] ip2 <- ip1_drop1_0_split_0
I0814 13:46:23.116219 28256 net.cpp:408] ip2 -> ip2
I0814 13:46:23.116318 28256 net.cpp:150] Setting up ip2
I0814 13:46:23.116333 28256 net.cpp:157] Top shape: 100 2 (200)
I0814 13:46:23.116340 28256 net.cpp:165] Memory required for data: 303765600
I0814 13:46:23.116353 28256 layer_factory.hpp:77] Creating layer loss1
I0814 13:46:23.116366 28256 net.cpp:100] Creating Layer loss1
I0814 13:46:23.116375 28256 net.cpp:434] loss1 <- ip2
I0814 13:46:23.116385 28256 net.cpp:434] loss1 <- glasses
I0814 13:46:23.116395 28256 net.cpp:408] loss1 -> loss1
I0814 13:46:23.116410 28256 layer_factory.hpp:77] Creating layer loss1
I0814 13:46:23.116614 28256 net.cpp:150] Setting up loss1
I0814 13:46:23.116631 28256 net.cpp:157] Top shape: (1)
I0814 13:46:23.116639 28256 net.cpp:160]     with loss weight 0.5
I0814 13:46:23.116664 28256 net.cpp:165] Memory required for data: 303765604
I0814 13:46:23.116673 28256 layer_factory.hpp:77] Creating layer ip3
I0814 13:46:23.116686 28256 net.cpp:100] Creating Layer ip3
I0814 13:46:23.116695 28256 net.cpp:434] ip3 <- ip1_drop1_0_split_1
I0814 13:46:23.116706 28256 net.cpp:408] ip3 -> ip3
I0814 13:46:23.118805 28256 net.cpp:150] Setting up ip3
I0814 13:46:23.118823 28256 net.cpp:157] Top shape: 100 512 (51200)
I0814 13:46:23.118831 28256 net.cpp:165] Memory required for data: 303970404
I0814 13:46:23.118844 28256 layer_factory.hpp:77] Creating layer loss2
I0814 13:46:23.118855 28256 net.cpp:100] Creating Layer loss2
I0814 13:46:23.118865 28256 net.cpp:434] loss2 <- ip3
I0814 13:46:23.118873 28256 net.cpp:434] loss2 <- gender
I0814 13:46:23.118886 28256 net.cpp:408] loss2 -> loss2
I0814 13:46:23.118902 28256 layer_factory.hpp:77] Creating layer loss2
…
name: "multi_task"
state {
  phase: TEST
}
layer {
  name: "data"
  type: "Data"
  top: "data"
  include {
    phase: TEST
  }
  transform_param {
    mirror: false
    mean_file: "data/gender_glasses/gg_mean.binaryproto"
  }
  data_param {
    source: "examples/gender_glasses/gender_glasses_val_lmdb"
    batch_size: 64
    backend: LMDB
  }
}
layer {
  name: "labels"
  type: "Data"
  top: "labels"
  include {
    phase: TEST
  }
  data_param {
    source: "examples/gender_glasses/gender_glasses_val_label_lmdb"
    batch_size: 64
    backend: LMDB
  }
}
layer {
  name: "slice1"
  type: "Slice"
  bottom: "labels"
  top: "glasses"
  top: "gender"
  slice_param {
    slice_dim: 1
    slice_point: 1
  }
}
layer {
  name: "conv1"
  type: "Convolution"
  bottom: "data"
  top: "conv1"
  param {
    lr_mult: 1
  }
  param {
    lr_mult: 0.1
  }
  convolution_param {
    num_output: 20
    pad: 0
    kernel_size: 5
    stride: 1
    weight_filler {
      type: "xavier"
    }
    bias_filler {
      type: "constant"
      value: 0
    }
  }
}
layer {
  name: "relu1"
  type: "ReLU"
  bottom: "conv1"
  top: "conv1"
}
layer {
  name: "pool1"
  type: "Pooling"
  bottom: "conv1"
  top: "pool1"
  pooling_param {
    pool: MAX
    kernel_size: 2
    stride: 2
  }
}
layer {
  name: "conv2"
  type: "Convolution"
  bottom: "pool1"
  top: "conv2"
  param {
    lr_mult: 1
  }
  param {
    lr_mult: 0.1
  }
  convolution_param {
    num_output: 48
    pad: 0
    kernel_size: 5
    stride: 1
    weight_filler {
      type: "xavier"
    }
    bias_filler {
      type: "constant"
      value: 0
    }
  }
}
layer {
  name: "relu2"
  type: "ReLU"
  bottom: "conv2"
  top: "conv2"
}
layer {
  name: "pool2"
  type: "Pooling"
  bottom: "conv2"
  top: "pool2"
  pooling_param {
    pool: MAX
    kernel_size: 2
    stride: 2
  }
}
layer {
  name: "conv3"
  type: "Convolution"
  bottom: "pool2"
  top: "conv3"
  param {
    lr_mult: 0.1
  }
  param {
    lr_mult: 0.1
  }
  convolution_param {
    num_output: 64
    pad: 0
    kernel_size: 3
    stride: 1
    weight_filler {
      type: "xavier"
    }
    bias_filler {
      type: "constant"
      value: 0
    }
  }
}
layer {
  name: "relu3"
  type: "ReLU"
  bottom: "conv3"
  top: "conv3"
}
layer {
  name: "conv4"
  type: "Convolution"
  bottom: "conv3"
  top: "conv4"
  param {
    lr_mult: 0.1
  }
  param {
    lr_mult: 0.1
  }
  convolution_param {
    num_output: 80
    pad: 0
    kernel_size: 3
    stride: 1
    weight_filler {
      type: "xavier"
    }
    bias_filler {
      type: "constant"
      value: 0
    }
  }
}
layer {
  name: "relu4"
  type: "ReLU"
  bottom: "conv4"
  top: "conv4"
}
layer {
  name: "ip1"
  type: "InnerProduct"
  bottom: "conv4"
  top: "ip1"
  inner_product_param {
    num_output: 512
    weight_filler {
      type: "xavier"
    }
    bias_filler {
      type: "constant"
    }
  }
}
layer {
  name: "relu5"
  type: "ReLU"
  bottom: "ip1"
  top: "ip1"
}
layer {
  name: "drop1"
  type: "Dropout"
  bottom: "ip1"
  top: "ip1"
  dropout_param {
    dropout_ratio: 0.5
  }
}
layer {
  name: "ip2"
  type: "InnerProduct"
  bottom: "ip1"
  top: "ip2"
  inner_product_param {
    num_output: 2
    weight_filler {
      type: "xavier"
    }
    bias_filler {
      type: "constant"
    }
  }
}
layer {
  name: "loss1"
  type: "SoftmaxWithLoss"
  bottom: "ip2"
  bottom: "glasses"
  top: "loss1"
  loss_weight: 0.5
}
layer {
  name: "accuracy_glasses"
  type: "Accuracy"
  bottom: "ip2"
  bottom: "glasses"
  top: "accuracy_glasses"
  include {
    phase: TEST
  }
}
layer {
  name: "ip3"
  type: "InnerProduct"
  bottom: "ip1"
  top: "ip3"
  inner_product_param {
    num_output: 512
    weight_filler {
      type: "xavier"
    }
    bias_filler {
      type: "constant"
    }
  }
}
layer {
  name: "loss2"
  type: "SoftmaxWithLoss"
  bottom: "ip3"
  bottom: "gender"
  top: "loss2"
  loss_weight: 0.5
}
layer {
  name: "accuracy_gender"
  type: "Accuracy"
  bottom: "ip3"
  bottom: "gender"
  top: "accuracy_gender"
  include {
    phase: TEST
  }
}
I0814 13:46:23.120965 28256 layer_factory.hpp:77] Creating layer data
I0814 13:46:23.121109 28256 net.cpp:100] Creating Layer data
I0814 13:46:23.121122 28256 net.cpp:408] data -> data
I0814 13:46:23.121136 28256 data_transformer.cpp:25] Loading mean file from: data/gender_glasses/gg_mean.binaryproto
I0814 13:46:23.122512 28264 db_lmdb.cpp:35] Opened lmdb examples/gender_glasses/gender_glasses_val_lmdb
I0814 13:46:23.122763 28256 data_layer.cpp:41] output data size: 64,3,100,100
I0814 13:46:23.136490 28256 net.cpp:150] Setting up data
I0814 13:46:23.136538 28256 net.cpp:157] Top shape: 64 3 100 100 (1920000)
I0814 13:46:23.136548 28256 net.cpp:165] Memory required for data: 7680000
I0814 13:46:23.136560 28256 layer_factory.hpp:77] Creating layer labels
I0814 13:46:23.136647 28256 net.cpp:100] Creating Layer labels
I0814 13:46:23.136664 28256 net.cpp:408] labels -> labels
I0814 13:46:23.139191 28266 db_lmdb.cpp:35] Opened lmdb examples/gender_glasses/gender_glasses_val_label_lmdb
I0814 13:46:23.139758 28256 data_layer.cpp:41] output data size: 64,2,1,1
I0814 13:46:23.140094 28256 net.cpp:150] Setting up labels
I0814 13:46:23.140112 28256 net.cpp:157] Top shape: 64 2 1 1 (128)
I0814 13:46:23.140121 28256 net.cpp:165] Memory required for data: 7680512
I0814 13:46:23.140131 28256 layer_factory.hpp:77] Creating layer slice1
I0814 13:46:23.140146 28256 net.cpp:100] Creating Layer slice1
I0814 13:46:23.140156 28256 net.cpp:434] slice1 <- labels
I0814 13:46:23.140168 28256 net.cpp:408] slice1 -> glasses
I0814 13:46:23.140182 28256 net.cpp:408] slice1 -> gender
I0814 13:46:23.140367 28256 net.cpp:150] Setting up slice1
I0814 13:46:23.140394 28256 net.cpp:157] Top shape: 64 1 1 1 (64)
I0814 13:46:23.140408 28256 net.cpp:157] Top shape: 64 1 1 1 (64)
I0814 13:46:23.140415 28256 net.cpp:165] Memory required for data: 7681024
I0814 13:46:23.140424 28256 layer_factory.hpp:77] Creating layer glasses_slice1_0_split
I0814 13:46:23.140439 28256 net.cpp:100] Creating Layer glasses_slice1_0_split
I0814 13:46:23.140446 28256 net.cpp:434] glasses_slice1_0_split <- glasses
I0814 13:46:23.140457 28256 net.cpp:408] glasses_slice1_0_split -> glasses_slice1_0_split_0
I0814 13:46:23.140470 28256 net.cpp:408] glasses_slice1_0_split -> glasses_slice1_0_split_1
I0814 13:46:23.140509 28256 net.cpp:150] Setting up glasses_slice1_0_split
I0814 13:46:23.140522 28256 net.cpp:157] Top shape: 64 1 1 1 (64)
I0814 13:46:23.140532 28256 net.cpp:157] Top shape: 64 1 1 1 (64)
I0814 13:46:23.140545 28256 net.cpp:165] Memory required for data: 7681536
I0814 13:46:23.140553 28256 layer_factory.hpp:77] Creating layer gender_slice1_1_split
I0814 13:46:23.140581 28256 net.cpp:100] Creating Layer gender_slice1_1_split
I0814 13:46:23.140591 28256 net.cpp:434] gender_slice1_1_split <- gender
I0814 13:46:23.140601 28256 net.cpp:408] gender_slice1_1_split -> gender_slice1_1_split_0
I0814 13:46:23.140614 28256 net.cpp:408] gender_slice1_1_split -> gender_slice1_1_split_1
I0814 13:46:23.140650 28256 net.cpp:150] Setting up gender_slice1_1_split
I0814 13:46:23.140662 28256 net.cpp:157] Top shape: 64 1 1 1 (64)
I0814 13:46:23.140672 28256 net.cpp:157] Top shape: 64 1 1 1 (64)
I0814 13:46:23.140681 28256 net.cpp:165] Memory required for data: 7682048
I0814 13:46:23.140688 28256 layer_factory.hpp:77] Creating layer conv1
I0814 13:46:23.140704 28256 net.cpp:100] Creating Layer conv1
I0814 13:46:23.140713 28256 net.cpp:434] conv1 <- data
I0814 13:46:23.140724 28256 net.cpp:408] conv1 -> conv1
I0814 13:46:23.141917 28256 net.cpp:150] Setting up conv1
I0814 13:46:23.141943 28256 net.cpp:157] Top shape: 64 20 96 96 (11796480)
I0814 13:46:23.141955 28256 net.cpp:165] Memory required for data: 54867968
I0814 13:46:23.141976 28256 layer_factory.hpp:77] Creating layer relu1
I0814 13:46:23.141990 28256 net.cpp:100] Creating Layer relu1
I0814 13:46:23.142002 28256 net.cpp:434] relu1 <- conv1
I0814 13:46:23.142014 28256 net.cpp:395] relu1 -> conv1 (in-place)
I0814 13:46:23.142146 28256 net.cpp:150] Setting up relu1
I0814 13:46:23.142161 28256 net.cpp:157] Top shape: 64 20 96 96 (11796480)
I0814 13:46:23.142170 28256 net.cpp:165] Memory required for data: 102053888
I0814 13:46:23.142179 28256 layer_factory.hpp:77] Creating layer pool1
I0814 13:46:23.142194 28256 net.cpp:100] Creating Layer pool1
I0814 13:46:23.142204 28256 net.cpp:434] pool1 <- conv1
I0814 13:46:23.142220 28256 net.cpp:408] pool1 -> pool1
I0814 13:46:23.142268 28256 net.cpp:150] Setting up pool1
I0814 13:46:23.142283 28256 net.cpp:157] Top shape: 64 20 48 48 (2949120)
I0814 13:46:23.142292 28256 net.cpp:165] Memory required for data: 113850368
I0814 13:46:23.142302 28256 layer_factory.hpp:77] Creating layer conv2
I0814 13:46:23.142318 28256 net.cpp:100] Creating Layer conv2
I0814 13:46:23.142329 28256 net.cpp:434] conv2 <- pool1
I0814 13:46:23.142343 28256 net.cpp:408] conv2 -> conv2
I0814 13:46:23.143703 28256 net.cpp:150] Setting up conv2
I0814 13:46:23.143724 28256 net.cpp:157] Top shape: 64 48 44 44 (5947392)
I0814 13:46:23.143734 28256 net.cpp:165] Memory required for data: 137639936
I0814 13:46:23.143753 28256 layer_factory.hpp:77] Creating layer relu2
I0814 13:46:23.143765 28256 net.cpp:100] Creating Layer relu2
I0814 13:46:23.143774 28256 net.cpp:434] relu2 <- conv2
I0814 13:46:23.143785 28256 net.cpp:395] relu2 -> conv2 (in-place)
I0814 13:46:23.144069 28256 net.cpp:150] Setting up relu2
I0814 13:46:23.144085 28256 net.cpp:157] Top shape: 64 48 44 44 (5947392)
I0814 13:46:23.144094 28256 net.cpp:165] Memory required for data: 161429504
I0814 13:46:23.144104 28256 layer_factory.hpp:77] Creating layer pool2
I0814 13:46:23.144114 28256 net.cpp:100] Creating Layer pool2
I0814 13:46:23.144124 28256 net.cpp:434] pool2 <- conv2
I0814 13:46:23.144135 28256 net.cpp:408] pool2 -> pool2
I0814 13:46:23.144181 28256 net.cpp:150] Setting up pool2
I0814 13:46:23.144196 28256 net.cpp:157] Top shape: 64 48 22 22 (1486848)
I0814 13:46:23.144203 28256 net.cpp:165] Memory required for data: 167376896
I0814 13:46:23.144212 28256 layer_factory.hpp:77] Creating layer conv3
I0814 13:46:23.144229 28256 net.cpp:100] Creating Layer conv3
I0814 13:46:23.144239 28256 net.cpp:434] conv3 <- pool2
I0814 13:46:23.144250 28256 net.cpp:408] conv3 -> conv3
I0814 13:46:23.145195 28256 net.cpp:150] Setting up conv3
I0814 13:46:23.145215 28256 net.cpp:157] Top shape: 64 64 20 20 (1638400)
I0814 13:46:23.145227 28256 net.cpp:165] Memory required for data: 173930496
I0814 13:46:23.145242 28256 layer_factory.hpp:77] Creating layer relu3
I0814 13:46:23.145256 28256 net.cpp:100] Creating Layer relu3
I0814 13:46:23.145267 28256 net.cpp:434] relu3 <- conv3
I0814 13:46:23.145277 28256 net.cpp:395] relu3 -> conv3 (in-place)
I0814 13:46:23.145553 28256 net.cpp:150] Setting up relu3
I0814 13:46:23.145592 28256 net.cpp:157] Top shape: 64 64 20 20 (1638400)
I0814 13:46:23.145602 28256 net.cpp:165] Memory required for data: 180484096
I0814 13:46:23.145612 28256 layer_factory.hpp:77] Creating layer conv4
I0814 13:46:23.145627 28256 net.cpp:100] Creating Layer conv4
I0814 13:46:23.145642 28256 net.cpp:434] conv4 <- conv3
I0814 13:46:23.145654 28256 net.cpp:408] conv4 -> conv4
I0814 13:46:23.147269 28256 net.cpp:150] Setting up conv4
I0814 13:46:23.147294 28256 net.cpp:157] Top shape: 64 80 18 18 (1658880)
I0814 13:46:23.147303 28256 net.cpp:165] Memory required for data: 187119616
I0814 13:46:23.147316 28256 layer_factory.hpp:77] Creating layer relu4
I0814 13:46:23.147330 28256 net.cpp:100] Creating Layer relu4
I0814 13:46:23.147339 28256 net.cpp:434] relu4 <- conv4
I0814 13:46:23.147351 28256 net.cpp:395] relu4 -> conv4 (in-place)
I0814 13:46:23.147478 28256 net.cpp:150] Setting up relu4
I0814 13:46:23.147495 28256 net.cpp:157] Top shape: 64 80 18 18 (1658880)
I0814 13:46:23.147503 28256 net.cpp:165] Memory required for data: 193755136
I0814 13:46:23.147512 28256 layer_factory.hpp:77] Creating layer ip1
I0814 13:46:23.147528 28256 net.cpp:100] Creating Layer ip1
I0814 13:46:23.147538 28256 net.cpp:434] ip1 <- conv4
I0814 13:46:23.147552 28256 net.cpp:408] ip1 -> ip1
I0814 13:46:23.249043 28256 net.cpp:150] Setting up ip1
I0814 13:46:23.249090 28256 net.cpp:157] Top shape: 64 512 (32768)
I0814 13:46:23.249100 28256 net.cpp:165] Memory required for data: 193886208
I0814 13:46:23.249122 28256 layer_factory.hpp:77] Creating layer relu5
I0814 13:46:23.249143 28256 net.cpp:100] Creating Layer relu5
I0814 13:46:23.249155 28256 net.cpp:434] relu5 <- ip1
I0814 13:46:23.249167 28256 net.cpp:395] relu5 -> ip1 (in-place)
I0814 13:46:23.249563 28256 net.cpp:150] Setting up relu5
I0814 13:46:23.249582 28256 net.cpp:157] Top shape: 64 512 (32768)
I0814 13:46:23.249590 28256 net.cpp:165] Memory required for data: 194017280
I0814 13:46:23.249599 28256 layer_factory.hpp:77] Creating layer drop1
I0814 13:46:23.249613 28256 net.cpp:100] Creating Layer drop1
I0814 13:46:23.249622 28256 net.cpp:434] drop1 <- ip1
I0814 13:46:23.249632 28256 net.cpp:395] drop1 -> ip1 (in-place)
I0814 13:46:23.249666 28256 net.cpp:150] Setting up drop1
I0814 13:46:23.249680 28256 net.cpp:157] Top shape: 64 512 (32768)
I0814 13:46:23.249689 28256 net.cpp:165] Memory required for data: 194148352
I0814 13:46:23.249697 28256 layer_factory.hpp:77] Creating layer ip1_drop1_0_split
I0814 13:46:23.249708 28256 net.cpp:100] Creating Layer ip1_drop1_0_split
I0814 13:46:23.249717 28256 net.cpp:434] ip1_drop1_0_split <- ip1
I0814 13:46:23.249729 28256 net.cpp:408] ip1_drop1_0_split -> ip1_drop1_0_split_0
I0814 13:46:23.249742 28256 net.cpp:408] ip1_drop1_0_split -> ip1_drop1_0_split_1
I0814 13:46:23.249783 28256 net.cpp:150] Setting up ip1_drop1_0_split
I0814 13:46:23.249799 28256 net.cpp:157] Top shape: 64 512 (32768)
I0814 13:46:23.249809 28256 net.cpp:157] Top shape: 64 512 (32768)
I0814 13:46:23.249817 28256 net.cpp:165] Memory required for data: 194410496
I0814 13:46:23.249826 28256 layer_factory.hpp:77] Creating layer ip2
I0814 13:46:23.249838 28256 net.cpp:100] Creating Layer ip2
I0814 13:46:23.249847 28256 net.cpp:434] ip2 <- ip1_drop1_0_split_0
I0814 13:46:23.249860 28256 net.cpp:408] ip2 -> ip2
I0814 13:46:23.249964 28256 net.cpp:150] Setting up ip2
I0814 13:46:23.249979 28256 net.cpp:157] Top shape: 64 2 (128)
I0814 13:46:23.249987 28256 net.cpp:165] Memory required for data: 194411008
I0814 13:46:23.250000 28256 layer_factory.hpp:77] Creating layer ip2_ip2_0_split
I0814 13:46:23.250011 28256 net.cpp:100] Creating Layer ip2_ip2_0_split
I0814 13:46:23.250020 28256 net.cpp:434] ip2_ip2_0_split <- ip2
I0814 13:46:23.250030 28256 net.cpp:408] ip2_ip2_0_split -> ip2_ip2_0_split_0
I0814 13:46:23.250042 28256 net.cpp:408] ip2_ip2_0_split -> ip2_ip2_0_split_1
I0814 13:46:23.250082 28256 net.cpp:150] Setting up ip2_ip2_0_split
I0814 13:46:23.250095 28256 net.cpp:157] Top shape: 64 2 (128)
I0814 13:46:23.250105 28256 net.cpp:157] Top shape: 64 2 (128)
I0814 13:46:23.250135 28256 net.cpp:165] Memory required for data: 194412032
I0814 13:46:23.250144 28256 layer_factory.hpp:77] Creating layer loss1
I0814 13:46:23.250156 28256 net.cpp:100] Creating Layer loss1
I0814 13:46:23.250164 28256 net.cpp:434] loss1 <- ip2_ip2_0_split_0
I0814 13:46:23.250174 28256 net.cpp:434] loss1 <- glasses_slice1_0_split_0
I0814 13:46:23.250185 28256 net.cpp:408] loss1 -> loss1
…
