…
  phase: TRAIN
  level: 0
  stage: ""
}
layer {
  name: "data"
  type: "Data"
  top: "data"
  include {
    phase: TRAIN
  }
  transform_param {
    mirror: true
    mean_file: "data/gender_glasses/gg_mean.binaryproto"
  }
  data_param {
    source: "examples/gender_glasses/gender_glasses_train_lmdb"
    batch_size: 100
    backend: LMDB
  }
}
layer {
  name: "labels"
  type: "Data"
  top: "labels"
  include {
    phase: TRAIN
  }
  data_param {
    source: "examples/gender_glasses/gender_glasses_train_label_lmdb"
    batch_size: 100
    backend: LMDB
  }
}
layer {
  name: "slice1"
  type: "Slice"
  bottom: "labels"
  top: "glasses"
  top: "gender"
  slice_param {
    slice_dim: 1
    slice_point: 1
  }
}
layer {
  name: "conv1"
  type: "Convolution"
  bottom: "data"
  top: "conv1"
  param {
    lr_mult: 1
  }
  param {
    lr_mult: 0.1
  }
  convolution_param {
    num_output: 20
    pad: 0
    kernel_size: 5
    stride: 1
    weight_filler {
      type: "xavier"
    }
    bias_filler {
      type: "constant"
      value: 0
    }
  }
}
layer {
  name: "relu1"
  type: "ReLU"
  bottom: "conv1"
  top: "conv1"
}
layer {
  name: "pool1"
  type: "Pooling"
  bottom: "conv1"
  top: "pool1"
  pooling_param {
    pool: MAX
    kernel_size: 2
    stride: 2
  }
}
layer {
  name: "conv2"
  type: "Convolution"
  bottom: "pool1"
  top: "conv2"
  param {
    lr_mult: 1
  }
  param {
    lr_mult: 0.1
  }
  convolution_param {
    num_output: 48
    pad: 0
    kernel_size: 5
    stride: 1
    weight_filler {
      type: "xavier"
    }
    bias_filler {
      type: "constant"
      value: 0
    }
  }
}
layer {
  name: "relu2"
  type: "ReLU"
  bottom: "conv2"
  top: "conv2"
}
layer {
  name: "pool2"
  type: "Pooling"
  bottom: "conv2"
  top: "pool2"
  pooling_param {
    pool: MAX
    kernel_size: 2
    stride: 2
  }
}
layer {
  name: "conv3"
  type: "Convolution"
  bottom: "pool2"
  top: "conv3"
  param {
    lr_mult: 0.1
  }
  param {
    lr_mult: 0.1
  }
  convolution_param {
    num_output: 64
    pad: 0
    kernel_size: 3
    stride: 1
    weight_filler {
      type: "xavier"
    }
    bias_filler {
      type: "constant"
      value: 0
    }
  }
}
layer {
  name: "relu3"
  type: "ReLU"
  bottom: "conv3"
  top: "conv3"
}
layer {
  name: "conv4"
  type: "Convolution"
  bottom: "conv3"
  top: "conv4"
  param {
    lr_mult: 0.1
  }
  param {
    lr_mult: 0.1
  }
  convolution_param {
    num_output: 80
    pad: 0
    kernel_size: 3
    stride: 1
    weight_filler {
      type: "xavier"
    }
    bias_filler {
      type: "constant"
      value: 0
    }
  }
}
layer {
  name: "relu4"
  type: "ReLU"
  bottom: "conv4"
  top: "conv4"
}
layer {
  name: "ip1"
  type: "InnerProduct"
  bottom: "conv4"
  top: "ip1"
  inner_product_param {
    num_output: 512
    weight_filler {
      type: "xavier"
    }
    bias_filler {
      type: "constant"
    }
  }
}
layer {
  name: "relu5"
  type: "ReLU"
  bottom: "ip1"
  top: "ip1"
}
layer {
  name: "drop1"
  type: "Dropout"
  bottom: "ip1"
  top: "ip1"
  dropout_param {
    dropout_ratio: 0.5
  }
}
layer {
  name: "ip2"
  type: "InnerProduct"
  bottom: "ip1"
  top: "ip2"
  inner_product_param {
    num_output: 2
    weight_filler {
      type: "xavier"
    }
    bias_filler {
      type: "constant"
    }
  }
}
layer {
  name: "loss1"
  type: "SoftmaxWithLoss"
  bottom: "ip2"
  bottom: "glasses"
  top: "loss1"
  loss_weight: 0.5
}
layer {
  name: "ip3"
  type: "InnerProduct"
  bottom: "ip1"
  top: "ip3"
  inner_product_param {
    num_output: 512
    weight_filler {
      type: "xavier"
    }
    bias_filler {
      type: "constant"
    }
  }
}
layer {
  name: "loss2"
  type: "SoftmaxWithLoss"
  bottom: "ip3"
  bottom: "gender"
  top: "loss2"
  loss_weight: 0.5
}
I0814 14:02:55.638219 28732 layer_factory.hpp:77] Creating layer data
I0814 14:02:55.638630 28732 net.cpp:100] Creating Layer data
I0814 14:02:55.638665 28732 net.cpp:408] data -> data
I0814 14:02:55.638700 28732 data_transformer.cpp:25] Loading mean file from: data/gender_glasses/gg_mean.binaryproto
I0814 14:02:55.639626 28736 db_lmdb.cpp:35] Opened lmdb examples/gender_glasses/gender_glasses_train_lmdb
I0814 14:02:55.649292 28732 data_layer.cpp:41] output data size: 100,3,100,100
I0814 14:02:55.667898 28732 net.cpp:150] Setting up data
I0814 14:02:55.667940 28732 net.cpp:157] Top shape: 100 3 100 100 (3000000)
I0814 14:02:55.667953 28732 net.cpp:165] Memory required for data: 12000000
I0814 14:02:55.667969 28732 layer_factory.hpp:77] Creating layer labels
I0814 14:02:55.668066 28732 net.cpp:100] Creating Layer labels
I0814 14:02:55.668082 28732 net.cpp:408] labels -> labels
I0814 14:02:55.670310 28738 db_lmdb.cpp:35] Opened lmdb examples/gender_glasses/gender_glasses_train_label_lmdb
I0814 14:02:55.671161 28732 data_layer.cpp:41] output data size: 100,2,1,1
I0814 14:02:55.671427 28732 net.cpp:150] Setting up labels
I0814 14:02:55.671448 28732 net.cpp:157] Top shape: 100 2 1 1 (200)
I0814 14:02:55.671458 28732 net.cpp:165] Memory required for data: 12000800
I0814 14:02:55.671468 28732 layer_factory.hpp:77] Creating layer slice1
I0814 14:02:55.671485 28732 net.cpp:100] Creating Layer slice1
I0814 14:02:55.671499 28732 net.cpp:434] slice1 <- labels
I0814 14:02:55.671517 28732 net.cpp:408] slice1 -> glasses
I0814 14:02:55.671537 28732 net.cpp:408] slice1 -> gender
I0814 14:02:55.671591 28732 net.cpp:150] Setting up slice1
I0814 14:02:55.671607 28732 net.cpp:157] Top shape: 100 1 1 1 (100)
I0814 14:02:55.671617 28732 net.cpp:157] Top shape: 100 1 1 1 (100)
I0814 14:02:55.671625 28732 net.cpp:165] Memory required for data: 12001600
I0814 14:02:55.671634 28732 layer_factory.hpp:77] Creating layer conv1
I0814 14:02:55.671658 28732 net.cpp:100] Creating Layer conv1
I0814 14:02:55.671669 28732 net.cpp:434] conv1 <- data
I0814 14:02:55.671681 28732 net.cpp:408] conv1 -> conv1
I0814 14:02:55.807440 28732 net.cpp:150] Setting up conv1
I0814 14:02:55.807488 28732 net.cpp:157] Top shape: 100 20 96 96 (18432000)
I0814 14:02:55.807499 28732 net.cpp:165] Memory required for data: 85729600
I0814 14:02:55.807525 28732 layer_factory.hpp:77] Creating layer relu1
I0814 14:02:55.807545 28732 net.cpp:100] Creating Layer relu1
I0814 14:02:55.807556 28732 net.cpp:434] relu1 <- conv1
I0814 14:02:55.807569 28732 net.cpp:395] relu1 -> conv1 (in-place)
I0814 14:02:55.807705 28732 net.cpp:150] Setting up relu1
I0814 14:02:55.807723 28732 net.cpp:157] Top shape: 100 20 96 96 (18432000)
I0814 14:02:55.807731 28732 net.cpp:165] Memory required for data: 159457600
I0814 14:02:55.807739 28732 layer_factory.hpp:77] Creating layer pool1
I0814 14:02:55.807754 28732 net.cpp:100] Creating Layer pool1
I0814 14:02:55.807763 28732 net.cpp:434] pool1 <- conv1
I0814 14:02:55.807775 28732 net.cpp:408] pool1 -> pool1
I0814 14:02:55.807827 28732 net.cpp:150] Setting up pool1
I0814 14:02:55.807842 28732 net.cpp:157] Top shape: 100 20 48 48 (4608000)
I0814 14:02:55.807850 28732 net.cpp:165] Memory required for data: 177889600
I0814 14:02:55.807883 28732 layer_factory.hpp:77] Creating layer conv2
I0814 14:02:55.807904 28732 net.cpp:100] Creating Layer conv2
I0814 14:02:55.807912 28732 net.cpp:434] conv2 <- pool1
I0814 14:02:55.807925 28732 net.cpp:408] conv2 -> conv2
I0814 14:02:55.808960 28732 net.cpp:150] Setting up conv2
I0814 14:02:55.808982 28732 net.cpp:157] Top shape: 100 48 44 44 (9292800)
I0814 14:02:55.808992 28732 net.cpp:165] Memory required for data: 215060800
I0814 14:02:55.809007 28732 layer_factory.hpp:77] Creating layer relu2
I0814 14:02:55.809021 28732 net.cpp:100] Creating Layer relu2
I0814 14:02:55.809031 28732 net.cpp:434] relu2 <- conv2
I0814 14:02:55.809041 28732 net.cpp:395] relu2 -> conv2 (in-place)
I0814 14:02:55.809343 28732 net.cpp:150] Setting up relu2
I0814 14:02:55.809361 28732 net.cpp:157] Top shape: 100 48 44 44 (9292800)
I0814 14:02:55.809370 28732 net.cpp:165] Memory required for data: 252232000
I0814 14:02:55.809379 28732 layer_factory.hpp:77] Creating layer pool2
I0814 14:02:55.809393 28732 net.cpp:100] Creating Layer pool2
I0814 14:02:55.809402 28732 net.cpp:434] pool2 <- conv2
I0814 14:02:55.809413 28732 net.cpp:408] pool2 -> pool2
I0814 14:02:55.809458 28732 net.cpp:150] Setting up pool2
I0814 14:02:55.809471 28732 net.cpp:157] Top shape: 100 48 22 22 (2323200)
I0814 14:02:55.809480 28732 net.cpp:165] Memory required for data: 261524800
I0814 14:02:55.809489 28732 layer_factory.hpp:77] Creating layer conv3
I0814 14:02:55.809504 28732 net.cpp:100] Creating Layer conv3
I0814 14:02:55.809512 28732 net.cpp:434] conv3 <- pool2
I0814 14:02:55.809525 28732 net.cpp:408] conv3 -> conv3
I0814 14:02:55.810776 28732 net.cpp:150] Setting up conv3
I0814 14:02:55.810798 28732 net.cpp:157] Top shape: 100 64 20 20 (2560000)
I0814 14:02:55.810807 28732 net.cpp:165] Memory required for data: 271764800
I0814 14:02:55.810822 28732 layer_factory.hpp:77] Creating layer relu3
I0814 14:02:55.810834 28732 net.cpp:100] Creating Layer relu3
I0814 14:02:55.810842 28732 net.cpp:434] relu3 <- conv3
I0814 14:02:55.810855 28732 net.cpp:395] relu3 -> conv3 (in-place)
I0814 14:02:55.811144 28732 net.cpp:150] Setting up relu3
I0814 14:02:55.811161 28732 net.cpp:157] Top shape: 100 64 20 20 (2560000)
I0814 14:02:55.811172 28732 net.cpp:165] Memory required for data: 282004800
I0814 14:02:55.811179 28732 layer_factory.hpp:77] Creating layer conv4
I0814 14:02:55.811197 28732 net.cpp:100] Creating Layer conv4
I0814 14:02:55.811208 28732 net.cpp:434] conv4 <- conv3
I0814 14:02:55.811219 28732 net.cpp:408] conv4 -> conv4
I0814 14:02:55.812423 28732 net.cpp:150] Setting up conv4
I0814 14:02:55.812444 28732 net.cpp:157] Top shape: 100 80 18 18 (2592000)
I0814 14:02:55.812454 28732 net.cpp:165] Memory required for data: 292372800
I0814 14:02:55.812466 28732 layer_factory.hpp:77] Creating layer relu4
I0814 14:02:55.812477 28732 net.cpp:100] Creating Layer relu4
I0814 14:02:55.812486 28732 net.cpp:434] relu4 <- conv4
I0814 14:02:55.812497 28732 net.cpp:395] relu4 -> conv4 (in-place)
I0814 14:02:55.812623 28732 net.cpp:150] Setting up relu4
I0814 14:02:55.812639 28732 net.cpp:157] Top shape: 100 80 18 18 (2592000)
I0814 14:02:55.812649 28732 net.cpp:165] Memory required for data: 302740800
I0814 14:02:55.812657 28732 layer_factory.hpp:77] Creating layer ip1
I0814 14:02:55.812669 28732 net.cpp:100] Creating Layer ip1
I0814 14:02:55.812679 28732 net.cpp:434] ip1 <- conv4
I0814 14:02:55.812688 28732 net.cpp:408] ip1 -> ip1
I0814 14:02:55.908428 28732 net.cpp:150] Setting up ip1
I0814 14:02:55.908475 28732 net.cpp:157] Top shape: 100 512 (51200)
I0814 14:02:55.908485 28732 net.cpp:165] Memory required for data: 302945600
I0814 14:02:55.908507 28732 layer_factory.hpp:77] Creating layer relu5
I0814 14:02:55.908525 28732 net.cpp:100] Creating Layer relu5
I0814 14:02:55.908536 28732 net.cpp:434] relu5 <- ip1
I0814 14:02:55.908548 28732 net.cpp:395] relu5 -> ip1 (in-place)
I0814 14:02:55.908947 28732 net.cpp:150] Setting up relu5
I0814 14:02:55.908967 28732 net.cpp:157] Top shape: 100 512 (51200)
I0814 14:02:55.908975 28732 net.cpp:165] Memory required for data: 303150400
I0814 14:02:55.909006 28732 layer_factory.hpp:77] Creating layer drop1
I0814 14:02:55.909029 28732 net.cpp:100] Creating Layer drop1
I0814 14:02:55.909039 28732 net.cpp:434] drop1 <- ip1
I0814 14:02:55.909050 28732 net.cpp:395] drop1 -> ip1 (in-place)
I0814 14:02:55.909088 28732 net.cpp:150] Setting up drop1
I0814 14:02:55.909103 28732 net.cpp:157] Top shape: 100 512 (51200)
I0814 14:02:55.909112 28732 net.cpp:165] Memory required for data: 303355200
I0814 14:02:55.909121 28732 layer_factory.hpp:77] Creating layer ip1_drop1_0_split
I0814 14:02:55.909137 28732 net.cpp:100] Creating Layer ip1_drop1_0_split
I0814 14:02:55.909147 28732 net.cpp:434] ip1_drop1_0_split <- ip1
I0814 14:02:55.909157 28732 net.cpp:408] ip1_drop1_0_split -> ip1_drop1_0_split_0
I0814 14:02:55.909171 28732 net.cpp:408] ip1_drop1_0_split -> ip1_drop1_0_split_1
I0814 14:02:55.909209 28732 net.cpp:150] Setting up ip1_drop1_0_split
I0814 14:02:55.909224 28732 net.cpp:157] Top shape: 100 512 (51200)
I0814 14:02:55.909232 28732 net.cpp:157] Top shape: 100 512 (51200)
I0814 14:02:55.909240 28732 net.cpp:165] Memory required for data: 303764800
I0814 14:02:55.909248 28732 layer_factory.hpp:77] Creating layer ip2
I0814 14:02:55.909268 28732 net.cpp:100] Creating Layer ip2
I0814 14:02:55.909281 28732 net.cpp:434] ip2 <- ip1_drop1_0_split_0
I0814 14:02:55.909291 28732 net.cpp:408] ip2 -> ip2
I0814 14:02:55.909394 28732 net.cpp:150] Setting up ip2
I0814 14:02:55.909407 28732 net.cpp:157] Top shape: 100 2 (200)
I0814 14:02:55.909416 28732 net.cpp:165] Memory required for data: 303765600
I0814 14:02:55.909427 28732 layer_factory.hpp:77] Creating layer loss1
I0814 14:02:55.909441 28732 net.cpp:100] Creating Layer loss1
I0814 14:02:55.909451 28732 net.cpp:434] loss1 <- ip2
I0814 14:02:55.909459 28732 net.cpp:434] loss1 <- glasses
I0814 14:02:55.909469 28732 net.cpp:408] loss1 -> loss1
I0814 14:02:55.909484 28732 layer_factory.hpp:77] Creating layer loss1
I0814 14:02:55.909687 28732 net.cpp:150] Setting up loss1
I0814 14:02:55.909703 28732 net.cpp:157] Top shape: (1)
I0814 14:02:55.909711 28732 net.cpp:160]     with loss weight 0.5
I0814 14:02:55.909735 28732 net.cpp:165] Memory required for data: 303765604
I0814 14:02:55.909744 28732 layer_factory.hpp:77] Creating layer ip3
I0814 14:02:55.909757 28732 net.cpp:100] Creating Layer ip3
I0814 14:02:55.909767 28732 net.cpp:434] ip3 <- ip1_drop1_0_split_1
I0814 14:02:55.909778 28732 net.cpp:408] ip3 -> ip3
I0814 14:02:55.911792 28732 net.cpp:150] Setting up ip3
I0814 14:02:55.911810 28732 net.cpp:157] Top shape: 100 512 (51200)
I0814 14:02:55.911819 28732 net.cpp:165] Memory required for data: 303970404
I0814 14:02:55.911831 28732 layer_factory.hpp:77] Creating layer loss2
I0814 14:02:55.911844 28732 net.cpp:100] Creating Layer loss2
I0814 14:02:55.911852 28732 net.cpp:434] loss2 <- ip3
I0814 14:02:55.911861 28732 net.cpp:434] loss2 <- gender
I0814 14:02:55.911873 28732 net.cpp:408] loss2 -> loss2
I0814 14:02:55.911890 28732 layer_factory.hpp:77] Creating layer loss2
…
name: "multi_task"
state {
  phase: TEST
}
layer {
  name: "data"
  type: "Data"
  top: "data"
  include {
    phase: TEST
  }
  transform_param {
    mirror: false
    mean_file: "data/gender_glasses/gg_mean.binaryproto"
  }
  data_param {
    source: "examples/gender_glasses/gender_glasses_val_lmdb"
    batch_size: 64
    backend: LMDB
  }
}
layer {
  name: "labels"
  type: "Data"
  top: "labels"
  include {
    phase: TEST
  }
  data_param {
    source: "examples/gender_glasses/gender_glasses_val_label_lmdb"
    batch_size: 64
    backend: LMDB
  }
}
layer {
  name: "slice1"
  type: "Slice"
  bottom: "labels"
  top: "glasses"
  top: "gender"
  slice_param {
    slice_dim: 1
    slice_point: 1
  }
}
layer {
  name: "conv1"
  type: "Convolution"
  bottom: "data"
  top: "conv1"
  param {
    lr_mult: 1
  }
  param {
    lr_mult: 0.1
  }
  convolution_param {
    num_output: 20
    pad: 0
    kernel_size: 5
    stride: 1
    weight_filler {
      type: "xavier"
    }
    bias_filler {
      type: "constant"
      value: 0
    }
  }
}
layer {
  name: "relu1"
  type: "ReLU"
  bottom: "conv1"
  top: "conv1"
}
layer {
  name: "pool1"
  type: "Pooling"
  bottom: "conv1"
  top: "pool1"
  pooling_param {
    pool: MAX
    kernel_size: 2
    stride: 2
  }
}
layer {
  name: "conv2"
  type: "Convolution"
  bottom: "pool1"
  top: "conv2"
  param {
    lr_mult: 1
  }
  param {
    lr_mult: 0.1
  }
  convolution_param {
    num_output: 48
    pad: 0
    kernel_size: 5
    stride: 1
    weight_filler {
      type: "xavier"
    }
    bias_filler {
      type: "constant"
      value: 0
    }
  }
}
layer {
  name: "relu2"
  type: "ReLU"
  bottom: "conv2"
  top: "conv2"
}
layer {
  name: "pool2"
  type: "Pooling"
  bottom: "conv2"
  top: "pool2"
  pooling_param {
    pool: MAX
    kernel_size: 2
    stride: 2
  }
}
layer {
  name: "conv3"
  type: "Convolution"
  bottom: "pool2"
  top: "conv3"
  param {
    lr_mult: 0.1
  }
  param {
    lr_mult: 0.1
  }
  convolution_param {
    num_output: 64
    pad: 0
    kernel_size: 3
    stride: 1
    weight_filler {
      type: "xavier"
    }
    bias_filler {
      type: "constant"
      value: 0
    }
  }
}
layer {
  name: "relu3"
  type: "ReLU"
  bottom: "conv3"
  top: "conv3"
}
layer {
  name: "conv4"
  type: "Convolution"
  bottom: "conv3"
  top: "conv4"
  param {
    lr_mult: 0.1
  }
  param {
    lr_mult: 0.1
  }
  convolution_param {
    num_output: 80
    pad: 0
    kernel_size: 3
    stride: 1
    weight_filler {
      type: "xavier"
    }
    bias_filler {
      type: "constant"
      value: 0
    }
  }
}
layer {
  name: "relu4"
  type: "ReLU"
  bottom: "conv4"
  top: "conv4"
}
layer {
  name: "ip1"
  type: "InnerProduct"
  bottom: "conv4"
  top: "ip1"
  inner_product_param {
    num_output: 512
    weight_filler {
      type: "xavier"
    }
    bias_filler {
      type: "constant"
    }
  }
}
layer {
  name: "relu5"
  type: "ReLU"
  bottom: "ip1"
  top: "ip1"
}
layer {
  name: "drop1"
  type: "Dropout"
  bottom: "ip1"
  top: "ip1"
  dropout_param {
    dropout_ratio: 0.5
  }
}
layer {
  name: "ip2"
  type: "InnerProduct"
  bottom: "ip1"
  top: "ip2"
  inner_product_param {
    num_output: 2
    weight_filler {
      type: "xavier"
    }
    bias_filler {
      type: "constant"
    }
  }
}
layer {
  name: "loss1"
  type: "SoftmaxWithLoss"
  bottom: "ip2"
  bottom: "glasses"
  top: "loss1"
  loss_weight: 0.5
}
layer {
  name: "accuracy_glasses"
  type: "Accuracy"
  bottom: "ip2"
  bottom: "glasses"
  top: "accuracy_glasses"
  include {
    phase: TEST
  }
}
layer {
  name: "ip3"
  type: "InnerProduct"
  bottom: "ip1"
  top: "ip3"
  inner_product_param {
    num_output: 512
    weight_filler {
      type: "xavier"
    }
    bias_filler {
      type: "constant"
    }
  }
}
layer {
  name: "loss2"
  type: "SoftmaxWithLoss"
  bottom: "ip3"
  bottom: "gender"
  top: "loss2"
  loss_weight: 0.5
}
layer {
  name: "accuracy_gender"
  type: "Accuracy"
  bottom: "ip3"
  bottom: "gender"
  top: "accuracy_gender"
  include {
    phase: TEST
  }
}
I0814 14:02:55.913944 28732 layer_factory.hpp:77] Creating layer data
I0814 14:02:55.914037 28732 net.cpp:100] Creating Layer data
I0814 14:02:55.914052 28732 net.cpp:408] data -> data
I0814 14:02:55.914067 28732 data_transformer.cpp:25] Loading mean file from: data/gender_glasses/gg_mean.binaryproto
I0814 14:02:55.914983 28740 db_lmdb.cpp:35] Opened lmdb examples/gender_glasses/gender_glasses_val_lmdb
I0814 14:02:55.915101 28732 data_layer.cpp:41] output data size: 64,3,100,100
I0814 14:02:55.928472 28732 net.cpp:150] Setting up data
I0814 14:02:55.928516 28732 net.cpp:157] Top shape: 64 3 100 100 (1920000)
I0814 14:02:55.928526 28732 net.cpp:165] Memory required for data: 7680000
I0814 14:02:55.928539 28732 layer_factory.hpp:77] Creating layer labels
I0814 14:02:55.928619 28732 net.cpp:100] Creating Layer labels
I0814 14:02:55.928634 28732 net.cpp:408] labels -> labels
I0814 14:02:55.930359 28742 db_lmdb.cpp:35] Opened lmdb examples/gender_glasses/gender_glasses_val_label_lmdb
I0814 14:02:55.931027 28732 data_layer.cpp:41] output data size: 64,2,1,1
I0814 14:02:55.931356 28732 net.cpp:150] Setting up labels
I0814 14:02:55.931375 28732 net.cpp:157] Top shape: 64 2 1 1 (128)
I0814 14:02:55.931383 28732 net.cpp:165] Memory required for data: 7680512
I0814 14:02:55.931392 28732 layer_factory.hpp:77] Creating layer slice1
I0814 14:02:55.931406 28732 net.cpp:100] Creating Layer slice1
I0814 14:02:55.931416 28732 net.cpp:434] slice1 <- labels
I0814 14:02:55.931427 28732 net.cpp:408] slice1 -> glasses
I0814 14:02:55.931440 28732 net.cpp:408] slice1 -> gender
I0814 14:02:55.931478 28732 net.cpp:150] Setting up slice1
I0814 14:02:55.931493 28732 net.cpp:157] Top shape: 64 1 1 1 (64)
I0814 14:02:55.931504 28732 net.cpp:157] Top shape: 64 1 1 1 (64)
I0814 14:02:55.931511 28732 net.cpp:165] Memory required for data: 7681024
I0814 14:02:55.931519 28732 layer_factory.hpp:77] Creating layer glasses_slice1_0_split
I0814 14:02:55.931530 28732 net.cpp:100] Creating Layer glasses_slice1_0_split
I0814 14:02:55.931540 28732 net.cpp:434] glasses_slice1_0_split <- glasses
I0814 14:02:55.931550 28732 net.cpp:408] glasses_slice1_0_split -> glasses_slice1_0_split_0
I0814 14:02:55.931563 28732 net.cpp:408] glasses_slice1_0_split -> glasses_slice1_0_split_1
I0814 14:02:55.931601 28732 net.cpp:150] Setting up glasses_slice1_0_split
I0814 14:02:55.931613 28732 net.cpp:157] Top shape: 64 1 1 1 (64)
I0814 14:02:55.931623 28732 net.cpp:157] Top shape: 64 1 1 1 (64)
I0814 14:02:55.931632 28732 net.cpp:165] Memory required for data: 7681536
I0814 14:02:55.931639 28732 layer_factory.hpp:77] Creating layer gender_slice1_1_split
I0814 14:02:55.931668 28732 net.cpp:100] Creating Layer gender_slice1_1_split
I0814 14:02:55.931676 28732 net.cpp:434] gender_slice1_1_split <- gender
I0814 14:02:55.931687 28732 net.cpp:408] gender_slice1_1_split -> gender_slice1_1_split_0
I0814 14:02:55.931699 28732 net.cpp:408] gender_slice1_1_split -> gender_slice1_1_split_1
I0814 14:02:55.931735 28732 net.cpp:150] Setting up gender_slice1_1_split
I0814 14:02:55.931746 28732 net.cpp:157] Top shape: 64 1 1 1 (64)
I0814 14:02:55.931756 28732 net.cpp:157] Top shape: 64 1 1 1 (64)
I0814 14:02:55.931764 28732 net.cpp:165] Memory required for data: 7682048
I0814 14:02:55.931772 28732 layer_factory.hpp:77] Creating layer conv1
I0814 14:02:55.931788 28732 net.cpp:100] Creating Layer conv1
I0814 14:02:55.931797 28732 net.cpp:434] conv1 <- data
I0814 14:02:55.931809 28732 net.cpp:408] conv1 -> conv1
I0814 14:02:55.933017 28732 net.cpp:150] Setting up conv1
I0814 14:02:55.933048 28732 net.cpp:157] Top shape: 64 20 96 96 (11796480)
I0814 14:02:55.933061 28732 net.cpp:165] Memory required for data: 54867968
I0814 14:02:55.933081 28732 layer_factory.hpp:77] Creating layer relu1
I0814 14:02:55.933095 28732 net.cpp:100] Creating Layer relu1
I0814 14:02:55.933110 28732 net.cpp:434] relu1 <- conv1
I0814 14:02:55.933122 28732 net.cpp:395] relu1 -> conv1 (in-place)
I0814 14:02:55.933301 28732 net.cpp:150] Setting up relu1
I0814 14:02:55.933318 28732 net.cpp:157] Top shape: 64 20 96 96 (11796480)
I0814 14:02:55.933327 28732 net.cpp:165] Memory required for data: 102053888
I0814 14:02:55.933337 28732 layer_factory.hpp:77] Creating layer pool1
I0814 14:02:55.933354 28732 net.cpp:100] Creating Layer pool1
I0814 14:02:55.933365 28732 net.cpp:434] pool1 <- conv1
I0814 14:02:55.933383 28732 net.cpp:408] pool1 -> pool1
I0814 14:02:55.933434 28732 net.cpp:150] Setting up pool1
I0814 14:02:55.933449 28732 net.cpp:157] Top shape: 64 20 48 48 (2949120)
I0814 14:02:55.933457 28732 net.cpp:165] Memory required for data: 113850368
I0814 14:02:55.933466 28732 layer_factory.hpp:77] Creating layer conv2
I0814 14:02:55.933483 28732 net.cpp:100] Creating Layer conv2
I0814 14:02:55.933492 28732 net.cpp:434] conv2 <- pool1
I0814 14:02:55.933506 28732 net.cpp:408] conv2 -> conv2
I0814 14:02:55.934756 28732 net.cpp:150] Setting up conv2
I0814 14:02:55.934777 28732 net.cpp:157] Top shape: 64 48 44 44 (5947392)
I0814 14:02:55.934785 28732 net.cpp:165] Memory required for data: 137639936
I0814 14:02:55.934803 28732 layer_factory.hpp:77] Creating layer relu2
I0814 14:02:55.934814 28732 net.cpp:100] Creating Layer relu2
I0814 14:02:55.934823 28732 net.cpp:434] relu2 <- conv2
I0814 14:02:55.934834 28732 net.cpp:395] relu2 -> conv2 (in-place)
I0814 14:02:55.935120 28732 net.cpp:150] Setting up relu2
I0814 14:02:55.935137 28732 net.cpp:157] Top shape: 64 48 44 44 (5947392)
I0814 14:02:55.935148 28732 net.cpp:165] Memory required for data: 161429504
I0814 14:02:55.935156 28732 layer_factory.hpp:77] Creating layer pool2
I0814 14:02:55.935168 28732 net.cpp:100] Creating Layer pool2
I0814 14:02:55.935175 28732 net.cpp:434] pool2 <- conv2
I0814 14:02:55.935187 28732 net.cpp:408] pool2 -> pool2
I0814 14:02:55.935232 28732 net.cpp:150] Setting up pool2
I0814 14:02:55.935246 28732 net.cpp:157] Top shape: 64 48 22 22 (1486848)
I0814 14:02:55.935255 28732 net.cpp:165] Memory required for data: 167376896
I0814 14:02:55.935263 28732 layer_factory.hpp:77] Creating layer conv3
I0814 14:02:55.935279 28732 net.cpp:100] Creating Layer conv3
I0814 14:02:55.935289 28732 net.cpp:434] conv3 <- pool2
I0814 14:02:55.935300 28732 net.cpp:408] conv3 -> conv3
I0814 14:02:55.936219 28732 net.cpp:150] Setting up conv3
I0814 14:02:55.936239 28732 net.cpp:157] Top shape: 64 64 20 20 (1638400)
I0814 14:02:55.936246 28732 net.cpp:165] Memory required for data: 173930496
I0814 14:02:55.936261 28732 layer_factory.hpp:77] Creating layer relu3
I0814 14:02:55.936274 28732 net.cpp:100] Creating Layer relu3
I0814 14:02:55.936282 28732 net.cpp:434] relu3 <- conv3
I0814 14:02:55.936293 28732 net.cpp:395] relu3 -> conv3 (in-place)
I0814 14:02:55.936574 28732 net.cpp:150] Setting up relu3
I0814 14:02:55.936606 28732 net.cpp:157] Top shape: 64 64 20 20 (1638400)
I0814 14:02:55.936616 28732 net.cpp:165] Memory required for data: 180484096
I0814 14:02:55.936625 28732 layer_factory.hpp:77] Creating layer conv4
I0814 14:02:55.936641 28732 net.cpp:100] Creating Layer conv4
I0814 14:02:55.936650 28732 net.cpp:434] conv4 <- conv3
I0814 14:02:55.936662 28732 net.cpp:408] conv4 -> conv4
I0814 14:02:55.938341 28732 net.cpp:150] Setting up conv4
I0814 14:02:55.938387 28732 net.cpp:157] Top shape: 64 80 18 18 (1658880)
I0814 14:02:55.938396 28732 net.cpp:165] Memory required for data: 187119616
I0814 14:02:55.938412 28732 layer_factory.hpp:77] Creating layer relu4
I0814 14:02:55.938429 28732 net.cpp:100] Creating Layer relu4
I0814 14:02:55.938441 28732 net.cpp:434] relu4 <- conv4
I0814 14:02:55.938452 28732 net.cpp:395] relu4 -> conv4 (in-place)
I0814 14:02:55.938602 28732 net.cpp:150] Setting up relu4
I0814 14:02:55.938619 28732 net.cpp:157] Top shape: 64 80 18 18 (1658880)
I0814 14:02:55.938627 28732 net.cpp:165] Memory required for data: 193755136
I0814 14:02:55.938637 28732 layer_factory.hpp:77] Creating layer ip1
I0814 14:02:55.938652 28732 net.cpp:100] Creating Layer ip1
I0814 14:02:55.938663 28732 net.cpp:434] ip1 <- conv4
I0814 14:02:55.938675 28732 net.cpp:408] ip1 -> ip1
I0814 14:02:56.039607 28732 net.cpp:150] Setting up ip1
I0814 14:02:56.039652 28732 net.cpp:157] Top shape: 64 512 (32768)
I0814 14:02:56.039664 28732 net.cpp:165] Memory required for data: 193886208
I0814 14:02:56.039685 28732 layer_factory.hpp:77] Creating layer relu5
I0814 14:02:56.039707 28732 net.cpp:100] Creating Layer relu5
I0814 14:02:56.039718 28732 net.cpp:434] relu5 <- ip1
I0814 14:02:56.039731 28732 net.cpp:395] relu5 -> ip1 (in-place)
I0814 14:02:56.040133 28732 net.cpp:150] Setting up relu5
I0814 14:02:56.040151 28732 net.cpp:157] Top shape: 64 512 (32768)
I0814 14:02:56.040160 28732 net.cpp:165] Memory required for data: 194017280
I0814 14:02:56.040169 28732 layer_factory.hpp:77] Creating layer drop1
I0814 14:02:56.040184 28732 net.cpp:100] Creating Layer drop1
I0814 14:02:56.040192 28732 net.cpp:434] drop1 <- ip1
I0814 14:02:56.040202 28732 net.cpp:395] drop1 -> ip1 (in-place)
I0814 14:02:56.040233 28732 net.cpp:150] Setting up drop1
I0814 14:02:56.040246 28732 net.cpp:157] Top shape: 64 512 (32768)
I0814 14:02:56.040254 28732 net.cpp:165] Memory required for data: 194148352
I0814 14:02:56.040263 28732 layer_factory.hpp:77] Creating layer ip1_drop1_0_split
I0814 14:02:56.040277 28732 net.cpp:100] Creating Layer ip1_drop1_0_split
I0814 14:02:56.040285 28732 net.cpp:434] ip1_drop1_0_split <- ip1
I0814 14:02:56.040297 28732 net.cpp:408] ip1_drop1_0_split -> ip1_drop1_0_split_0
I0814 14:02:56.040309 28732 net.cpp:408] ip1_drop1_0_split -> ip1_drop1_0_split_1
I0814 14:02:56.040350 28732 net.cpp:150] Setting up ip1_drop1_0_split
I0814 14:02:56.040366 28732 net.cpp:157] Top shape: 64 512 (32768)
I0814 14:02:56.040377 28732 net.cpp:157] Top shape: 64 512 (32768)
I0814 14:02:56.040385 28732 net.cpp:165] Memory required for data: 194410496
I0814 14:02:56.040393 28732 layer_factory.hpp:77] Creating layer ip2
I0814 14:02:56.040405 28732 net.cpp:100] Creating Layer ip2
I0814 14:02:56.040415 28732 net.cpp:434] ip2 <- ip1_drop1_0_split_0
I0814 14:02:56.040426 28732 net.cpp:408] ip2 -> ip2
I0814 14:02:56.040563 28732 net.cpp:150] Setting up ip2
I0814 14:02:56.040587 28732 net.cpp:157] Top shape: 64 2 (128)
I0814 14:02:56.040596 28732 net.cpp:165] Memory required for data: 194411008
I0814 14:02:56.040608 28732 layer_factory.hpp:77] Creating layer ip2_ip2_0_split
I0814 14:02:56.040622 28732 net.cpp:100] Creating Layer ip2_ip2_0_split
I0814 14:02:56.040632 28732 net.cpp:434] ip2_ip2_0_split <- ip2
I0814 14:02:56.040642 28732 net.cpp:408] ip2_ip2_0_split -> ip2_ip2_0_split_0
I0814 14:02:56.040655 28732 net.cpp:408] ip2_ip2_0_split -> ip2_ip2_0_split_1
I0814 14:02:56.040695 28732 net.cpp:150] Setting up ip2_ip2_0_split
I0814 14:02:56.040709 28732 net.cpp:157] Top shape: 64 2 (128)
I0814 14:02:56.040719 28732 net.cpp:157] Top shape: 64 2 (128)
I0814 14:02:56.040750 28732 net.cpp:165] Memory required for data: 194412032
I0814 14:02:56.040760 28732 layer_factory.hpp:77] Creating layer loss1
I0814 14:02:56.040771 28732 net.cpp:100] Creating Layer loss1
I0814 14:02:56.040781 28732 net.cpp:434] loss1 <- ip2_ip2_0_split_0
I0814 14:02:56.040789 28732 net.cpp:434] loss1 <- glasses_slice1_0_split_0
I0814 14:02:56.040801 28732 net.cpp:408] loss1 -> loss1
…
