…
  stage: ""
}
layer {
  name: "data"
  type: "Data"
  top: "data"
  include {
    phase: TRAIN
  }
  transform_param {
    scale: 0.00390625
  }
  data_param {
    source: "/home/jaychou/code/new_caffe/caffe-master/examples/gender_glasses/gender_glasses_train_lmdb"
    batch_size: 100
    backend: LMDB
  }
}
layer {
  name: "labels"
  type: "Data"
  top: "labels"
  include {
    phase: TRAIN
  }
  data_param {
    source: "/home/jaychou/code/new_caffe/caffe-master/examples/gender_glasses/gender_glasses_train_label_lmdb"
    batch_size: 100
    backend: LMDB
  }
}
layer {
  name: "slice1"
  type: "Slice"
  bottom: "labels"
  top: "glasses"
  top: "gender"
  slice_param {
    slice_dim: 1
    slice_point: 1
  }
}
layer {
  name: "conv1"
  type: "Convolution"
  bottom: "data"
  top: "conv1"
  param {
    lr_mult: 1
  }
  param {
    lr_mult: 0.1
  }
  convolution_param {
    num_output: 20
    pad: 0
    kernel_size: 5
    stride: 1
    weight_filler {
      type: "xavier"
    }
    bias_filler {
      type: "constant"
      value: 0
    }
  }
}
layer {
  name: "relu1"
  type: "PReLU"
  bottom: "conv1"
  top: "conv1"
}
layer {
  name: "pool1"
  type: "Pooling"
  bottom: "conv1"
  top: "pool1"
  pooling_param {
    pool: MAX
    kernel_size: 2
    stride: 2
  }
}
layer {
  name: "conv2"
  type: "Convolution"
  bottom: "pool1"
  top: "conv2"
  param {
    lr_mult: 1
  }
  param {
    lr_mult: 0.1
  }
  convolution_param {
    num_output: 48
    pad: 0
    kernel_size: 5
    stride: 1
    weight_filler {
      type: "xavier"
    }
    bias_filler {
      type: "constant"
      value: 0
    }
  }
}
layer {
  name: "relu2"
  type: "PReLU"
  bottom: "conv2"
  top: "conv2"
}
layer {
  name: "pool2"
  type: "Pooling"
  bottom: "conv2"
  top: "pool2"
  pooling_param {
    pool: MAX
    kernel_size: 2
    stride: 2
  }
}
layer {
  name: "conv3"
  type: "Convolution"
  bottom: "pool2"
  top: "conv3"
  param {
    lr_mult: 0.1
  }
  param {
    lr_mult: 0.1
  }
  convolution_param {
    num_output: 64
    pad: 0
    kernel_size: 3
    stride: 1
    weight_filler {
      type: "xavier"
    }
    bias_filler {
      type: "constant"
      value: 0
    }
  }
}
layer {
  name: "relu3"
  type: "PReLU"
  bottom: "conv3"
  top: "conv3"
}
layer {
  name: "conv4"
  type: "Convolution"
  bottom: "conv3"
  top: "conv4"
  param {
    lr_mult: 0.1
  }
  param {
    lr_mult: 0.1
  }
  convolution_param {
    num_output: 80
    pad: 0
    kernel_size: 3
    stride: 1
    weight_filler {
      type: "xavier"
    }
    bias_filler {
      type: "constant"
      value: 0
    }
  }
}
layer {
  name: "relu4"
  type: "PReLU"
  bottom: "conv4"
  top: "conv4"
}
layer {
  name: "ip1"
  type: "InnerProduct"
  bottom: "conv4"
  top: "ip1"
  inner_product_param {
    num_output: 512
    weight_filler {
      type: "xavier"
    }
    bias_filler {
      type: "constant"
    }
  }
}
layer {
  name: "relu5"
  type: "PReLU"
  bottom: "ip1"
  top: "ip1"
}
layer {
  name: "drop1"
  type: "Dropout"
  bottom: "ip1"
  top: "ip1"
  dropout_param {
    dropout_ratio: 0.5
  }
}
layer {
  name: "ip2"
  type: "InnerProduct"
  bottom: "ip1"
  top: "ip2"
  inner_product_param {
    num_output: 2
    weight_filler {
      type: "xavier"
    }
    bias_filler {
      type: "constant"
    }
  }
}
layer {
  name: "loss1"
  type: "SoftmaxWithLoss"
  bottom: "ip2"
  bottom: "glasses"
  top: "loss1"
  loss_weight: 0.5
}
layer {
  name: "ip3"
  type: "InnerProduct"
  bottom: "ip1"
  top: "ip3"
  inner_product_param {
    num_output: 512
    weight_filler {
      type: "xavier"
    }
    bias_filler {
      type: "constant"
    }
  }
}
layer {
  name: "loss2"
  type: "SoftmaxWithLoss"
  bottom: "ip3"
  bottom: "gender"
  top: "loss2"
  loss_weight: 0.5
}
I0814 22:43:29.640033 10672 layer_factory.hpp:77] Creating layer data
I0814 22:43:29.640398 10672 net.cpp:100] Creating Layer data
I0814 22:43:29.640414 10672 net.cpp:408] data -> data
I0814 22:43:29.641741 10676 db_lmdb.cpp:35] Opened lmdb /home/jaychou/code/new_caffe/caffe-master/examples/gender_glasses/gender_glasses_train_lmdb
I0814 22:43:29.651517 10672 data_layer.cpp:41] output data size: 100,3,100,100
I0814 22:43:29.670325 10672 net.cpp:150] Setting up data
I0814 22:43:29.670374 10672 net.cpp:157] Top shape: 100 3 100 100 (3000000)
I0814 22:43:29.670384 10672 net.cpp:165] Memory required for data: 12000000
I0814 22:43:29.670402 10672 layer_factory.hpp:77] Creating layer labels
I0814 22:43:29.670507 10672 net.cpp:100] Creating Layer labels
I0814 22:43:29.670522 10672 net.cpp:408] labels -> labels
I0814 22:43:29.672750 10678 db_lmdb.cpp:35] Opened lmdb /home/jaychou/code/new_caffe/caffe-master/examples/gender_glasses/gender_glasses_train_label_lmdb
I0814 22:43:29.673651 10672 data_layer.cpp:41] output data size: 100,2,1,1
I0814 22:43:29.674104 10672 net.cpp:150] Setting up labels
I0814 22:43:29.674124 10672 net.cpp:157] Top shape: 100 2 1 1 (200)
I0814 22:43:29.674134 10672 net.cpp:165] Memory required for data: 12000800
I0814 22:43:29.674144 10672 layer_factory.hpp:77] Creating layer slice1
I0814 22:43:29.674160 10672 net.cpp:100] Creating Layer slice1
I0814 22:43:29.674172 10672 net.cpp:434] slice1 <- labels
I0814 22:43:29.674190 10672 net.cpp:408] slice1 -> glasses
I0814 22:43:29.674208 10672 net.cpp:408] slice1 -> gender
I0814 22:43:29.674250 10672 net.cpp:150] Setting up slice1
I0814 22:43:29.674264 10672 net.cpp:157] Top shape: 100 1 1 1 (100)
I0814 22:43:29.674274 10672 net.cpp:157] Top shape: 100 1 1 1 (100)
I0814 22:43:29.674283 10672 net.cpp:165] Memory required for data: 12001600
I0814 22:43:29.674291 10672 layer_factory.hpp:77] Creating layer conv1
I0814 22:43:29.674314 10672 net.cpp:100] Creating Layer conv1
I0814 22:43:29.674325 10672 net.cpp:434] conv1 <- data
I0814 22:43:29.674337 10672 net.cpp:408] conv1 -> conv1
I0814 22:43:29.823599 10672 net.cpp:150] Setting up conv1
I0814 22:43:29.823648 10672 net.cpp:157] Top shape: 100 20 96 96 (18432000)
I0814 22:43:29.823658 10672 net.cpp:165] Memory required for data: 85729600
I0814 22:43:29.823684 10672 layer_factory.hpp:77] Creating layer relu1
I0814 22:43:29.823703 10672 net.cpp:100] Creating Layer relu1
I0814 22:43:29.823714 10672 net.cpp:434] relu1 <- conv1
I0814 22:43:29.823724 10672 net.cpp:395] relu1 -> conv1 (in-place)
I0814 22:43:29.824247 10672 net.cpp:150] Setting up relu1
I0814 22:43:29.824265 10672 net.cpp:157] Top shape: 100 20 96 96 (18432000)
I0814 22:43:29.824275 10672 net.cpp:165] Memory required for data: 159457600
I0814 22:43:29.824288 10672 layer_factory.hpp:77] Creating layer pool1
I0814 22:43:29.824301 10672 net.cpp:100] Creating Layer pool1
I0814 22:43:29.824311 10672 net.cpp:434] pool1 <- conv1
I0814 22:43:29.824321 10672 net.cpp:408] pool1 -> pool1
I0814 22:43:29.824367 10672 net.cpp:150] Setting up pool1
I0814 22:43:29.824380 10672 net.cpp:157] Top shape: 100 20 48 48 (4608000)
I0814 22:43:29.824388 10672 net.cpp:165] Memory required for data: 177889600
I0814 22:43:29.824420 10672 layer_factory.hpp:77] Creating layer conv2
I0814 22:43:29.824439 10672 net.cpp:100] Creating Layer conv2
I0814 22:43:29.824450 10672 net.cpp:434] conv2 <- pool1
I0814 22:43:29.824461 10672 net.cpp:408] conv2 -> conv2
I0814 22:43:29.825770 10672 net.cpp:150] Setting up conv2
I0814 22:43:29.825793 10672 net.cpp:157] Top shape: 100 48 44 44 (9292800)
I0814 22:43:29.825803 10672 net.cpp:165] Memory required for data: 215060800
I0814 22:43:29.825816 10672 layer_factory.hpp:77] Creating layer relu2
I0814 22:43:29.825829 10672 net.cpp:100] Creating Layer relu2
I0814 22:43:29.825836 10672 net.cpp:434] relu2 <- conv2
I0814 22:43:29.825847 10672 net.cpp:395] relu2 -> conv2 (in-place)
I0814 22:43:29.826309 10672 net.cpp:150] Setting up relu2
I0814 22:43:29.826328 10672 net.cpp:157] Top shape: 100 48 44 44 (9292800)
I0814 22:43:29.826335 10672 net.cpp:165] Memory required for data: 252232000
I0814 22:43:29.826346 10672 layer_factory.hpp:77] Creating layer pool2
I0814 22:43:29.826360 10672 net.cpp:100] Creating Layer pool2
I0814 22:43:29.826370 10672 net.cpp:434] pool2 <- conv2
I0814 22:43:29.826380 10672 net.cpp:408] pool2 -> pool2
I0814 22:43:29.826421 10672 net.cpp:150] Setting up pool2
I0814 22:43:29.826433 10672 net.cpp:157] Top shape: 100 48 22 22 (2323200)
I0814 22:43:29.826442 10672 net.cpp:165] Memory required for data: 261524800
I0814 22:43:29.826450 10672 layer_factory.hpp:77] Creating layer conv3
I0814 22:43:29.826465 10672 net.cpp:100] Creating Layer conv3
I0814 22:43:29.826474 10672 net.cpp:434] conv3 <- pool2
I0814 22:43:29.826486 10672 net.cpp:408] conv3 -> conv3
I0814 22:43:29.827730 10672 net.cpp:150] Setting up conv3
I0814 22:43:29.827754 10672 net.cpp:157] Top shape: 100 64 20 20 (2560000)
I0814 22:43:29.827764 10672 net.cpp:165] Memory required for data: 271764800
I0814 22:43:29.827775 10672 layer_factory.hpp:77] Creating layer relu3
I0814 22:43:29.827786 10672 net.cpp:100] Creating Layer relu3
I0814 22:43:29.827795 10672 net.cpp:434] relu3 <- conv3
I0814 22:43:29.827808 10672 net.cpp:395] relu3 -> conv3 (in-place)
I0814 22:43:29.827905 10672 net.cpp:150] Setting up relu3
I0814 22:43:29.827919 10672 net.cpp:157] Top shape: 100 64 20 20 (2560000)
I0814 22:43:29.827929 10672 net.cpp:165] Memory required for data: 282004800
I0814 22:43:29.827942 10672 layer_factory.hpp:77] Creating layer conv4
I0814 22:43:29.827960 10672 net.cpp:100] Creating Layer conv4
I0814 22:43:29.827968 10672 net.cpp:434] conv4 <- conv3
I0814 22:43:29.827980 10672 net.cpp:408] conv4 -> conv4
I0814 22:43:29.829103 10672 net.cpp:150] Setting up conv4
I0814 22:43:29.829123 10672 net.cpp:157] Top shape: 100 80 18 18 (2592000)
I0814 22:43:29.829131 10672 net.cpp:165] Memory required for data: 292372800
I0814 22:43:29.829144 10672 layer_factory.hpp:77] Creating layer relu4
I0814 22:43:29.829154 10672 net.cpp:100] Creating Layer relu4
I0814 22:43:29.829164 10672 net.cpp:434] relu4 <- conv4
I0814 22:43:29.829174 10672 net.cpp:395] relu4 -> conv4 (in-place)
I0814 22:43:29.829274 10672 net.cpp:150] Setting up relu4
I0814 22:43:29.829289 10672 net.cpp:157] Top shape: 100 80 18 18 (2592000)
I0814 22:43:29.829298 10672 net.cpp:165] Memory required for data: 302740800
I0814 22:43:29.829308 10672 layer_factory.hpp:77] Creating layer ip1
I0814 22:43:29.829324 10672 net.cpp:100] Creating Layer ip1
I0814 22:43:29.829334 10672 net.cpp:434] ip1 <- conv4
I0814 22:43:29.829344 10672 net.cpp:408] ip1 -> ip1
I0814 22:43:29.926404 10672 net.cpp:150] Setting up ip1
I0814 22:43:29.926451 10672 net.cpp:157] Top shape: 100 512 (51200)
I0814 22:43:29.926461 10672 net.cpp:165] Memory required for data: 302945600
I0814 22:43:29.926477 10672 layer_factory.hpp:77] Creating layer relu5
I0814 22:43:29.926492 10672 net.cpp:100] Creating Layer relu5
I0814 22:43:29.926502 10672 net.cpp:434] relu5 <- ip1
I0814 22:43:29.926514 10672 net.cpp:395] relu5 -> ip1 (in-place)
I0814 22:43:29.926604 10672 net.cpp:150] Setting up relu5
I0814 22:43:29.926618 10672 net.cpp:157] Top shape: 100 512 (51200)
I0814 22:43:29.926626 10672 net.cpp:165] Memory required for data: 303150400
I0814 22:43:29.926661 10672 layer_factory.hpp:77] Creating layer drop1
I0814 22:43:29.926681 10672 net.cpp:100] Creating Layer drop1
I0814 22:43:29.926692 10672 net.cpp:434] drop1 <- ip1
I0814 22:43:29.926702 10672 net.cpp:395] drop1 -> ip1 (in-place)
I0814 22:43:29.926736 10672 net.cpp:150] Setting up drop1
I0814 22:43:29.926750 10672 net.cpp:157] Top shape: 100 512 (51200)
I0814 22:43:29.926759 10672 net.cpp:165] Memory required for data: 303355200
I0814 22:43:29.926767 10672 layer_factory.hpp:77] Creating layer ip1_drop1_0_split
I0814 22:43:29.926785 10672 net.cpp:100] Creating Layer ip1_drop1_0_split
I0814 22:43:29.926796 10672 net.cpp:434] ip1_drop1_0_split <- ip1
I0814 22:43:29.926806 10672 net.cpp:408] ip1_drop1_0_split -> ip1_drop1_0_split_0
I0814 22:43:29.926818 10672 net.cpp:408] ip1_drop1_0_split -> ip1_drop1_0_split_1
I0814 22:43:29.926856 10672 net.cpp:150] Setting up ip1_drop1_0_split
I0814 22:43:29.926869 10672 net.cpp:157] Top shape: 100 512 (51200)
I0814 22:43:29.926879 10672 net.cpp:157] Top shape: 100 512 (51200)
I0814 22:43:29.926887 10672 net.cpp:165] Memory required for data: 303764800
I0814 22:43:29.926895 10672 layer_factory.hpp:77] Creating layer ip2
I0814 22:43:29.926908 10672 net.cpp:100] Creating Layer ip2
I0814 22:43:29.926918 10672 net.cpp:434] ip2 <- ip1_drop1_0_split_0
I0814 22:43:29.926928 10672 net.cpp:408] ip2 -> ip2
I0814 22:43:29.927019 10672 net.cpp:150] Setting up ip2
I0814 22:43:29.927033 10672 net.cpp:157] Top shape: 100 2 (200)
I0814 22:43:29.927042 10672 net.cpp:165] Memory required for data: 303765600
I0814 22:43:29.927057 10672 layer_factory.hpp:77] Creating layer loss1
I0814 22:43:29.927070 10672 net.cpp:100] Creating Layer loss1
I0814 22:43:29.927079 10672 net.cpp:434] loss1 <- ip2
I0814 22:43:29.927088 10672 net.cpp:434] loss1 <- glasses
I0814 22:43:29.927099 10672 net.cpp:408] loss1 -> loss1
I0814 22:43:29.927114 10672 layer_factory.hpp:77] Creating layer loss1
I0814 22:43:29.927572 10672 net.cpp:150] Setting up loss1
I0814 22:43:29.927588 10672 net.cpp:157] Top shape: (1)
I0814 22:43:29.927597 10672 net.cpp:160]     with loss weight 0.5
I0814 22:43:29.927621 10672 net.cpp:165] Memory required for data: 303765604
I0814 22:43:29.927629 10672 layer_factory.hpp:77] Creating layer ip3
I0814 22:43:29.927641 10672 net.cpp:100] Creating Layer ip3
I0814 22:43:29.927657 10672 net.cpp:434] ip3 <- ip1_drop1_0_split_1
I0814 22:43:29.927669 10672 net.cpp:408] ip3 -> ip3
I0814 22:43:29.929687 10672 net.cpp:150] Setting up ip3
I0814 22:43:29.929705 10672 net.cpp:157] Top shape: 100 512 (51200)
I0814 22:43:29.929714 10672 net.cpp:165] Memory required for data: 303970404
I0814 22:43:29.929725 10672 layer_factory.hpp:77] Creating layer loss2
I0814 22:43:29.929738 10672 net.cpp:100] Creating Layer loss2
I0814 22:43:29.929746 10672 net.cpp:434] loss2 <- ip3
I0814 22:43:29.929755 10672 net.cpp:434] loss2 <- gender
I0814 22:43:29.929767 10672 net.cpp:408] loss2 -> loss2
I0814 22:43:29.929782 10672 layer_factory.hpp:77] Creating layer loss2
…
  phase: TEST
}
layer {
  name: "data"
  type: "Data"
  top: "data"
  include {
    phase: TEST
  }
  transform_param {
    scale: 0.00390625
  }
  data_param {
    source: "/home/jaychou/code/new_caffe/caffe-master/examples/gender_glasses/gender_glasses_val_lmdb"
    batch_size: 64
    backend: LMDB
  }
}
layer {
  name: "labels"
  type: "Data"
  top: "labels"
  include {
    phase: TEST
  }
  data_param {
    source: "/home/jaychou/code/new_caffe/caffe-master/examples/gender_glasses/gender_glasses_val_label_lmdb"
    batch_size: 64
    backend: LMDB
  }
}
layer {
  name: "slice1"
  type: "Slice"
  bottom: "labels"
  top: "glasses"
  top: "gender"
  slice_param {
    slice_dim: 1
    slice_point: 1
  }
}
layer {
  name: "conv1"
  type: "Convolution"
  bottom: "data"
  top: "conv1"
  param {
    lr_mult: 1
  }
  param {
    lr_mult: 0.1
  }
  convolution_param {
    num_output: 20
    pad: 0
    kernel_size: 5
    stride: 1
    weight_filler {
      type: "xavier"
    }
    bias_filler {
      type: "constant"
      value: 0
    }
  }
}
layer {
  name: "relu1"
  type: "PReLU"
  bottom: "conv1"
  top: "conv1"
}
layer {
  name: "pool1"
  type: "Pooling"
  bottom: "conv1"
  top: "pool1"
  pooling_param {
    pool: MAX
    kernel_size: 2
    stride: 2
  }
}
layer {
  name: "conv2"
  type: "Convolution"
  bottom: "pool1"
  top: "conv2"
  param {
    lr_mult: 1
  }
  param {
    lr_mult: 0.1
  }
  convolution_param {
    num_output: 48
    pad: 0
    kernel_size: 5
    stride: 1
    weight_filler {
      type: "xavier"
    }
    bias_filler {
      type: "constant"
      value: 0
    }
  }
}
layer {
  name: "relu2"
  type: "PReLU"
  bottom: "conv2"
  top: "conv2"
}
layer {
  name: "pool2"
  type: "Pooling"
  bottom: "conv2"
  top: "pool2"
  pooling_param {
    pool: MAX
    kernel_size: 2
    stride: 2
  }
}
layer {
  name: "conv3"
  type: "Convolution"
  bottom: "pool2"
  top: "conv3"
  param {
    lr_mult: 0.1
  }
  param {
    lr_mult: 0.1
  }
  convolution_param {
    num_output: 64
    pad: 0
    kernel_size: 3
    stride: 1
    weight_filler {
      type: "xavier"
    }
    bias_filler {
      type: "constant"
      value: 0
    }
  }
}
layer {
  name: "relu3"
  type: "PReLU"
  bottom: "conv3"
  top: "conv3"
}
layer {
  name: "conv4"
  type: "Convolution"
  bottom: "conv3"
  top: "conv4"
  param {
    lr_mult: 0.1
  }
  param {
    lr_mult: 0.1
  }
  convolution_param {
    num_output: 80
    pad: 0
    kernel_size: 3
    stride: 1
    weight_filler {
      type: "xavier"
    }
    bias_filler {
      type: "constant"
      value: 0
    }
  }
}
layer {
  name: "relu4"
  type: "PReLU"
  bottom: "conv4"
  top: "conv4"
}
layer {
  name: "ip1"
  type: "InnerProduct"
  bottom: "conv4"
  top: "ip1"
  inner_product_param {
    num_output: 512
    weight_filler {
      type: "xavier"
    }
    bias_filler {
      type: "constant"
    }
  }
}
layer {
  name: "relu5"
  type: "PReLU"
  bottom: "ip1"
  top: "ip1"
}
layer {
  name: "drop1"
  type: "Dropout"
  bottom: "ip1"
  top: "ip1"
  dropout_param {
    dropout_ratio: 0.5
  }
}
layer {
  name: "ip2"
  type: "InnerProduct"
  bottom: "ip1"
  top: "ip2"
  inner_product_param {
    num_output: 2
    weight_filler {
      type: "xavier"
    }
    bias_filler {
      type: "constant"
    }
  }
}
layer {
  name: "loss1"
  type: "SoftmaxWithLoss"
  bottom: "ip2"
  bottom: "glasses"
  top: "loss1"
  loss_weight: 0.5
}
layer {
  name: "accuracy_glasses"
  type: "Accuracy"
  bottom: "ip2"
  bottom: "glasses"
  top: "accuracy_glasses"
  include {
    phase: TEST
  }
}
layer {
  name: "ip3"
  type: "InnerProduct"
  bottom: "ip1"
  top: "ip3"
  inner_product_param {
    num_output: 512
    weight_filler {
      type: "xavier"
    }
    bias_filler {
      type: "constant"
    }
  }
}
layer {
  name: "loss2"
  type: "SoftmaxWithLoss"
  bottom: "ip3"
  bottom: "gender"
  top: "loss2"
  loss_weight: 0.5
}
layer {
  name: "accuracy_gender"
  type: "Accuracy"
  bottom: "ip3"
  bottom: "gender"
  top: "accuracy_gender"
  include {
    phase: TEST
  }
}
I0814 22:43:29.931723 10672 layer_factory.hpp:77] Creating layer data
I0814 22:43:29.931815 10672 net.cpp:100] Creating Layer data
I0814 22:43:29.931829 10672 net.cpp:408] data -> data
I0814 22:43:29.933320 10680 db_lmdb.cpp:35] Opened lmdb /home/jaychou/code/new_caffe/caffe-master/examples/gender_glasses/gender_glasses_val_lmdb
I0814 22:43:29.933537 10672 data_layer.cpp:41] output data size: 64,3,100,100
I0814 22:43:29.947399 10672 net.cpp:150] Setting up data
I0814 22:43:29.947448 10672 net.cpp:157] Top shape: 64 3 100 100 (1920000)
I0814 22:43:29.947458 10672 net.cpp:165] Memory required for data: 7680000
I0814 22:43:29.947469 10672 layer_factory.hpp:77] Creating layer labels
I0814 22:43:29.947597 10672 net.cpp:100] Creating Layer labels
I0814 22:43:29.947613 10672 net.cpp:408] labels -> labels
I0814 22:43:29.949398 10682 db_lmdb.cpp:35] Opened lmdb /home/jaychou/code/new_caffe/caffe-master/examples/gender_glasses/gender_glasses_val_label_lmdb
I0814 22:43:29.949888 10672 data_layer.cpp:41] output data size: 64,2,1,1
I0814 22:43:29.950219 10672 net.cpp:150] Setting up labels
I0814 22:43:29.950238 10672 net.cpp:157] Top shape: 64 2 1 1 (128)
I0814 22:43:29.950248 10672 net.cpp:165] Memory required for data: 7680512
I0814 22:43:29.950258 10672 layer_factory.hpp:77] Creating layer slice1
I0814 22:43:29.950273 10672 net.cpp:100] Creating Layer slice1
I0814 22:43:29.950284 10672 net.cpp:434] slice1 <- labels
I0814 22:43:29.950297 10672 net.cpp:408] slice1 -> glasses
I0814 22:43:29.950312 10672 net.cpp:408] slice1 -> gender
I0814 22:43:29.950351 10672 net.cpp:150] Setting up slice1
I0814 22:43:29.950366 10672 net.cpp:157] Top shape: 64 1 1 1 (64)
I0814 22:43:29.950374 10672 net.cpp:157] Top shape: 64 1 1 1 (64)
I0814 22:43:29.950382 10672 net.cpp:165] Memory required for data: 7681024
I0814 22:43:29.950390 10672 layer_factory.hpp:77] Creating layer glasses_slice1_0_split
I0814 22:43:29.950402 10672 net.cpp:100] Creating Layer glasses_slice1_0_split
I0814 22:43:29.950412 10672 net.cpp:434] glasses_slice1_0_split <- glasses
I0814 22:43:29.950423 10672 net.cpp:408] glasses_slice1_0_split -> glasses_slice1_0_split_0
I0814 22:43:29.950434 10672 net.cpp:408] glasses_slice1_0_split -> glasses_slice1_0_split_1
I0814 22:43:29.950474 10672 net.cpp:150] Setting up glasses_slice1_0_split
I0814 22:43:29.950498 10672 net.cpp:157] Top shape: 64 1 1 1 (64)
I0814 22:43:29.950508 10672 net.cpp:157] Top shape: 64 1 1 1 (64)
I0814 22:43:29.950516 10672 net.cpp:165] Memory required for data: 7681536
I0814 22:43:29.950525 10672 layer_factory.hpp:77] Creating layer gender_slice1_1_split
I0814 22:43:29.950554 10672 net.cpp:100] Creating Layer gender_slice1_1_split
I0814 22:43:29.950570 10672 net.cpp:434] gender_slice1_1_split <- gender
I0814 22:43:29.950584 10672 net.cpp:408] gender_slice1_1_split -> gender_slice1_1_split_0
I0814 22:43:29.950597 10672 net.cpp:408] gender_slice1_1_split -> gender_slice1_1_split_1
I0814 22:43:29.950634 10672 net.cpp:150] Setting up gender_slice1_1_split
I0814 22:43:29.950645 10672 net.cpp:157] Top shape: 64 1 1 1 (64)
I0814 22:43:29.950657 10672 net.cpp:157] Top shape: 64 1 1 1 (64)
I0814 22:43:29.950665 10672 net.cpp:165] Memory required for data: 7682048
I0814 22:43:29.950675 10672 layer_factory.hpp:77] Creating layer conv1
I0814 22:43:29.950693 10672 net.cpp:100] Creating Layer conv1
I0814 22:43:29.950702 10672 net.cpp:434] conv1 <- data
I0814 22:43:29.950713 10672 net.cpp:408] conv1 -> conv1
I0814 22:43:29.951792 10672 net.cpp:150] Setting up conv1
I0814 22:43:29.951812 10672 net.cpp:157] Top shape: 64 20 96 96 (11796480)
I0814 22:43:29.951822 10672 net.cpp:165] Memory required for data: 54867968
I0814 22:43:29.951845 10672 layer_factory.hpp:77] Creating layer relu1
I0814 22:43:29.951860 10672 net.cpp:100] Creating Layer relu1
I0814 22:43:29.951870 10672 net.cpp:434] relu1 <- conv1
I0814 22:43:29.951884 10672 net.cpp:395] relu1 -> conv1 (in-place)
I0814 22:43:29.952446 10672 net.cpp:150] Setting up relu1
I0814 22:43:29.952464 10672 net.cpp:157] Top shape: 64 20 96 96 (11796480)
I0814 22:43:29.952476 10672 net.cpp:165] Memory required for data: 102053888
I0814 22:43:29.952496 10672 layer_factory.hpp:77] Creating layer pool1
I0814 22:43:29.952508 10672 net.cpp:100] Creating Layer pool1
I0814 22:43:29.952517 10672 net.cpp:434] pool1 <- conv1
I0814 22:43:29.952529 10672 net.cpp:408] pool1 -> pool1
I0814 22:43:29.952574 10672 net.cpp:150] Setting up pool1
I0814 22:43:29.952594 10672 net.cpp:157] Top shape: 64 20 48 48 (2949120)
I0814 22:43:29.952602 10672 net.cpp:165] Memory required for data: 113850368
I0814 22:43:29.952611 10672 layer_factory.hpp:77] Creating layer conv2
I0814 22:43:29.952632 10672 net.cpp:100] Creating Layer conv2
I0814 22:43:29.952642 10672 net.cpp:434] conv2 <- pool1
I0814 22:43:29.952653 10672 net.cpp:408] conv2 -> conv2
I0814 22:43:29.953830 10672 net.cpp:150] Setting up conv2
I0814 22:43:29.953857 10672 net.cpp:157] Top shape: 64 48 44 44 (5947392)
I0814 22:43:29.953866 10672 net.cpp:165] Memory required for data: 137639936
I0814 22:43:29.953884 10672 layer_factory.hpp:77] Creating layer relu2
I0814 22:43:29.953904 10672 net.cpp:100] Creating Layer relu2
I0814 22:43:29.953913 10672 net.cpp:434] relu2 <- conv2
I0814 22:43:29.953924 10672 net.cpp:395] relu2 -> conv2 (in-place)
I0814 22:43:29.954134 10672 net.cpp:150] Setting up relu2
I0814 22:43:29.954149 10672 net.cpp:157] Top shape: 64 48 44 44 (5947392)
I0814 22:43:29.954156 10672 net.cpp:165] Memory required for data: 161429504
I0814 22:43:29.954166 10672 layer_factory.hpp:77] Creating layer pool2
I0814 22:43:29.954180 10672 net.cpp:100] Creating Layer pool2
I0814 22:43:29.954188 10672 net.cpp:434] pool2 <- conv2
I0814 22:43:29.954198 10672 net.cpp:408] pool2 -> pool2
I0814 22:43:29.954242 10672 net.cpp:150] Setting up pool2
I0814 22:43:29.954255 10672 net.cpp:157] Top shape: 64 48 22 22 (1486848)
I0814 22:43:29.954263 10672 net.cpp:165] Memory required for data: 167376896
I0814 22:43:29.954272 10672 layer_factory.hpp:77] Creating layer conv3
I0814 22:43:29.954288 10672 net.cpp:100] Creating Layer conv3
I0814 22:43:29.954296 10672 net.cpp:434] conv3 <- pool2
I0814 22:43:29.954308 10672 net.cpp:408] conv3 -> conv3
I0814 22:43:29.955641 10672 net.cpp:150] Setting up conv3
I0814 22:43:29.955669 10672 net.cpp:157] Top shape: 64 64 20 20 (1638400)
I0814 22:43:29.955678 10672 net.cpp:165] Memory required for data: 173930496
I0814 22:43:29.955693 10672 layer_factory.hpp:77] Creating layer relu3
I0814 22:43:29.955710 10672 net.cpp:100] Creating Layer relu3
I0814 22:43:29.955721 10672 net.cpp:434] relu3 <- conv3
I0814 22:43:29.955737 10672 net.cpp:395] relu3 -> conv3 (in-place)
I0814 22:43:29.956876 10672 net.cpp:150] Setting up relu3
I0814 22:43:29.956914 10672 net.cpp:157] Top shape: 64 64 20 20 (1638400)
I0814 22:43:29.956924 10672 net.cpp:165] Memory required for data: 180484096
I0814 22:43:29.956940 10672 layer_factory.hpp:77] Creating layer conv4
I0814 22:43:29.956957 10672 net.cpp:100] Creating Layer conv4
I0814 22:43:29.956969 10672 net.cpp:434] conv4 <- conv3
I0814 22:43:29.956981 10672 net.cpp:408] conv4 -> conv4
I0814 22:43:29.958328 10672 net.cpp:150] Setting up conv4
I0814 22:43:29.958348 10672 net.cpp:157] Top shape: 64 80 18 18 (1658880)
I0814 22:43:29.958358 10672 net.cpp:165] Memory required for data: 187119616
I0814 22:43:29.958369 10672 layer_factory.hpp:77] Creating layer relu4
I0814 22:43:29.958384 10672 net.cpp:100] Creating Layer relu4
I0814 22:43:29.958394 10672 net.cpp:434] relu4 <- conv4
I0814 22:43:29.958403 10672 net.cpp:395] relu4 -> conv4 (in-place)
I0814 22:43:29.958541 10672 net.cpp:150] Setting up relu4
I0814 22:43:29.958607 10672 net.cpp:157] Top shape: 64 80 18 18 (1658880)
I0814 22:43:29.958622 10672 net.cpp:165] Memory required for data: 193755136
I0814 22:43:29.958634 10672 layer_factory.hpp:77] Creating layer ip1
I0814 22:43:29.958657 10672 net.cpp:100] Creating Layer ip1
I0814 22:43:29.958670 10672 net.cpp:434] ip1 <- conv4
I0814 22:43:29.958684 10672 net.cpp:408] ip1 -> ip1
I0814 22:43:30.066485 10672 net.cpp:150] Setting up ip1
I0814 22:43:30.066532 10672 net.cpp:157] Top shape: 64 512 (32768)
I0814 22:43:30.066542 10672 net.cpp:165] Memory required for data: 193886208
I0814 22:43:30.066563 10672 layer_factory.hpp:77] Creating layer relu5
I0814 22:43:30.066583 10672 net.cpp:100] Creating Layer relu5
I0814 22:43:30.066594 10672 net.cpp:434] relu5 <- ip1
I0814 22:43:30.066607 10672 net.cpp:395] relu5 -> ip1 (in-place)
I0814 22:43:30.066699 10672 net.cpp:150] Setting up relu5
I0814 22:43:30.066714 10672 net.cpp:157] Top shape: 64 512 (32768)
I0814 22:43:30.066721 10672 net.cpp:165] Memory required for data: 194017280
I0814 22:43:30.066732 10672 layer_factory.hpp:77] Creating layer drop1
I0814 22:43:30.066745 10672 net.cpp:100] Creating Layer drop1
I0814 22:43:30.066753 10672 net.cpp:434] drop1 <- ip1
I0814 22:43:30.066763 10672 net.cpp:395] drop1 -> ip1 (in-place)
I0814 22:43:30.066793 10672 net.cpp:150] Setting up drop1
I0814 22:43:30.066807 10672 net.cpp:157] Top shape: 64 512 (32768)
I0814 22:43:30.066815 10672 net.cpp:165] Memory required for data: 194148352
I0814 22:43:30.066823 10672 layer_factory.hpp:77] Creating layer ip1_drop1_0_split
I0814 22:43:30.066834 10672 net.cpp:100] Creating Layer ip1_drop1_0_split
I0814 22:43:30.066843 10672 net.cpp:434] ip1_drop1_0_split <- ip1
I0814 22:43:30.066853 10672 net.cpp:408] ip1_drop1_0_split -> ip1_drop1_0_split_0
I0814 22:43:30.066865 10672 net.cpp:408] ip1_drop1_0_split -> ip1_drop1_0_split_1
I0814 22:43:30.066907 10672 net.cpp:150] Setting up ip1_drop1_0_split
I0814 22:43:30.066920 10672 net.cpp:157] Top shape: 64 512 (32768)
I0814 22:43:30.066931 10672 net.cpp:157] Top shape: 64 512 (32768)
I0814 22:43:30.066939 10672 net.cpp:165] Memory required for data: 194410496
I0814 22:43:30.066947 10672 layer_factory.hpp:77] Creating layer ip2
I0814 22:43:30.066959 10672 net.cpp:100] Creating Layer ip2
I0814 22:43:30.066967 10672 net.cpp:434] ip2 <- ip1_drop1_0_split_0
I0814 22:43:30.066979 10672 net.cpp:408] ip2 -> ip2
I0814 22:43:30.067077 10672 net.cpp:150] Setting up ip2
I0814 22:43:30.067090 10672 net.cpp:157] Top shape: 64 2 (128)
I0814 22:43:30.067100 10672 net.cpp:165] Memory required for data: 194411008
I0814 22:43:30.067116 10672 layer_factory.hpp:77] Creating layer ip2_ip2_0_split
I0814 22:43:30.067128 10672 net.cpp:100] Creating Layer ip2_ip2_0_split
I0814 22:43:30.067137 10672 net.cpp:434] ip2_ip2_0_split <- ip2
I0814 22:43:30.067147 10672 net.cpp:408] ip2_ip2_0_split -> ip2_ip2_0_split_0
I0814 22:43:30.067158 10672 net.cpp:408] ip2_ip2_0_split -> ip2_ip2_0_split_1
I0814 22:43:30.067198 10672 net.cpp:150] Setting up ip2_ip2_0_split
I0814 22:43:30.067210 10672 net.cpp:157] Top shape: 64 2 (128)
I0814 22:43:30.067220 10672 net.cpp:157] Top shape: 64 2 (128)
I0814 22:43:30.067251 10672 net.cpp:165] Memory required for data: 194412032
I0814 22:43:30.067260 10672 layer_factory.hpp:77] Creating layer loss1
I0814 22:43:30.067271 10672 net.cpp:100] Creating Layer loss1
I0814 22:43:30.067281 10672 net.cpp:434] loss1 <- ip2_ip2_0_split_0
I0814 22:43:30.067289 10672 net.cpp:434] loss1 <- glasses_slice1_0_split_0
I0814 22:43:30.067301 10672 net.cpp:408] loss1 -> loss1
…
