…
  stage: ""
}
layer {
  name: "data"
  type: "Data"
  top: "data"
  include {
    phase: TRAIN
  }
  transform_param {
    scale: 0.00390625
  }
  data_param {
    source: "/home/jaychou/code/new_caffe/caffe-master/examples/gender_glasses/gender_glasses_train_lmdb"
    batch_size: 100
    backend: LMDB
  }
}
layer {
  name: "labels"
  type: "Data"
  top: "labels"
  include {
    phase: TRAIN
  }
  data_param {
    source: "/home/jaychou/code/new_caffe/caffe-master/examples/gender_glasses/gender_glasses_train_label_lmdb"
    batch_size: 100
    backend: LMDB
  }
}
layer {
  name: "slice1"
  type: "Slice"
  bottom: "labels"
  top: "glasses"
  top: "gender"
  slice_param {
    slice_dim: 1
    slice_point: 1
  }
}
layer {
  name: "conv1"
  type: "Convolution"
  bottom: "data"
  top: "conv1"
  param {
    lr_mult: 1
  }
  param {
    lr_mult: 0.1
  }
  convolution_param {
    num_output: 20
    pad: 0
    kernel_size: 5
    stride: 1
    weight_filler {
      type: "xavier"
    }
    bias_filler {
      type: "constant"
      value: 0
    }
  }
}
layer {
  name: "relu1"
  type: "PReLU"
  bottom: "conv1"
  top: "conv1"
}
layer {
  name: "pool1"
  type: "Pooling"
  bottom: "conv1"
  top: "pool1"
  pooling_param {
    pool: MAX
    kernel_size: 2
    stride: 2
  }
}
layer {
  name: "conv2"
  type: "Convolution"
  bottom: "pool1"
  top: "conv2"
  param {
    lr_mult: 1
  }
  param {
    lr_mult: 0.1
  }
  convolution_param {
    num_output: 48
    pad: 0
    kernel_size: 5
    stride: 1
    weight_filler {
      type: "xavier"
    }
    bias_filler {
      type: "constant"
      value: 0
    }
  }
}
layer {
  name: "relu2"
  type: "PReLU"
  bottom: "conv2"
  top: "conv2"
}
layer {
  name: "pool2"
  type: "Pooling"
  bottom: "conv2"
  top: "pool2"
  pooling_param {
    pool: MAX
    kernel_size: 2
    stride: 2
  }
}
layer {
  name: "conv3"
  type: "Convolution"
  bottom: "pool2"
  top: "conv3"
  param {
    lr_mult: 0.1
  }
  param {
    lr_mult: 0.1
  }
  convolution_param {
    num_output: 64
    pad: 0
    kernel_size: 3
    stride: 1
    weight_filler {
      type: "xavier"
    }
    bias_filler {
      type: "constant"
      value: 0
    }
  }
}
layer {
  name: "relu3"
  type: "PReLU"
  bottom: "conv3"
  top: "conv3"
}
layer {
  name: "conv4"
  type: "Convolution"
  bottom: "conv3"
  top: "conv4"
  param {
    lr_mult: 0.1
  }
  param {
    lr_mult: 0.1
  }
  convolution_param {
    num_output: 80
    pad: 0
    kernel_size: 3
    stride: 1
    weight_filler {
      type: "xavier"
    }
    bias_filler {
      type: "constant"
      value: 0
    }
  }
}
layer {
  name: "relu4"
  type: "PReLU"
  bottom: "conv4"
  top: "conv4"
}
layer {
  name: "ip1"
  type: "InnerProduct"
  bottom: "conv4"
  top: "ip1"
  inner_product_param {
    num_output: 512
    weight_filler {
      type: "xavier"
    }
    bias_filler {
      type: "constant"
    }
  }
}
layer {
  name: "relu5"
  type: "PReLU"
  bottom: "ip1"
  top: "ip1"
}
layer {
  name: "drop1"
  type: "Dropout"
  bottom: "ip1"
  top: "ip1"
  dropout_param {
    dropout_ratio: 0.5
  }
}
layer {
  name: "ip2"
  type: "InnerProduct"
  bottom: "ip1"
  top: "ip2"
  inner_product_param {
    num_output: 2
    weight_filler {
      type: "xavier"
    }
    bias_filler {
      type: "constant"
    }
  }
}
layer {
  name: "loss1"
  type: "SoftmaxWithLoss"
  bottom: "ip2"
  bottom: "glasses"
  top: "loss1"
  loss_weight: 0.5
}
layer {
  name: "ip3"
  type: "InnerProduct"
  bottom: "ip1"
  top: "ip3"
  inner_product_param {
    num_output: 512
    weight_filler {
      type: "xavier"
    }
    bias_filler {
      type: "constant"
    }
  }
}
layer {
  name: "loss2"
  type: "SoftmaxWithLoss"
  bottom: "ip3"
  bottom: "gender"
  top: "loss2"
  loss_weight: 0.5
}
I0814 17:50:30.130847  2777 layer_factory.hpp:77] Creating layer data
I0814 17:50:30.131209  2777 net.cpp:100] Creating Layer data
I0814 17:50:30.131237  2777 net.cpp:408] data -> data
I0814 17:50:30.132290  2781 db_lmdb.cpp:35] Opened lmdb /home/jaychou/code/new_caffe/caffe-master/examples/gender_glasses/gender_glasses_train_lmdb
I0814 17:50:30.143648  2777 data_layer.cpp:41] output data size: 100,3,100,100
I0814 17:50:30.162763  2777 net.cpp:150] Setting up data
I0814 17:50:30.162806  2777 net.cpp:157] Top shape: 100 3 100 100 (3000000)
I0814 17:50:30.162818  2777 net.cpp:165] Memory required for data: 12000000
I0814 17:50:30.162834  2777 layer_factory.hpp:77] Creating layer labels
I0814 17:50:30.162940  2777 net.cpp:100] Creating Layer labels
I0814 17:50:30.162955  2777 net.cpp:408] labels -> labels
I0814 17:50:30.164578  2783 db_lmdb.cpp:35] Opened lmdb /home/jaychou/code/new_caffe/caffe-master/examples/gender_glasses/gender_glasses_train_label_lmdb
I0814 17:50:30.165233  2777 data_layer.cpp:41] output data size: 100,2,1,1
I0814 17:50:30.165681  2777 net.cpp:150] Setting up labels
I0814 17:50:30.165701  2777 net.cpp:157] Top shape: 100 2 1 1 (200)
I0814 17:50:30.165710  2777 net.cpp:165] Memory required for data: 12000800
I0814 17:50:30.165719  2777 layer_factory.hpp:77] Creating layer slice1
I0814 17:50:30.165738  2777 net.cpp:100] Creating Layer slice1
I0814 17:50:30.165750  2777 net.cpp:434] slice1 <- labels
I0814 17:50:30.165766  2777 net.cpp:408] slice1 -> glasses
I0814 17:50:30.165789  2777 net.cpp:408] slice1 -> gender
I0814 17:50:30.165835  2777 net.cpp:150] Setting up slice1
I0814 17:50:30.165850  2777 net.cpp:157] Top shape: 100 1 1 1 (100)
I0814 17:50:30.165859  2777 net.cpp:157] Top shape: 100 1 1 1 (100)
I0814 17:50:30.165868  2777 net.cpp:165] Memory required for data: 12001600
I0814 17:50:30.165875  2777 layer_factory.hpp:77] Creating layer conv1
I0814 17:50:30.165899  2777 net.cpp:100] Creating Layer conv1
I0814 17:50:30.165910  2777 net.cpp:434] conv1 <- data
I0814 17:50:30.165920  2777 net.cpp:408] conv1 -> conv1
I0814 17:50:30.316427  2777 net.cpp:150] Setting up conv1
I0814 17:50:30.316478  2777 net.cpp:157] Top shape: 100 20 96 96 (18432000)
I0814 17:50:30.316488  2777 net.cpp:165] Memory required for data: 85729600
I0814 17:50:30.316514  2777 layer_factory.hpp:77] Creating layer relu1
I0814 17:50:30.316532  2777 net.cpp:100] Creating Layer relu1
I0814 17:50:30.316542  2777 net.cpp:434] relu1 <- conv1
I0814 17:50:30.316555  2777 net.cpp:395] relu1 -> conv1 (in-place)
I0814 17:50:30.317092  2777 net.cpp:150] Setting up relu1
I0814 17:50:30.317111  2777 net.cpp:157] Top shape: 100 20 96 96 (18432000)
I0814 17:50:30.317121  2777 net.cpp:165] Memory required for data: 159457600
I0814 17:50:30.317134  2777 layer_factory.hpp:77] Creating layer pool1
I0814 17:50:30.317147  2777 net.cpp:100] Creating Layer pool1
I0814 17:50:30.317157  2777 net.cpp:434] pool1 <- conv1
I0814 17:50:30.317167  2777 net.cpp:408] pool1 -> pool1
I0814 17:50:30.317212  2777 net.cpp:150] Setting up pool1
I0814 17:50:30.317226  2777 net.cpp:157] Top shape: 100 20 48 48 (4608000)
I0814 17:50:30.317235  2777 net.cpp:165] Memory required for data: 177889600
I0814 17:50:30.317266  2777 layer_factory.hpp:77] Creating layer conv2
I0814 17:50:30.317283  2777 net.cpp:100] Creating Layer conv2
I0814 17:50:30.317293  2777 net.cpp:434] conv2 <- pool1
I0814 17:50:30.317304  2777 net.cpp:408] conv2 -> conv2
I0814 17:50:30.318603  2777 net.cpp:150] Setting up conv2
I0814 17:50:30.318624  2777 net.cpp:157] Top shape: 100 48 44 44 (9292800)
I0814 17:50:30.318632  2777 net.cpp:165] Memory required for data: 215060800
I0814 17:50:30.318647  2777 layer_factory.hpp:77] Creating layer relu2
I0814 17:50:30.318660  2777 net.cpp:100] Creating Layer relu2
I0814 17:50:30.318667  2777 net.cpp:434] relu2 <- conv2
I0814 17:50:30.318678  2777 net.cpp:395] relu2 -> conv2 (in-place)
I0814 17:50:30.319140  2777 net.cpp:150] Setting up relu2
I0814 17:50:30.319159  2777 net.cpp:157] Top shape: 100 48 44 44 (9292800)
I0814 17:50:30.319167  2777 net.cpp:165] Memory required for data: 252232000
I0814 17:50:30.319178  2777 layer_factory.hpp:77] Creating layer pool2
I0814 17:50:30.319191  2777 net.cpp:100] Creating Layer pool2
I0814 17:50:30.319200  2777 net.cpp:434] pool2 <- conv2
I0814 17:50:30.319211  2777 net.cpp:408] pool2 -> pool2
I0814 17:50:30.319248  2777 net.cpp:150] Setting up pool2
I0814 17:50:30.319262  2777 net.cpp:157] Top shape: 100 48 22 22 (2323200)
I0814 17:50:30.319270  2777 net.cpp:165] Memory required for data: 261524800
I0814 17:50:30.319279  2777 layer_factory.hpp:77] Creating layer conv3
I0814 17:50:30.319293  2777 net.cpp:100] Creating Layer conv3
I0814 17:50:30.319303  2777 net.cpp:434] conv3 <- pool2
I0814 17:50:30.319314  2777 net.cpp:408] conv3 -> conv3
I0814 17:50:30.320513  2777 net.cpp:150] Setting up conv3
I0814 17:50:30.320533  2777 net.cpp:157] Top shape: 100 64 20 20 (2560000)
I0814 17:50:30.320543  2777 net.cpp:165] Memory required for data: 271764800
I0814 17:50:30.320554  2777 layer_factory.hpp:77] Creating layer relu3
I0814 17:50:30.320565  2777 net.cpp:100] Creating Layer relu3
I0814 17:50:30.320574  2777 net.cpp:434] relu3 <- conv3
I0814 17:50:30.320586  2777 net.cpp:395] relu3 -> conv3 (in-place)
I0814 17:50:30.320683  2777 net.cpp:150] Setting up relu3
I0814 17:50:30.320696  2777 net.cpp:157] Top shape: 100 64 20 20 (2560000)
I0814 17:50:30.320704  2777 net.cpp:165] Memory required for data: 282004800
I0814 17:50:30.320718  2777 layer_factory.hpp:77] Creating layer conv4
I0814 17:50:30.320734  2777 net.cpp:100] Creating Layer conv4
I0814 17:50:30.320744  2777 net.cpp:434] conv4 <- conv3
I0814 17:50:30.320755  2777 net.cpp:408] conv4 -> conv4
I0814 17:50:30.321909  2777 net.cpp:150] Setting up conv4
I0814 17:50:30.321930  2777 net.cpp:157] Top shape: 100 80 18 18 (2592000)
I0814 17:50:30.321939  2777 net.cpp:165] Memory required for data: 292372800
I0814 17:50:30.321951  2777 layer_factory.hpp:77] Creating layer relu4
I0814 17:50:30.321964  2777 net.cpp:100] Creating Layer relu4
I0814 17:50:30.321974  2777 net.cpp:434] relu4 <- conv4
I0814 17:50:30.321983  2777 net.cpp:395] relu4 -> conv4 (in-place)
I0814 17:50:30.322085  2777 net.cpp:150] Setting up relu4
I0814 17:50:30.322099  2777 net.cpp:157] Top shape: 100 80 18 18 (2592000)
I0814 17:50:30.322108  2777 net.cpp:165] Memory required for data: 302740800
I0814 17:50:30.322118  2777 layer_factory.hpp:77] Creating layer ip1
I0814 17:50:30.322134  2777 net.cpp:100] Creating Layer ip1
I0814 17:50:30.322142  2777 net.cpp:434] ip1 <- conv4
I0814 17:50:30.322156  2777 net.cpp:408] ip1 -> ip1
I0814 17:50:30.418292  2777 net.cpp:150] Setting up ip1
I0814 17:50:30.418339  2777 net.cpp:157] Top shape: 100 512 (51200)
I0814 17:50:30.418349  2777 net.cpp:165] Memory required for data: 302945600
I0814 17:50:30.418366  2777 layer_factory.hpp:77] Creating layer relu5
I0814 17:50:30.418385  2777 net.cpp:100] Creating Layer relu5
I0814 17:50:30.418396  2777 net.cpp:434] relu5 <- ip1
I0814 17:50:30.418408  2777 net.cpp:395] relu5 -> ip1 (in-place)
I0814 17:50:30.418490  2777 net.cpp:150] Setting up relu5
I0814 17:50:30.418504  2777 net.cpp:157] Top shape: 100 512 (51200)
I0814 17:50:30.418512  2777 net.cpp:165] Memory required for data: 303150400
I0814 17:50:30.418545  2777 layer_factory.hpp:77] Creating layer drop1
I0814 17:50:30.418572  2777 net.cpp:100] Creating Layer drop1
I0814 17:50:30.418582  2777 net.cpp:434] drop1 <- ip1
I0814 17:50:30.418594  2777 net.cpp:395] drop1 -> ip1 (in-place)
I0814 17:50:30.418627  2777 net.cpp:150] Setting up drop1
I0814 17:50:30.418640  2777 net.cpp:157] Top shape: 100 512 (51200)
I0814 17:50:30.418648  2777 net.cpp:165] Memory required for data: 303355200
I0814 17:50:30.418656  2777 layer_factory.hpp:77] Creating layer ip1_drop1_0_split
I0814 17:50:30.418673  2777 net.cpp:100] Creating Layer ip1_drop1_0_split
I0814 17:50:30.418683  2777 net.cpp:434] ip1_drop1_0_split <- ip1
I0814 17:50:30.418692  2777 net.cpp:408] ip1_drop1_0_split -> ip1_drop1_0_split_0
I0814 17:50:30.418705  2777 net.cpp:408] ip1_drop1_0_split -> ip1_drop1_0_split_1
I0814 17:50:30.418743  2777 net.cpp:150] Setting up ip1_drop1_0_split
I0814 17:50:30.418757  2777 net.cpp:157] Top shape: 100 512 (51200)
I0814 17:50:30.418766  2777 net.cpp:157] Top shape: 100 512 (51200)
I0814 17:50:30.418774  2777 net.cpp:165] Memory required for data: 303764800
I0814 17:50:30.418782  2777 layer_factory.hpp:77] Creating layer ip2
I0814 17:50:30.418797  2777 net.cpp:100] Creating Layer ip2
I0814 17:50:30.418804  2777 net.cpp:434] ip2 <- ip1_drop1_0_split_0
I0814 17:50:30.418815  2777 net.cpp:408] ip2 -> ip2
I0814 17:50:30.418907  2777 net.cpp:150] Setting up ip2
I0814 17:50:30.418921  2777 net.cpp:157] Top shape: 100 2 (200)
I0814 17:50:30.418929  2777 net.cpp:165] Memory required for data: 303765600
I0814 17:50:30.418946  2777 layer_factory.hpp:77] Creating layer loss1
I0814 17:50:30.418961  2777 net.cpp:100] Creating Layer loss1
I0814 17:50:30.418968  2777 net.cpp:434] loss1 <- ip2
I0814 17:50:30.418978  2777 net.cpp:434] loss1 <- glasses
I0814 17:50:30.418988  2777 net.cpp:408] loss1 -> loss1
I0814 17:50:30.419003  2777 layer_factory.hpp:77] Creating layer loss1
I0814 17:50:30.419468  2777 net.cpp:150] Setting up loss1
I0814 17:50:30.419486  2777 net.cpp:157] Top shape: (1)
I0814 17:50:30.419495  2777 net.cpp:160]     with loss weight 0.5
I0814 17:50:30.419520  2777 net.cpp:165] Memory required for data: 303765604
I0814 17:50:30.419528  2777 layer_factory.hpp:77] Creating layer ip3
I0814 17:50:30.419543  2777 net.cpp:100] Creating Layer ip3
I0814 17:50:30.419551  2777 net.cpp:434] ip3 <- ip1_drop1_0_split_1
I0814 17:50:30.419562  2777 net.cpp:408] ip3 -> ip3
I0814 17:50:30.421564  2777 net.cpp:150] Setting up ip3
I0814 17:50:30.421582  2777 net.cpp:157] Top shape: 100 512 (51200)
I0814 17:50:30.421591  2777 net.cpp:165] Memory required for data: 303970404
I0814 17:50:30.421603  2777 layer_factory.hpp:77] Creating layer loss2
I0814 17:50:30.421615  2777 net.cpp:100] Creating Layer loss2
I0814 17:50:30.421624  2777 net.cpp:434] loss2 <- ip3
I0814 17:50:30.421634  2777 net.cpp:434] loss2 <- gender
I0814 17:50:30.421644  2777 net.cpp:408] loss2 -> loss2
I0814 17:50:30.421659  2777 layer_factory.hpp:77] Creating layer loss2
…
  phase: TEST
}
layer {
  name: "data"
  type: "Data"
  top: "data"
  include {
    phase: TEST
  }
  transform_param {
    scale: 0.00390625
  }
  data_param {
    source: "/home/jaychou/code/new_caffe/caffe-master/examples/gender_glasses/gender_glasses_val_lmdb"
    batch_size: 64
    backend: LMDB
  }
}
layer {
  name: "labels"
  type: "Data"
  top: "labels"
  include {
    phase: TEST
  }
  data_param {
    source: "/home/jaychou/code/new_caffe/caffe-master/examples/gender_glasses/gender_glasses_val_label_lmdb"
    batch_size: 64
    backend: LMDB
  }
}
layer {
  name: "slice1"
  type: "Slice"
  bottom: "labels"
  top: "glasses"
  top: "gender"
  slice_param {
    slice_dim: 1
    slice_point: 1
  }
}
layer {
  name: "conv1"
  type: "Convolution"
  bottom: "data"
  top: "conv1"
  param {
    lr_mult: 1
  }
  param {
    lr_mult: 0.1
  }
  convolution_param {
    num_output: 20
    pad: 0
    kernel_size: 5
    stride: 1
    weight_filler {
      type: "xavier"
    }
    bias_filler {
      type: "constant"
      value: 0
    }
  }
}
layer {
  name: "relu1"
  type: "PReLU"
  bottom: "conv1"
  top: "conv1"
}
layer {
  name: "pool1"
  type: "Pooling"
  bottom: "conv1"
  top: "pool1"
  pooling_param {
    pool: MAX
    kernel_size: 2
    stride: 2
  }
}
layer {
  name: "conv2"
  type: "Convolution"
  bottom: "pool1"
  top: "conv2"
  param {
    lr_mult: 1
  }
  param {
    lr_mult: 0.1
  }
  convolution_param {
    num_output: 48
    pad: 0
    kernel_size: 5
    stride: 1
    weight_filler {
      type: "xavier"
    }
    bias_filler {
      type: "constant"
      value: 0
    }
  }
}
layer {
  name: "relu2"
  type: "PReLU"
  bottom: "conv2"
  top: "conv2"
}
layer {
  name: "pool2"
  type: "Pooling"
  bottom: "conv2"
  top: "pool2"
  pooling_param {
    pool: MAX
    kernel_size: 2
    stride: 2
  }
}
layer {
  name: "conv3"
  type: "Convolution"
  bottom: "pool2"
  top: "conv3"
  param {
    lr_mult: 0.1
  }
  param {
    lr_mult: 0.1
  }
  convolution_param {
    num_output: 64
    pad: 0
    kernel_size: 3
    stride: 1
    weight_filler {
      type: "xavier"
    }
    bias_filler {
      type: "constant"
      value: 0
    }
  }
}
layer {
  name: "relu3"
  type: "PReLU"
  bottom: "conv3"
  top: "conv3"
}
layer {
  name: "conv4"
  type: "Convolution"
  bottom: "conv3"
  top: "conv4"
  param {
    lr_mult: 0.1
  }
  param {
    lr_mult: 0.1
  }
  convolution_param {
    num_output: 80
    pad: 0
    kernel_size: 3
    stride: 1
    weight_filler {
      type: "xavier"
    }
    bias_filler {
      type: "constant"
      value: 0
    }
  }
}
layer {
  name: "relu4"
  type: "PReLU"
  bottom: "conv4"
  top: "conv4"
}
layer {
  name: "ip1"
  type: "InnerProduct"
  bottom: "conv4"
  top: "ip1"
  inner_product_param {
    num_output: 512
    weight_filler {
      type: "xavier"
    }
    bias_filler {
      type: "constant"
    }
  }
}
layer {
  name: "relu5"
  type: "PReLU"
  bottom: "ip1"
  top: "ip1"
}
layer {
  name: "drop1"
  type: "Dropout"
  bottom: "ip1"
  top: "ip1"
  dropout_param {
    dropout_ratio: 0.5
  }
}
layer {
  name: "ip2"
  type: "InnerProduct"
  bottom: "ip1"
  top: "ip2"
  inner_product_param {
    num_output: 2
    weight_filler {
      type: "xavier"
    }
    bias_filler {
      type: "constant"
    }
  }
}
layer {
  name: "loss1"
  type: "SoftmaxWithLoss"
  bottom: "ip2"
  bottom: "glasses"
  top: "loss1"
  loss_weight: 0.5
}
layer {
  name: "accuracy_glasses"
  type: "Accuracy"
  bottom: "ip2"
  bottom: "glasses"
  top: "accuracy_glasses"
  include {
    phase: TEST
  }
}
layer {
  name: "ip3"
  type: "InnerProduct"
  bottom: "ip1"
  top: "ip3"
  inner_product_param {
    num_output: 512
    weight_filler {
      type: "xavier"
    }
    bias_filler {
      type: "constant"
    }
  }
}
layer {
  name: "loss2"
  type: "SoftmaxWithLoss"
  bottom: "ip3"
  bottom: "gender"
  top: "loss2"
  loss_weight: 0.5
}
layer {
  name: "accuracy_gender"
  type: "Accuracy"
  bottom: "ip3"
  bottom: "gender"
  top: "accuracy_gender"
  include {
    phase: TEST
  }
}
I0814 17:50:30.423568  2777 layer_factory.hpp:77] Creating layer data
I0814 17:50:30.423660  2777 net.cpp:100] Creating Layer data
I0814 17:50:30.423672  2777 net.cpp:408] data -> data
I0814 17:50:30.424590  2785 db_lmdb.cpp:35] Opened lmdb /home/jaychou/code/new_caffe/caffe-master/examples/gender_glasses/gender_glasses_val_lmdb
I0814 17:50:30.424715  2777 data_layer.cpp:41] output data size: 64,3,100,100
I0814 17:50:30.438341  2777 net.cpp:150] Setting up data
I0814 17:50:30.438388  2777 net.cpp:157] Top shape: 64 3 100 100 (1920000)
I0814 17:50:30.438398  2777 net.cpp:165] Memory required for data: 7680000
I0814 17:50:30.438410  2777 layer_factory.hpp:77] Creating layer labels
I0814 17:50:30.438489  2777 net.cpp:100] Creating Layer labels
I0814 17:50:30.438505  2777 net.cpp:408] labels -> labels
I0814 17:50:30.440393  2787 db_lmdb.cpp:35] Opened lmdb /home/jaychou/code/new_caffe/caffe-master/examples/gender_glasses/gender_glasses_val_label_lmdb
I0814 17:50:30.440966  2777 data_layer.cpp:41] output data size: 64,2,1,1
I0814 17:50:30.441293  2777 net.cpp:150] Setting up labels
I0814 17:50:30.441311  2777 net.cpp:157] Top shape: 64 2 1 1 (128)
I0814 17:50:30.441320  2777 net.cpp:165] Memory required for data: 7680512
I0814 17:50:30.441331  2777 layer_factory.hpp:77] Creating layer slice1
I0814 17:50:30.441346  2777 net.cpp:100] Creating Layer slice1
I0814 17:50:30.441355  2777 net.cpp:434] slice1 <- labels
I0814 17:50:30.441368  2777 net.cpp:408] slice1 -> glasses
I0814 17:50:30.441383  2777 net.cpp:408] slice1 -> gender
I0814 17:50:30.441423  2777 net.cpp:150] Setting up slice1
I0814 17:50:30.441437  2777 net.cpp:157] Top shape: 64 1 1 1 (64)
I0814 17:50:30.441447  2777 net.cpp:157] Top shape: 64 1 1 1 (64)
I0814 17:50:30.441454  2777 net.cpp:165] Memory required for data: 7681024
I0814 17:50:30.441463  2777 layer_factory.hpp:77] Creating layer glasses_slice1_0_split
I0814 17:50:30.441475  2777 net.cpp:100] Creating Layer glasses_slice1_0_split
I0814 17:50:30.441484  2777 net.cpp:434] glasses_slice1_0_split <- glasses
I0814 17:50:30.441494  2777 net.cpp:408] glasses_slice1_0_split -> glasses_slice1_0_split_0
I0814 17:50:30.441505  2777 net.cpp:408] glasses_slice1_0_split -> glasses_slice1_0_split_1
I0814 17:50:30.441545  2777 net.cpp:150] Setting up glasses_slice1_0_split
I0814 17:50:30.441558  2777 net.cpp:157] Top shape: 64 1 1 1 (64)
I0814 17:50:30.441568  2777 net.cpp:157] Top shape: 64 1 1 1 (64)
I0814 17:50:30.441576  2777 net.cpp:165] Memory required for data: 7681536
I0814 17:50:30.441584  2777 layer_factory.hpp:77] Creating layer gender_slice1_1_split
I0814 17:50:30.441612  2777 net.cpp:100] Creating Layer gender_slice1_1_split
I0814 17:50:30.441622  2777 net.cpp:434] gender_slice1_1_split <- gender
I0814 17:50:30.441632  2777 net.cpp:408] gender_slice1_1_split -> gender_slice1_1_split_0
I0814 17:50:30.441644  2777 net.cpp:408] gender_slice1_1_split -> gender_slice1_1_split_1
I0814 17:50:30.441681  2777 net.cpp:150] Setting up gender_slice1_1_split
I0814 17:50:30.441694  2777 net.cpp:157] Top shape: 64 1 1 1 (64)
I0814 17:50:30.441704  2777 net.cpp:157] Top shape: 64 1 1 1 (64)
I0814 17:50:30.441711  2777 net.cpp:165] Memory required for data: 7682048
I0814 17:50:30.441720  2777 layer_factory.hpp:77] Creating layer conv1
I0814 17:50:30.441737  2777 net.cpp:100] Creating Layer conv1
I0814 17:50:30.441747  2777 net.cpp:434] conv1 <- data
I0814 17:50:30.441758  2777 net.cpp:408] conv1 -> conv1
I0814 17:50:30.442922  2777 net.cpp:150] Setting up conv1
I0814 17:50:30.442946  2777 net.cpp:157] Top shape: 64 20 96 96 (11796480)
I0814 17:50:30.442955  2777 net.cpp:165] Memory required for data: 54867968
I0814 17:50:30.442971  2777 layer_factory.hpp:77] Creating layer relu1
I0814 17:50:30.442987  2777 net.cpp:100] Creating Layer relu1
I0814 17:50:30.442998  2777 net.cpp:434] relu1 <- conv1
I0814 17:50:30.443014  2777 net.cpp:395] relu1 -> conv1 (in-place)
I0814 17:50:30.443578  2777 net.cpp:150] Setting up relu1
I0814 17:50:30.443596  2777 net.cpp:157] Top shape: 64 20 96 96 (11796480)
I0814 17:50:30.443604  2777 net.cpp:165] Memory required for data: 102053888
I0814 17:50:30.443617  2777 layer_factory.hpp:77] Creating layer pool1
I0814 17:50:30.443631  2777 net.cpp:100] Creating Layer pool1
I0814 17:50:30.443640  2777 net.cpp:434] pool1 <- conv1
I0814 17:50:30.443652  2777 net.cpp:408] pool1 -> pool1
I0814 17:50:30.443696  2777 net.cpp:150] Setting up pool1
I0814 17:50:30.443711  2777 net.cpp:157] Top shape: 64 20 48 48 (2949120)
I0814 17:50:30.443720  2777 net.cpp:165] Memory required for data: 113850368
I0814 17:50:30.443728  2777 layer_factory.hpp:77] Creating layer conv2
I0814 17:50:30.443745  2777 net.cpp:100] Creating Layer conv2
I0814 17:50:30.443755  2777 net.cpp:434] conv2 <- pool1
I0814 17:50:30.443766  2777 net.cpp:408] conv2 -> conv2
I0814 17:50:30.445011  2777 net.cpp:150] Setting up conv2
I0814 17:50:30.445035  2777 net.cpp:157] Top shape: 64 48 44 44 (5947392)
I0814 17:50:30.445045  2777 net.cpp:165] Memory required for data: 137639936
I0814 17:50:30.445061  2777 layer_factory.hpp:77] Creating layer relu2
I0814 17:50:30.445075  2777 net.cpp:100] Creating Layer relu2
I0814 17:50:30.445083  2777 net.cpp:434] relu2 <- conv2
I0814 17:50:30.445094  2777 net.cpp:395] relu2 -> conv2 (in-place)
I0814 17:50:30.445279  2777 net.cpp:150] Setting up relu2
I0814 17:50:30.445293  2777 net.cpp:157] Top shape: 64 48 44 44 (5947392)
I0814 17:50:30.445302  2777 net.cpp:165] Memory required for data: 161429504
I0814 17:50:30.445312  2777 layer_factory.hpp:77] Creating layer pool2
I0814 17:50:30.445324  2777 net.cpp:100] Creating Layer pool2
I0814 17:50:30.445333  2777 net.cpp:434] pool2 <- conv2
I0814 17:50:30.445343  2777 net.cpp:408] pool2 -> pool2
I0814 17:50:30.445385  2777 net.cpp:150] Setting up pool2
I0814 17:50:30.445399  2777 net.cpp:157] Top shape: 64 48 22 22 (1486848)
I0814 17:50:30.445406  2777 net.cpp:165] Memory required for data: 167376896
I0814 17:50:30.445415  2777 layer_factory.hpp:77] Creating layer conv3
I0814 17:50:30.445430  2777 net.cpp:100] Creating Layer conv3
I0814 17:50:30.445439  2777 net.cpp:434] conv3 <- pool2
I0814 17:50:30.445451  2777 net.cpp:408] conv3 -> conv3
I0814 17:50:30.446637  2777 net.cpp:150] Setting up conv3
I0814 17:50:30.446660  2777 net.cpp:157] Top shape: 64 64 20 20 (1638400)
I0814 17:50:30.446668  2777 net.cpp:165] Memory required for data: 173930496
I0814 17:50:30.446681  2777 layer_factory.hpp:77] Creating layer relu3
I0814 17:50:30.446691  2777 net.cpp:100] Creating Layer relu3
I0814 17:50:30.446701  2777 net.cpp:434] relu3 <- conv3
I0814 17:50:30.446712  2777 net.cpp:395] relu3 -> conv3 (in-place)
I0814 17:50:30.447249  2777 net.cpp:150] Setting up relu3
I0814 17:50:30.447293  2777 net.cpp:157] Top shape: 64 64 20 20 (1638400)
I0814 17:50:30.447302  2777 net.cpp:165] Memory required for data: 180484096
I0814 17:50:30.447319  2777 layer_factory.hpp:77] Creating layer conv4
I0814 17:50:30.447340  2777 net.cpp:100] Creating Layer conv4
I0814 17:50:30.447348  2777 net.cpp:434] conv4 <- conv3
I0814 17:50:30.447361  2777 net.cpp:408] conv4 -> conv4
I0814 17:50:30.449959  2777 net.cpp:150] Setting up conv4
I0814 17:50:30.449978  2777 net.cpp:157] Top shape: 64 80 18 18 (1658880)
I0814 17:50:30.449988  2777 net.cpp:165] Memory required for data: 187119616
I0814 17:50:30.450001  2777 layer_factory.hpp:77] Creating layer relu4
I0814 17:50:30.450016  2777 net.cpp:100] Creating Layer relu4
I0814 17:50:30.450024  2777 net.cpp:434] relu4 <- conv4
I0814 17:50:30.450037  2777 net.cpp:395] relu4 -> conv4 (in-place)
I0814 17:50:30.450147  2777 net.cpp:150] Setting up relu4
I0814 17:50:30.450163  2777 net.cpp:157] Top shape: 64 80 18 18 (1658880)
I0814 17:50:30.450171  2777 net.cpp:165] Memory required for data: 193755136
I0814 17:50:30.450181  2777 layer_factory.hpp:77] Creating layer ip1
I0814 17:50:30.450196  2777 net.cpp:100] Creating Layer ip1
I0814 17:50:30.450206  2777 net.cpp:434] ip1 <- conv4
I0814 17:50:30.450217  2777 net.cpp:408] ip1 -> ip1
I0814 17:50:30.550021  2777 net.cpp:150] Setting up ip1
I0814 17:50:30.550070  2777 net.cpp:157] Top shape: 64 512 (32768)
I0814 17:50:30.550079  2777 net.cpp:165] Memory required for data: 193886208
I0814 17:50:30.550096  2777 layer_factory.hpp:77] Creating layer relu5
I0814 17:50:30.550113  2777 net.cpp:100] Creating Layer relu5
I0814 17:50:30.550124  2777 net.cpp:434] relu5 <- ip1
I0814 17:50:30.550137  2777 net.cpp:395] relu5 -> ip1 (in-place)
I0814 17:50:30.550221  2777 net.cpp:150] Setting up relu5
I0814 17:50:30.550235  2777 net.cpp:157] Top shape: 64 512 (32768)
I0814 17:50:30.550245  2777 net.cpp:165] Memory required for data: 194017280
I0814 17:50:30.550254  2777 layer_factory.hpp:77] Creating layer drop1
I0814 17:50:30.550268  2777 net.cpp:100] Creating Layer drop1
I0814 17:50:30.550276  2777 net.cpp:434] drop1 <- ip1
I0814 17:50:30.550287  2777 net.cpp:395] drop1 -> ip1 (in-place)
I0814 17:50:30.550314  2777 net.cpp:150] Setting up drop1
I0814 17:50:30.550328  2777 net.cpp:157] Top shape: 64 512 (32768)
I0814 17:50:30.550336  2777 net.cpp:165] Memory required for data: 194148352
I0814 17:50:30.550344  2777 layer_factory.hpp:77] Creating layer ip1_drop1_0_split
I0814 17:50:30.550356  2777 net.cpp:100] Creating Layer ip1_drop1_0_split
I0814 17:50:30.550365  2777 net.cpp:434] ip1_drop1_0_split <- ip1
I0814 17:50:30.550376  2777 net.cpp:408] ip1_drop1_0_split -> ip1_drop1_0_split_0
I0814 17:50:30.550389  2777 net.cpp:408] ip1_drop1_0_split -> ip1_drop1_0_split_1
I0814 17:50:30.550431  2777 net.cpp:150] Setting up ip1_drop1_0_split
I0814 17:50:30.550443  2777 net.cpp:157] Top shape: 64 512 (32768)
I0814 17:50:30.550454  2777 net.cpp:157] Top shape: 64 512 (32768)
I0814 17:50:30.550462  2777 net.cpp:165] Memory required for data: 194410496
I0814 17:50:30.550470  2777 layer_factory.hpp:77] Creating layer ip2
I0814 17:50:30.550483  2777 net.cpp:100] Creating Layer ip2
I0814 17:50:30.550493  2777 net.cpp:434] ip2 <- ip1_drop1_0_split_0
I0814 17:50:30.550503  2777 net.cpp:408] ip2 -> ip2
I0814 17:50:30.550611  2777 net.cpp:150] Setting up ip2
I0814 17:50:30.550626  2777 net.cpp:157] Top shape: 64 2 (128)
I0814 17:50:30.550633  2777 net.cpp:165] Memory required for data: 194411008
I0814 17:50:30.550649  2777 layer_factory.hpp:77] Creating layer ip2_ip2_0_split
I0814 17:50:30.550662  2777 net.cpp:100] Creating Layer ip2_ip2_0_split
I0814 17:50:30.550670  2777 net.cpp:434] ip2_ip2_0_split <- ip2
I0814 17:50:30.550681  2777 net.cpp:408] ip2_ip2_0_split -> ip2_ip2_0_split_0
I0814 17:50:30.550694  2777 net.cpp:408] ip2_ip2_0_split -> ip2_ip2_0_split_1
I0814 17:50:30.550732  2777 net.cpp:150] Setting up ip2_ip2_0_split
I0814 17:50:30.550745  2777 net.cpp:157] Top shape: 64 2 (128)
I0814 17:50:30.550755  2777 net.cpp:157] Top shape: 64 2 (128)
I0814 17:50:30.550787  2777 net.cpp:165] Memory required for data: 194412032
I0814 17:50:30.550796  2777 layer_factory.hpp:77] Creating layer loss1
I0814 17:50:30.550807  2777 net.cpp:100] Creating Layer loss1
I0814 17:50:30.550815  2777 net.cpp:434] loss1 <- ip2_ip2_0_split_0
I0814 17:50:30.550825  2777 net.cpp:434] loss1 <- glasses_slice1_0_split_0
I0814 17:50:30.550837  2777 net.cpp:408] loss1 -> loss1
…
