…
  stage: ""
}
layer {
  name: "data"
  type: "Data"
  top: "data"
  include {
    phase: TRAIN
  }
  transform_param {
    scale: 0.00390625
  }
  data_param {
    source: "/home/jaychou/code/new_caffe/caffe-master/examples/gender_glasses/gender_glasses_train_lmdb"
    batch_size: 100
    backend: LMDB
  }
}
layer {
  name: "labels"
  type: "Data"
  top: "labels"
  include {
    phase: TRAIN
  }
  data_param {
    source: "/home/jaychou/code/new_caffe/caffe-master/examples/gender_glasses/gender_glasses_train_label_lmdb"
    batch_size: 100
    backend: LMDB
  }
}
layer {
  name: "slice1"
  type: "Slice"
  bottom: "labels"
  top: "glasses"
  top: "gender"
  slice_param {
    slice_dim: 1
    slice_point: 1
  }
}
layer {
  name: "conv1"
  type: "Convolution"
  bottom: "data"
  top: "conv1"
  param {
    lr_mult: 1
  }
  param {
    lr_mult: 0.1
  }
  convolution_param {
    num_output: 20
    pad: 0
    kernel_size: 5
    stride: 1
    weight_filler {
      type: "xavier"
    }
    bias_filler {
      type: "constant"
      value: 0
    }
  }
}
layer {
  name: "relu1"
  type: "PReLU"
  bottom: "conv1"
  top: "conv1"
}
layer {
  name: "pool1"
  type: "Pooling"
  bottom: "conv1"
  top: "pool1"
  pooling_param {
    pool: MAX
    kernel_size: 2
    stride: 2
  }
}
layer {
  name: "conv2"
  type: "Convolution"
  bottom: "pool1"
  top: "conv2"
  param {
    lr_mult: 1
  }
  param {
    lr_mult: 0.1
  }
  convolution_param {
    num_output: 48
    pad: 0
    kernel_size: 5
    stride: 1
    weight_filler {
      type: "xavier"
    }
    bias_filler {
      type: "constant"
      value: 0
    }
  }
}
layer {
  name: "relu2"
  type: "PReLU"
  bottom: "conv2"
  top: "conv2"
}
layer {
  name: "pool2"
  type: "Pooling"
  bottom: "conv2"
  top: "pool2"
  pooling_param {
    pool: MAX
    kernel_size: 2
    stride: 2
  }
}
layer {
  name: "conv3"
  type: "Convolution"
  bottom: "pool2"
  top: "conv3"
  param {
    lr_mult: 0.1
  }
  param {
    lr_mult: 0.1
  }
  convolution_param {
    num_output: 64
    pad: 0
    kernel_size: 3
    stride: 1
    weight_filler {
      type: "xavier"
    }
    bias_filler {
      type: "constant"
      value: 0
    }
  }
}
layer {
  name: "relu3"
  type: "PReLU"
  bottom: "conv3"
  top: "conv3"
}
layer {
  name: "ip1"
  type: "InnerProduct"
  bottom: "conv3"
  top: "ip1"
  inner_product_param {
    num_output: 512
    weight_filler {
      type: "xavier"
    }
    bias_filler {
      type: "constant"
    }
  }
}
layer {
  name: "relu5"
  type: "PReLU"
  bottom: "ip1"
  top: "ip1"
}
layer {
  name: "drop1"
  type: "Dropout"
  bottom: "ip1"
  top: "ip1"
  dropout_param {
    dropout_ratio: 0.5
  }
}
layer {
  name: "ip2"
  type: "InnerProduct"
  bottom: "ip1"
  top: "ip2"
  inner_product_param {
    num_output: 2
    weight_filler {
      type: "xavier"
    }
    bias_filler {
      type: "constant"
    }
  }
}
layer {
  name: "loss1"
  type: "SoftmaxWithLoss"
  bottom: "ip2"
  bottom: "glasses"
  top: "loss1"
  loss_weight: 0.5
}
layer {
  name: "ip3"
  type: "InnerProduct"
  bottom: "ip1"
  top: "ip3"
  inner_product_param {
    num_output: 2
    weight_filler {
      type: "xavier"
    }
    bias_filler {
      type: "constant"
    }
  }
}
layer {
  name: "loss2"
  type: "SoftmaxWithLoss"
  bottom: "ip3"
  bottom: "gender"
  top: "loss2"
  loss_weight: 0.5
}
I0818 22:12:35.613189  6111 layer_factory.hpp:77] Creating layer data
I0818 22:12:35.613557  6111 net.cpp:100] Creating Layer data
I0818 22:12:35.613587  6111 net.cpp:408] data -> data
I0818 22:12:35.614675  6115 db_lmdb.cpp:35] Opened lmdb /home/jaychou/code/new_caffe/caffe-master/examples/gender_glasses/gender_glasses_train_lmdb
I0818 22:12:35.622938  6111 data_layer.cpp:41] output data size: 100,3,80,80
I0818 22:12:35.633942  6111 net.cpp:150] Setting up data
I0818 22:12:35.633991  6111 net.cpp:157] Top shape: 100 3 80 80 (1920000)
I0818 22:12:35.634001  6111 net.cpp:165] Memory required for data: 7680000
I0818 22:12:35.634017  6111 layer_factory.hpp:77] Creating layer labels
I0818 22:12:35.634122  6111 net.cpp:100] Creating Layer labels
I0818 22:12:35.634140  6111 net.cpp:408] labels -> labels
I0818 22:12:35.636581  6117 db_lmdb.cpp:35] Opened lmdb /home/jaychou/code/new_caffe/caffe-master/examples/gender_glasses/gender_glasses_train_label_lmdb
I0818 22:12:35.637169  6111 data_layer.cpp:41] output data size: 100,2,1,1
I0818 22:12:35.637482  6111 net.cpp:150] Setting up labels
I0818 22:12:35.637495  6111 net.cpp:157] Top shape: 100 2 1 1 (200)
I0818 22:12:35.637504  6111 net.cpp:165] Memory required for data: 7680800
I0818 22:12:35.637511  6111 layer_factory.hpp:77] Creating layer slice1
I0818 22:12:35.637522  6111 net.cpp:100] Creating Layer slice1
I0818 22:12:35.637531  6111 net.cpp:434] slice1 <- labels
I0818 22:12:35.637542  6111 net.cpp:408] slice1 -> glasses
I0818 22:12:35.637555  6111 net.cpp:408] slice1 -> gender
I0818 22:12:35.637609  6111 net.cpp:150] Setting up slice1
I0818 22:12:35.637619  6111 net.cpp:157] Top shape: 100 1 1 1 (100)
I0818 22:12:35.637626  6111 net.cpp:157] Top shape: 100 1 1 1 (100)
I0818 22:12:35.637630  6111 net.cpp:165] Memory required for data: 7681600
I0818 22:12:35.637635  6111 layer_factory.hpp:77] Creating layer conv1
I0818 22:12:35.637657  6111 net.cpp:100] Creating Layer conv1
I0818 22:12:35.637663  6111 net.cpp:434] conv1 <- data
I0818 22:12:35.637673  6111 net.cpp:408] conv1 -> conv1
I0818 22:12:35.769721  6111 net.cpp:150] Setting up conv1
I0818 22:12:35.769768  6111 net.cpp:157] Top shape: 100 20 76 76 (11552000)
I0818 22:12:35.769779  6111 net.cpp:165] Memory required for data: 53889600
I0818 22:12:35.769805  6111 layer_factory.hpp:77] Creating layer relu1
I0818 22:12:35.769824  6111 net.cpp:100] Creating Layer relu1
I0818 22:12:35.769842  6111 net.cpp:434] relu1 <- conv1
I0818 22:12:35.769855  6111 net.cpp:395] relu1 -> conv1 (in-place)
I0818 22:12:35.770349  6111 net.cpp:150] Setting up relu1
I0818 22:12:35.770367  6111 net.cpp:157] Top shape: 100 20 76 76 (11552000)
I0818 22:12:35.770377  6111 net.cpp:165] Memory required for data: 100097600
I0818 22:12:35.770391  6111 layer_factory.hpp:77] Creating layer pool1
I0818 22:12:35.770404  6111 net.cpp:100] Creating Layer pool1
I0818 22:12:35.770419  6111 net.cpp:434] pool1 <- conv1
I0818 22:12:35.770431  6111 net.cpp:408] pool1 -> pool1
I0818 22:12:35.770481  6111 net.cpp:150] Setting up pool1
I0818 22:12:35.770496  6111 net.cpp:157] Top shape: 100 20 38 38 (2888000)
I0818 22:12:35.770506  6111 net.cpp:165] Memory required for data: 111649600
I0818 22:12:35.770515  6111 layer_factory.hpp:77] Creating layer conv2
I0818 22:12:35.770531  6111 net.cpp:100] Creating Layer conv2
I0818 22:12:35.770541  6111 net.cpp:434] conv2 <- pool1
I0818 22:12:35.770552  6111 net.cpp:408] conv2 -> conv2
I0818 22:12:35.771850  6111 net.cpp:150] Setting up conv2
I0818 22:12:35.771870  6111 net.cpp:157] Top shape: 100 48 34 34 (5548800)
I0818 22:12:35.771879  6111 net.cpp:165] Memory required for data: 133844800
I0818 22:12:35.771917  6111 layer_factory.hpp:77] Creating layer relu2
I0818 22:12:35.771935  6111 net.cpp:100] Creating Layer relu2
I0818 22:12:35.771945  6111 net.cpp:434] relu2 <- conv2
I0818 22:12:35.771956  6111 net.cpp:395] relu2 -> conv2 (in-place)
I0818 22:12:35.772063  6111 net.cpp:150] Setting up relu2
I0818 22:12:35.772078  6111 net.cpp:157] Top shape: 100 48 34 34 (5548800)
I0818 22:12:35.772088  6111 net.cpp:165] Memory required for data: 156040000
I0818 22:12:35.772099  6111 layer_factory.hpp:77] Creating layer pool2
I0818 22:12:35.772110  6111 net.cpp:100] Creating Layer pool2
I0818 22:12:35.772120  6111 net.cpp:434] pool2 <- conv2
I0818 22:12:35.772131  6111 net.cpp:408] pool2 -> pool2
I0818 22:12:35.772168  6111 net.cpp:150] Setting up pool2
I0818 22:12:35.772181  6111 net.cpp:157] Top shape: 100 48 17 17 (1387200)
I0818 22:12:35.772191  6111 net.cpp:165] Memory required for data: 161588800
I0818 22:12:35.772199  6111 layer_factory.hpp:77] Creating layer conv3
I0818 22:12:35.772213  6111 net.cpp:100] Creating Layer conv3
I0818 22:12:35.772223  6111 net.cpp:434] conv3 <- pool2
I0818 22:12:35.772235  6111 net.cpp:408] conv3 -> conv3
I0818 22:12:35.773066  6111 net.cpp:150] Setting up conv3
I0818 22:12:35.773087  6111 net.cpp:157] Top shape: 100 64 15 15 (1440000)
I0818 22:12:35.773095  6111 net.cpp:165] Memory required for data: 167348800
I0818 22:12:35.773108  6111 layer_factory.hpp:77] Creating layer relu3
I0818 22:12:35.773120  6111 net.cpp:100] Creating Layer relu3
I0818 22:12:35.773129  6111 net.cpp:434] relu3 <- conv3
I0818 22:12:35.773139  6111 net.cpp:395] relu3 -> conv3 (in-place)
I0818 22:12:35.773231  6111 net.cpp:150] Setting up relu3
I0818 22:12:35.773246  6111 net.cpp:157] Top shape: 100 64 15 15 (1440000)
I0818 22:12:35.773254  6111 net.cpp:165] Memory required for data: 173108800
I0818 22:12:35.773268  6111 layer_factory.hpp:77] Creating layer ip1
I0818 22:12:35.773285  6111 net.cpp:100] Creating Layer ip1
I0818 22:12:35.773295  6111 net.cpp:434] ip1 <- conv3
I0818 22:12:35.773308  6111 net.cpp:408] ip1 -> ip1
I0818 22:12:35.827746  6111 net.cpp:150] Setting up ip1
I0818 22:12:35.827790  6111 net.cpp:157] Top shape: 100 512 (51200)
I0818 22:12:35.827800  6111 net.cpp:165] Memory required for data: 173313600
I0818 22:12:35.827822  6111 layer_factory.hpp:77] Creating layer relu5
I0818 22:12:35.827838  6111 net.cpp:100] Creating Layer relu5
I0818 22:12:35.827850  6111 net.cpp:434] relu5 <- ip1
I0818 22:12:35.827863  6111 net.cpp:395] relu5 -> ip1 (in-place)
I0818 22:12:35.827941  6111 net.cpp:150] Setting up relu5
I0818 22:12:35.827955  6111 net.cpp:157] Top shape: 100 512 (51200)
I0818 22:12:35.827965  6111 net.cpp:165] Memory required for data: 173518400
I0818 22:12:35.827975  6111 layer_factory.hpp:77] Creating layer drop1
I0818 22:12:35.827993  6111 net.cpp:100] Creating Layer drop1
I0818 22:12:35.828002  6111 net.cpp:434] drop1 <- ip1
I0818 22:12:35.828012  6111 net.cpp:395] drop1 -> ip1 (in-place)
I0818 22:12:35.828044  6111 net.cpp:150] Setting up drop1
I0818 22:12:35.828057  6111 net.cpp:157] Top shape: 100 512 (51200)
I0818 22:12:35.828065  6111 net.cpp:165] Memory required for data: 173723200
I0818 22:12:35.828074  6111 layer_factory.hpp:77] Creating layer ip1_drop1_0_split
I0818 22:12:35.828088  6111 net.cpp:100] Creating Layer ip1_drop1_0_split
I0818 22:12:35.828096  6111 net.cpp:434] ip1_drop1_0_split <- ip1
I0818 22:12:35.828107  6111 net.cpp:408] ip1_drop1_0_split -> ip1_drop1_0_split_0
I0818 22:12:35.828120  6111 net.cpp:408] ip1_drop1_0_split -> ip1_drop1_0_split_1
I0818 22:12:35.828155  6111 net.cpp:150] Setting up ip1_drop1_0_split
I0818 22:12:35.828168  6111 net.cpp:157] Top shape: 100 512 (51200)
I0818 22:12:35.828177  6111 net.cpp:157] Top shape: 100 512 (51200)
I0818 22:12:35.828186  6111 net.cpp:165] Memory required for data: 174132800
I0818 22:12:35.828194  6111 layer_factory.hpp:77] Creating layer ip2
I0818 22:12:35.828207  6111 net.cpp:100] Creating Layer ip2
I0818 22:12:35.828217  6111 net.cpp:434] ip2 <- ip1_drop1_0_split_0
I0818 22:12:35.828249  6111 net.cpp:408] ip2 -> ip2
I0818 22:12:35.828339  6111 net.cpp:150] Setting up ip2
I0818 22:12:35.828353  6111 net.cpp:157] Top shape: 100 2 (200)
I0818 22:12:35.828362  6111 net.cpp:165] Memory required for data: 174133600
I0818 22:12:35.828379  6111 layer_factory.hpp:77] Creating layer loss1
I0818 22:12:35.828395  6111 net.cpp:100] Creating Layer loss1
I0818 22:12:35.828405  6111 net.cpp:434] loss1 <- ip2
I0818 22:12:35.828414  6111 net.cpp:434] loss1 <- glasses
I0818 22:12:35.828425  6111 net.cpp:408] loss1 -> loss1
I0818 22:12:35.828441  6111 layer_factory.hpp:77] Creating layer loss1
I0818 22:12:35.828833  6111 net.cpp:150] Setting up loss1
I0818 22:12:35.828851  6111 net.cpp:157] Top shape: (1)
I0818 22:12:35.828860  6111 net.cpp:160]     with loss weight 0.5
I0818 22:12:35.828886  6111 net.cpp:165] Memory required for data: 174133604
I0818 22:12:35.828896  6111 layer_factory.hpp:77] Creating layer ip3
I0818 22:12:35.828907  6111 net.cpp:100] Creating Layer ip3
I0818 22:12:35.828917  6111 net.cpp:434] ip3 <- ip1_drop1_0_split_1
I0818 22:12:35.828928  6111 net.cpp:408] ip3 -> ip3
I0818 22:12:35.829021  6111 net.cpp:150] Setting up ip3
I0818 22:12:35.829035  6111 net.cpp:157] Top shape: 100 2 (200)
I0818 22:12:35.829044  6111 net.cpp:165] Memory required for data: 174134404
I0818 22:12:35.829057  6111 layer_factory.hpp:77] Creating layer loss2
I0818 22:12:35.829068  6111 net.cpp:100] Creating Layer loss2
I0818 22:12:35.829077  6111 net.cpp:434] loss2 <- ip3
I0818 22:12:35.829087  6111 net.cpp:434] loss2 <- gender
I0818 22:12:35.829098  6111 net.cpp:408] loss2 -> loss2
I0818 22:12:35.829113  6111 layer_factory.hpp:77] Creating layer loss2
…
  phase: TEST
}
layer {
  name: "data"
  type: "Data"
  top: "data"
  include {
    phase: TEST
  }
  transform_param {
    scale: 0.00390625
  }
  data_param {
    source: "/home/jaychou/code/new_caffe/caffe-master/examples/gender_glasses/gender_glasses_val_lmdb"
    batch_size: 64
    backend: LMDB
  }
}
layer {
  name: "labels"
  type: "Data"
  top: "labels"
  include {
    phase: TEST
  }
  data_param {
    source: "/home/jaychou/code/new_caffe/caffe-master/examples/gender_glasses/gender_glasses_val_label_lmdb"
    batch_size: 64
    backend: LMDB
  }
}
layer {
  name: "slice1"
  type: "Slice"
  bottom: "labels"
  top: "glasses"
  top: "gender"
  slice_param {
    slice_dim: 1
    slice_point: 1
  }
}
layer {
  name: "conv1"
  type: "Convolution"
  bottom: "data"
  top: "conv1"
  param {
    lr_mult: 1
  }
  param {
    lr_mult: 0.1
  }
  convolution_param {
    num_output: 20
    pad: 0
    kernel_size: 5
    stride: 1
    weight_filler {
      type: "xavier"
    }
    bias_filler {
      type: "constant"
      value: 0
    }
  }
}
layer {
  name: "relu1"
  type: "PReLU"
  bottom: "conv1"
  top: "conv1"
}
layer {
  name: "pool1"
  type: "Pooling"
  bottom: "conv1"
  top: "pool1"
  pooling_param {
    pool: MAX
    kernel_size: 2
    stride: 2
  }
}
layer {
  name: "conv2"
  type: "Convolution"
  bottom: "pool1"
  top: "conv2"
  param {
    lr_mult: 1
  }
  param {
    lr_mult: 0.1
  }
  convolution_param {
    num_output: 48
    pad: 0
    kernel_size: 5
    stride: 1
    weight_filler {
      type: "xavier"
    }
    bias_filler {
      type: "constant"
      value: 0
    }
  }
}
layer {
  name: "relu2"
  type: "PReLU"
  bottom: "conv2"
  top: "conv2"
}
layer {
  name: "pool2"
  type: "Pooling"
  bottom: "conv2"
  top: "pool2"
  pooling_param {
    pool: MAX
    kernel_size: 2
    stride: 2
  }
}
layer {
  name: "conv3"
  type: "Convolution"
  bottom: "pool2"
  top: "conv3"
  param {
    lr_mult: 0.1
  }
  param {
    lr_mult: 0.1
  }
  convolution_param {
    num_output: 64
    pad: 0
    kernel_size: 3
    stride: 1
    weight_filler {
      type: "xavier"
    }
    bias_filler {
      type: "constant"
      value: 0
    }
  }
}
layer {
  name: "relu3"
  type: "PReLU"
  bottom: "conv3"
  top: "conv3"
}
layer {
  name: "ip1"
  type: "InnerProduct"
  bottom: "conv3"
  top: "ip1"
  inner_product_param {
    num_output: 512
    weight_filler {
      type: "xavier"
    }
    bias_filler {
      type: "constant"
    }
  }
}
layer {
  name: "relu5"
  type: "PReLU"
  bottom: "ip1"
  top: "ip1"
}
layer {
  name: "drop1"
  type: "Dropout"
  bottom: "ip1"
  top: "ip1"
  dropout_param {
    dropout_ratio: 0.5
  }
}
layer {
  name: "ip2"
  type: "InnerProduct"
  bottom: "ip1"
  top: "ip2"
  inner_product_param {
    num_output: 2
    weight_filler {
      type: "xavier"
    }
    bias_filler {
      type: "constant"
    }
  }
}
layer {
  name: "loss1"
  type: "SoftmaxWithLoss"
  bottom: "ip2"
  bottom: "glasses"
  top: "loss1"
  loss_weight: 0.5
}
layer {
  name: "accuracy_glasses"
  type: "Accuracy"
  bottom: "ip2"
  bottom: "glasses"
  top: "accuracy_glasses"
  include {
    phase: TEST
  }
}
layer {
  name: "ip3"
  type: "InnerProduct"
  bottom: "ip1"
  top: "ip3"
  inner_product_param {
    num_output: 2
    weight_filler {
      type: "xavier"
    }
    bias_filler {
      type: "constant"
    }
  }
}
layer {
  name: "loss2"
  type: "SoftmaxWithLoss"
  bottom: "ip3"
  bottom: "gender"
  top: "loss2"
  loss_weight: 0.5
}
layer {
  name: "accuracy_gender"
  type: "Accuracy"
  bottom: "ip3"
  bottom: "gender"
  top: "accuracy_gender"
  include {
    phase: TEST
  }
}
I0818 22:12:35.830847  6111 layer_factory.hpp:77] Creating layer data
I0818 22:12:35.830940  6111 net.cpp:100] Creating Layer data
I0818 22:12:35.830953  6111 net.cpp:408] data -> data
I0818 22:12:35.831980  6119 db_lmdb.cpp:35] Opened lmdb /home/jaychou/code/new_caffe/caffe-master/examples/gender_glasses/gender_glasses_val_lmdb
I0818 22:12:35.832129  6111 data_layer.cpp:41] output data size: 64,3,80,80
I0818 22:12:35.851289  6111 net.cpp:150] Setting up data
I0818 22:12:35.851368  6111 net.cpp:157] Top shape: 64 3 80 80 (1228800)
I0818 22:12:35.851382  6111 net.cpp:165] Memory required for data: 4915200
I0818 22:12:35.851397  6111 layer_factory.hpp:77] Creating layer labels
I0818 22:12:35.851502  6111 net.cpp:100] Creating Layer labels
I0818 22:12:35.851521  6111 net.cpp:408] labels -> labels
I0818 22:12:35.854267  6121 db_lmdb.cpp:35] Opened lmdb /home/jaychou/code/new_caffe/caffe-master/examples/gender_glasses/gender_glasses_val_label_lmdb
I0818 22:12:35.854681  6111 data_layer.cpp:41] output data size: 64,2,1,1
I0818 22:12:35.855036  6111 net.cpp:150] Setting up labels
I0818 22:12:35.855063  6111 net.cpp:157] Top shape: 64 2 1 1 (128)
I0818 22:12:35.855073  6111 net.cpp:165] Memory required for data: 4915712
I0818 22:12:35.855082  6111 layer_factory.hpp:77] Creating layer slice1
I0818 22:12:35.855096  6111 net.cpp:100] Creating Layer slice1
I0818 22:12:35.855106  6111 net.cpp:434] slice1 <- labels
I0818 22:12:35.855118  6111 net.cpp:408] slice1 -> glasses
I0818 22:12:35.855141  6111 net.cpp:408] slice1 -> gender
I0818 22:12:35.855187  6111 net.cpp:150] Setting up slice1
I0818 22:12:35.855202  6111 net.cpp:157] Top shape: 64 1 1 1 (64)
I0818 22:12:35.855214  6111 net.cpp:157] Top shape: 64 1 1 1 (64)
I0818 22:12:35.855228  6111 net.cpp:165] Memory required for data: 4916224
I0818 22:12:35.855238  6111 layer_factory.hpp:77] Creating layer glasses_slice1_0_split
I0818 22:12:35.855252  6111 net.cpp:100] Creating Layer glasses_slice1_0_split
I0818 22:12:35.855262  6111 net.cpp:434] glasses_slice1_0_split <- glasses
I0818 22:12:35.855273  6111 net.cpp:408] glasses_slice1_0_split -> glasses_slice1_0_split_0
I0818 22:12:35.855288  6111 net.cpp:408] glasses_slice1_0_split -> glasses_slice1_0_split_1
I0818 22:12:35.855330  6111 net.cpp:150] Setting up glasses_slice1_0_split
I0818 22:12:35.855346  6111 net.cpp:157] Top shape: 64 1 1 1 (64)
I0818 22:12:35.855358  6111 net.cpp:157] Top shape: 64 1 1 1 (64)
I0818 22:12:35.855368  6111 net.cpp:165] Memory required for data: 4916736
I0818 22:12:35.855378  6111 layer_factory.hpp:77] Creating layer gender_slice1_1_split
I0818 22:12:35.855391  6111 net.cpp:100] Creating Layer gender_slice1_1_split
I0818 22:12:35.855401  6111 net.cpp:434] gender_slice1_1_split <- gender
I0818 22:12:35.855413  6111 net.cpp:408] gender_slice1_1_split -> gender_slice1_1_split_0
I0818 22:12:35.855428  6111 net.cpp:408] gender_slice1_1_split -> gender_slice1_1_split_1
I0818 22:12:35.855469  6111 net.cpp:150] Setting up gender_slice1_1_split
I0818 22:12:35.855484  6111 net.cpp:157] Top shape: 64 1 1 1 (64)
I0818 22:12:35.855496  6111 net.cpp:157] Top shape: 64 1 1 1 (64)
I0818 22:12:35.855505  6111 net.cpp:165] Memory required for data: 4917248
I0818 22:12:35.855516  6111 layer_factory.hpp:77] Creating layer conv1
I0818 22:12:35.855535  6111 net.cpp:100] Creating Layer conv1
I0818 22:12:35.855546  6111 net.cpp:434] conv1 <- data
I0818 22:12:35.855559  6111 net.cpp:408] conv1 -> conv1
I0818 22:12:35.856938  6111 net.cpp:150] Setting up conv1
I0818 22:12:35.856964  6111 net.cpp:157] Top shape: 64 20 76 76 (7393280)
I0818 22:12:35.856976  6111 net.cpp:165] Memory required for data: 34490368
I0818 22:12:35.856997  6111 layer_factory.hpp:77] Creating layer relu1
I0818 22:12:35.857012  6111 net.cpp:100] Creating Layer relu1
I0818 22:12:35.857025  6111 net.cpp:434] relu1 <- conv1
I0818 22:12:35.857041  6111 net.cpp:395] relu1 -> conv1 (in-place)
I0818 22:12:35.857272  6111 net.cpp:150] Setting up relu1
I0818 22:12:35.857287  6111 net.cpp:157] Top shape: 64 20 76 76 (7393280)
I0818 22:12:35.857296  6111 net.cpp:165] Memory required for data: 64063488
I0818 22:12:35.857308  6111 layer_factory.hpp:77] Creating layer pool1
I0818 22:12:35.857326  6111 net.cpp:100] Creating Layer pool1
I0818 22:12:35.857336  6111 net.cpp:434] pool1 <- conv1
I0818 22:12:35.857345  6111 net.cpp:408] pool1 -> pool1
I0818 22:12:35.857391  6111 net.cpp:150] Setting up pool1
I0818 22:12:35.857405  6111 net.cpp:157] Top shape: 64 20 38 38 (1848320)
I0818 22:12:35.857414  6111 net.cpp:165] Memory required for data: 71456768
I0818 22:12:35.857441  6111 layer_factory.hpp:77] Creating layer conv2
I0818 22:12:35.857470  6111 net.cpp:100] Creating Layer conv2
I0818 22:12:35.857480  6111 net.cpp:434] conv2 <- pool1
I0818 22:12:35.857494  6111 net.cpp:408] conv2 -> conv2
I0818 22:12:35.858743  6111 net.cpp:150] Setting up conv2
I0818 22:12:35.858764  6111 net.cpp:157] Top shape: 64 48 34 34 (3551232)
I0818 22:12:35.858774  6111 net.cpp:165] Memory required for data: 85661696
I0818 22:12:35.858793  6111 layer_factory.hpp:77] Creating layer relu2
I0818 22:12:35.858809  6111 net.cpp:100] Creating Layer relu2
I0818 22:12:35.858819  6111 net.cpp:434] relu2 <- conv2
I0818 22:12:35.858829  6111 net.cpp:395] relu2 -> conv2 (in-place)
I0818 22:12:35.859009  6111 net.cpp:150] Setting up relu2
I0818 22:12:35.859025  6111 net.cpp:157] Top shape: 64 48 34 34 (3551232)
I0818 22:12:35.859033  6111 net.cpp:165] Memory required for data: 99866624
I0818 22:12:35.859045  6111 layer_factory.hpp:77] Creating layer pool2
I0818 22:12:35.859061  6111 net.cpp:100] Creating Layer pool2
I0818 22:12:35.859071  6111 net.cpp:434] pool2 <- conv2
I0818 22:12:35.859081  6111 net.cpp:408] pool2 -> pool2
I0818 22:12:35.859125  6111 net.cpp:150] Setting up pool2
I0818 22:12:35.859139  6111 net.cpp:157] Top shape: 64 48 17 17 (887808)
I0818 22:12:35.859148  6111 net.cpp:165] Memory required for data: 103417856
I0818 22:12:35.859158  6111 layer_factory.hpp:77] Creating layer conv3
I0818 22:12:35.859175  6111 net.cpp:100] Creating Layer conv3
I0818 22:12:35.859185  6111 net.cpp:434] conv3 <- pool2
I0818 22:12:35.859199  6111 net.cpp:408] conv3 -> conv3
I0818 22:12:35.860949  6111 net.cpp:150] Setting up conv3
I0818 22:12:35.860977  6111 net.cpp:157] Top shape: 64 64 15 15 (921600)
I0818 22:12:35.860992  6111 net.cpp:165] Memory required for data: 107104256
I0818 22:12:35.861006  6111 layer_factory.hpp:77] Creating layer relu3
I0818 22:12:35.861021  6111 net.cpp:100] Creating Layer relu3
I0818 22:12:35.861032  6111 net.cpp:434] relu3 <- conv3
I0818 22:12:35.861044  6111 net.cpp:395] relu3 -> conv3 (in-place)
I0818 22:12:35.861160  6111 net.cpp:150] Setting up relu3
I0818 22:12:35.861176  6111 net.cpp:157] Top shape: 64 64 15 15 (921600)
I0818 22:12:35.861184  6111 net.cpp:165] Memory required for data: 110790656
I0818 22:12:35.861199  6111 layer_factory.hpp:77] Creating layer ip1
I0818 22:12:35.861218  6111 net.cpp:100] Creating Layer ip1
I0818 22:12:35.861228  6111 net.cpp:434] ip1 <- conv3
I0818 22:12:35.861240  6111 net.cpp:408] ip1 -> ip1
I0818 22:12:35.917353  6111 net.cpp:150] Setting up ip1
I0818 22:12:35.917402  6111 net.cpp:157] Top shape: 64 512 (32768)
I0818 22:12:35.917412  6111 net.cpp:165] Memory required for data: 110921728
I0818 22:12:35.917428  6111 layer_factory.hpp:77] Creating layer relu5
I0818 22:12:35.917446  6111 net.cpp:100] Creating Layer relu5
I0818 22:12:35.917459  6111 net.cpp:434] relu5 <- ip1
I0818 22:12:35.917470  6111 net.cpp:395] relu5 -> ip1 (in-place)
I0818 22:12:35.917554  6111 net.cpp:150] Setting up relu5
I0818 22:12:35.917569  6111 net.cpp:157] Top shape: 64 512 (32768)
I0818 22:12:35.917578  6111 net.cpp:165] Memory required for data: 111052800
I0818 22:12:35.917588  6111 layer_factory.hpp:77] Creating layer drop1
I0818 22:12:35.917601  6111 net.cpp:100] Creating Layer drop1
I0818 22:12:35.917610  6111 net.cpp:434] drop1 <- ip1
I0818 22:12:35.917623  6111 net.cpp:395] drop1 -> ip1 (in-place)
I0818 22:12:35.917651  6111 net.cpp:150] Setting up drop1
I0818 22:12:35.917665  6111 net.cpp:157] Top shape: 64 512 (32768)
I0818 22:12:35.917673  6111 net.cpp:165] Memory required for data: 111183872
I0818 22:12:35.917682  6111 layer_factory.hpp:77] Creating layer ip1_drop1_0_split
I0818 22:12:35.917696  6111 net.cpp:100] Creating Layer ip1_drop1_0_split
I0818 22:12:35.917706  6111 net.cpp:434] ip1_drop1_0_split <- ip1
I0818 22:12:35.917718  6111 net.cpp:408] ip1_drop1_0_split -> ip1_drop1_0_split_0
I0818 22:12:35.917732  6111 net.cpp:408] ip1_drop1_0_split -> ip1_drop1_0_split_1
I0818 22:12:35.917771  6111 net.cpp:150] Setting up ip1_drop1_0_split
I0818 22:12:35.917810  6111 net.cpp:157] Top shape: 64 512 (32768)
I0818 22:12:35.917821  6111 net.cpp:157] Top shape: 64 512 (32768)
I0818 22:12:35.917830  6111 net.cpp:165] Memory required for data: 111446016
I0818 22:12:35.917840  6111 layer_factory.hpp:77] Creating layer ip2
I0818 22:12:35.917853  6111 net.cpp:100] Creating Layer ip2
I0818 22:12:35.917865  6111 net.cpp:434] ip2 <- ip1_drop1_0_split_0
I0818 22:12:35.917876  6111 net.cpp:408] ip2 -> ip2
I0818 22:12:35.917985  6111 net.cpp:150] Setting up ip2
I0818 22:12:35.918002  6111 net.cpp:157] Top shape: 64 2 (128)
I0818 22:12:35.918012  6111 net.cpp:165] Memory required for data: 111446528
I0818 22:12:35.918025  6111 layer_factory.hpp:77] Creating layer ip2_ip2_0_split
I0818 22:12:35.918035  6111 net.cpp:100] Creating Layer ip2_ip2_0_split
I0818 22:12:35.918045  6111 net.cpp:434] ip2_ip2_0_split <- ip2
I0818 22:12:35.918054  6111 net.cpp:408] ip2_ip2_0_split -> ip2_ip2_0_split_0
I0818 22:12:35.918066  6111 net.cpp:408] ip2_ip2_0_split -> ip2_ip2_0_split_1
I0818 22:12:35.918107  6111 net.cpp:150] Setting up ip2_ip2_0_split
I0818 22:12:35.918120  6111 net.cpp:157] Top shape: 64 2 (128)
I0818 22:12:35.918130  6111 net.cpp:157] Top shape: 64 2 (128)
I0818 22:12:35.918139  6111 net.cpp:165] Memory required for data: 111447552
I0818 22:12:35.918148  6111 layer_factory.hpp:77] Creating layer loss1
I0818 22:12:35.918159  6111 net.cpp:100] Creating Layer loss1
I0818 22:12:35.918167  6111 net.cpp:434] loss1 <- ip2_ip2_0_split_0
I0818 22:12:35.918177  6111 net.cpp:434] loss1 <- glasses_slice1_0_split_0
I0818 22:12:35.918190  6111 net.cpp:408] loss1 -> loss1
…
