…
  stage: ""
}
layer {
  name: "data"
  type: "Data"
  top: "data"
  include {
    phase: TRAIN
  }
  transform_param {
    scale: 0.00390625
  }
  data_param {
    source: "/home/jaychou/code/new_caffe/caffe-master/examples/gender_glasses/gender_glasses_train_lmdb"
    batch_size: 100
    backend: LMDB
  }
}
layer {
  name: "labels"
  type: "Data"
  top: "labels"
  include {
    phase: TRAIN
  }
  data_param {
    source: "/home/jaychou/code/new_caffe/caffe-master/examples/gender_glasses/gender_glasses_train_label_lmdb"
    batch_size: 100
    backend: LMDB
  }
}
layer {
  name: "slice1"
  type: "Slice"
  bottom: "labels"
  top: "glasses"
  top: "gender"
  slice_param {
    slice_dim: 1
    slice_point: 1
  }
}
layer {
  name: "conv1"
  type: "Convolution"
  bottom: "data"
  top: "conv1"
  param {
    lr_mult: 1
  }
  param {
    lr_mult: 0.1
  }
  convolution_param {
    num_output: 20
    pad: 0
    kernel_size: 5
    stride: 1
    weight_filler {
      type: "xavier"
    }
    bias_filler {
      type: "constant"
      value: 0
    }
  }
}
layer {
  name: "relu1"
  type: "ReLU"
  bottom: "conv1"
  top: "conv1"
}
layer {
  name: "pool1"
  type: "Pooling"
  bottom: "conv1"
  top: "pool1"
  pooling_param {
    pool: MAX
    kernel_size: 2
    stride: 2
  }
}
layer {
  name: "conv2"
  type: "Convolution"
  bottom: "pool1"
  top: "conv2"
  param {
    lr_mult: 1
  }
  param {
    lr_mult: 0.1
  }
  convolution_param {
    num_output: 48
    pad: 0
    kernel_size: 5
    stride: 1
    weight_filler {
      type: "xavier"
    }
    bias_filler {
      type: "constant"
      value: 0
    }
  }
}
layer {
  name: "relu2"
  type: "ReLU"
  bottom: "conv2"
  top: "conv2"
}
layer {
  name: "pool2"
  type: "Pooling"
  bottom: "conv2"
  top: "pool2"
  pooling_param {
    pool: MAX
    kernel_size: 2
    stride: 2
  }
}
layer {
  name: "conv3"
  type: "Convolution"
  bottom: "pool2"
  top: "conv3"
  param {
    lr_mult: 0.1
  }
  param {
    lr_mult: 0.1
  }
  convolution_param {
    num_output: 64
    pad: 0
    kernel_size: 3
    stride: 1
    weight_filler {
      type: "xavier"
    }
    bias_filler {
      type: "constant"
      value: 0
    }
  }
}
layer {
  name: "relu3"
  type: "ReLU"
  bottom: "conv3"
  top: "conv3"
}
layer {
  name: "conv4"
  type: "Convolution"
  bottom: "conv3"
  top: "conv4"
  param {
    lr_mult: 0.1
  }
  param {
    lr_mult: 0.1
  }
  convolution_param {
    num_output: 80
    pad: 0
    kernel_size: 3
    stride: 1
    weight_filler {
      type: "xavier"
    }
    bias_filler {
      type: "constant"
      value: 0
    }
  }
}
layer {
  name: "relu4"
  type: "ReLU"
  bottom: "conv4"
  top: "conv4"
}
layer {
  name: "ip1"
  type: "InnerProduct"
  bottom: "conv4"
  top: "ip1"
  inner_product_param {
    num_output: 512
    weight_filler {
      type: "xavier"
    }
    bias_filler {
      type: "constant"
    }
  }
}
layer {
  name: "relu5"
  type: "ReLU"
  bottom: "ip1"
  top: "ip1"
}
layer {
  name: "drop1"
  type: "Dropout"
  bottom: "ip1"
  top: "ip1"
  dropout_param {
    dropout_ratio: 0.5
  }
}
layer {
  name: "ip2"
  type: "InnerProduct"
  bottom: "ip1"
  top: "ip2"
  inner_product_param {
    num_output: 2
    weight_filler {
      type: "xavier"
    }
    bias_filler {
      type: "constant"
    }
  }
}
layer {
  name: "loss1"
  type: "SoftmaxWithLoss"
  bottom: "ip2"
  bottom: "glasses"
  top: "loss1"
  loss_weight: 0.5
}
layer {
  name: "ip3"
  type: "InnerProduct"
  bottom: "ip1"
  top: "ip3"
  inner_product_param {
    num_output: 512
    weight_filler {
      type: "xavier"
    }
    bias_filler {
      type: "constant"
    }
  }
}
layer {
  name: "loss2"
  type: "SoftmaxWithLoss"
  bottom: "ip3"
  bottom: "gender"
  top: "loss2"
  loss_weight: 0.5
}
I0814 11:29:02.973919 24366 layer_factory.hpp:77] Creating layer data
I0814 11:29:02.974287 24366 net.cpp:100] Creating Layer data
I0814 11:29:02.974318 24366 net.cpp:408] data -> data
I0814 11:29:02.975239 24370 db_lmdb.cpp:35] Opened lmdb /home/jaychou/code/new_caffe/caffe-master/examples/gender_glasses/gender_glasses_train_lmdb
I0814 11:29:02.985754 24366 data_layer.cpp:41] output data size: 100,3,100,100
I0814 11:29:03.003280 24366 net.cpp:150] Setting up data
I0814 11:29:03.003324 24366 net.cpp:157] Top shape: 100 3 100 100 (3000000)
I0814 11:29:03.003336 24366 net.cpp:165] Memory required for data: 12000000
I0814 11:29:03.003351 24366 layer_factory.hpp:77] Creating layer labels
I0814 11:29:03.003455 24366 net.cpp:100] Creating Layer labels
I0814 11:29:03.003471 24366 net.cpp:408] labels -> labels
I0814 11:29:03.005473 24372 db_lmdb.cpp:35] Opened lmdb /home/jaychou/code/new_caffe/caffe-master/examples/gender_glasses/gender_glasses_train_label_lmdb
I0814 11:29:03.006238 24366 data_layer.cpp:41] output data size: 100,2,1,1
I0814 11:29:03.006703 24366 net.cpp:150] Setting up labels
I0814 11:29:03.006726 24366 net.cpp:157] Top shape: 100 2 1 1 (200)
I0814 11:29:03.006736 24366 net.cpp:165] Memory required for data: 12000800
I0814 11:29:03.006744 24366 layer_factory.hpp:77] Creating layer slice1
I0814 11:29:03.006762 24366 net.cpp:100] Creating Layer slice1
I0814 11:29:03.006775 24366 net.cpp:434] slice1 <- labels
I0814 11:29:03.006791 24366 net.cpp:408] slice1 -> glasses
I0814 11:29:03.006810 24366 net.cpp:408] slice1 -> gender
I0814 11:29:03.006855 24366 net.cpp:150] Setting up slice1
I0814 11:29:03.006870 24366 net.cpp:157] Top shape: 100 1 1 1 (100)
I0814 11:29:03.006880 24366 net.cpp:157] Top shape: 100 1 1 1 (100)
I0814 11:29:03.006887 24366 net.cpp:165] Memory required for data: 12001600
I0814 11:29:03.006896 24366 layer_factory.hpp:77] Creating layer conv1
I0814 11:29:03.006917 24366 net.cpp:100] Creating Layer conv1
I0814 11:29:03.006928 24366 net.cpp:434] conv1 <- data
I0814 11:29:03.006942 24366 net.cpp:408] conv1 -> conv1
I0814 11:29:03.155969 24366 net.cpp:150] Setting up conv1
I0814 11:29:03.156016 24366 net.cpp:157] Top shape: 100 20 96 96 (18432000)
I0814 11:29:03.156028 24366 net.cpp:165] Memory required for data: 85729600
I0814 11:29:03.156054 24366 layer_factory.hpp:77] Creating layer relu1
I0814 11:29:03.156071 24366 net.cpp:100] Creating Layer relu1
I0814 11:29:03.156082 24366 net.cpp:434] relu1 <- conv1
I0814 11:29:03.156093 24366 net.cpp:395] relu1 -> conv1 (in-place)
I0814 11:29:03.156222 24366 net.cpp:150] Setting up relu1
I0814 11:29:03.156239 24366 net.cpp:157] Top shape: 100 20 96 96 (18432000)
I0814 11:29:03.156247 24366 net.cpp:165] Memory required for data: 159457600
I0814 11:29:03.156256 24366 layer_factory.hpp:77] Creating layer pool1
I0814 11:29:03.156268 24366 net.cpp:100] Creating Layer pool1
I0814 11:29:03.156277 24366 net.cpp:434] pool1 <- conv1
I0814 11:29:03.156288 24366 net.cpp:408] pool1 -> pool1
I0814 11:29:03.156340 24366 net.cpp:150] Setting up pool1
I0814 11:29:03.156354 24366 net.cpp:157] Top shape: 100 20 48 48 (4608000)
I0814 11:29:03.156363 24366 net.cpp:165] Memory required for data: 177889600
I0814 11:29:03.156394 24366 layer_factory.hpp:77] Creating layer conv2
I0814 11:29:03.156411 24366 net.cpp:100] Creating Layer conv2
I0814 11:29:03.156420 24366 net.cpp:434] conv2 <- pool1
I0814 11:29:03.156431 24366 net.cpp:408] conv2 -> conv2
I0814 11:29:03.157860 24366 net.cpp:150] Setting up conv2
I0814 11:29:03.157881 24366 net.cpp:157] Top shape: 100 48 44 44 (9292800)
I0814 11:29:03.157891 24366 net.cpp:165] Memory required for data: 215060800
I0814 11:29:03.157905 24366 layer_factory.hpp:77] Creating layer relu2
I0814 11:29:03.157917 24366 net.cpp:100] Creating Layer relu2
I0814 11:29:03.157927 24366 net.cpp:434] relu2 <- conv2
I0814 11:29:03.157937 24366 net.cpp:395] relu2 -> conv2 (in-place)
I0814 11:29:03.158212 24366 net.cpp:150] Setting up relu2
I0814 11:29:03.158231 24366 net.cpp:157] Top shape: 100 48 44 44 (9292800)
I0814 11:29:03.158239 24366 net.cpp:165] Memory required for data: 252232000
I0814 11:29:03.158247 24366 layer_factory.hpp:77] Creating layer pool2
I0814 11:29:03.158262 24366 net.cpp:100] Creating Layer pool2
I0814 11:29:03.158272 24366 net.cpp:434] pool2 <- conv2
I0814 11:29:03.158282 24366 net.cpp:408] pool2 -> pool2
I0814 11:29:03.158324 24366 net.cpp:150] Setting up pool2
I0814 11:29:03.158337 24366 net.cpp:157] Top shape: 100 48 22 22 (2323200)
I0814 11:29:03.158345 24366 net.cpp:165] Memory required for data: 261524800
I0814 11:29:03.158354 24366 layer_factory.hpp:77] Creating layer conv3
I0814 11:29:03.158368 24366 net.cpp:100] Creating Layer conv3
I0814 11:29:03.158380 24366 net.cpp:434] conv3 <- pool2
I0814 11:29:03.158392 24366 net.cpp:408] conv3 -> conv3
I0814 11:29:03.159613 24366 net.cpp:150] Setting up conv3
I0814 11:29:03.159633 24366 net.cpp:157] Top shape: 100 64 20 20 (2560000)
I0814 11:29:03.159643 24366 net.cpp:165] Memory required for data: 271764800
I0814 11:29:03.159657 24366 layer_factory.hpp:77] Creating layer relu3
I0814 11:29:03.159668 24366 net.cpp:100] Creating Layer relu3
I0814 11:29:03.159677 24366 net.cpp:434] relu3 <- conv3
I0814 11:29:03.159689 24366 net.cpp:395] relu3 -> conv3 (in-place)
I0814 11:29:03.159971 24366 net.cpp:150] Setting up relu3
I0814 11:29:03.159988 24366 net.cpp:157] Top shape: 100 64 20 20 (2560000)
I0814 11:29:03.159997 24366 net.cpp:165] Memory required for data: 282004800
I0814 11:29:03.160006 24366 layer_factory.hpp:77] Creating layer conv4
I0814 11:29:03.160023 24366 net.cpp:100] Creating Layer conv4
I0814 11:29:03.160033 24366 net.cpp:434] conv4 <- conv3
I0814 11:29:03.160044 24366 net.cpp:408] conv4 -> conv4
I0814 11:29:03.161255 24366 net.cpp:150] Setting up conv4
I0814 11:29:03.161274 24366 net.cpp:157] Top shape: 100 80 18 18 (2592000)
I0814 11:29:03.161284 24366 net.cpp:165] Memory required for data: 292372800
I0814 11:29:03.161296 24366 layer_factory.hpp:77] Creating layer relu4
I0814 11:29:03.161308 24366 net.cpp:100] Creating Layer relu4
I0814 11:29:03.161316 24366 net.cpp:434] relu4 <- conv4
I0814 11:29:03.161326 24366 net.cpp:395] relu4 -> conv4 (in-place)
I0814 11:29:03.161449 24366 net.cpp:150] Setting up relu4
I0814 11:29:03.161465 24366 net.cpp:157] Top shape: 100 80 18 18 (2592000)
I0814 11:29:03.161474 24366 net.cpp:165] Memory required for data: 302740800
I0814 11:29:03.161483 24366 layer_factory.hpp:77] Creating layer ip1
I0814 11:29:03.161495 24366 net.cpp:100] Creating Layer ip1
I0814 11:29:03.161504 24366 net.cpp:434] ip1 <- conv4
I0814 11:29:03.161514 24366 net.cpp:408] ip1 -> ip1
I0814 11:29:03.261066 24366 net.cpp:150] Setting up ip1
I0814 11:29:03.261117 24366 net.cpp:157] Top shape: 100 512 (51200)
I0814 11:29:03.261128 24366 net.cpp:165] Memory required for data: 302945600
I0814 11:29:03.261152 24366 layer_factory.hpp:77] Creating layer relu5
I0814 11:29:03.261169 24366 net.cpp:100] Creating Layer relu5
I0814 11:29:03.261180 24366 net.cpp:434] relu5 <- ip1
I0814 11:29:03.261193 24366 net.cpp:395] relu5 -> ip1 (in-place)
I0814 11:29:03.261606 24366 net.cpp:150] Setting up relu5
I0814 11:29:03.261627 24366 net.cpp:157] Top shape: 100 512 (51200)
I0814 11:29:03.261636 24366 net.cpp:165] Memory required for data: 303150400
I0814 11:29:03.261670 24366 layer_factory.hpp:77] Creating layer drop1
I0814 11:29:03.261690 24366 net.cpp:100] Creating Layer drop1
I0814 11:29:03.261699 24366 net.cpp:434] drop1 <- ip1
I0814 11:29:03.261713 24366 net.cpp:395] drop1 -> ip1 (in-place)
I0814 11:29:03.261757 24366 net.cpp:150] Setting up drop1
I0814 11:29:03.261772 24366 net.cpp:157] Top shape: 100 512 (51200)
I0814 11:29:03.261781 24366 net.cpp:165] Memory required for data: 303355200
I0814 11:29:03.261790 24366 layer_factory.hpp:77] Creating layer ip1_drop1_0_split
I0814 11:29:03.261806 24366 net.cpp:100] Creating Layer ip1_drop1_0_split
I0814 11:29:03.261814 24366 net.cpp:434] ip1_drop1_0_split <- ip1
I0814 11:29:03.261826 24366 net.cpp:408] ip1_drop1_0_split -> ip1_drop1_0_split_0
I0814 11:29:03.261839 24366 net.cpp:408] ip1_drop1_0_split -> ip1_drop1_0_split_1
I0814 11:29:03.261886 24366 net.cpp:150] Setting up ip1_drop1_0_split
I0814 11:29:03.261899 24366 net.cpp:157] Top shape: 100 512 (51200)
I0814 11:29:03.261909 24366 net.cpp:157] Top shape: 100 512 (51200)
I0814 11:29:03.261917 24366 net.cpp:165] Memory required for data: 303764800
I0814 11:29:03.261925 24366 layer_factory.hpp:77] Creating layer ip2
I0814 11:29:03.261940 24366 net.cpp:100] Creating Layer ip2
I0814 11:29:03.261948 24366 net.cpp:434] ip2 <- ip1_drop1_0_split_0
I0814 11:29:03.261960 24366 net.cpp:408] ip2 -> ip2
I0814 11:29:03.262066 24366 net.cpp:150] Setting up ip2
I0814 11:29:03.262080 24366 net.cpp:157] Top shape: 100 2 (200)
I0814 11:29:03.262089 24366 net.cpp:165] Memory required for data: 303765600
I0814 11:29:03.262100 24366 layer_factory.hpp:77] Creating layer loss1
I0814 11:29:03.262114 24366 net.cpp:100] Creating Layer loss1
I0814 11:29:03.262122 24366 net.cpp:434] loss1 <- ip2
I0814 11:29:03.262132 24366 net.cpp:434] loss1 <- glasses
I0814 11:29:03.262142 24366 net.cpp:408] loss1 -> loss1
I0814 11:29:03.262157 24366 layer_factory.hpp:77] Creating layer loss1
I0814 11:29:03.262378 24366 net.cpp:150] Setting up loss1
I0814 11:29:03.262395 24366 net.cpp:157] Top shape: (1)
I0814 11:29:03.262403 24366 net.cpp:160]     with loss weight 0.5
I0814 11:29:03.262428 24366 net.cpp:165] Memory required for data: 303765604
I0814 11:29:03.262436 24366 layer_factory.hpp:77] Creating layer ip3
I0814 11:29:03.262449 24366 net.cpp:100] Creating Layer ip3
I0814 11:29:03.262459 24366 net.cpp:434] ip3 <- ip1_drop1_0_split_1
I0814 11:29:03.262470 24366 net.cpp:408] ip3 -> ip3
I0814 11:29:03.264633 24366 net.cpp:150] Setting up ip3
I0814 11:29:03.264652 24366 net.cpp:157] Top shape: 100 512 (51200)
I0814 11:29:03.264660 24366 net.cpp:165] Memory required for data: 303970404
I0814 11:29:03.264672 24366 layer_factory.hpp:77] Creating layer loss2
I0814 11:29:03.264683 24366 net.cpp:100] Creating Layer loss2
I0814 11:29:03.264693 24366 net.cpp:434] loss2 <- ip3
I0814 11:29:03.264701 24366 net.cpp:434] loss2 <- gender
I0814 11:29:03.264714 24366 net.cpp:408] loss2 -> loss2
I0814 11:29:03.264729 24366 layer_factory.hpp:77] Creating layer loss2
…
  phase: TEST
}
layer {
  name: "data"
  type: "Data"
  top: "data"
  include {
    phase: TEST
  }
  transform_param {
    scale: 0.00390625
  }
  data_param {
    source: "/home/jaychou/code/new_caffe/caffe-master/examples/gender_glasses/gender_glasses_val_lmdb"
    batch_size: 64
    backend: LMDB
  }
}
layer {
  name: "labels"
  type: "Data"
  top: "labels"
  include {
    phase: TEST
  }
  data_param {
    source: "/home/jaychou/code/new_caffe/caffe-master/examples/gender_glasses/gender_glasses_val_label_lmdb"
    batch_size: 64
    backend: LMDB
  }
}
layer {
  name: "slice1"
  type: "Slice"
  bottom: "labels"
  top: "glasses"
  top: "gender"
  slice_param {
    slice_dim: 1
    slice_point: 1
  }
}
layer {
  name: "conv1"
  type: "Convolution"
  bottom: "data"
  top: "conv1"
  param {
    lr_mult: 1
  }
  param {
    lr_mult: 0.1
  }
  convolution_param {
    num_output: 20
    pad: 0
    kernel_size: 5
    stride: 1
    weight_filler {
      type: "xavier"
    }
    bias_filler {
      type: "constant"
      value: 0
    }
  }
}
layer {
  name: "relu1"
  type: "ReLU"
  bottom: "conv1"
  top: "conv1"
}
layer {
  name: "pool1"
  type: "Pooling"
  bottom: "conv1"
  top: "pool1"
  pooling_param {
    pool: MAX
    kernel_size: 2
    stride: 2
  }
}
layer {
  name: "conv2"
  type: "Convolution"
  bottom: "pool1"
  top: "conv2"
  param {
    lr_mult: 1
  }
  param {
    lr_mult: 0.1
  }
  convolution_param {
    num_output: 48
    pad: 0
    kernel_size: 5
    stride: 1
    weight_filler {
      type: "xavier"
    }
    bias_filler {
      type: "constant"
      value: 0
    }
  }
}
layer {
  name: "relu2"
  type: "ReLU"
  bottom: "conv2"
  top: "conv2"
}
layer {
  name: "pool2"
  type: "Pooling"
  bottom: "conv2"
  top: "pool2"
  pooling_param {
    pool: MAX
    kernel_size: 2
    stride: 2
  }
}
layer {
  name: "conv3"
  type: "Convolution"
  bottom: "pool2"
  top: "conv3"
  param {
    lr_mult: 0.1
  }
  param {
    lr_mult: 0.1
  }
  convolution_param {
    num_output: 64
    pad: 0
    kernel_size: 3
    stride: 1
    weight_filler {
      type: "xavier"
    }
    bias_filler {
      type: "constant"
      value: 0
    }
  }
}
layer {
  name: "relu3"
  type: "ReLU"
  bottom: "conv3"
  top: "conv3"
}
layer {
  name: "conv4"
  type: "Convolution"
  bottom: "conv3"
  top: "conv4"
  param {
    lr_mult: 0.1
  }
  param {
    lr_mult: 0.1
  }
  convolution_param {
    num_output: 80
    pad: 0
    kernel_size: 3
    stride: 1
    weight_filler {
      type: "xavier"
    }
    bias_filler {
      type: "constant"
      value: 0
    }
  }
}
layer {
  name: "relu4"
  type: "ReLU"
  bottom: "conv4"
  top: "conv4"
}
layer {
  name: "ip1"
  type: "InnerProduct"
  bottom: "conv4"
  top: "ip1"
  inner_product_param {
    num_output: 512
    weight_filler {
      type: "xavier"
    }
    bias_filler {
      type: "constant"
    }
  }
}
layer {
  name: "relu5"
  type: "ReLU"
  bottom: "ip1"
  top: "ip1"
}
layer {
  name: "drop1"
  type: "Dropout"
  bottom: "ip1"
  top: "ip1"
  dropout_param {
    dropout_ratio: 0.5
  }
}
layer {
  name: "ip2"
  type: "InnerProduct"
  bottom: "ip1"
  top: "ip2"
  inner_product_param {
    num_output: 2
    weight_filler {
      type: "xavier"
    }
    bias_filler {
      type: "constant"
    }
  }
}
layer {
  name: "loss1"
  type: "SoftmaxWithLoss"
  bottom: "ip2"
  bottom: "glasses"
  top: "loss1"
  loss_weight: 0.5
}
layer {
  name: "accuracy_glasses"
  type: "Accuracy"
  bottom: "ip2"
  bottom: "glasses"
  top: "accuracy_glasses"
  include {
    phase: TEST
  }
}
layer {
  name: "ip3"
  type: "InnerProduct"
  bottom: "ip1"
  top: "ip3"
  inner_product_param {
    num_output: 512
    weight_filler {
      type: "xavier"
    }
    bias_filler {
      type: "constant"
    }
  }
}
layer {
  name: "loss2"
  type: "SoftmaxWithLoss"
  bottom: "ip3"
  bottom: "gender"
  top: "loss2"
  loss_weight: 0.5
}
layer {
  name: "accuracy_gender"
  type: "Accuracy"
  bottom: "ip3"
  bottom: "gender"
  top: "accuracy_gender"
  include {
    phase: TEST
  }
}
I0814 11:29:03.266856 24366 layer_factory.hpp:77] Creating layer data
I0814 11:29:03.266952 24366 net.cpp:100] Creating Layer data
I0814 11:29:03.266965 24366 net.cpp:408] data -> data
I0814 11:29:03.268419 24374 db_lmdb.cpp:35] Opened lmdb /home/jaychou/code/new_caffe/caffe-master/examples/gender_glasses/gender_glasses_val_lmdb
I0814 11:29:03.268651 24366 data_layer.cpp:41] output data size: 64,3,100,100
I0814 11:29:03.281886 24366 net.cpp:150] Setting up data
I0814 11:29:03.281932 24366 net.cpp:157] Top shape: 64 3 100 100 (1920000)
I0814 11:29:03.281956 24366 net.cpp:165] Memory required for data: 7680000
I0814 11:29:03.281970 24366 layer_factory.hpp:77] Creating layer labels
I0814 11:29:03.282059 24366 net.cpp:100] Creating Layer labels
I0814 11:29:03.282076 24366 net.cpp:408] labels -> labels
I0814 11:29:03.285039 24376 db_lmdb.cpp:35] Opened lmdb /home/jaychou/code/new_caffe/caffe-master/examples/gender_glasses/gender_glasses_val_label_lmdb
I0814 11:29:03.285228 24366 data_layer.cpp:41] output data size: 64,2,1,1
I0814 11:29:03.285596 24366 net.cpp:150] Setting up labels
I0814 11:29:03.285619 24366 net.cpp:157] Top shape: 64 2 1 1 (128)
I0814 11:29:03.285629 24366 net.cpp:165] Memory required for data: 7680512
I0814 11:29:03.285640 24366 layer_factory.hpp:77] Creating layer slice1
I0814 11:29:03.285665 24366 net.cpp:100] Creating Layer slice1
I0814 11:29:03.285676 24366 net.cpp:434] slice1 <- labels
I0814 11:29:03.285689 24366 net.cpp:408] slice1 -> glasses
I0814 11:29:03.285707 24366 net.cpp:408] slice1 -> gender
I0814 11:29:03.285815 24366 net.cpp:150] Setting up slice1
I0814 11:29:03.285835 24366 net.cpp:157] Top shape: 64 1 1 1 (64)
I0814 11:29:03.285878 24366 net.cpp:157] Top shape: 64 1 1 1 (64)
I0814 11:29:03.285887 24366 net.cpp:165] Memory required for data: 7681024
I0814 11:29:03.285897 24366 layer_factory.hpp:77] Creating layer glasses_slice1_0_split
I0814 11:29:03.285914 24366 net.cpp:100] Creating Layer glasses_slice1_0_split
I0814 11:29:03.285943 24366 net.cpp:434] glasses_slice1_0_split <- glasses
I0814 11:29:03.285953 24366 net.cpp:408] glasses_slice1_0_split -> glasses_slice1_0_split_0
I0814 11:29:03.285967 24366 net.cpp:408] glasses_slice1_0_split -> glasses_slice1_0_split_1
I0814 11:29:03.286010 24366 net.cpp:150] Setting up glasses_slice1_0_split
I0814 11:29:03.286023 24366 net.cpp:157] Top shape: 64 1 1 1 (64)
I0814 11:29:03.286033 24366 net.cpp:157] Top shape: 64 1 1 1 (64)
I0814 11:29:03.286042 24366 net.cpp:165] Memory required for data: 7681536
I0814 11:29:03.286051 24366 layer_factory.hpp:77] Creating layer gender_slice1_1_split
I0814 11:29:03.286082 24366 net.cpp:100] Creating Layer gender_slice1_1_split
I0814 11:29:03.286093 24366 net.cpp:434] gender_slice1_1_split <- gender
I0814 11:29:03.286104 24366 net.cpp:408] gender_slice1_1_split -> gender_slice1_1_split_0
I0814 11:29:03.286116 24366 net.cpp:408] gender_slice1_1_split -> gender_slice1_1_split_1
I0814 11:29:03.286164 24366 net.cpp:150] Setting up gender_slice1_1_split
I0814 11:29:03.286186 24366 net.cpp:157] Top shape: 64 1 1 1 (64)
I0814 11:29:03.286201 24366 net.cpp:157] Top shape: 64 1 1 1 (64)
I0814 11:29:03.286209 24366 net.cpp:165] Memory required for data: 7682048
I0814 11:29:03.286217 24366 layer_factory.hpp:77] Creating layer conv1
I0814 11:29:03.286237 24366 net.cpp:100] Creating Layer conv1
I0814 11:29:03.286247 24366 net.cpp:434] conv1 <- data
I0814 11:29:03.286258 24366 net.cpp:408] conv1 -> conv1
I0814 11:29:03.287601 24366 net.cpp:150] Setting up conv1
I0814 11:29:03.287626 24366 net.cpp:157] Top shape: 64 20 96 96 (11796480)
I0814 11:29:03.287637 24366 net.cpp:165] Memory required for data: 54867968
I0814 11:29:03.287660 24366 layer_factory.hpp:77] Creating layer relu1
I0814 11:29:03.287678 24366 net.cpp:100] Creating Layer relu1
I0814 11:29:03.287688 24366 net.cpp:434] relu1 <- conv1
I0814 11:29:03.287700 24366 net.cpp:395] relu1 -> conv1 (in-place)
I0814 11:29:03.287863 24366 net.cpp:150] Setting up relu1
I0814 11:29:03.287881 24366 net.cpp:157] Top shape: 64 20 96 96 (11796480)
I0814 11:29:03.287890 24366 net.cpp:165] Memory required for data: 102053888
I0814 11:29:03.287899 24366 layer_factory.hpp:77] Creating layer pool1
I0814 11:29:03.287911 24366 net.cpp:100] Creating Layer pool1
I0814 11:29:03.287920 24366 net.cpp:434] pool1 <- conv1
I0814 11:29:03.287932 24366 net.cpp:408] pool1 -> pool1
I0814 11:29:03.287981 24366 net.cpp:150] Setting up pool1
I0814 11:29:03.287993 24366 net.cpp:157] Top shape: 64 20 48 48 (2949120)
I0814 11:29:03.288002 24366 net.cpp:165] Memory required for data: 113850368
I0814 11:29:03.288009 24366 layer_factory.hpp:77] Creating layer conv2
I0814 11:29:03.288120 24366 net.cpp:100] Creating Layer conv2
I0814 11:29:03.288133 24366 net.cpp:434] conv2 <- pool1
I0814 11:29:03.288146 24366 net.cpp:408] conv2 -> conv2
I0814 11:29:03.289623 24366 net.cpp:150] Setting up conv2
I0814 11:29:03.289654 24366 net.cpp:157] Top shape: 64 48 44 44 (5947392)
I0814 11:29:03.289664 24366 net.cpp:165] Memory required for data: 137639936
I0814 11:29:03.289685 24366 layer_factory.hpp:77] Creating layer relu2
I0814 11:29:03.289705 24366 net.cpp:100] Creating Layer relu2
I0814 11:29:03.289716 24366 net.cpp:434] relu2 <- conv2
I0814 11:29:03.289731 24366 net.cpp:395] relu2 -> conv2 (in-place)
I0814 11:29:03.290073 24366 net.cpp:150] Setting up relu2
I0814 11:29:03.290091 24366 net.cpp:157] Top shape: 64 48 44 44 (5947392)
I0814 11:29:03.290101 24366 net.cpp:165] Memory required for data: 161429504
I0814 11:29:03.290109 24366 layer_factory.hpp:77] Creating layer pool2
I0814 11:29:03.290124 24366 net.cpp:100] Creating Layer pool2
I0814 11:29:03.290133 24366 net.cpp:434] pool2 <- conv2
I0814 11:29:03.290146 24366 net.cpp:408] pool2 -> pool2
I0814 11:29:03.290194 24366 net.cpp:150] Setting up pool2
I0814 11:29:03.290210 24366 net.cpp:157] Top shape: 64 48 22 22 (1486848)
I0814 11:29:03.290217 24366 net.cpp:165] Memory required for data: 167376896
I0814 11:29:03.290226 24366 layer_factory.hpp:77] Creating layer conv3
I0814 11:29:03.290248 24366 net.cpp:100] Creating Layer conv3
I0814 11:29:03.290258 24366 net.cpp:434] conv3 <- pool2
I0814 11:29:03.290269 24366 net.cpp:408] conv3 -> conv3
I0814 11:29:03.292037 24366 net.cpp:150] Setting up conv3
I0814 11:29:03.292059 24366 net.cpp:157] Top shape: 64 64 20 20 (1638400)
I0814 11:29:03.292068 24366 net.cpp:165] Memory required for data: 173930496
I0814 11:29:03.292083 24366 layer_factory.hpp:77] Creating layer relu3
I0814 11:29:03.292098 24366 net.cpp:100] Creating Layer relu3
I0814 11:29:03.292106 24366 net.cpp:434] relu3 <- conv3
I0814 11:29:03.292116 24366 net.cpp:395] relu3 -> conv3 (in-place)
I0814 11:29:03.292407 24366 net.cpp:150] Setting up relu3
I0814 11:29:03.292446 24366 net.cpp:157] Top shape: 64 64 20 20 (1638400)
I0814 11:29:03.292456 24366 net.cpp:165] Memory required for data: 180484096
I0814 11:29:03.292464 24366 layer_factory.hpp:77] Creating layer conv4
I0814 11:29:03.292484 24366 net.cpp:100] Creating Layer conv4
I0814 11:29:03.292496 24366 net.cpp:434] conv4 <- conv3
I0814 11:29:03.292511 24366 net.cpp:408] conv4 -> conv4
I0814 11:29:03.293849 24366 net.cpp:150] Setting up conv4
I0814 11:29:03.293874 24366 net.cpp:157] Top shape: 64 80 18 18 (1658880)
I0814 11:29:03.293884 24366 net.cpp:165] Memory required for data: 187119616
I0814 11:29:03.293896 24366 layer_factory.hpp:77] Creating layer relu4
I0814 11:29:03.293910 24366 net.cpp:100] Creating Layer relu4
I0814 11:29:03.293920 24366 net.cpp:434] relu4 <- conv4
I0814 11:29:03.293931 24366 net.cpp:395] relu4 -> conv4 (in-place)
I0814 11:29:03.294082 24366 net.cpp:150] Setting up relu4
I0814 11:29:03.294100 24366 net.cpp:157] Top shape: 64 80 18 18 (1658880)
I0814 11:29:03.294109 24366 net.cpp:165] Memory required for data: 193755136
I0814 11:29:03.294119 24366 layer_factory.hpp:77] Creating layer ip1
I0814 11:29:03.294139 24366 net.cpp:100] Creating Layer ip1
I0814 11:29:03.294148 24366 net.cpp:434] ip1 <- conv4
I0814 11:29:03.294165 24366 net.cpp:408] ip1 -> ip1
I0814 11:29:03.303642 24375 blocking_queue.cpp:50] Waiting for data
I0814 11:29:03.396715 24366 net.cpp:150] Setting up ip1
I0814 11:29:03.396762 24366 net.cpp:157] Top shape: 64 512 (32768)
I0814 11:29:03.396773 24366 net.cpp:165] Memory required for data: 193886208
I0814 11:29:03.396795 24366 layer_factory.hpp:77] Creating layer relu5
I0814 11:29:03.396813 24366 net.cpp:100] Creating Layer relu5
I0814 11:29:03.396824 24366 net.cpp:434] relu5 <- ip1
I0814 11:29:03.396839 24366 net.cpp:395] relu5 -> ip1 (in-place)
I0814 11:29:03.397243 24366 net.cpp:150] Setting up relu5
I0814 11:29:03.397261 24366 net.cpp:157] Top shape: 64 512 (32768)
I0814 11:29:03.397270 24366 net.cpp:165] Memory required for data: 194017280
I0814 11:29:03.397279 24366 layer_factory.hpp:77] Creating layer drop1
I0814 11:29:03.397294 24366 net.cpp:100] Creating Layer drop1
I0814 11:29:03.397303 24366 net.cpp:434] drop1 <- ip1
I0814 11:29:03.397313 24366 net.cpp:395] drop1 -> ip1 (in-place)
I0814 11:29:03.397346 24366 net.cpp:150] Setting up drop1
I0814 11:29:03.397359 24366 net.cpp:157] Top shape: 64 512 (32768)
I0814 11:29:03.397367 24366 net.cpp:165] Memory required for data: 194148352
I0814 11:29:03.397375 24366 layer_factory.hpp:77] Creating layer ip1_drop1_0_split
I0814 11:29:03.397387 24366 net.cpp:100] Creating Layer ip1_drop1_0_split
I0814 11:29:03.397395 24366 net.cpp:434] ip1_drop1_0_split <- ip1
I0814 11:29:03.397406 24366 net.cpp:408] ip1_drop1_0_split -> ip1_drop1_0_split_0
I0814 11:29:03.397426 24366 net.cpp:408] ip1_drop1_0_split -> ip1_drop1_0_split_1
I0814 11:29:03.397469 24366 net.cpp:150] Setting up ip1_drop1_0_split
I0814 11:29:03.397482 24366 net.cpp:157] Top shape: 64 512 (32768)
I0814 11:29:03.397492 24366 net.cpp:157] Top shape: 64 512 (32768)
I0814 11:29:03.397500 24366 net.cpp:165] Memory required for data: 194410496
I0814 11:29:03.397510 24366 layer_factory.hpp:77] Creating layer ip2
I0814 11:29:03.397522 24366 net.cpp:100] Creating Layer ip2
I0814 11:29:03.397533 24366 net.cpp:434] ip2 <- ip1_drop1_0_split_0
I0814 11:29:03.397544 24366 net.cpp:408] ip2 -> ip2
I0814 11:29:03.397652 24366 net.cpp:150] Setting up ip2
I0814 11:29:03.397667 24366 net.cpp:157] Top shape: 64 2 (128)
I0814 11:29:03.397675 24366 net.cpp:165] Memory required for data: 194411008
I0814 11:29:03.397687 24366 layer_factory.hpp:77] Creating layer ip2_ip2_0_split
I0814 11:29:03.397697 24366 net.cpp:100] Creating Layer ip2_ip2_0_split
I0814 11:29:03.397706 24366 net.cpp:434] ip2_ip2_0_split <- ip2
I0814 11:29:03.397716 24366 net.cpp:408] ip2_ip2_0_split -> ip2_ip2_0_split_0
I0814 11:29:03.397729 24366 net.cpp:408] ip2_ip2_0_split -> ip2_ip2_0_split_1
I0814 11:29:03.397765 24366 net.cpp:150] Setting up ip2_ip2_0_split
I0814 11:29:03.397778 24366 net.cpp:157] Top shape: 64 2 (128)
I0814 11:29:03.397810 24366 net.cpp:157] Top shape: 64 2 (128)
I0814 11:29:03.397819 24366 net.cpp:165] Memory required for data: 194412032
I0814 11:29:03.397828 24366 layer_factory.hpp:77] Creating layer loss1
I0814 11:29:03.397841 24366 net.cpp:100] Creating Layer loss1
I0814 11:29:03.397851 24366 net.cpp:434] loss1 <- ip2_ip2_0_split_0
I0814 11:29:03.397861 24366 net.cpp:434] loss1 <- glasses_slice1_0_split_0
I0814 11:29:03.397871 24366 net.cpp:408] loss1 -> loss1
…
