…
  stage: ""
}
layer {
  name: "data"
  type: "Data"
  top: "data"
  include {
    phase: TRAIN
  }
  transform_param {
    scale: 0.00390625
  }
  data_param {
    source: "/home/jaychou/code/new_caffe/caffe-master/examples/gender_glasses/gender_glasses_train_lmdb"
    batch_size: 100
    backend: LMDB
  }
}
layer {
  name: "labels"
  type: "Data"
  top: "labels"
  include {
    phase: TRAIN
  }
  data_param {
    source: "/home/jaychou/code/new_caffe/caffe-master/examples/gender_glasses/gender_glasses_train_label_lmdb"
    batch_size: 100
    backend: LMDB
  }
}
layer {
  name: "slice1"
  type: "Slice"
  bottom: "labels"
  top: "glasses"
  top: "gender"
  slice_param {
    slice_dim: 1
    slice_point: 1
  }
}
layer {
  name: "conv1"
  type: "Convolution"
  bottom: "data"
  top: "conv1"
  param {
    lr_mult: 1
  }
  param {
    lr_mult: 0.1
  }
  convolution_param {
    num_output: 20
    pad: 0
    kernel_size: 5
    stride: 1
    weight_filler {
      type: "xavier"
    }
    bias_filler {
      type: "constant"
      value: 0
    }
  }
}
layer {
  name: "relu1"
  type: "PReLU"
  bottom: "conv1"
  top: "conv1"
}
layer {
  name: "pool1"
  type: "Pooling"
  bottom: "conv1"
  top: "pool1"
  pooling_param {
    pool: MAX
    kernel_size: 2
    stride: 2
  }
}
layer {
  name: "conv2"
  type: "Convolution"
  bottom: "pool1"
  top: "conv2"
  param {
    lr_mult: 1
  }
  param {
    lr_mult: 0.1
  }
  convolution_param {
    num_output: 48
    pad: 0
    kernel_size: 5
    stride: 1
    weight_filler {
      type: "xavier"
    }
    bias_filler {
      type: "constant"
      value: 0
    }
  }
}
layer {
  name: "relu2"
  type: "PReLU"
  bottom: "conv2"
  top: "conv2"
}
layer {
  name: "pool2"
  type: "Pooling"
  bottom: "conv2"
  top: "pool2"
  pooling_param {
    pool: MAX
    kernel_size: 2
    stride: 2
  }
}
layer {
  name: "conv3"
  type: "Convolution"
  bottom: "pool2"
  top: "conv3"
  param {
    lr_mult: 0.1
  }
  param {
    lr_mult: 0.1
  }
  convolution_param {
    num_output: 64
    pad: 0
    kernel_size: 3
    stride: 1
    weight_filler {
      type: "xavier"
    }
    bias_filler {
      type: "constant"
      value: 0
    }
  }
}
layer {
  name: "relu3"
  type: "PReLU"
  bottom: "conv3"
  top: "conv3"
}
layer {
  name: "ip1"
  type: "InnerProduct"
  bottom: "conv3"
  top: "ip1"
  inner_product_param {
    num_output: 512
    weight_filler {
      type: "xavier"
    }
    bias_filler {
      type: "constant"
    }
  }
}
layer {
  name: "relu5"
  type: "PReLU"
  bottom: "ip1"
  top: "ip1"
}
layer {
  name: "drop1"
  type: "Dropout"
  bottom: "ip1"
  top: "ip1"
  dropout_param {
    dropout_ratio: 0.5
  }
}
layer {
  name: "ip2"
  type: "InnerProduct"
  bottom: "ip1"
  top: "ip2"
  inner_product_param {
    num_output: 2
    weight_filler {
      type: "xavier"
    }
    bias_filler {
      type: "constant"
    }
  }
}
layer {
  name: "loss1"
  type: "SoftmaxWithLoss"
  bottom: "ip2"
  bottom: "glasses"
  top: "loss1"
  loss_weight: 0.4
}
layer {
  name: "ip3"
  type: "InnerProduct"
  bottom: "ip1"
  top: "ip3"
  inner_product_param {
    num_output: 2
    weight_filler {
      type: "xavier"
    }
    bias_filler {
      type: "constant"
    }
  }
}
layer {
  name: "loss2"
  type: "SoftmaxWithLoss"
  bottom: "ip3"
  bottom: "gender"
  top: "loss2"
  loss_weight: 0.6
}
I0818 17:42:21.872516  2496 layer_factory.hpp:77] Creating layer data
I0818 17:42:21.885506  2496 net.cpp:100] Creating Layer data
I0818 17:42:21.885545  2496 net.cpp:408] data -> data
I0818 17:42:21.887073  2500 db_lmdb.cpp:35] Opened lmdb /home/jaychou/code/new_caffe/caffe-master/examples/gender_glasses/gender_glasses_train_lmdb
I0818 17:42:21.947451  2496 data_layer.cpp:41] output data size: 100,3,80,80
I0818 17:42:21.959602  2496 net.cpp:150] Setting up data
I0818 17:42:21.959656  2496 net.cpp:157] Top shape: 100 3 80 80 (1920000)
I0818 17:42:21.959668  2496 net.cpp:165] Memory required for data: 7680000
I0818 17:42:21.959686  2496 layer_factory.hpp:77] Creating layer labels
I0818 17:42:21.959820  2496 net.cpp:100] Creating Layer labels
I0818 17:42:21.959836  2496 net.cpp:408] labels -> labels
I0818 17:42:21.961995  2502 db_lmdb.cpp:35] Opened lmdb /home/jaychou/code/new_caffe/caffe-master/examples/gender_glasses/gender_glasses_train_label_lmdb
I0818 17:42:21.962533  2496 data_layer.cpp:41] output data size: 100,2,1,1
I0818 17:42:21.962889  2496 net.cpp:150] Setting up labels
I0818 17:42:21.962908  2496 net.cpp:157] Top shape: 100 2 1 1 (200)
I0818 17:42:21.962918  2496 net.cpp:165] Memory required for data: 7680800
I0818 17:42:21.962926  2496 layer_factory.hpp:77] Creating layer slice1
I0818 17:42:21.962941  2496 net.cpp:100] Creating Layer slice1
I0818 17:42:21.962952  2496 net.cpp:434] slice1 <- labels
I0818 17:42:21.962970  2496 net.cpp:408] slice1 -> glasses
I0818 17:42:21.962988  2496 net.cpp:408] slice1 -> gender
I0818 17:42:21.963032  2496 net.cpp:150] Setting up slice1
I0818 17:42:21.963047  2496 net.cpp:157] Top shape: 100 1 1 1 (100)
I0818 17:42:21.963058  2496 net.cpp:157] Top shape: 100 1 1 1 (100)
I0818 17:42:21.963068  2496 net.cpp:165] Memory required for data: 7681600
I0818 17:42:21.963076  2496 layer_factory.hpp:77] Creating layer conv1
I0818 17:42:21.963102  2496 net.cpp:100] Creating Layer conv1
I0818 17:42:21.963114  2496 net.cpp:434] conv1 <- data
I0818 17:42:21.963126  2496 net.cpp:408] conv1 -> conv1
I0818 17:42:22.970809  2496 net.cpp:150] Setting up conv1
I0818 17:42:22.970877  2496 net.cpp:157] Top shape: 100 20 76 76 (11552000)
I0818 17:42:22.970895  2496 net.cpp:165] Memory required for data: 53889600
I0818 17:42:22.970933  2496 layer_factory.hpp:77] Creating layer relu1
I0818 17:42:22.970960  2496 net.cpp:100] Creating Layer relu1
I0818 17:42:22.970978  2496 net.cpp:434] relu1 <- conv1
I0818 17:42:22.970996  2496 net.cpp:395] relu1 -> conv1 (in-place)
I0818 17:42:22.971746  2496 net.cpp:150] Setting up relu1
I0818 17:42:22.971776  2496 net.cpp:157] Top shape: 100 20 76 76 (11552000)
I0818 17:42:22.971791  2496 net.cpp:165] Memory required for data: 100097600
I0818 17:42:22.971813  2496 layer_factory.hpp:77] Creating layer pool1
I0818 17:42:22.971834  2496 net.cpp:100] Creating Layer pool1
I0818 17:42:22.971848  2496 net.cpp:434] pool1 <- conv1
I0818 17:42:22.971865  2496 net.cpp:408] pool1 -> pool1
I0818 17:42:22.971946  2496 net.cpp:150] Setting up pool1
I0818 17:42:22.971967  2496 net.cpp:157] Top shape: 100 20 38 38 (2888000)
I0818 17:42:22.971982  2496 net.cpp:165] Memory required for data: 111649600
I0818 17:42:22.971995  2496 layer_factory.hpp:77] Creating layer conv2
I0818 17:42:22.972019  2496 net.cpp:100] Creating Layer conv2
I0818 17:42:22.972038  2496 net.cpp:434] conv2 <- pool1
I0818 17:42:22.972055  2496 net.cpp:408] conv2 -> conv2
I0818 17:42:22.974028  2496 net.cpp:150] Setting up conv2
I0818 17:42:22.974061  2496 net.cpp:157] Top shape: 100 48 34 34 (5548800)
I0818 17:42:22.974076  2496 net.cpp:165] Memory required for data: 133844800
I0818 17:42:22.974136  2496 layer_factory.hpp:77] Creating layer relu2
I0818 17:42:22.974159  2496 net.cpp:100] Creating Layer relu2
I0818 17:42:22.974174  2496 net.cpp:434] relu2 <- conv2
I0818 17:42:22.974190  2496 net.cpp:395] relu2 -> conv2 (in-place)
I0818 17:42:22.974364  2496 net.cpp:150] Setting up relu2
I0818 17:42:22.974387  2496 net.cpp:157] Top shape: 100 48 34 34 (5548800)
I0818 17:42:22.974400  2496 net.cpp:165] Memory required for data: 156040000
I0818 17:42:22.974417  2496 layer_factory.hpp:77] Creating layer pool2
I0818 17:42:22.974437  2496 net.cpp:100] Creating Layer pool2
I0818 17:42:22.974453  2496 net.cpp:434] pool2 <- conv2
I0818 17:42:22.974470  2496 net.cpp:408] pool2 -> pool2
I0818 17:42:22.974532  2496 net.cpp:150] Setting up pool2
I0818 17:42:22.974553  2496 net.cpp:157] Top shape: 100 48 17 17 (1387200)
I0818 17:42:22.974566  2496 net.cpp:165] Memory required for data: 161588800
I0818 17:42:22.974581  2496 layer_factory.hpp:77] Creating layer conv3
I0818 17:42:22.974601  2496 net.cpp:100] Creating Layer conv3
I0818 17:42:22.974616  2496 net.cpp:434] conv3 <- pool2
I0818 17:42:22.974633  2496 net.cpp:408] conv3 -> conv3
I0818 17:42:22.975924  2496 net.cpp:150] Setting up conv3
I0818 17:42:22.975955  2496 net.cpp:157] Top shape: 100 64 15 15 (1440000)
I0818 17:42:22.975970  2496 net.cpp:165] Memory required for data: 167348800
I0818 17:42:22.975989  2496 layer_factory.hpp:77] Creating layer relu3
I0818 17:42:22.976007  2496 net.cpp:100] Creating Layer relu3
I0818 17:42:22.976025  2496 net.cpp:434] relu3 <- conv3
I0818 17:42:22.976042  2496 net.cpp:395] relu3 -> conv3 (in-place)
I0818 17:42:22.976184  2496 net.cpp:150] Setting up relu3
I0818 17:42:22.976207  2496 net.cpp:157] Top shape: 100 64 15 15 (1440000)
I0818 17:42:22.976220  2496 net.cpp:165] Memory required for data: 173108800
I0818 17:42:22.976241  2496 layer_factory.hpp:77] Creating layer ip1
I0818 17:42:22.987395  2496 net.cpp:100] Creating Layer ip1
I0818 17:42:22.987429  2496 net.cpp:434] ip1 <- conv3
I0818 17:42:22.987449  2496 net.cpp:408] ip1 -> ip1
I0818 17:42:23.061715  2496 net.cpp:150] Setting up ip1
I0818 17:42:23.061775  2496 net.cpp:157] Top shape: 100 512 (51200)
I0818 17:42:23.061789  2496 net.cpp:165] Memory required for data: 173313600
I0818 17:42:23.061810  2496 layer_factory.hpp:77] Creating layer relu5
I0818 17:42:23.061828  2496 net.cpp:100] Creating Layer relu5
I0818 17:42:23.061841  2496 net.cpp:434] relu5 <- ip1
I0818 17:42:23.061856  2496 net.cpp:395] relu5 -> ip1 (in-place)
I0818 17:42:23.061951  2496 net.cpp:150] Setting up relu5
I0818 17:42:23.061969  2496 net.cpp:157] Top shape: 100 512 (51200)
I0818 17:42:23.061980  2496 net.cpp:165] Memory required for data: 173518400
I0818 17:42:23.061992  2496 layer_factory.hpp:77] Creating layer drop1
I0818 17:42:23.069514  2496 net.cpp:100] Creating Layer drop1
I0818 17:42:23.069542  2496 net.cpp:434] drop1 <- ip1
I0818 17:42:23.069558  2496 net.cpp:395] drop1 -> ip1 (in-place)
I0818 17:42:23.069607  2496 net.cpp:150] Setting up drop1
I0818 17:42:23.069625  2496 net.cpp:157] Top shape: 100 512 (51200)
I0818 17:42:23.069636  2496 net.cpp:165] Memory required for data: 173723200
I0818 17:42:23.069648  2496 layer_factory.hpp:77] Creating layer ip1_drop1_0_split
I0818 17:42:23.076656  2496 net.cpp:100] Creating Layer ip1_drop1_0_split
I0818 17:42:23.076686  2496 net.cpp:434] ip1_drop1_0_split <- ip1
I0818 17:42:23.076705  2496 net.cpp:408] ip1_drop1_0_split -> ip1_drop1_0_split_0
I0818 17:42:23.076725  2496 net.cpp:408] ip1_drop1_0_split -> ip1_drop1_0_split_1
I0818 17:42:23.076781  2496 net.cpp:150] Setting up ip1_drop1_0_split
I0818 17:42:23.076800  2496 net.cpp:157] Top shape: 100 512 (51200)
I0818 17:42:23.076813  2496 net.cpp:157] Top shape: 100 512 (51200)
I0818 17:42:23.076823  2496 net.cpp:165] Memory required for data: 174132800
I0818 17:42:23.076834  2496 layer_factory.hpp:77] Creating layer ip2
I0818 17:42:23.076849  2496 net.cpp:100] Creating Layer ip2
I0818 17:42:23.076861  2496 net.cpp:434] ip2 <- ip1_drop1_0_split_0
I0818 17:42:23.076894  2496 net.cpp:408] ip2 -> ip2
I0818 17:42:23.077013  2496 net.cpp:150] Setting up ip2
I0818 17:42:23.077031  2496 net.cpp:157] Top shape: 100 2 (200)
I0818 17:42:23.077042  2496 net.cpp:165] Memory required for data: 174133600
I0818 17:42:23.077057  2496 layer_factory.hpp:77] Creating layer loss1
I0818 17:42:23.077075  2496 net.cpp:100] Creating Layer loss1
I0818 17:42:23.077090  2496 net.cpp:434] loss1 <- ip2
I0818 17:42:23.077102  2496 net.cpp:434] loss1 <- glasses
I0818 17:42:23.077116  2496 net.cpp:408] loss1 -> loss1
I0818 17:42:23.077136  2496 layer_factory.hpp:77] Creating layer loss1
I0818 17:42:23.077937  2496 net.cpp:150] Setting up loss1
I0818 17:42:23.077988  2496 net.cpp:157] Top shape: (1)
I0818 17:42:23.078009  2496 net.cpp:160]     with loss weight 0.4
I0818 17:42:23.078057  2496 net.cpp:165] Memory required for data: 174133604
I0818 17:42:23.078068  2496 layer_factory.hpp:77] Creating layer ip3
I0818 17:42:23.078084  2496 net.cpp:100] Creating Layer ip3
I0818 17:42:23.078097  2496 net.cpp:434] ip3 <- ip1_drop1_0_split_1
I0818 17:42:23.078112  2496 net.cpp:408] ip3 -> ip3
I0818 17:42:23.078279  2496 net.cpp:150] Setting up ip3
I0818 17:42:23.078310  2496 net.cpp:157] Top shape: 100 2 (200)
I0818 17:42:23.078328  2496 net.cpp:165] Memory required for data: 174134404
I0818 17:42:23.078361  2496 layer_factory.hpp:77] Creating layer loss2
I0818 17:42:23.078374  2496 net.cpp:100] Creating Layer loss2
I0818 17:42:23.078388  2496 net.cpp:434] loss2 <- ip3
I0818 17:42:23.078402  2496 net.cpp:434] loss2 <- gender
I0818 17:42:23.078416  2496 net.cpp:408] loss2 -> loss2
I0818 17:42:23.078433  2496 layer_factory.hpp:77] Creating layer loss2
…
  phase: TEST
}
layer {
  name: "data"
  type: "Data"
  top: "data"
  include {
    phase: TEST
  }
  transform_param {
    scale: 0.00390625
  }
  data_param {
    source: "/home/jaychou/code/new_caffe/caffe-master/examples/gender_glasses/gender_glasses_val_lmdb"
    batch_size: 64
    backend: LMDB
  }
}
layer {
  name: "labels"
  type: "Data"
  top: "labels"
  include {
    phase: TEST
  }
  data_param {
    source: "/home/jaychou/code/new_caffe/caffe-master/examples/gender_glasses/gender_glasses_val_label_lmdb"
    batch_size: 64
    backend: LMDB
  }
}
layer {
  name: "slice1"
  type: "Slice"
  bottom: "labels"
  top: "glasses"
  top: "gender"
  slice_param {
    slice_dim: 1
    slice_point: 1
  }
}
layer {
  name: "conv1"
  type: "Convolution"
  bottom: "data"
  top: "conv1"
  param {
    lr_mult: 1
  }
  param {
    lr_mult: 0.1
  }
  convolution_param {
    num_output: 20
    pad: 0
    kernel_size: 5
    stride: 1
    weight_filler {
      type: "xavier"
    }
    bias_filler {
      type: "constant"
      value: 0
    }
  }
}
layer {
  name: "relu1"
  type: "PReLU"
  bottom: "conv1"
  top: "conv1"
}
layer {
  name: "pool1"
  type: "Pooling"
  bottom: "conv1"
  top: "pool1"
  pooling_param {
    pool: MAX
    kernel_size: 2
    stride: 2
  }
}
layer {
  name: "conv2"
  type: "Convolution"
  bottom: "pool1"
  top: "conv2"
  param {
    lr_mult: 1
  }
  param {
    lr_mult: 0.1
  }
  convolution_param {
    num_output: 48
    pad: 0
    kernel_size: 5
    stride: 1
    weight_filler {
      type: "xavier"
    }
    bias_filler {
      type: "constant"
      value: 0
    }
  }
}
layer {
  name: "relu2"
  type: "PReLU"
  bottom: "conv2"
  top: "conv2"
}
layer {
  name: "pool2"
  type: "Pooling"
  bottom: "conv2"
  top: "pool2"
  pooling_param {
    pool: MAX
    kernel_size: 2
    stride: 2
  }
}
layer {
  name: "conv3"
  type: "Convolution"
  bottom: "pool2"
  top: "conv3"
  param {
    lr_mult: 0.1
  }
  param {
    lr_mult: 0.1
  }
  convolution_param {
    num_output: 64
    pad: 0
    kernel_size: 3
    stride: 1
    weight_filler {
      type: "xavier"
    }
    bias_filler {
      type: "constant"
      value: 0
    }
  }
}
layer {
  name: "relu3"
  type: "PReLU"
  bottom: "conv3"
  top: "conv3"
}
layer {
  name: "ip1"
  type: "InnerProduct"
  bottom: "conv3"
  top: "ip1"
  inner_product_param {
    num_output: 512
    weight_filler {
      type: "xavier"
    }
    bias_filler {
      type: "constant"
    }
  }
}
layer {
  name: "relu5"
  type: "PReLU"
  bottom: "ip1"
  top: "ip1"
}
layer {
  name: "drop1"
  type: "Dropout"
  bottom: "ip1"
  top: "ip1"
  dropout_param {
    dropout_ratio: 0.5
  }
}
layer {
  name: "ip2"
  type: "InnerProduct"
  bottom: "ip1"
  top: "ip2"
  inner_product_param {
    num_output: 2
    weight_filler {
      type: "xavier"
    }
    bias_filler {
      type: "constant"
    }
  }
}
layer {
  name: "loss1"
  type: "SoftmaxWithLoss"
  bottom: "ip2"
  bottom: "glasses"
  top: "loss1"
  loss_weight: 0.4
}
layer {
  name: "accuracy_glasses"
  type: "Accuracy"
  bottom: "ip2"
  bottom: "glasses"
  top: "accuracy_glasses"
  include {
    phase: TEST
  }
}
layer {
  name: "ip3"
  type: "InnerProduct"
  bottom: "ip1"
  top: "ip3"
  inner_product_param {
    num_output: 2
    weight_filler {
      type: "xavier"
    }
    bias_filler {
      type: "constant"
    }
  }
}
layer {
  name: "loss2"
  type: "SoftmaxWithLoss"
  bottom: "ip3"
  bottom: "gender"
  top: "loss2"
  loss_weight: 0.6
}
layer {
  name: "accuracy_gender"
  type: "Accuracy"
  bottom: "ip3"
  bottom: "gender"
  top: "accuracy_gender"
  include {
    phase: TEST
  }
}
I0818 17:42:23.081758  2496 layer_factory.hpp:77] Creating layer data
I0818 17:42:23.081933  2496 net.cpp:100] Creating Layer data
I0818 17:42:23.081964  2496 net.cpp:408] data -> data
I0818 17:42:23.083047  2504 db_lmdb.cpp:35] Opened lmdb /home/jaychou/code/new_caffe/caffe-master/examples/gender_glasses/gender_glasses_val_lmdb
I0818 17:42:23.083220  2496 data_layer.cpp:41] output data size: 64,3,80,80
I0818 17:42:23.098626  2496 net.cpp:150] Setting up data
I0818 17:42:23.098726  2496 net.cpp:157] Top shape: 64 3 80 80 (1228800)
I0818 17:42:23.098740  2496 net.cpp:165] Memory required for data: 4915200
I0818 17:42:23.098757  2496 layer_factory.hpp:77] Creating layer labels
I0818 17:42:23.098866  2496 net.cpp:100] Creating Layer labels
I0818 17:42:23.098887  2496 net.cpp:408] labels -> labels
I0818 17:42:23.101310  2506 db_lmdb.cpp:35] Opened lmdb /home/jaychou/code/new_caffe/caffe-master/examples/gender_glasses/gender_glasses_val_label_lmdb
I0818 17:42:23.101677  2496 data_layer.cpp:41] output data size: 64,2,1,1
I0818 17:42:23.102032  2496 net.cpp:150] Setting up labels
I0818 17:42:23.102056  2496 net.cpp:157] Top shape: 64 2 1 1 (128)
I0818 17:42:23.102067  2496 net.cpp:165] Memory required for data: 4915712
I0818 17:42:23.102078  2496 layer_factory.hpp:77] Creating layer slice1
I0818 17:42:23.102097  2496 net.cpp:100] Creating Layer slice1
I0818 17:42:23.102111  2496 net.cpp:434] slice1 <- labels
I0818 17:42:23.102126  2496 net.cpp:408] slice1 -> glasses
I0818 17:42:23.102146  2496 net.cpp:408] slice1 -> gender
I0818 17:42:23.102196  2496 net.cpp:150] Setting up slice1
I0818 17:42:23.102215  2496 net.cpp:157] Top shape: 64 1 1 1 (64)
I0818 17:42:23.102227  2496 net.cpp:157] Top shape: 64 1 1 1 (64)
I0818 17:42:23.102237  2496 net.cpp:165] Memory required for data: 4916224
I0818 17:42:23.102248  2496 layer_factory.hpp:77] Creating layer glasses_slice1_0_split
I0818 17:42:23.102262  2496 net.cpp:100] Creating Layer glasses_slice1_0_split
I0818 17:42:23.102275  2496 net.cpp:434] glasses_slice1_0_split <- glasses
I0818 17:42:23.102288  2496 net.cpp:408] glasses_slice1_0_split -> glasses_slice1_0_split_0
I0818 17:42:23.102308  2496 net.cpp:408] glasses_slice1_0_split -> glasses_slice1_0_split_1
I0818 17:42:23.102354  2496 net.cpp:150] Setting up glasses_slice1_0_split
I0818 17:42:23.102371  2496 net.cpp:157] Top shape: 64 1 1 1 (64)
I0818 17:42:23.102383  2496 net.cpp:157] Top shape: 64 1 1 1 (64)
I0818 17:42:23.102393  2496 net.cpp:165] Memory required for data: 4916736
I0818 17:42:23.102406  2496 layer_factory.hpp:77] Creating layer gender_slice1_1_split
I0818 17:42:23.102421  2496 net.cpp:100] Creating Layer gender_slice1_1_split
I0818 17:42:23.102432  2496 net.cpp:434] gender_slice1_1_split <- gender
I0818 17:42:23.102444  2496 net.cpp:408] gender_slice1_1_split -> gender_slice1_1_split_0
I0818 17:42:23.102461  2496 net.cpp:408] gender_slice1_1_split -> gender_slice1_1_split_1
I0818 17:42:23.102506  2496 net.cpp:150] Setting up gender_slice1_1_split
I0818 17:42:23.102522  2496 net.cpp:157] Top shape: 64 1 1 1 (64)
I0818 17:42:23.102535  2496 net.cpp:157] Top shape: 64 1 1 1 (64)
I0818 17:42:23.102545  2496 net.cpp:165] Memory required for data: 4917248
I0818 17:42:23.102555  2496 layer_factory.hpp:77] Creating layer conv1
I0818 17:42:23.102581  2496 net.cpp:100] Creating Layer conv1
I0818 17:42:23.102594  2496 net.cpp:434] conv1 <- data
I0818 17:42:23.102610  2496 net.cpp:408] conv1 -> conv1
I0818 17:42:23.104054  2496 net.cpp:150] Setting up conv1
I0818 17:42:23.104086  2496 net.cpp:157] Top shape: 64 20 76 76 (7393280)
I0818 17:42:23.104100  2496 net.cpp:165] Memory required for data: 34490368
I0818 17:42:23.104128  2496 layer_factory.hpp:77] Creating layer relu1
I0818 17:42:23.104145  2496 net.cpp:100] Creating Layer relu1
I0818 17:42:23.104156  2496 net.cpp:434] relu1 <- conv1
I0818 17:42:23.104182  2496 net.cpp:395] relu1 -> conv1 (in-place)
I0818 17:42:23.104452  2496 net.cpp:150] Setting up relu1
I0818 17:42:23.104472  2496 net.cpp:157] Top shape: 64 20 76 76 (7393280)
I0818 17:42:23.104483  2496 net.cpp:165] Memory required for data: 64063488
I0818 17:42:23.104498  2496 layer_factory.hpp:77] Creating layer pool1
I0818 17:42:23.104514  2496 net.cpp:100] Creating Layer pool1
I0818 17:42:23.104526  2496 net.cpp:434] pool1 <- conv1
I0818 17:42:23.104540  2496 net.cpp:408] pool1 -> pool1
I0818 17:42:23.104594  2496 net.cpp:150] Setting up pool1
I0818 17:42:23.104610  2496 net.cpp:157] Top shape: 64 20 38 38 (1848320)
I0818 17:42:23.104621  2496 net.cpp:165] Memory required for data: 71456768
I0818 17:42:23.104651  2496 layer_factory.hpp:77] Creating layer conv2
I0818 17:42:23.104676  2496 net.cpp:100] Creating Layer conv2
I0818 17:42:23.104687  2496 net.cpp:434] conv2 <- pool1
I0818 17:42:23.104702  2496 net.cpp:408] conv2 -> conv2
I0818 17:42:23.106060  2496 net.cpp:150] Setting up conv2
I0818 17:42:23.106087  2496 net.cpp:157] Top shape: 64 48 34 34 (3551232)
I0818 17:42:23.106101  2496 net.cpp:165] Memory required for data: 85661696
I0818 17:42:23.106119  2496 layer_factory.hpp:77] Creating layer relu2
I0818 17:42:23.106137  2496 net.cpp:100] Creating Layer relu2
I0818 17:42:23.106148  2496 net.cpp:434] relu2 <- conv2
I0818 17:42:23.106163  2496 net.cpp:395] relu2 -> conv2 (in-place)
I0818 17:42:23.106360  2496 net.cpp:150] Setting up relu2
I0818 17:42:23.106377  2496 net.cpp:157] Top shape: 64 48 34 34 (3551232)
I0818 17:42:23.106389  2496 net.cpp:165] Memory required for data: 99866624
I0818 17:42:23.106400  2496 layer_factory.hpp:77] Creating layer pool2
I0818 17:42:23.106417  2496 net.cpp:100] Creating Layer pool2
I0818 17:42:23.106428  2496 net.cpp:434] pool2 <- conv2
I0818 17:42:23.106443  2496 net.cpp:408] pool2 -> pool2
I0818 17:42:23.106493  2496 net.cpp:150] Setting up pool2
I0818 17:42:23.106511  2496 net.cpp:157] Top shape: 64 48 17 17 (887808)
I0818 17:42:23.106523  2496 net.cpp:165] Memory required for data: 103417856
I0818 17:42:23.106533  2496 layer_factory.hpp:77] Creating layer conv3
I0818 17:42:23.106550  2496 net.cpp:100] Creating Layer conv3
I0818 17:42:23.106562  2496 net.cpp:434] conv3 <- pool2
I0818 17:42:23.106577  2496 net.cpp:408] conv3 -> conv3
I0818 17:42:23.108317  2496 net.cpp:150] Setting up conv3
I0818 17:42:23.108341  2496 net.cpp:157] Top shape: 64 64 15 15 (921600)
I0818 17:42:23.108352  2496 net.cpp:165] Memory required for data: 107104256
I0818 17:42:23.108367  2496 layer_factory.hpp:77] Creating layer relu3
I0818 17:42:23.108393  2496 net.cpp:100] Creating Layer relu3
I0818 17:42:23.108405  2496 net.cpp:434] relu3 <- conv3
I0818 17:42:23.108420  2496 net.cpp:395] relu3 -> conv3 (in-place)
I0818 17:42:23.108551  2496 net.cpp:150] Setting up relu3
I0818 17:42:23.108567  2496 net.cpp:157] Top shape: 64 64 15 15 (921600)
I0818 17:42:23.108577  2496 net.cpp:165] Memory required for data: 110790656
I0818 17:42:23.108597  2496 layer_factory.hpp:77] Creating layer ip1
I0818 17:42:23.108616  2496 net.cpp:100] Creating Layer ip1
I0818 17:42:23.108628  2496 net.cpp:434] ip1 <- conv3
I0818 17:42:23.108642  2496 net.cpp:408] ip1 -> ip1
I0818 17:42:23.172010  2496 net.cpp:150] Setting up ip1
I0818 17:42:23.172060  2496 net.cpp:157] Top shape: 64 512 (32768)
I0818 17:42:23.172070  2496 net.cpp:165] Memory required for data: 110921728
I0818 17:42:23.172087  2496 layer_factory.hpp:77] Creating layer relu5
I0818 17:42:23.172106  2496 net.cpp:100] Creating Layer relu5
I0818 17:42:23.172118  2496 net.cpp:434] relu5 <- ip1
I0818 17:42:23.172132  2496 net.cpp:395] relu5 -> ip1 (in-place)
I0818 17:42:23.172227  2496 net.cpp:150] Setting up relu5
I0818 17:42:23.172243  2496 net.cpp:157] Top shape: 64 512 (32768)
I0818 17:42:23.172253  2496 net.cpp:165] Memory required for data: 111052800
I0818 17:42:23.172264  2496 layer_factory.hpp:77] Creating layer drop1
I0818 17:42:23.172277  2496 net.cpp:100] Creating Layer drop1
I0818 17:42:23.172287  2496 net.cpp:434] drop1 <- ip1
I0818 17:42:23.172300  2496 net.cpp:395] drop1 -> ip1 (in-place)
I0818 17:42:23.172335  2496 net.cpp:150] Setting up drop1
I0818 17:42:23.172349  2496 net.cpp:157] Top shape: 64 512 (32768)
I0818 17:42:23.172358  2496 net.cpp:165] Memory required for data: 111183872
I0818 17:42:23.172368  2496 layer_factory.hpp:77] Creating layer ip1_drop1_0_split
I0818 17:42:23.172386  2496 net.cpp:100] Creating Layer ip1_drop1_0_split
I0818 17:42:23.172396  2496 net.cpp:434] ip1_drop1_0_split <- ip1
I0818 17:42:23.172407  2496 net.cpp:408] ip1_drop1_0_split -> ip1_drop1_0_split_0
I0818 17:42:23.172421  2496 net.cpp:408] ip1_drop1_0_split -> ip1_drop1_0_split_1
I0818 17:42:23.172469  2496 net.cpp:150] Setting up ip1_drop1_0_split
I0818 17:42:23.172508  2496 net.cpp:157] Top shape: 64 512 (32768)
I0818 17:42:23.172519  2496 net.cpp:157] Top shape: 64 512 (32768)
I0818 17:42:23.172528  2496 net.cpp:165] Memory required for data: 111446016
I0818 17:42:23.172536  2496 layer_factory.hpp:77] Creating layer ip2
I0818 17:42:23.172554  2496 net.cpp:100] Creating Layer ip2
I0818 17:42:23.172569  2496 net.cpp:434] ip2 <- ip1_drop1_0_split_0
I0818 17:42:23.172580  2496 net.cpp:408] ip2 -> ip2
I0818 17:42:23.172688  2496 net.cpp:150] Setting up ip2
I0818 17:42:23.172705  2496 net.cpp:157] Top shape: 64 2 (128)
I0818 17:42:23.172714  2496 net.cpp:165] Memory required for data: 111446528
I0818 17:42:23.172727  2496 layer_factory.hpp:77] Creating layer ip2_ip2_0_split
I0818 17:42:23.172740  2496 net.cpp:100] Creating Layer ip2_ip2_0_split
I0818 17:42:23.172750  2496 net.cpp:434] ip2_ip2_0_split <- ip2
I0818 17:42:23.172761  2496 net.cpp:408] ip2_ip2_0_split -> ip2_ip2_0_split_0
I0818 17:42:23.172775  2496 net.cpp:408] ip2_ip2_0_split -> ip2_ip2_0_split_1
I0818 17:42:23.172816  2496 net.cpp:150] Setting up ip2_ip2_0_split
I0818 17:42:23.172829  2496 net.cpp:157] Top shape: 64 2 (128)
I0818 17:42:23.172839  2496 net.cpp:157] Top shape: 64 2 (128)
I0818 17:42:23.172848  2496 net.cpp:165] Memory required for data: 111447552
I0818 17:42:23.172857  2496 layer_factory.hpp:77] Creating layer loss1
I0818 17:42:23.172869  2496 net.cpp:100] Creating Layer loss1
I0818 17:42:23.172879  2496 net.cpp:434] loss1 <- ip2_ip2_0_split_0
I0818 17:42:23.172889  2496 net.cpp:434] loss1 <- glasses_slice1_0_split_0
I0818 17:42:23.172904  2496 net.cpp:408] loss1 -> loss1
…
