…
  stage: ""
}
layer {
  name: "data"
  type: "Data"
  top: "data"
  include {
    phase: TRAIN
  }
  transform_param {
    scale: 0.00390625
  }
  data_param {
    source: "/home/jaychou/code/new_caffe/caffe-master/examples/gender_glasses/gender_glasses_train_lmdb"
    batch_size: 100
    backend: LMDB
  }
}
layer {
  name: "labels"
  type: "Data"
  top: "labels"
  include {
    phase: TRAIN
  }
  data_param {
    source: "/home/jaychou/code/new_caffe/caffe-master/examples/gender_glasses/gender_glasses_train_label_lmdb"
    batch_size: 100
    backend: LMDB
  }
}
layer {
  name: "slice1"
  type: "Slice"
  bottom: "labels"
  top: "glasses"
  top: "gender"
  slice_param {
    slice_dim: 1
    slice_point: 1
  }
}
layer {
  name: "conv1"
  type: "Convolution"
  bottom: "data"
  top: "conv1"
  param {
    lr_mult: 1
  }
  param {
    lr_mult: 0.1
  }
  convolution_param {
    num_output: 20
    pad: 0
    kernel_size: 5
    stride: 1
    weight_filler {
      type: "xavier"
    }
    bias_filler {
      type: "constant"
      value: 0
    }
  }
}
layer {
  name: "relu1"
  type: "PReLU"
  bottom: "conv1"
  top: "conv1"
}
layer {
  name: "pool1"
  type: "Pooling"
  bottom: "conv1"
  top: "pool1"
  pooling_param {
    pool: MAX
    kernel_size: 2
    stride: 2
  }
}
layer {
  name: "conv2"
  type: "Convolution"
  bottom: "pool1"
  top: "conv2"
  param {
    lr_mult: 1
  }
  param {
    lr_mult: 0.1
  }
  convolution_param {
    num_output: 48
    pad: 0
    kernel_size: 5
    stride: 1
    weight_filler {
      type: "xavier"
    }
    bias_filler {
      type: "constant"
      value: 0
    }
  }
}
layer {
  name: "relu2"
  type: "PReLU"
  bottom: "conv2"
  top: "conv2"
}
layer {
  name: "pool2"
  type: "Pooling"
  bottom: "conv2"
  top: "pool2"
  pooling_param {
    pool: MAX
    kernel_size: 2
    stride: 2
  }
}
layer {
  name: "conv3"
  type: "Convolution"
  bottom: "pool2"
  top: "conv3"
  param {
    lr_mult: 0.1
  }
  param {
    lr_mult: 0.1
  }
  convolution_param {
    num_output: 64
    pad: 0
    kernel_size: 3
    stride: 1
    weight_filler {
      type: "xavier"
    }
    bias_filler {
      type: "constant"
      value: 0
    }
  }
}
layer {
  name: "relu3"
  type: "PReLU"
  bottom: "conv3"
  top: "conv3"
}
layer {
  name: "ip1"
  type: "InnerProduct"
  bottom: "conv3"
  top: "ip1"
  inner_product_param {
    num_output: 512
    weight_filler {
      type: "xavier"
    }
    bias_filler {
      type: "constant"
    }
  }
}
layer {
  name: "relu5"
  type: "PReLU"
  bottom: "ip1"
  top: "ip1"
}
layer {
  name: "drop1"
  type: "Dropout"
  bottom: "ip1"
  top: "ip1"
  dropout_param {
    dropout_ratio: 0.5
  }
}
layer {
  name: "ip2"
  type: "InnerProduct"
  bottom: "ip1"
  top: "ip2"
  inner_product_param {
    num_output: 2
    weight_filler {
      type: "xavier"
    }
    bias_filler {
      type: "constant"
    }
  }
}
layer {
  name: "loss1"
  type: "SoftmaxWithLoss"
  bottom: "ip2"
  bottom: "glasses"
  top: "loss1"
  loss_weight: 0.5
}
layer {
  name: "ip3"
  type: "InnerProduct"
  bottom: "ip1"
  top: "ip3"
  inner_product_param {
    num_output: 512
    weight_filler {
      type: "xavier"
    }
    bias_filler {
      type: "constant"
    }
  }
}
layer {
  name: "loss2"
  type: "SoftmaxWithLoss"
  bottom: "ip3"
  bottom: "gender"
  top: "loss2"
  loss_weight: 0.5
}
I0815 09:16:52.308405   668 layer_factory.hpp:77] Creating layer data
I0815 09:16:52.308771   668 net.cpp:100] Creating Layer data
I0815 09:16:52.308789   668 net.cpp:408] data -> data
I0815 09:16:52.309695   672 db_lmdb.cpp:35] Opened lmdb /home/jaychou/code/new_caffe/caffe-master/examples/gender_glasses/gender_glasses_train_lmdb
I0815 09:16:52.321036   668 data_layer.cpp:41] output data size: 100,3,100,100
I0815 09:16:52.339205   668 net.cpp:150] Setting up data
I0815 09:16:52.339251   668 net.cpp:157] Top shape: 100 3 100 100 (3000000)
I0815 09:16:52.339263   668 net.cpp:165] Memory required for data: 12000000
I0815 09:16:52.339280   668 layer_factory.hpp:77] Creating layer labels
I0815 09:16:52.339385   668 net.cpp:100] Creating Layer labels
I0815 09:16:52.339401   668 net.cpp:408] labels -> labels
I0815 09:16:52.341153   674 db_lmdb.cpp:35] Opened lmdb /home/jaychou/code/new_caffe/caffe-master/examples/gender_glasses/gender_glasses_train_label_lmdb
I0815 09:16:52.342054   668 data_layer.cpp:41] output data size: 100,2,1,1
I0815 09:16:52.342397   668 net.cpp:150] Setting up labels
I0815 09:16:52.342411   668 net.cpp:157] Top shape: 100 2 1 1 (200)
I0815 09:16:52.342417   668 net.cpp:165] Memory required for data: 12000800
I0815 09:16:52.342422   668 layer_factory.hpp:77] Creating layer slice1
I0815 09:16:52.342435   668 net.cpp:100] Creating Layer slice1
I0815 09:16:52.342444   668 net.cpp:434] slice1 <- labels
I0815 09:16:52.342458   668 net.cpp:408] slice1 -> glasses
I0815 09:16:52.342471   668 net.cpp:408] slice1 -> gender
I0815 09:16:52.342509   668 net.cpp:150] Setting up slice1
I0815 09:16:52.342520   668 net.cpp:157] Top shape: 100 1 1 1 (100)
I0815 09:16:52.342527   668 net.cpp:157] Top shape: 100 1 1 1 (100)
I0815 09:16:52.342532   668 net.cpp:165] Memory required for data: 12001600
I0815 09:16:52.342537   668 layer_factory.hpp:77] Creating layer conv1
I0815 09:16:52.342555   668 net.cpp:100] Creating Layer conv1
I0815 09:16:52.342571   668 net.cpp:434] conv1 <- data
I0815 09:16:52.342581   668 net.cpp:408] conv1 -> conv1
I0815 09:16:52.508131   668 net.cpp:150] Setting up conv1
I0815 09:16:52.508182   668 net.cpp:157] Top shape: 100 20 96 96 (18432000)
I0815 09:16:52.508191   668 net.cpp:165] Memory required for data: 85729600
I0815 09:16:52.508219   668 layer_factory.hpp:77] Creating layer relu1
I0815 09:16:52.508236   668 net.cpp:100] Creating Layer relu1
I0815 09:16:52.508247   668 net.cpp:434] relu1 <- conv1
I0815 09:16:52.508258   668 net.cpp:395] relu1 -> conv1 (in-place)
I0815 09:16:52.508795   668 net.cpp:150] Setting up relu1
I0815 09:16:52.508815   668 net.cpp:157] Top shape: 100 20 96 96 (18432000)
I0815 09:16:52.508823   668 net.cpp:165] Memory required for data: 159457600
I0815 09:16:52.508837   668 layer_factory.hpp:77] Creating layer pool1
I0815 09:16:52.508851   668 net.cpp:100] Creating Layer pool1
I0815 09:16:52.508860   668 net.cpp:434] pool1 <- conv1
I0815 09:16:52.508872   668 net.cpp:408] pool1 -> pool1
I0815 09:16:52.508918   668 net.cpp:150] Setting up pool1
I0815 09:16:52.508931   668 net.cpp:157] Top shape: 100 20 48 48 (4608000)
I0815 09:16:52.508940   668 net.cpp:165] Memory required for data: 177889600
I0815 09:16:52.508949   668 layer_factory.hpp:77] Creating layer conv2
I0815 09:16:52.508965   668 net.cpp:100] Creating Layer conv2
I0815 09:16:52.508975   668 net.cpp:434] conv2 <- pool1
I0815 09:16:52.508985   668 net.cpp:408] conv2 -> conv2
I0815 09:16:52.510293   668 net.cpp:150] Setting up conv2
I0815 09:16:52.510315   668 net.cpp:157] Top shape: 100 48 44 44 (9292800)
I0815 09:16:52.510347   668 net.cpp:165] Memory required for data: 215060800
I0815 09:16:52.510363   668 layer_factory.hpp:77] Creating layer relu2
I0815 09:16:52.510380   668 net.cpp:100] Creating Layer relu2
I0815 09:16:52.510390   668 net.cpp:434] relu2 <- conv2
I0815 09:16:52.510399   668 net.cpp:395] relu2 -> conv2 (in-place)
I0815 09:16:52.510869   668 net.cpp:150] Setting up relu2
I0815 09:16:52.510887   668 net.cpp:157] Top shape: 100 48 44 44 (9292800)
I0815 09:16:52.510896   668 net.cpp:165] Memory required for data: 252232000
I0815 09:16:52.510907   668 layer_factory.hpp:77] Creating layer pool2
I0815 09:16:52.510921   668 net.cpp:100] Creating Layer pool2
I0815 09:16:52.510931   668 net.cpp:434] pool2 <- conv2
I0815 09:16:52.510941   668 net.cpp:408] pool2 -> pool2
I0815 09:16:52.510978   668 net.cpp:150] Setting up pool2
I0815 09:16:52.510992   668 net.cpp:157] Top shape: 100 48 22 22 (2323200)
I0815 09:16:52.511000   668 net.cpp:165] Memory required for data: 261524800
I0815 09:16:52.511008   668 layer_factory.hpp:77] Creating layer conv3
I0815 09:16:52.511023   668 net.cpp:100] Creating Layer conv3
I0815 09:16:52.511032   668 net.cpp:434] conv3 <- pool2
I0815 09:16:52.511044   668 net.cpp:408] conv3 -> conv3
I0815 09:16:52.512213   668 net.cpp:150] Setting up conv3
I0815 09:16:52.512234   668 net.cpp:157] Top shape: 100 64 20 20 (2560000)
I0815 09:16:52.512243   668 net.cpp:165] Memory required for data: 271764800
I0815 09:16:52.512256   668 layer_factory.hpp:77] Creating layer relu3
I0815 09:16:52.512267   668 net.cpp:100] Creating Layer relu3
I0815 09:16:52.512276   668 net.cpp:434] relu3 <- conv3
I0815 09:16:52.512287   668 net.cpp:395] relu3 -> conv3 (in-place)
I0815 09:16:52.512377   668 net.cpp:150] Setting up relu3
I0815 09:16:52.512392   668 net.cpp:157] Top shape: 100 64 20 20 (2560000)
I0815 09:16:52.512401   668 net.cpp:165] Memory required for data: 282004800
I0815 09:16:52.512414   668 layer_factory.hpp:77] Creating layer ip1
I0815 09:16:52.512430   668 net.cpp:100] Creating Layer ip1
I0815 09:16:52.512440   668 net.cpp:434] ip1 <- conv3
I0815 09:16:52.512450   668 net.cpp:408] ip1 -> ip1
I0815 09:16:52.612051   668 net.cpp:150] Setting up ip1
I0815 09:16:52.612098   668 net.cpp:157] Top shape: 100 512 (51200)
I0815 09:16:52.612110   668 net.cpp:165] Memory required for data: 282209600
I0815 09:16:52.612128   668 layer_factory.hpp:77] Creating layer relu5
I0815 09:16:52.612145   668 net.cpp:100] Creating Layer relu5
I0815 09:16:52.612156   668 net.cpp:434] relu5 <- ip1
I0815 09:16:52.612169   668 net.cpp:395] relu5 -> ip1 (in-place)
I0815 09:16:52.612257   668 net.cpp:150] Setting up relu5
I0815 09:16:52.612273   668 net.cpp:157] Top shape: 100 512 (51200)
I0815 09:16:52.612282   668 net.cpp:165] Memory required for data: 282414400
I0815 09:16:52.612293   668 layer_factory.hpp:77] Creating layer drop1
I0815 09:16:52.612313   668 net.cpp:100] Creating Layer drop1
I0815 09:16:52.612323   668 net.cpp:434] drop1 <- ip1
I0815 09:16:52.612334   668 net.cpp:395] drop1 -> ip1 (in-place)
I0815 09:16:52.612367   668 net.cpp:150] Setting up drop1
I0815 09:16:52.612381   668 net.cpp:157] Top shape: 100 512 (51200)
I0815 09:16:52.612390   668 net.cpp:165] Memory required for data: 282619200
I0815 09:16:52.612398   668 layer_factory.hpp:77] Creating layer ip1_drop1_0_split
I0815 09:16:52.612412   668 net.cpp:100] Creating Layer ip1_drop1_0_split
I0815 09:16:52.612421   668 net.cpp:434] ip1_drop1_0_split <- ip1
I0815 09:16:52.612432   668 net.cpp:408] ip1_drop1_0_split -> ip1_drop1_0_split_0
I0815 09:16:52.612444   668 net.cpp:408] ip1_drop1_0_split -> ip1_drop1_0_split_1
I0815 09:16:52.612481   668 net.cpp:150] Setting up ip1_drop1_0_split
I0815 09:16:52.612495   668 net.cpp:157] Top shape: 100 512 (51200)
I0815 09:16:52.612504   668 net.cpp:157] Top shape: 100 512 (51200)
I0815 09:16:52.612512   668 net.cpp:165] Memory required for data: 283028800
I0815 09:16:52.612521   668 layer_factory.hpp:77] Creating layer ip2
I0815 09:16:52.612534   668 net.cpp:100] Creating Layer ip2
I0815 09:16:52.612542   668 net.cpp:434] ip2 <- ip1_drop1_0_split_0
I0815 09:16:52.612581   668 net.cpp:408] ip2 -> ip2
I0815 09:16:52.612675   668 net.cpp:150] Setting up ip2
I0815 09:16:52.612689   668 net.cpp:157] Top shape: 100 2 (200)
I0815 09:16:52.612697   668 net.cpp:165] Memory required for data: 283029600
I0815 09:16:52.612709   668 layer_factory.hpp:77] Creating layer loss1
I0815 09:16:52.612725   668 net.cpp:100] Creating Layer loss1
I0815 09:16:52.612733   668 net.cpp:434] loss1 <- ip2
I0815 09:16:52.612742   668 net.cpp:434] loss1 <- glasses
I0815 09:16:52.612753   668 net.cpp:408] loss1 -> loss1
I0815 09:16:52.612768   668 layer_factory.hpp:77] Creating layer loss1
I0815 09:16:52.613237   668 net.cpp:150] Setting up loss1
I0815 09:16:52.613255   668 net.cpp:157] Top shape: (1)
I0815 09:16:52.613265   668 net.cpp:160]     with loss weight 0.5
I0815 09:16:52.613289   668 net.cpp:165] Memory required for data: 283029604
I0815 09:16:52.613298   668 layer_factory.hpp:77] Creating layer ip3
I0815 09:16:52.613311   668 net.cpp:100] Creating Layer ip3
I0815 09:16:52.613320   668 net.cpp:434] ip3 <- ip1_drop1_0_split_1
I0815 09:16:52.613332   668 net.cpp:408] ip3 -> ip3
I0815 09:16:52.615494   668 net.cpp:150] Setting up ip3
I0815 09:16:52.615514   668 net.cpp:157] Top shape: 100 512 (51200)
I0815 09:16:52.615522   668 net.cpp:165] Memory required for data: 283234404
I0815 09:16:52.615535   668 layer_factory.hpp:77] Creating layer loss2
I0815 09:16:52.615545   668 net.cpp:100] Creating Layer loss2
I0815 09:16:52.615558   668 net.cpp:434] loss2 <- ip3
I0815 09:16:52.615568   668 net.cpp:434] loss2 <- gender
I0815 09:16:52.615579   668 net.cpp:408] loss2 -> loss2
I0815 09:16:52.615593   668 layer_factory.hpp:77] Creating layer loss2
…
  phase: TEST
}
layer {
  name: "data"
  type: "Data"
  top: "data"
  include {
    phase: TEST
  }
  transform_param {
    scale: 0.00390625
  }
  data_param {
    source: "/home/jaychou/code/new_caffe/caffe-master/examples/gender_glasses/gender_glasses_val_lmdb"
    batch_size: 64
    backend: LMDB
  }
}
layer {
  name: "labels"
  type: "Data"
  top: "labels"
  include {
    phase: TEST
  }
  data_param {
    source: "/home/jaychou/code/new_caffe/caffe-master/examples/gender_glasses/gender_glasses_val_label_lmdb"
    batch_size: 64
    backend: LMDB
  }
}
layer {
  name: "slice1"
  type: "Slice"
  bottom: "labels"
  top: "glasses"
  top: "gender"
  slice_param {
    slice_dim: 1
    slice_point: 1
  }
}
layer {
  name: "conv1"
  type: "Convolution"
  bottom: "data"
  top: "conv1"
  param {
    lr_mult: 1
  }
  param {
    lr_mult: 0.1
  }
  convolution_param {
    num_output: 20
    pad: 0
    kernel_size: 5
    stride: 1
    weight_filler {
      type: "xavier"
    }
    bias_filler {
      type: "constant"
      value: 0
    }
  }
}
layer {
  name: "relu1"
  type: "PReLU"
  bottom: "conv1"
  top: "conv1"
}
layer {
  name: "pool1"
  type: "Pooling"
  bottom: "conv1"
  top: "pool1"
  pooling_param {
    pool: MAX
    kernel_size: 2
    stride: 2
  }
}
layer {
  name: "conv2"
  type: "Convolution"
  bottom: "pool1"
  top: "conv2"
  param {
    lr_mult: 1
  }
  param {
    lr_mult: 0.1
  }
  convolution_param {
    num_output: 48
    pad: 0
    kernel_size: 5
    stride: 1
    weight_filler {
      type: "xavier"
    }
    bias_filler {
      type: "constant"
      value: 0
    }
  }
}
layer {
  name: "relu2"
  type: "PReLU"
  bottom: "conv2"
  top: "conv2"
}
layer {
  name: "pool2"
  type: "Pooling"
  bottom: "conv2"
  top: "pool2"
  pooling_param {
    pool: MAX
    kernel_size: 2
    stride: 2
  }
}
layer {
  name: "conv3"
  type: "Convolution"
  bottom: "pool2"
  top: "conv3"
  param {
    lr_mult: 0.1
  }
  param {
    lr_mult: 0.1
  }
  convolution_param {
    num_output: 64
    pad: 0
    kernel_size: 3
    stride: 1
    weight_filler {
      type: "xavier"
    }
    bias_filler {
      type: "constant"
      value: 0
    }
  }
}
layer {
  name: "relu3"
  type: "PReLU"
  bottom: "conv3"
  top: "conv3"
}
layer {
  name: "ip1"
  type: "InnerProduct"
  bottom: "conv3"
  top: "ip1"
  inner_product_param {
    num_output: 512
    weight_filler {
      type: "xavier"
    }
    bias_filler {
      type: "constant"
    }
  }
}
layer {
  name: "relu5"
  type: "PReLU"
  bottom: "ip1"
  top: "ip1"
}
layer {
  name: "drop1"
  type: "Dropout"
  bottom: "ip1"
  top: "ip1"
  dropout_param {
    dropout_ratio: 0.5
  }
}
layer {
  name: "ip2"
  type: "InnerProduct"
  bottom: "ip1"
  top: "ip2"
  inner_product_param {
    num_output: 2
    weight_filler {
      type: "xavier"
    }
    bias_filler {
      type: "constant"
    }
  }
}
layer {
  name: "loss1"
  type: "SoftmaxWithLoss"
  bottom: "ip2"
  bottom: "glasses"
  top: "loss1"
  loss_weight: 0.5
}
layer {
  name: "accuracy_glasses"
  type: "Accuracy"
  bottom: "ip2"
  bottom: "glasses"
  top: "accuracy_glasses"
  include {
    phase: TEST
  }
}
layer {
  name: "ip3"
  type: "InnerProduct"
  bottom: "ip1"
  top: "ip3"
  inner_product_param {
    num_output: 512
    weight_filler {
      type: "xavier"
    }
    bias_filler {
      type: "constant"
    }
  }
}
layer {
  name: "loss2"
  type: "SoftmaxWithLoss"
  bottom: "ip3"
  bottom: "gender"
  top: "loss2"
  loss_weight: 0.5
}
layer {
  name: "accuracy_gender"
  type: "Accuracy"
  bottom: "ip3"
  bottom: "gender"
  top: "accuracy_gender"
  include {
    phase: TEST
  }
}
I0815 09:16:52.617439   668 layer_factory.hpp:77] Creating layer data
I0815 09:16:52.617529   668 net.cpp:100] Creating Layer data
I0815 09:16:52.617543   668 net.cpp:408] data -> data
I0815 09:16:52.618916   676 db_lmdb.cpp:35] Opened lmdb /home/jaychou/code/new_caffe/caffe-master/examples/gender_glasses/gender_glasses_val_lmdb
I0815 09:16:52.619148   668 data_layer.cpp:41] output data size: 64,3,100,100
I0815 09:16:52.634630   668 net.cpp:150] Setting up data
I0815 09:16:52.634672   668 net.cpp:157] Top shape: 64 3 100 100 (1920000)
I0815 09:16:52.634682   668 net.cpp:165] Memory required for data: 7680000
I0815 09:16:52.634694   668 layer_factory.hpp:77] Creating layer labels
I0815 09:16:52.634778   668 net.cpp:100] Creating Layer labels
I0815 09:16:52.634793   668 net.cpp:408] labels -> labels
I0815 09:16:52.656724   678 db_lmdb.cpp:35] Opened lmdb /home/jaychou/code/new_caffe/caffe-master/examples/gender_glasses/gender_glasses_val_label_lmdb
I0815 09:16:52.656880   668 data_layer.cpp:41] output data size: 64,2,1,1
I0815 09:16:52.657217   668 net.cpp:150] Setting up labels
I0815 09:16:52.657238   668 net.cpp:157] Top shape: 64 2 1 1 (128)
I0815 09:16:52.657248   668 net.cpp:165] Memory required for data: 7680512
I0815 09:16:52.657258   668 layer_factory.hpp:77] Creating layer slice1
I0815 09:16:52.657276   668 net.cpp:100] Creating Layer slice1
I0815 09:16:52.657287   668 net.cpp:434] slice1 <- labels
I0815 09:16:52.657299   668 net.cpp:408] slice1 -> glasses
I0815 09:16:52.657318   668 net.cpp:408] slice1 -> gender
I0815 09:16:52.657357   668 net.cpp:150] Setting up slice1
I0815 09:16:52.657371   668 net.cpp:157] Top shape: 64 1 1 1 (64)
I0815 09:16:52.657380   668 net.cpp:157] Top shape: 64 1 1 1 (64)
I0815 09:16:52.657389   668 net.cpp:165] Memory required for data: 7681024
I0815 09:16:52.657397   668 layer_factory.hpp:77] Creating layer glasses_slice1_0_split
I0815 09:16:52.657408   668 net.cpp:100] Creating Layer glasses_slice1_0_split
I0815 09:16:52.657418   668 net.cpp:434] glasses_slice1_0_split <- glasses
I0815 09:16:52.657428   668 net.cpp:408] glasses_slice1_0_split -> glasses_slice1_0_split_0
I0815 09:16:52.657440   668 net.cpp:408] glasses_slice1_0_split -> glasses_slice1_0_split_1
I0815 09:16:52.657475   668 net.cpp:150] Setting up glasses_slice1_0_split
I0815 09:16:52.657490   668 net.cpp:157] Top shape: 64 1 1 1 (64)
I0815 09:16:52.657498   668 net.cpp:157] Top shape: 64 1 1 1 (64)
I0815 09:16:52.657507   668 net.cpp:165] Memory required for data: 7681536
I0815 09:16:52.657516   668 layer_factory.hpp:77] Creating layer gender_slice1_1_split
I0815 09:16:52.657526   668 net.cpp:100] Creating Layer gender_slice1_1_split
I0815 09:16:52.657536   668 net.cpp:434] gender_slice1_1_split <- gender
I0815 09:16:52.657546   668 net.cpp:408] gender_slice1_1_split -> gender_slice1_1_split_0
I0815 09:16:52.657557   668 net.cpp:408] gender_slice1_1_split -> gender_slice1_1_split_1
I0815 09:16:52.657590   668 net.cpp:150] Setting up gender_slice1_1_split
I0815 09:16:52.657603   668 net.cpp:157] Top shape: 64 1 1 1 (64)
I0815 09:16:52.657613   668 net.cpp:157] Top shape: 64 1 1 1 (64)
I0815 09:16:52.657621   668 net.cpp:165] Memory required for data: 7682048
I0815 09:16:52.657629   668 layer_factory.hpp:77] Creating layer conv1
I0815 09:16:52.657649   668 net.cpp:100] Creating Layer conv1
I0815 09:16:52.657660   668 net.cpp:434] conv1 <- data
I0815 09:16:52.657672   668 net.cpp:408] conv1 -> conv1
I0815 09:16:52.659023   668 net.cpp:150] Setting up conv1
I0815 09:16:52.659042   668 net.cpp:157] Top shape: 64 20 96 96 (11796480)
I0815 09:16:52.659054   668 net.cpp:165] Memory required for data: 54867968
I0815 09:16:52.659071   668 layer_factory.hpp:77] Creating layer relu1
I0815 09:16:52.659086   668 net.cpp:100] Creating Layer relu1
I0815 09:16:52.659103   668 net.cpp:434] relu1 <- conv1
I0815 09:16:52.659116   668 net.cpp:395] relu1 -> conv1 (in-place)
I0815 09:16:52.659797   668 net.cpp:150] Setting up relu1
I0815 09:16:52.659819   668 net.cpp:157] Top shape: 64 20 96 96 (11796480)
I0815 09:16:52.659832   668 net.cpp:165] Memory required for data: 102053888
I0815 09:16:52.659847   668 layer_factory.hpp:77] Creating layer pool1
I0815 09:16:52.659865   668 net.cpp:100] Creating Layer pool1
I0815 09:16:52.659875   668 net.cpp:434] pool1 <- conv1
I0815 09:16:52.659888   668 net.cpp:408] pool1 -> pool1
I0815 09:16:52.659934   668 net.cpp:150] Setting up pool1
I0815 09:16:52.659948   668 net.cpp:157] Top shape: 64 20 48 48 (2949120)
I0815 09:16:52.659975   668 net.cpp:165] Memory required for data: 113850368
I0815 09:16:52.659983   668 layer_factory.hpp:77] Creating layer conv2
I0815 09:16:52.660001   668 net.cpp:100] Creating Layer conv2
I0815 09:16:52.660012   668 net.cpp:434] conv2 <- pool1
I0815 09:16:52.660022   668 net.cpp:408] conv2 -> conv2
I0815 09:16:52.661063   668 net.cpp:150] Setting up conv2
I0815 09:16:52.661085   668 net.cpp:157] Top shape: 64 48 44 44 (5947392)
I0815 09:16:52.661095   668 net.cpp:165] Memory required for data: 137639936
I0815 09:16:52.661109   668 layer_factory.hpp:77] Creating layer relu2
I0815 09:16:52.661120   668 net.cpp:100] Creating Layer relu2
I0815 09:16:52.661129   668 net.cpp:434] relu2 <- conv2
I0815 09:16:52.661140   668 net.cpp:395] relu2 -> conv2 (in-place)
I0815 09:16:52.661309   668 net.cpp:150] Setting up relu2
I0815 09:16:52.661324   668 net.cpp:157] Top shape: 64 48 44 44 (5947392)
I0815 09:16:52.661331   668 net.cpp:165] Memory required for data: 161429504
I0815 09:16:52.661342   668 layer_factory.hpp:77] Creating layer pool2
I0815 09:16:52.661355   668 net.cpp:100] Creating Layer pool2
I0815 09:16:52.661363   668 net.cpp:434] pool2 <- conv2
I0815 09:16:52.661375   668 net.cpp:408] pool2 -> pool2
I0815 09:16:52.661413   668 net.cpp:150] Setting up pool2
I0815 09:16:52.661427   668 net.cpp:157] Top shape: 64 48 22 22 (1486848)
I0815 09:16:52.661434   668 net.cpp:165] Memory required for data: 167376896
I0815 09:16:52.661442   668 layer_factory.hpp:77] Creating layer conv3
I0815 09:16:52.661456   668 net.cpp:100] Creating Layer conv3
I0815 09:16:52.661466   668 net.cpp:434] conv3 <- pool2
I0815 09:16:52.661478   668 net.cpp:408] conv3 -> conv3
I0815 09:16:52.662634   668 net.cpp:150] Setting up conv3
I0815 09:16:52.662653   668 net.cpp:157] Top shape: 64 64 20 20 (1638400)
I0815 09:16:52.662662   668 net.cpp:165] Memory required for data: 173930496
I0815 09:16:52.662674   668 layer_factory.hpp:77] Creating layer relu3
I0815 09:16:52.662686   668 net.cpp:100] Creating Layer relu3
I0815 09:16:52.662696   668 net.cpp:434] relu3 <- conv3
I0815 09:16:52.662706   668 net.cpp:395] relu3 -> conv3 (in-place)
I0815 09:16:52.662816   668 net.cpp:150] Setting up relu3
I0815 09:16:52.662829   668 net.cpp:157] Top shape: 64 64 20 20 (1638400)
I0815 09:16:52.662837   668 net.cpp:165] Memory required for data: 180484096
I0815 09:16:52.662850   668 layer_factory.hpp:77] Creating layer ip1
I0815 09:16:52.662865   668 net.cpp:100] Creating Layer ip1
I0815 09:16:52.662874   668 net.cpp:434] ip1 <- conv3
I0815 09:16:52.662884   668 net.cpp:408] ip1 -> ip1
I0815 09:16:52.759454   668 net.cpp:150] Setting up ip1
I0815 09:16:52.759500   668 net.cpp:157] Top shape: 64 512 (32768)
I0815 09:16:52.759510   668 net.cpp:165] Memory required for data: 180615168
I0815 09:16:52.759526   668 layer_factory.hpp:77] Creating layer relu5
I0815 09:16:52.759542   668 net.cpp:100] Creating Layer relu5
I0815 09:16:52.759552   668 net.cpp:434] relu5 <- ip1
I0815 09:16:52.759567   668 net.cpp:395] relu5 -> ip1 (in-place)
I0815 09:16:52.759650   668 net.cpp:150] Setting up relu5
I0815 09:16:52.759665   668 net.cpp:157] Top shape: 64 512 (32768)
I0815 09:16:52.759672   668 net.cpp:165] Memory required for data: 180746240
I0815 09:16:52.759682   668 layer_factory.hpp:77] Creating layer drop1
I0815 09:16:52.759694   668 net.cpp:100] Creating Layer drop1
I0815 09:16:52.759703   668 net.cpp:434] drop1 <- ip1
I0815 09:16:52.759713   668 net.cpp:395] drop1 -> ip1 (in-place)
I0815 09:16:52.759742   668 net.cpp:150] Setting up drop1
I0815 09:16:52.759755   668 net.cpp:157] Top shape: 64 512 (32768)
I0815 09:16:52.759764   668 net.cpp:165] Memory required for data: 180877312
I0815 09:16:52.759773   668 layer_factory.hpp:77] Creating layer ip1_drop1_0_split
I0815 09:16:52.759785   668 net.cpp:100] Creating Layer ip1_drop1_0_split
I0815 09:16:52.759799   668 net.cpp:434] ip1_drop1_0_split <- ip1
I0815 09:16:52.759809   668 net.cpp:408] ip1_drop1_0_split -> ip1_drop1_0_split_0
I0815 09:16:52.759821   668 net.cpp:408] ip1_drop1_0_split -> ip1_drop1_0_split_1
I0815 09:16:52.759886   668 net.cpp:150] Setting up ip1_drop1_0_split
I0815 09:16:52.759898   668 net.cpp:157] Top shape: 64 512 (32768)
I0815 09:16:52.759907   668 net.cpp:157] Top shape: 64 512 (32768)
I0815 09:16:52.759917   668 net.cpp:165] Memory required for data: 181139456
I0815 09:16:52.759924   668 layer_factory.hpp:77] Creating layer ip2
I0815 09:16:52.759937   668 net.cpp:100] Creating Layer ip2
I0815 09:16:52.759945   668 net.cpp:434] ip2 <- ip1_drop1_0_split_0
I0815 09:16:52.759958   668 net.cpp:408] ip2 -> ip2
I0815 09:16:52.760062   668 net.cpp:150] Setting up ip2
I0815 09:16:52.760077   668 net.cpp:157] Top shape: 64 2 (128)
I0815 09:16:52.760085   668 net.cpp:165] Memory required for data: 181139968
I0815 09:16:52.760097   668 layer_factory.hpp:77] Creating layer ip2_ip2_0_split
I0815 09:16:52.760108   668 net.cpp:100] Creating Layer ip2_ip2_0_split
I0815 09:16:52.760116   668 net.cpp:434] ip2_ip2_0_split <- ip2
I0815 09:16:52.760129   668 net.cpp:408] ip2_ip2_0_split -> ip2_ip2_0_split_0
I0815 09:16:52.760141   668 net.cpp:408] ip2_ip2_0_split -> ip2_ip2_0_split_1
I0815 09:16:52.760179   668 net.cpp:150] Setting up ip2_ip2_0_split
I0815 09:16:52.760192   668 net.cpp:157] Top shape: 64 2 (128)
I0815 09:16:52.760201   668 net.cpp:157] Top shape: 64 2 (128)
I0815 09:16:52.760210   668 net.cpp:165] Memory required for data: 181140992
I0815 09:16:52.760217   668 layer_factory.hpp:77] Creating layer loss1
I0815 09:16:52.760228   668 net.cpp:100] Creating Layer loss1
I0815 09:16:52.760237   668 net.cpp:434] loss1 <- ip2_ip2_0_split_0
I0815 09:16:52.760247   668 net.cpp:434] loss1 <- glasses_slice1_0_split_0
I0815 09:16:52.760257   668 net.cpp:408] loss1 -> loss1
…
