…
  stage: ""
}
layer {
  name: "data"
  type: "Data"
  top: "data"
  include {
    phase: TRAIN
  }
  transform_param {
    scale: 0.00390625
  }
  data_param {
    source: "/home/jaychou/code/new_caffe/caffe-master/examples/gender_glasses/gender_glasses_train_lmdb"
    batch_size: 100
    backend: LMDB
  }
}
layer {
  name: "labels"
  type: "Data"
  top: "labels"
  include {
    phase: TRAIN
  }
  data_param {
    source: "/home/jaychou/code/new_caffe/caffe-master/examples/gender_glasses/gender_glasses_train_label_lmdb"
    batch_size: 100
    backend: LMDB
  }
}
layer {
  name: "slice1"
  type: "Slice"
  bottom: "labels"
  top: "glasses"
  top: "gender"
  slice_param {
    slice_dim: 1
    slice_point: 1
  }
}
layer {
  name: "conv1"
  type: "Convolution"
  bottom: "data"
  top: "conv1"
  param {
    lr_mult: 1
  }
  param {
    lr_mult: 0.1
  }
  convolution_param {
    num_output: 20
    pad: 0
    kernel_size: 5
    stride: 1
    weight_filler {
      type: "xavier"
    }
    bias_filler {
      type: "constant"
      value: 0
    }
  }
}
layer {
  name: "relu1"
  type: "PReLU"
  bottom: "conv1"
  top: "conv1"
}
layer {
  name: "pool1"
  type: "Pooling"
  bottom: "conv1"
  top: "pool1"
  pooling_param {
    pool: MAX
    kernel_size: 2
    stride: 2
  }
}
layer {
  name: "conv2"
  type: "Convolution"
  bottom: "pool1"
  top: "conv2"
  param {
    lr_mult: 1
  }
  param {
    lr_mult: 0.1
  }
  convolution_param {
    num_output: 48
    pad: 0
    kernel_size: 5
    stride: 1
    weight_filler {
      type: "xavier"
    }
    bias_filler {
      type: "constant"
      value: 0
    }
  }
}
layer {
  name: "relu2"
  type: "PReLU"
  bottom: "conv2"
  top: "conv2"
}
layer {
  name: "pool2"
  type: "Pooling"
  bottom: "conv2"
  top: "pool2"
  pooling_param {
    pool: MAX
    kernel_size: 2
    stride: 2
  }
}
layer {
  name: "conv3"
  type: "Convolution"
  bottom: "pool2"
  top: "conv3"
  param {
    lr_mult: 0.1
  }
  param {
    lr_mult: 0.1
  }
  convolution_param {
    num_output: 64
    pad: 0
    kernel_size: 3
    stride: 1
    weight_filler {
      type: "xavier"
    }
    bias_filler {
      type: "constant"
      value: 0
    }
  }
}
layer {
  name: "relu3"
  type: "PReLU"
  bottom: "conv3"
  top: "conv3"
}
layer {
  name: "conv4"
  type: "Convolution"
  bottom: "conv3"
  top: "conv4"
  param {
    lr_mult: 0.1
  }
  param {
    lr_mult: 0.1
  }
  convolution_param {
    num_output: 128
    pad: 0
    kernel_size: 3
    stride: 1
    weight_filler {
      type: "xavier"
    }
    bias_filler {
      type: "constant"
      value: 0
    }
  }
}
layer {
  name: "relu4"
  type: "PReLU"
  bottom: "conv4"
  top: "conv4"
}
layer {
  name: "ip1"
  type: "InnerProduct"
  bottom: "conv4"
  top: "ip1"
  inner_product_param {
    num_output: 512
    weight_filler {
      type: "xavier"
    }
    bias_filler {
      type: "constant"
    }
  }
}
layer {
  name: "relu5"
  type: "PReLU"
  bottom: "ip1"
  top: "ip1"
}
layer {
  name: "drop1"
  type: "Dropout"
  bottom: "ip1"
  top: "ip1"
  dropout_param {
    dropout_ratio: 0.5
  }
}
layer {
  name: "ip2"
  type: "InnerProduct"
  bottom: "ip1"
  top: "ip2"
  inner_product_param {
    num_output: 2
    weight_filler {
      type: "xavier"
    }
    bias_filler {
      type: "constant"
    }
  }
}
layer {
  name: "loss1"
  type: "SoftmaxWithLoss"
  bottom: "ip2"
  bottom: "glasses"
  top: "loss1"
  loss_weight: 0.5
}
layer {
  name: "ip3"
  type: "InnerProduct"
  bottom: "ip1"
  top: "ip3"
  inner_product_param {
    num_output: 2
    weight_filler {
      type: "xavier"
    }
    bias_filler {
      type: "constant"
    }
  }
}
layer {
  name: "loss2"
  type: "SoftmaxWithLoss"
  bottom: "ip3"
  bottom: "gender"
  top: "loss2"
  loss_weight: 0.5
}
I0820 19:00:09.618130 14293 layer_factory.hpp:77] Creating layer data
I0820 19:00:09.631805 14293 net.cpp:100] Creating Layer data
I0820 19:00:09.631839 14293 net.cpp:408] data -> data
I0820 19:00:09.633066 14297 db_lmdb.cpp:35] Opened lmdb /home/jaychou/code/new_caffe/caffe-master/examples/gender_glasses/gender_glasses_train_lmdb
I0820 19:00:09.903259 14293 data_layer.cpp:41] output data size: 100,3,80,80
I0820 19:00:09.920270 14293 net.cpp:150] Setting up data
I0820 19:00:09.920338 14293 net.cpp:157] Top shape: 100 3 80 80 (1920000)
I0820 19:00:09.920353 14293 net.cpp:165] Memory required for data: 7680000
I0820 19:00:09.920374 14293 layer_factory.hpp:77] Creating layer labels
I0820 19:00:09.920657 14293 net.cpp:100] Creating Layer labels
I0820 19:00:09.920691 14293 net.cpp:408] labels -> labels
I0820 19:00:09.923756 14309 db_lmdb.cpp:35] Opened lmdb /home/jaychou/code/new_caffe/caffe-master/examples/gender_glasses/gender_glasses_train_label_lmdb
I0820 19:00:09.926606 14293 data_layer.cpp:41] output data size: 100,2,1,1
I0820 19:00:09.926996 14293 net.cpp:150] Setting up labels
I0820 19:00:09.927037 14293 net.cpp:157] Top shape: 100 2 1 1 (200)
I0820 19:00:09.927050 14293 net.cpp:165] Memory required for data: 7680800
I0820 19:00:09.927064 14293 layer_factory.hpp:77] Creating layer slice1
I0820 19:00:09.927089 14293 net.cpp:100] Creating Layer slice1
I0820 19:00:09.927109 14293 net.cpp:434] slice1 <- labels
I0820 19:00:09.927142 14293 net.cpp:408] slice1 -> glasses
I0820 19:00:09.927170 14293 net.cpp:408] slice1 -> gender
I0820 19:00:09.927251 14293 net.cpp:150] Setting up slice1
I0820 19:00:09.927273 14293 net.cpp:157] Top shape: 100 1 1 1 (100)
I0820 19:00:09.927287 14293 net.cpp:157] Top shape: 100 1 1 1 (100)
I0820 19:00:09.927299 14293 net.cpp:165] Memory required for data: 7681600
I0820 19:00:09.927310 14293 layer_factory.hpp:77] Creating layer conv1
I0820 19:00:09.927819 14293 net.cpp:100] Creating Layer conv1
I0820 19:00:09.927840 14293 net.cpp:434] conv1 <- data
I0820 19:00:09.927867 14293 net.cpp:408] conv1 -> conv1
I0820 19:00:11.360015 14293 net.cpp:150] Setting up conv1
I0820 19:00:11.360110 14293 net.cpp:157] Top shape: 100 20 76 76 (11552000)
I0820 19:00:11.360132 14293 net.cpp:165] Memory required for data: 53889600
I0820 19:00:11.360177 14293 layer_factory.hpp:77] Creating layer relu1
I0820 19:00:11.360209 14293 net.cpp:100] Creating Layer relu1
I0820 19:00:11.360230 14293 net.cpp:434] relu1 <- conv1
I0820 19:00:11.360255 14293 net.cpp:395] relu1 -> conv1 (in-place)
I0820 19:00:11.361248 14293 net.cpp:150] Setting up relu1
I0820 19:00:11.361289 14293 net.cpp:157] Top shape: 100 20 76 76 (11552000)
I0820 19:00:11.361310 14293 net.cpp:165] Memory required for data: 100097600
I0820 19:00:11.361337 14293 layer_factory.hpp:77] Creating layer pool1
I0820 19:00:11.361363 14293 net.cpp:100] Creating Layer pool1
I0820 19:00:11.361382 14293 net.cpp:434] pool1 <- conv1
I0820 19:00:11.361404 14293 net.cpp:408] pool1 -> pool1
I0820 19:00:11.361495 14293 net.cpp:150] Setting up pool1
I0820 19:00:11.361527 14293 net.cpp:157] Top shape: 100 20 38 38 (2888000)
I0820 19:00:11.361546 14293 net.cpp:165] Memory required for data: 111649600
I0820 19:00:11.361599 14293 layer_factory.hpp:77] Creating layer conv2
I0820 19:00:11.361625 14293 net.cpp:100] Creating Layer conv2
I0820 19:00:11.361640 14293 net.cpp:434] conv2 <- pool1
I0820 19:00:11.361670 14293 net.cpp:408] conv2 -> conv2
I0820 19:00:11.364254 14293 net.cpp:150] Setting up conv2
I0820 19:00:11.364295 14293 net.cpp:157] Top shape: 100 48 34 34 (5548800)
I0820 19:00:11.364315 14293 net.cpp:165] Memory required for data: 133844800
I0820 19:00:11.364342 14293 layer_factory.hpp:77] Creating layer relu2
I0820 19:00:11.364363 14293 net.cpp:100] Creating Layer relu2
I0820 19:00:11.364379 14293 net.cpp:434] relu2 <- conv2
I0820 19:00:11.364398 14293 net.cpp:395] relu2 -> conv2 (in-place)
I0820 19:00:11.364598 14293 net.cpp:150] Setting up relu2
I0820 19:00:11.364626 14293 net.cpp:157] Top shape: 100 48 34 34 (5548800)
I0820 19:00:11.364644 14293 net.cpp:165] Memory required for data: 156040000
I0820 19:00:11.364663 14293 layer_factory.hpp:77] Creating layer pool2
I0820 19:00:11.364686 14293 net.cpp:100] Creating Layer pool2
I0820 19:00:11.364702 14293 net.cpp:434] pool2 <- conv2
I0820 19:00:11.364722 14293 net.cpp:408] pool2 -> pool2
I0820 19:00:11.364794 14293 net.cpp:150] Setting up pool2
I0820 19:00:11.364819 14293 net.cpp:157] Top shape: 100 48 17 17 (1387200)
I0820 19:00:11.364835 14293 net.cpp:165] Memory required for data: 161588800
I0820 19:00:11.364851 14293 layer_factory.hpp:77] Creating layer conv3
I0820 19:00:11.364876 14293 net.cpp:100] Creating Layer conv3
I0820 19:00:11.364892 14293 net.cpp:434] conv3 <- pool2
I0820 19:00:11.364913 14293 net.cpp:408] conv3 -> conv3
I0820 19:00:11.366745 14293 net.cpp:150] Setting up conv3
I0820 19:00:11.366782 14293 net.cpp:157] Top shape: 100 64 15 15 (1440000)
I0820 19:00:11.366801 14293 net.cpp:165] Memory required for data: 167348800
I0820 19:00:11.366824 14293 layer_factory.hpp:77] Creating layer relu3
I0820 19:00:11.366844 14293 net.cpp:100] Creating Layer relu3
I0820 19:00:11.366861 14293 net.cpp:434] relu3 <- conv3
I0820 19:00:11.366884 14293 net.cpp:395] relu3 -> conv3 (in-place)
I0820 19:00:11.367079 14293 net.cpp:150] Setting up relu3
I0820 19:00:11.367106 14293 net.cpp:157] Top shape: 100 64 15 15 (1440000)
I0820 19:00:11.367121 14293 net.cpp:165] Memory required for data: 173108800
I0820 19:00:11.367146 14293 layer_factory.hpp:77] Creating layer conv4
I0820 19:00:11.367182 14293 net.cpp:100] Creating Layer conv4
I0820 19:00:11.367199 14293 net.cpp:434] conv4 <- conv3
I0820 19:00:11.367223 14293 net.cpp:408] conv4 -> conv4
I0820 19:00:11.369817 14293 net.cpp:150] Setting up conv4
I0820 19:00:11.369853 14293 net.cpp:157] Top shape: 100 128 13 13 (2163200)
I0820 19:00:11.369871 14293 net.cpp:165] Memory required for data: 181761600
I0820 19:00:11.369894 14293 layer_factory.hpp:77] Creating layer relu4
I0820 19:00:11.369918 14293 net.cpp:100] Creating Layer relu4
I0820 19:00:11.369936 14293 net.cpp:434] relu4 <- conv4
I0820 19:00:11.369956 14293 net.cpp:395] relu4 -> conv4 (in-place)
I0820 19:00:11.370121 14293 net.cpp:150] Setting up relu4
I0820 19:00:11.370147 14293 net.cpp:157] Top shape: 100 128 13 13 (2163200)
I0820 19:00:11.370163 14293 net.cpp:165] Memory required for data: 190414400
I0820 19:00:11.370182 14293 layer_factory.hpp:77] Creating layer ip1
I0820 19:00:11.384133 14293 net.cpp:100] Creating Layer ip1
I0820 19:00:11.384203 14293 net.cpp:434] ip1 <- conv4
I0820 19:00:11.384239 14293 net.cpp:408] ip1 -> ip1
I0820 19:00:11.491756 14293 net.cpp:150] Setting up ip1
I0820 19:00:11.491806 14293 net.cpp:157] Top shape: 100 512 (51200)
I0820 19:00:11.491817 14293 net.cpp:165] Memory required for data: 190619200
I0820 19:00:11.491837 14293 layer_factory.hpp:77] Creating layer relu5
I0820 19:00:11.491853 14293 net.cpp:100] Creating Layer relu5
I0820 19:00:11.491865 14293 net.cpp:434] relu5 <- ip1
I0820 19:00:11.491881 14293 net.cpp:395] relu5 -> ip1 (in-place)
I0820 19:00:11.491976 14293 net.cpp:150] Setting up relu5
I0820 19:00:11.491994 14293 net.cpp:157] Top shape: 100 512 (51200)
I0820 19:00:11.492004 14293 net.cpp:165] Memory required for data: 190824000
I0820 19:00:11.492049 14293 layer_factory.hpp:77] Creating layer drop1
I0820 19:00:11.499523 14293 net.cpp:100] Creating Layer drop1
I0820 19:00:11.499550 14293 net.cpp:434] drop1 <- ip1
I0820 19:00:11.499565 14293 net.cpp:395] drop1 -> ip1 (in-place)
I0820 19:00:11.499611 14293 net.cpp:150] Setting up drop1
I0820 19:00:11.499627 14293 net.cpp:157] Top shape: 100 512 (51200)
I0820 19:00:11.499636 14293 net.cpp:165] Memory required for data: 191028800
I0820 19:00:11.499645 14293 layer_factory.hpp:77] Creating layer ip1_drop1_0_split
I0820 19:00:11.506700 14293 net.cpp:100] Creating Layer ip1_drop1_0_split
I0820 19:00:11.506726 14293 net.cpp:434] ip1_drop1_0_split <- ip1
I0820 19:00:11.506741 14293 net.cpp:408] ip1_drop1_0_split -> ip1_drop1_0_split_0
I0820 19:00:11.506757 14293 net.cpp:408] ip1_drop1_0_split -> ip1_drop1_0_split_1
I0820 19:00:11.506821 14293 net.cpp:150] Setting up ip1_drop1_0_split
I0820 19:00:11.506837 14293 net.cpp:157] Top shape: 100 512 (51200)
I0820 19:00:11.506849 14293 net.cpp:157] Top shape: 100 512 (51200)
I0820 19:00:11.506857 14293 net.cpp:165] Memory required for data: 191438400
I0820 19:00:11.506932 14293 layer_factory.hpp:77] Creating layer ip2
I0820 19:00:11.506949 14293 net.cpp:100] Creating Layer ip2
I0820 19:00:11.506959 14293 net.cpp:434] ip2 <- ip1_drop1_0_split_0
I0820 19:00:11.506974 14293 net.cpp:408] ip2 -> ip2
I0820 19:00:11.507123 14293 net.cpp:150] Setting up ip2
I0820 19:00:11.507141 14293 net.cpp:157] Top shape: 100 2 (200)
I0820 19:00:11.507150 14293 net.cpp:165] Memory required for data: 191439200
I0820 19:00:11.507171 14293 layer_factory.hpp:77] Creating layer loss1
I0820 19:00:11.507185 14293 net.cpp:100] Creating Layer loss1
I0820 19:00:11.507195 14293 net.cpp:434] loss1 <- ip2
I0820 19:00:11.507205 14293 net.cpp:434] loss1 <- glasses
I0820 19:00:11.507218 14293 net.cpp:408] loss1 -> loss1
I0820 19:00:11.507236 14293 layer_factory.hpp:77] Creating layer loss1
I0820 19:00:11.507732 14293 net.cpp:150] Setting up loss1
I0820 19:00:11.507753 14293 net.cpp:157] Top shape: (1)
I0820 19:00:11.507762 14293 net.cpp:160]     with loss weight 0.5
I0820 19:00:11.507787 14293 net.cpp:165] Memory required for data: 191439204
I0820 19:00:11.507797 14293 layer_factory.hpp:77] Creating layer ip3
I0820 19:00:11.507810 14293 net.cpp:100] Creating Layer ip3
I0820 19:00:11.507819 14293 net.cpp:434] ip3 <- ip1_drop1_0_split_1
I0820 19:00:11.507833 14293 net.cpp:408] ip3 -> ip3
I0820 19:00:11.507942 14293 net.cpp:150] Setting up ip3
I0820 19:00:11.507957 14293 net.cpp:157] Top shape: 100 2 (200)
I0820 19:00:11.507967 14293 net.cpp:165] Memory required for data: 191440004
I0820 19:00:11.507980 14293 layer_factory.hpp:77] Creating layer loss2
I0820 19:00:11.507994 14293 net.cpp:100] Creating Layer loss2
I0820 19:00:11.508004 14293 net.cpp:434] loss2 <- ip3
I0820 19:00:11.508014 14293 net.cpp:434] loss2 <- gender
I0820 19:00:11.508025 14293 net.cpp:408] loss2 -> loss2
I0820 19:00:11.508041 14293 layer_factory.hpp:77] Creating layer loss2
…
  phase: TEST
}
layer {
  name: "data"
  type: "Data"
  top: "data"
  include {
    phase: TEST
  }
  transform_param {
    scale: 0.00390625
  }
  data_param {
    source: "/home/jaychou/code/new_caffe/caffe-master/examples/gender_glasses/gender_glasses_val_lmdb"
    batch_size: 64
    backend: LMDB
  }
}
layer {
  name: "labels"
  type: "Data"
  top: "labels"
  include {
    phase: TEST
  }
  data_param {
    source: "/home/jaychou/code/new_caffe/caffe-master/examples/gender_glasses/gender_glasses_val_label_lmdb"
    batch_size: 64
    backend: LMDB
  }
}
layer {
  name: "slice1"
  type: "Slice"
  bottom: "labels"
  top: "glasses"
  top: "gender"
  slice_param {
    slice_dim: 1
    slice_point: 1
  }
}
layer {
  name: "conv1"
  type: "Convolution"
  bottom: "data"
  top: "conv1"
  param {
    lr_mult: 1
  }
  param {
    lr_mult: 0.1
  }
  convolution_param {
    num_output: 20
    pad: 0
    kernel_size: 5
    stride: 1
    weight_filler {
      type: "xavier"
    }
    bias_filler {
      type: "constant"
      value: 0
    }
  }
}
layer {
  name: "relu1"
  type: "PReLU"
  bottom: "conv1"
  top: "conv1"
}
layer {
  name: "pool1"
  type: "Pooling"
  bottom: "conv1"
  top: "pool1"
  pooling_param {
    pool: MAX
    kernel_size: 2
    stride: 2
  }
}
layer {
  name: "conv2"
  type: "Convolution"
  bottom: "pool1"
  top: "conv2"
  param {
    lr_mult: 1
  }
  param {
    lr_mult: 0.1
  }
  convolution_param {
    num_output: 48
    pad: 0
    kernel_size: 5
    stride: 1
    weight_filler {
      type: "xavier"
    }
    bias_filler {
      type: "constant"
      value: 0
    }
  }
}
layer {
  name: "relu2"
  type: "PReLU"
  bottom: "conv2"
  top: "conv2"
}
layer {
  name: "pool2"
  type: "Pooling"
  bottom: "conv2"
  top: "pool2"
  pooling_param {
    pool: MAX
    kernel_size: 2
    stride: 2
  }
}
layer {
  name: "conv3"
  type: "Convolution"
  bottom: "pool2"
  top: "conv3"
  param {
    lr_mult: 0.1
  }
  param {
    lr_mult: 0.1
  }
  convolution_param {
    num_output: 64
    pad: 0
    kernel_size: 3
    stride: 1
    weight_filler {
      type: "xavier"
    }
    bias_filler {
      type: "constant"
      value: 0
    }
  }
}
layer {
  name: "relu3"
  type: "PReLU"
  bottom: "conv3"
  top: "conv3"
}
layer {
  name: "conv4"
  type: "Convolution"
  bottom: "conv3"
  top: "conv4"
  param {
    lr_mult: 0.1
  }
  param {
    lr_mult: 0.1
  }
  convolution_param {
    num_output: 128
    pad: 0
    kernel_size: 3
    stride: 1
    weight_filler {
      type: "xavier"
    }
    bias_filler {
      type: "constant"
      value: 0
    }
  }
}
layer {
  name: "relu4"
  type: "PReLU"
  bottom: "conv4"
  top: "conv4"
}
layer {
  name: "ip1"
  type: "InnerProduct"
  bottom: "conv4"
  top: "ip1"
  inner_product_param {
    num_output: 512
    weight_filler {
      type: "xavier"
    }
    bias_filler {
      type: "constant"
    }
  }
}
layer {
  name: "relu5"
  type: "PReLU"
  bottom: "ip1"
  top: "ip1"
}
layer {
  name: "drop1"
  type: "Dropout"
  bottom: "ip1"
  top: "ip1"
  dropout_param {
    dropout_ratio: 0.5
  }
}
layer {
  name: "ip2"
  type: "InnerProduct"
  bottom: "ip1"
  top: "ip2"
  inner_product_param {
    num_output: 2
    weight_filler {
      type: "xavier"
    }
    bias_filler {
      type: "constant"
    }
  }
}
layer {
  name: "loss1"
  type: "SoftmaxWithLoss"
  bottom: "ip2"
  bottom: "glasses"
  top: "loss1"
  loss_weight: 0.5
}
layer {
  name: "accuracy_glasses"
  type: "Accuracy"
  bottom: "ip2"
  bottom: "glasses"
  top: "accuracy_glasses"
  include {
    phase: TEST
  }
}
layer {
  name: "ip3"
  type: "InnerProduct"
  bottom: "ip1"
  top: "ip3"
  inner_product_param {
    num_output: 2
    weight_filler {
      type: "xavier"
    }
    bias_filler {
      type: "constant"
    }
  }
}
layer {
  name: "loss2"
  type: "SoftmaxWithLoss"
  bottom: "ip3"
  bottom: "gender"
  top: "loss2"
  loss_weight: 0.5
}
layer {
  name: "accuracy_gender"
  type: "Accuracy"
  bottom: "ip3"
  bottom: "gender"
  top: "accuracy_gender"
  include {
    phase: TEST
  }
}
I0820 19:00:11.510248 14293 layer_factory.hpp:77] Creating layer data
I0820 19:00:11.510361 14293 net.cpp:100] Creating Layer data
I0820 19:00:11.510376 14293 net.cpp:408] data -> data
I0820 19:00:11.511855 14311 db_lmdb.cpp:35] Opened lmdb /home/jaychou/code/new_caffe/caffe-master/examples/gender_glasses/gender_glasses_val_lmdb
I0820 19:00:11.512053 14293 data_layer.cpp:41] output data size: 64,3,80,80
I0820 19:00:11.520653 14293 net.cpp:150] Setting up data
I0820 19:00:11.520694 14293 net.cpp:157] Top shape: 64 3 80 80 (1228800)
I0820 19:00:11.520705 14293 net.cpp:165] Memory required for data: 4915200
I0820 19:00:11.520717 14293 layer_factory.hpp:77] Creating layer labels
I0820 19:00:11.520808 14293 net.cpp:100] Creating Layer labels
I0820 19:00:11.520835 14293 net.cpp:408] labels -> labels
I0820 19:00:11.522588 14313 db_lmdb.cpp:35] Opened lmdb /home/jaychou/code/new_caffe/caffe-master/examples/gender_glasses/gender_glasses_val_label_lmdb
I0820 19:00:11.523087 14293 data_layer.cpp:41] output data size: 64,2,1,1
I0820 19:00:11.535961 14293 net.cpp:150] Setting up labels
I0820 19:00:11.536020 14293 net.cpp:157] Top shape: 64 2 1 1 (128)
I0820 19:00:11.536031 14293 net.cpp:165] Memory required for data: 4915712
I0820 19:00:11.536043 14293 layer_factory.hpp:77] Creating layer slice1
I0820 19:00:11.536074 14293 net.cpp:100] Creating Layer slice1
I0820 19:00:11.536087 14293 net.cpp:434] slice1 <- labels
I0820 19:00:11.536103 14293 net.cpp:408] slice1 -> glasses
I0820 19:00:11.536120 14293 net.cpp:408] slice1 -> gender
I0820 19:00:11.536300 14293 net.cpp:150] Setting up slice1
I0820 19:00:11.536329 14293 net.cpp:157] Top shape: 64 1 1 1 (64)
I0820 19:00:11.536344 14293 net.cpp:157] Top shape: 64 1 1 1 (64)
I0820 19:00:11.536352 14293 net.cpp:165] Memory required for data: 4916224
I0820 19:00:11.536362 14293 layer_factory.hpp:77] Creating layer glasses_slice1_0_split
I0820 19:00:11.536375 14293 net.cpp:100] Creating Layer glasses_slice1_0_split
I0820 19:00:11.536383 14293 net.cpp:434] glasses_slice1_0_split <- glasses
I0820 19:00:11.536394 14293 net.cpp:408] glasses_slice1_0_split -> glasses_slice1_0_split_0
I0820 19:00:11.536408 14293 net.cpp:408] glasses_slice1_0_split -> glasses_slice1_0_split_1
I0820 19:00:11.536458 14293 net.cpp:150] Setting up glasses_slice1_0_split
I0820 19:00:11.536473 14293 net.cpp:157] Top shape: 64 1 1 1 (64)
I0820 19:00:11.536484 14293 net.cpp:157] Top shape: 64 1 1 1 (64)
I0820 19:00:11.536492 14293 net.cpp:165] Memory required for data: 4916736
I0820 19:00:11.536506 14293 layer_factory.hpp:77] Creating layer gender_slice1_1_split
I0820 19:00:11.536519 14293 net.cpp:100] Creating Layer gender_slice1_1_split
I0820 19:00:11.536553 14293 net.cpp:434] gender_slice1_1_split <- gender
I0820 19:00:11.536567 14293 net.cpp:408] gender_slice1_1_split -> gender_slice1_1_split_0
I0820 19:00:11.536581 14293 net.cpp:408] gender_slice1_1_split -> gender_slice1_1_split_1
I0820 19:00:11.536623 14293 net.cpp:150] Setting up gender_slice1_1_split
I0820 19:00:11.536635 14293 net.cpp:157] Top shape: 64 1 1 1 (64)
I0820 19:00:11.536645 14293 net.cpp:157] Top shape: 64 1 1 1 (64)
I0820 19:00:11.536653 14293 net.cpp:165] Memory required for data: 4917248
I0820 19:00:11.536664 14293 layer_factory.hpp:77] Creating layer conv1
I0820 19:00:11.536680 14293 net.cpp:100] Creating Layer conv1
I0820 19:00:11.536689 14293 net.cpp:434] conv1 <- data
I0820 19:00:11.536703 14293 net.cpp:408] conv1 -> conv1
I0820 19:00:11.538031 14293 net.cpp:150] Setting up conv1
I0820 19:00:11.538058 14293 net.cpp:157] Top shape: 64 20 76 76 (7393280)
I0820 19:00:11.538069 14293 net.cpp:165] Memory required for data: 34490368
I0820 19:00:11.538099 14293 layer_factory.hpp:77] Creating layer relu1
I0820 19:00:11.538113 14293 net.cpp:100] Creating Layer relu1
I0820 19:00:11.538125 14293 net.cpp:434] relu1 <- conv1
I0820 19:00:11.538136 14293 net.cpp:395] relu1 -> conv1 (in-place)
I0820 19:00:11.538678 14293 net.cpp:150] Setting up relu1
I0820 19:00:11.538697 14293 net.cpp:157] Top shape: 64 20 76 76 (7393280)
I0820 19:00:11.538707 14293 net.cpp:165] Memory required for data: 64063488
I0820 19:00:11.538720 14293 layer_factory.hpp:77] Creating layer pool1
I0820 19:00:11.538736 14293 net.cpp:100] Creating Layer pool1
I0820 19:00:11.538748 14293 net.cpp:434] pool1 <- conv1
I0820 19:00:11.538758 14293 net.cpp:408] pool1 -> pool1
I0820 19:00:11.538806 14293 net.cpp:150] Setting up pool1
I0820 19:00:11.538820 14293 net.cpp:157] Top shape: 64 20 38 38 (1848320)
I0820 19:00:11.538828 14293 net.cpp:165] Memory required for data: 71456768
I0820 19:00:11.538837 14293 layer_factory.hpp:77] Creating layer conv2
I0820 19:00:11.538856 14293 net.cpp:100] Creating Layer conv2
I0820 19:00:11.538866 14293 net.cpp:434] conv2 <- pool1
I0820 19:00:11.538879 14293 net.cpp:408] conv2 -> conv2
I0820 19:00:11.540127 14293 net.cpp:150] Setting up conv2
I0820 19:00:11.540148 14293 net.cpp:157] Top shape: 64 48 34 34 (3551232)
I0820 19:00:11.540158 14293 net.cpp:165] Memory required for data: 85661696
I0820 19:00:11.540172 14293 layer_factory.hpp:77] Creating layer relu2
I0820 19:00:11.540185 14293 net.cpp:100] Creating Layer relu2
I0820 19:00:11.540195 14293 net.cpp:434] relu2 <- conv2
I0820 19:00:11.540208 14293 net.cpp:395] relu2 -> conv2 (in-place)
I0820 19:00:11.540385 14293 net.cpp:150] Setting up relu2
I0820 19:00:11.540400 14293 net.cpp:157] Top shape: 64 48 34 34 (3551232)
I0820 19:00:11.540407 14293 net.cpp:165] Memory required for data: 99866624
I0820 19:00:11.540418 14293 layer_factory.hpp:77] Creating layer pool2
I0820 19:00:11.540431 14293 net.cpp:100] Creating Layer pool2
I0820 19:00:11.540439 14293 net.cpp:434] pool2 <- conv2
I0820 19:00:11.540452 14293 net.cpp:408] pool2 -> pool2
I0820 19:00:11.540498 14293 net.cpp:150] Setting up pool2
I0820 19:00:11.540511 14293 net.cpp:157] Top shape: 64 48 17 17 (887808)
I0820 19:00:11.540520 14293 net.cpp:165] Memory required for data: 103417856
I0820 19:00:11.540529 14293 layer_factory.hpp:77] Creating layer conv3
I0820 19:00:11.540545 14293 net.cpp:100] Creating Layer conv3
I0820 19:00:11.540555 14293 net.cpp:434] conv3 <- pool2
I0820 19:00:11.540566 14293 net.cpp:408] conv3 -> conv3
I0820 19:00:11.541651 14293 net.cpp:150] Setting up conv3
I0820 19:00:11.541669 14293 net.cpp:157] Top shape: 64 64 15 15 (921600)
I0820 19:00:11.541679 14293 net.cpp:165] Memory required for data: 107104256
I0820 19:00:11.541692 14293 layer_factory.hpp:77] Creating layer relu3
I0820 19:00:11.541703 14293 net.cpp:100] Creating Layer relu3
I0820 19:00:11.541712 14293 net.cpp:434] relu3 <- conv3
I0820 19:00:11.541726 14293 net.cpp:395] relu3 -> conv3 (in-place)
I0820 19:00:11.541884 14293 net.cpp:150] Setting up relu3
I0820 19:00:11.541973 14293 net.cpp:157] Top shape: 64 64 15 15 (921600)
I0820 19:00:11.541985 14293 net.cpp:165] Memory required for data: 110790656
I0820 19:00:11.542018 14293 layer_factory.hpp:77] Creating layer conv4
I0820 19:00:11.542039 14293 net.cpp:100] Creating Layer conv4
I0820 19:00:11.542049 14293 net.cpp:434] conv4 <- conv3
I0820 19:00:11.542062 14293 net.cpp:408] conv4 -> conv4
I0820 19:00:11.543675 14293 net.cpp:150] Setting up conv4
I0820 19:00:11.543696 14293 net.cpp:157] Top shape: 64 128 13 13 (1384448)
I0820 19:00:11.543705 14293 net.cpp:165] Memory required for data: 116328448
I0820 19:00:11.543717 14293 layer_factory.hpp:77] Creating layer relu4
I0820 19:00:11.543730 14293 net.cpp:100] Creating Layer relu4
I0820 19:00:11.543740 14293 net.cpp:434] relu4 <- conv4
I0820 19:00:11.543751 14293 net.cpp:395] relu4 -> conv4 (in-place)
I0820 19:00:11.543855 14293 net.cpp:150] Setting up relu4
I0820 19:00:11.543870 14293 net.cpp:157] Top shape: 64 128 13 13 (1384448)
I0820 19:00:11.543879 14293 net.cpp:165] Memory required for data: 121866240
I0820 19:00:11.543889 14293 layer_factory.hpp:77] Creating layer ip1
I0820 19:00:11.543902 14293 net.cpp:100] Creating Layer ip1
I0820 19:00:11.543910 14293 net.cpp:434] ip1 <- conv4
I0820 19:00:11.543926 14293 net.cpp:408] ip1 -> ip1
I0820 19:00:11.627188 14293 net.cpp:150] Setting up ip1
I0820 19:00:11.627249 14293 net.cpp:157] Top shape: 64 512 (32768)
I0820 19:00:11.627259 14293 net.cpp:165] Memory required for data: 121997312
I0820 19:00:11.627276 14293 layer_factory.hpp:77] Creating layer relu5
I0820 19:00:11.627295 14293 net.cpp:100] Creating Layer relu5
I0820 19:00:11.627310 14293 net.cpp:434] relu5 <- ip1
I0820 19:00:11.627326 14293 net.cpp:395] relu5 -> ip1 (in-place)
I0820 19:00:11.627424 14293 net.cpp:150] Setting up relu5
I0820 19:00:11.627439 14293 net.cpp:157] Top shape: 64 512 (32768)
I0820 19:00:11.627446 14293 net.cpp:165] Memory required for data: 122128384
I0820 19:00:11.627456 14293 layer_factory.hpp:77] Creating layer drop1
I0820 19:00:11.627470 14293 net.cpp:100] Creating Layer drop1
I0820 19:00:11.627480 14293 net.cpp:434] drop1 <- ip1
I0820 19:00:11.627490 14293 net.cpp:395] drop1 -> ip1 (in-place)
I0820 19:00:11.627518 14293 net.cpp:150] Setting up drop1
I0820 19:00:11.627532 14293 net.cpp:157] Top shape: 64 512 (32768)
I0820 19:00:11.627539 14293 net.cpp:165] Memory required for data: 122259456
I0820 19:00:11.627548 14293 layer_factory.hpp:77] Creating layer ip1_drop1_0_split
I0820 19:00:11.627559 14293 net.cpp:100] Creating Layer ip1_drop1_0_split
I0820 19:00:11.627568 14293 net.cpp:434] ip1_drop1_0_split <- ip1
I0820 19:00:11.627583 14293 net.cpp:408] ip1_drop1_0_split -> ip1_drop1_0_split_0
I0820 19:00:11.627598 14293 net.cpp:408] ip1_drop1_0_split -> ip1_drop1_0_split_1
I0820 19:00:11.627640 14293 net.cpp:150] Setting up ip1_drop1_0_split
I0820 19:00:11.627652 14293 net.cpp:157] Top shape: 64 512 (32768)
I0820 19:00:11.627662 14293 net.cpp:157] Top shape: 64 512 (32768)
I0820 19:00:11.627671 14293 net.cpp:165] Memory required for data: 122521600
I0820 19:00:11.627679 14293 layer_factory.hpp:77] Creating layer ip2
I0820 19:00:11.627692 14293 net.cpp:100] Creating Layer ip2
I0820 19:00:11.627701 14293 net.cpp:434] ip2 <- ip1_drop1_0_split_0
I0820 19:00:11.627712 14293 net.cpp:408] ip2 -> ip2
I0820 19:00:11.627811 14293 net.cpp:150] Setting up ip2
I0820 19:00:11.627825 14293 net.cpp:157] Top shape: 64 2 (128)
I0820 19:00:11.627833 14293 net.cpp:165] Memory required for data: 122522112
I0820 19:00:11.627848 14293 layer_factory.hpp:77] Creating layer ip2_ip2_0_split
I0820 19:00:11.627861 14293 net.cpp:100] Creating Layer ip2_ip2_0_split
I0820 19:00:11.627871 14293 net.cpp:434] ip2_ip2_0_split <- ip2
I0820 19:00:11.627882 14293 net.cpp:408] ip2_ip2_0_split -> ip2_ip2_0_split_0
I0820 19:00:11.627893 14293 net.cpp:408] ip2_ip2_0_split -> ip2_ip2_0_split_1
I0820 19:00:11.627935 14293 net.cpp:150] Setting up ip2_ip2_0_split
I0820 19:00:11.627951 14293 net.cpp:157] Top shape: 64 2 (128)
I0820 19:00:11.627961 14293 net.cpp:157] Top shape: 64 2 (128)
I0820 19:00:11.627995 14293 net.cpp:165] Memory required for data: 122523136
I0820 19:00:11.628005 14293 layer_factory.hpp:77] Creating layer loss1
I0820 19:00:11.628015 14293 net.cpp:100] Creating Layer loss1
I0820 19:00:11.628024 14293 net.cpp:434] loss1 <- ip2_ip2_0_split_0
I0820 19:00:11.628034 14293 net.cpp:434] loss1 <- glasses_slice1_0_split_0
I0820 19:00:11.628044 14293 net.cpp:408] loss1 -> loss1
…
