…
I0814 15:27:38.005015 31119 net.cpp:58] Initializing net from parameters: 
name: "multi_task"
state {
  phase: TRAIN
  level: 0
  stage: ""
}
layer {
  name: "data"
  type: "Data"
  top: "data"
  include {
    phase: TRAIN
  }
  transform_param {
    scale: 0.00390625
  }
  data_param {
    source: "examples/gender_glasses/gender_glasses_train_lmdb"
    batch_size: 100
    backend: LMDB
  }
}
layer {
  name: "labels"
  type: "Data"
  top: "labels"
  include {
    phase: TRAIN
  }
  data_param {
    source: "examples/gender_glasses/gender_glasses_train_label_lmdb"
    batch_size: 100
    backend: LMDB
  }
}
layer {
  name: "slice1"
  type: "Slice"
  bottom: "labels"
  top: "glasses"
  top: "gender"
  slice_param {
    slice_dim: 1
    slice_point: 1
  }
}
layer {
  name: "conv1"
  type: "Convolution"
  bottom: "data"
  top: "conv1"
  param {
    lr_mult: 1
  }
  param {
    lr_mult: 0.1
  }
  convolution_param {
    num_output: 20
    pad: 0
    kernel_size: 5
    stride: 1
    weight_filler {
      type: "xavier"
    }
    bias_filler {
      type: "constant"
      value: 0
    }
  }
}
layer {
  name: "relu1"
  type: "ReLU"
  bottom: "conv1"
  top: "conv1"
}
layer {
  name: "pool1"
  type: "Pooling"
  bottom: "conv1"
  top: "pool1"
  pooling_param {
    pool: MAX
    kernel_size: 2
    stride: 2
  }
}
layer {
  name: "conv2"
  type: "Convolution"
  bottom: "pool1"
  top: "conv2"
  param {
    lr_mult: 1
  }
  param {
    lr_mult: 0.1
  }
  convolution_param {
    num_output: 48
    pad: 0
    kernel_size: 5
    stride: 1
    weight_filler {
      type: "xavier"
    }
    bias_filler {
      type: "constant"
      value: 0
    }
  }
}
layer {
  name: "relu2"
  type: "ReLU"
  bottom: "conv2"
  top: "conv2"
}
layer {
  name: "pool2"
  type: "Pooling"
  bottom: "conv2"
  top: "pool2"
  pooling_param {
    pool: MAX
    kernel_size: 2
    stride: 2
  }
}
layer {
  name: "conv3"
  type: "Convolution"
  bottom: "pool2"
  top: "conv3"
  param {
    lr_mult: 0.1
  }
  param {
    lr_mult: 0.1
  }
  convolution_param {
    num_output: 64
    pad: 0
    kernel_size: 3
    stride: 1
    weight_filler {
      type: "xavier"
    }
    bias_filler {
      type: "constant"
      value: 0
    }
  }
}
layer {
  name: "relu3"
  type: "ReLU"
  bottom: "conv3"
  top: "conv3"
}
layer {
  name: "conv4"
  type: "Convolution"
  bottom: "conv3"
  top: "conv4"
  param {
    lr_mult: 0.1
  }
  param {
    lr_mult: 0.1
  }
  convolution_param {
    num_output: 80
    pad: 0
    kernel_size: 3
    stride: 1
    weight_filler {
      type: "xavier"
    }
    bias_filler {
      type: "constant"
      value: 0
    }
  }
}
layer {
  name: "relu4"
  type: "ReLU"
  bottom: "conv4"
  top: "conv4"
}
layer {
  name: "ip1"
  type: "InnerProduct"
  bottom: "conv4"
  top: "ip1"
  inner_product_param {
    num_output: 512
    weight_filler {
      type: "xavier"
    }
    bias_filler {
      type: "constant"
    }
  }
}
layer {
  name: "relu5"
  type: "ReLU"
  bottom: "ip1"
  top: "ip1"
}
layer {
  name: "drop1"
  type: "Dropout"
  bottom: "ip1"
  top: "ip1"
  dropout_param {
    dropout_ratio: 0.5
  }
}
layer {
  name: "ip2"
  type: "InnerProduct"
  bottom: "ip1"
  top: "ip2"
  inner_product_param {
    num_output: 2
    weight_filler {
      type: "xavier"
    }
    bias_filler {
      type: "constant"
    }
  }
}
layer {
  name: "loss1"
  type: "SoftmaxWithLoss"
  bottom: "ip2"
  bottom: "glasses"
  top: "loss1"
  loss_weight: 0.5
}
layer {
  name: "ip3"
  type: "InnerProduct"
  bottom: "ip1"
  top: "ip3"
  inner_product_param {
    num_output: 512
    weight_filler {
      type: "xavier"
    }
    bias_filler {
      type: "constant"
    }
  }
}
layer {
  name: "loss2"
  type: "SoftmaxWithLoss"
  bottom: "ip3"
  bottom: "gender"
  top: "loss2"
  loss_weight: 0.5
}
I0814 15:27:38.005717 31119 layer_factory.hpp:77] Creating layer data
I0814 15:27:38.006108 31119 net.cpp:100] Creating Layer data
I0814 15:27:38.006125 31119 net.cpp:408] data -> data
I0814 15:27:38.007113 31123 db_lmdb.cpp:35] Opened lmdb examples/gender_glasses/gender_glasses_train_lmdb
I0814 15:27:38.018846 31119 data_layer.cpp:41] output data size: 100,3,100,100
I0814 15:27:38.036825 31119 net.cpp:150] Setting up data
I0814 15:27:38.036870 31119 net.cpp:157] Top shape: 100 3 100 100 (3000000)
I0814 15:27:38.036881 31119 net.cpp:165] Memory required for data: 12000000
I0814 15:27:38.036897 31119 layer_factory.hpp:77] Creating layer labels
I0814 15:27:38.037003 31119 net.cpp:100] Creating Layer labels
I0814 15:27:38.037019 31119 net.cpp:408] labels -> labels
I0814 15:27:38.038635 31125 db_lmdb.cpp:35] Opened lmdb examples/gender_glasses/gender_glasses_train_label_lmdb
I0814 15:27:38.039511 31119 data_layer.cpp:41] output data size: 100,2,1,1
I0814 15:27:38.039857 31119 net.cpp:150] Setting up labels
I0814 15:27:38.039876 31119 net.cpp:157] Top shape: 100 2 1 1 (200)
I0814 15:27:38.039885 31119 net.cpp:165] Memory required for data: 12000800
I0814 15:27:38.039901 31119 layer_factory.hpp:77] Creating layer slice1
I0814 15:27:38.039916 31119 net.cpp:100] Creating Layer slice1
I0814 15:27:38.039927 31119 net.cpp:434] slice1 <- labels
I0814 15:27:38.039944 31119 net.cpp:408] slice1 -> glasses
I0814 15:27:38.039963 31119 net.cpp:408] slice1 -> gender
I0814 15:27:38.040007 31119 net.cpp:150] Setting up slice1
I0814 15:27:38.040024 31119 net.cpp:157] Top shape: 100 1 1 1 (100)
I0814 15:27:38.040035 31119 net.cpp:157] Top shape: 100 1 1 1 (100)
I0814 15:27:38.040042 31119 net.cpp:165] Memory required for data: 12001600
I0814 15:27:38.040050 31119 layer_factory.hpp:77] Creating layer conv1
I0814 15:27:38.040072 31119 net.cpp:100] Creating Layer conv1
I0814 15:27:38.040083 31119 net.cpp:434] conv1 <- data
I0814 15:27:38.040096 31119 net.cpp:408] conv1 -> conv1
I0814 15:27:38.190446 31119 net.cpp:150] Setting up conv1
I0814 15:27:38.190493 31119 net.cpp:157] Top shape: 100 20 96 96 (18432000)
I0814 15:27:38.190505 31119 net.cpp:165] Memory required for data: 85729600
I0814 15:27:38.190531 31119 layer_factory.hpp:77] Creating layer relu1
I0814 15:27:38.190549 31119 net.cpp:100] Creating Layer relu1
I0814 15:27:38.190567 31119 net.cpp:434] relu1 <- conv1
I0814 15:27:38.190582 31119 net.cpp:395] relu1 -> conv1 (in-place)
I0814 15:27:38.190716 31119 net.cpp:150] Setting up relu1
I0814 15:27:38.190732 31119 net.cpp:157] Top shape: 100 20 96 96 (18432000)
I0814 15:27:38.190742 31119 net.cpp:165] Memory required for data: 159457600
I0814 15:27:38.190752 31119 layer_factory.hpp:77] Creating layer pool1
I0814 15:27:38.190767 31119 net.cpp:100] Creating Layer pool1
I0814 15:27:38.190775 31119 net.cpp:434] pool1 <- conv1
I0814 15:27:38.190786 31119 net.cpp:408] pool1 -> pool1
I0814 15:27:38.190840 31119 net.cpp:150] Setting up pool1
I0814 15:27:38.190853 31119 net.cpp:157] Top shape: 100 20 48 48 (4608000)
I0814 15:27:38.190862 31119 net.cpp:165] Memory required for data: 177889600
I0814 15:27:38.190871 31119 layer_factory.hpp:77] Creating layer conv2
I0814 15:27:38.190889 31119 net.cpp:100] Creating Layer conv2
I0814 15:27:38.190922 31119 net.cpp:434] conv2 <- pool1
I0814 15:27:38.190934 31119 net.cpp:408] conv2 -> conv2
I0814 15:27:38.192323 31119 net.cpp:150] Setting up conv2
I0814 15:27:38.192344 31119 net.cpp:157] Top shape: 100 48 44 44 (9292800)
I0814 15:27:38.192354 31119 net.cpp:165] Memory required for data: 215060800
I0814 15:27:38.192369 31119 layer_factory.hpp:77] Creating layer relu2
I0814 15:27:38.192381 31119 net.cpp:100] Creating Layer relu2
I0814 15:27:38.192391 31119 net.cpp:434] relu2 <- conv2
I0814 15:27:38.192401 31119 net.cpp:395] relu2 -> conv2 (in-place)
I0814 15:27:38.192672 31119 net.cpp:150] Setting up relu2
I0814 15:27:38.192690 31119 net.cpp:157] Top shape: 100 48 44 44 (9292800)
I0814 15:27:38.192699 31119 net.cpp:165] Memory required for data: 252232000
I0814 15:27:38.192708 31119 layer_factory.hpp:77] Creating layer pool2
I0814 15:27:38.192721 31119 net.cpp:100] Creating Layer pool2
I0814 15:27:38.192730 31119 net.cpp:434] pool2 <- conv2
I0814 15:27:38.192741 31119 net.cpp:408] pool2 -> pool2
I0814 15:27:38.192782 31119 net.cpp:150] Setting up pool2
I0814 15:27:38.192795 31119 net.cpp:157] Top shape: 100 48 22 22 (2323200)
I0814 15:27:38.192805 31119 net.cpp:165] Memory required for data: 261524800
I0814 15:27:38.192813 31119 layer_factory.hpp:77] Creating layer conv3
I0814 15:27:38.192831 31119 net.cpp:100] Creating Layer conv3
I0814 15:27:38.192842 31119 net.cpp:434] conv3 <- pool2
I0814 15:27:38.192852 31119 net.cpp:408] conv3 -> conv3
I0814 15:27:38.194047 31119 net.cpp:150] Setting up conv3
I0814 15:27:38.194068 31119 net.cpp:157] Top shape: 100 64 20 20 (2560000)
I0814 15:27:38.194077 31119 net.cpp:165] Memory required for data: 271764800
I0814 15:27:38.194094 31119 layer_factory.hpp:77] Creating layer relu3
I0814 15:27:38.194106 31119 net.cpp:100] Creating Layer relu3
I0814 15:27:38.194115 31119 net.cpp:434] relu3 <- conv3
I0814 15:27:38.194128 31119 net.cpp:395] relu3 -> conv3 (in-place)
I0814 15:27:38.194397 31119 net.cpp:150] Setting up relu3
I0814 15:27:38.194417 31119 net.cpp:157] Top shape: 100 64 20 20 (2560000)
I0814 15:27:38.194427 31119 net.cpp:165] Memory required for data: 282004800
I0814 15:27:38.194435 31119 layer_factory.hpp:77] Creating layer conv4
I0814 15:27:38.194452 31119 net.cpp:100] Creating Layer conv4
I0814 15:27:38.194461 31119 net.cpp:434] conv4 <- conv3
I0814 15:27:38.194473 31119 net.cpp:408] conv4 -> conv4
I0814 15:27:38.195602 31119 net.cpp:150] Setting up conv4
I0814 15:27:38.195621 31119 net.cpp:157] Top shape: 100 80 18 18 (2592000)
I0814 15:27:38.195631 31119 net.cpp:165] Memory required for data: 292372800
I0814 15:27:38.195643 31119 layer_factory.hpp:77] Creating layer relu4
I0814 15:27:38.195657 31119 net.cpp:100] Creating Layer relu4
I0814 15:27:38.195667 31119 net.cpp:434] relu4 <- conv4
I0814 15:27:38.195677 31119 net.cpp:395] relu4 -> conv4 (in-place)
I0814 15:27:38.195801 31119 net.cpp:150] Setting up relu4
I0814 15:27:38.195816 31119 net.cpp:157] Top shape: 100 80 18 18 (2592000)
I0814 15:27:38.195824 31119 net.cpp:165] Memory required for data: 302740800
I0814 15:27:38.195832 31119 layer_factory.hpp:77] Creating layer ip1
I0814 15:27:38.195847 31119 net.cpp:100] Creating Layer ip1
I0814 15:27:38.195857 31119 net.cpp:434] ip1 <- conv4
I0814 15:27:38.195868 31119 net.cpp:408] ip1 -> ip1
I0814 15:27:38.292527 31119 net.cpp:150] Setting up ip1
I0814 15:27:38.292575 31119 net.cpp:157] Top shape: 100 512 (51200)
I0814 15:27:38.292585 31119 net.cpp:165] Memory required for data: 302945600
I0814 15:27:38.292608 31119 layer_factory.hpp:77] Creating layer relu5
I0814 15:27:38.292623 31119 net.cpp:100] Creating Layer relu5
I0814 15:27:38.292634 31119 net.cpp:434] relu5 <- ip1
I0814 15:27:38.292649 31119 net.cpp:395] relu5 -> ip1 (in-place)
I0814 15:27:38.293041 31119 net.cpp:150] Setting up relu5
I0814 15:27:38.293059 31119 net.cpp:157] Top shape: 100 512 (51200)
I0814 15:27:38.293068 31119 net.cpp:165] Memory required for data: 303150400
I0814 15:27:38.293077 31119 layer_factory.hpp:77] Creating layer drop1
I0814 15:27:38.293095 31119 net.cpp:100] Creating Layer drop1
I0814 15:27:38.293128 31119 net.cpp:434] drop1 <- ip1
I0814 15:27:38.293141 31119 net.cpp:395] drop1 -> ip1 (in-place)
I0814 15:27:38.293176 31119 net.cpp:150] Setting up drop1
I0814 15:27:38.293190 31119 net.cpp:157] Top shape: 100 512 (51200)
I0814 15:27:38.293198 31119 net.cpp:165] Memory required for data: 303355200
I0814 15:27:38.293206 31119 layer_factory.hpp:77] Creating layer ip1_drop1_0_split
I0814 15:27:38.293225 31119 net.cpp:100] Creating Layer ip1_drop1_0_split
I0814 15:27:38.293234 31119 net.cpp:434] ip1_drop1_0_split <- ip1
I0814 15:27:38.293246 31119 net.cpp:408] ip1_drop1_0_split -> ip1_drop1_0_split_0
I0814 15:27:38.293262 31119 net.cpp:408] ip1_drop1_0_split -> ip1_drop1_0_split_1
I0814 15:27:38.293306 31119 net.cpp:150] Setting up ip1_drop1_0_split
I0814 15:27:38.293320 31119 net.cpp:157] Top shape: 100 512 (51200)
I0814 15:27:38.293330 31119 net.cpp:157] Top shape: 100 512 (51200)
I0814 15:27:38.293339 31119 net.cpp:165] Memory required for data: 303764800
I0814 15:27:38.293347 31119 layer_factory.hpp:77] Creating layer ip2
I0814 15:27:38.293360 31119 net.cpp:100] Creating Layer ip2
I0814 15:27:38.293370 31119 net.cpp:434] ip2 <- ip1_drop1_0_split_0
I0814 15:27:38.293381 31119 net.cpp:408] ip2 -> ip2
I0814 15:27:38.293480 31119 net.cpp:150] Setting up ip2
I0814 15:27:38.293494 31119 net.cpp:157] Top shape: 100 2 (200)
I0814 15:27:38.293503 31119 net.cpp:165] Memory required for data: 303765600
I0814 15:27:38.293514 31119 layer_factory.hpp:77] Creating layer loss1
I0814 15:27:38.293527 31119 net.cpp:100] Creating Layer loss1
I0814 15:27:38.293536 31119 net.cpp:434] loss1 <- ip2
I0814 15:27:38.293545 31119 net.cpp:434] loss1 <- glasses
I0814 15:27:38.293557 31119 net.cpp:408] loss1 -> loss1
I0814 15:27:38.293573 31119 layer_factory.hpp:77] Creating layer loss1
I0814 15:27:38.293772 31119 net.cpp:150] Setting up loss1
I0814 15:27:38.293788 31119 net.cpp:157] Top shape: (1)
I0814 15:27:38.293797 31119 net.cpp:160]     with loss weight 0.5
I0814 15:27:38.293822 31119 net.cpp:165] Memory required for data: 303765604
I0814 15:27:38.293830 31119 layer_factory.hpp:77] Creating layer ip3
I0814 15:27:38.293841 31119 net.cpp:100] Creating Layer ip3
I0814 15:27:38.293850 31119 net.cpp:434] ip3 <- ip1_drop1_0_split_1
I0814 15:27:38.293864 31119 net.cpp:408] ip3 -> ip3
I0814 15:27:38.295876 31119 net.cpp:150] Setting up ip3
I0814 15:27:38.295893 31119 net.cpp:157] Top shape: 100 512 (51200)
I0814 15:27:38.295902 31119 net.cpp:165] Memory required for data: 303970404
I0814 15:27:38.295914 31119 layer_factory.hpp:77] Creating layer loss2
I0814 15:27:38.295925 31119 net.cpp:100] Creating Layer loss2
I0814 15:27:38.295935 31119 net.cpp:434] loss2 <- ip3
I0814 15:27:38.295944 31119 net.cpp:434] loss2 <- gender
I0814 15:27:38.295958 31119 net.cpp:408] loss2 -> loss2
I0814 15:27:38.295972 31119 layer_factory.hpp:77] Creating layer loss2
…
I0814 15:27:38.297389 31119 net.cpp:58] Initializing net from parameters: 
name: "multi_task"
state {
  phase: TEST
}
layer {
  name: "data"
  type: "Data"
  top: "data"
  include {
    phase: TEST
  }
  transform_param {
    scale: 0.00390625
  }
  data_param {
    source: "examples/gender_glasses/gender_glasses_val_lmdb"
    batch_size: 64
    backend: LMDB
  }
}
layer {
  name: "labels"
  type: "Data"
  top: "labels"
  include {
    phase: TEST
  }
  data_param {
    source: "examples/gender_glasses/gender_glasses_val_label_lmdb"
    batch_size: 64
    backend: LMDB
  }
}
layer {
  name: "slice1"
  type: "Slice"
  bottom: "labels"
  top: "glasses"
  top: "gender"
  slice_param {
    slice_dim: 1
    slice_point: 1
  }
}
layer {
  name: "conv1"
  type: "Convolution"
  bottom: "data"
  top: "conv1"
  param {
    lr_mult: 1
  }
  param {
    lr_mult: 0.1
  }
  convolution_param {
    num_output: 20
    pad: 0
    kernel_size: 5
    stride: 1
    weight_filler {
      type: "xavier"
    }
    bias_filler {
      type: "constant"
      value: 0
    }
  }
}
layer {
  name: "relu1"
  type: "ReLU"
  bottom: "conv1"
  top: "conv1"
}
layer {
  name: "pool1"
  type: "Pooling"
  bottom: "conv1"
  top: "pool1"
  pooling_param {
    pool: MAX
    kernel_size: 2
    stride: 2
  }
}
layer {
  name: "conv2"
  type: "Convolution"
  bottom: "pool1"
  top: "conv2"
  param {
    lr_mult: 1
  }
  param {
    lr_mult: 0.1
  }
  convolution_param {
    num_output: 48
    pad: 0
    kernel_size: 5
    stride: 1
    weight_filler {
      type: "xavier"
    }
    bias_filler {
      type: "constant"
      value: 0
    }
  }
}
layer {
  name: "relu2"
  type: "ReLU"
  bottom: "conv2"
  top: "conv2"
}
layer {
  name: "pool2"
  type: "Pooling"
  bottom: "conv2"
  top: "pool2"
  pooling_param {
    pool: MAX
    kernel_size: 2
    stride: 2
  }
}
layer {
  name: "conv3"
  type: "Convolution"
  bottom: "pool2"
  top: "conv3"
  param {
    lr_mult: 0.1
  }
  param {
    lr_mult: 0.1
  }
  convolution_param {
    num_output: 64
    pad: 0
    kernel_size: 3
    stride: 1
    weight_filler {
      type: "xavier"
    }
    bias_filler {
      type: "constant"
      value: 0
    }
  }
}
layer {
  name: "relu3"
  type: "ReLU"
  bottom: "conv3"
  top: "conv3"
}
layer {
  name: "conv4"
  type: "Convolution"
  bottom: "conv3"
  top: "conv4"
  param {
    lr_mult: 0.1
  }
  param {
    lr_mult: 0.1
  }
  convolution_param {
    num_output: 80
    pad: 0
    kernel_size: 3
    stride: 1
    weight_filler {
      type: "xavier"
    }
    bias_filler {
      type: "constant"
      value: 0
    }
  }
}
layer {
  name: "relu4"
  type: "ReLU"
  bottom: "conv4"
  top: "conv4"
}
layer {
  name: "ip1"
  type: "InnerProduct"
  bottom: "conv4"
  top: "ip1"
  inner_product_param {
    num_output: 512
    weight_filler {
      type: "xavier"
    }
    bias_filler {
      type: "constant"
    }
  }
}
layer {
  name: "relu5"
  type: "ReLU"
  bottom: "ip1"
  top: "ip1"
}
layer {
  name: "drop1"
  type: "Dropout"
  bottom: "ip1"
  top: "ip1"
  dropout_param {
    dropout_ratio: 0.5
  }
}
layer {
  name: "ip2"
  type: "InnerProduct"
  bottom: "ip1"
  top: "ip2"
  inner_product_param {
    num_output: 2
    weight_filler {
      type: "xavier"
    }
    bias_filler {
      type: "constant"
    }
  }
}
layer {
  name: "loss1"
  type: "SoftmaxWithLoss"
  bottom: "ip2"
  bottom: "glasses"
  top: "loss1"
  loss_weight: 0.5
}
layer {
  name: "accuracy_glasses"
  type: "Accuracy"
  bottom: "ip2"
  bottom: "glasses"
  top: "accuracy_glasses"
  include {
    phase: TEST
  }
}
layer {
  name: "ip3"
  type: "InnerProduct"
  bottom: "ip1"
  top: "ip3"
  inner_product_param {
    num_output: 512
    weight_filler {
      type: "xavier"
    }
    bias_filler {
      type: "constant"
    }
  }
}
layer {
  name: "loss2"
  type: "SoftmaxWithLoss"
  bottom: "ip3"
  bottom: "gender"
  top: "loss2"
  loss_weight: 0.5
}
layer {
  name: "accuracy_gender"
  type: "Accuracy"
  bottom: "ip3"
  bottom: "gender"
  top: "accuracy_gender"
  include {
    phase: TEST
  }
}
I0814 15:27:38.298032 31119 layer_factory.hpp:77] Creating layer data
I0814 15:27:38.298122 31119 net.cpp:100] Creating Layer data
I0814 15:27:38.298136 31119 net.cpp:408] data -> data
I0814 15:27:38.299054 31127 db_lmdb.cpp:35] Opened lmdb examples/gender_glasses/gender_glasses_val_lmdb
I0814 15:27:38.299183 31119 data_layer.cpp:41] output data size: 64,3,100,100
I0814 15:27:38.313331 31119 net.cpp:150] Setting up data
I0814 15:27:38.313380 31119 net.cpp:157] Top shape: 64 3 100 100 (1920000)
I0814 15:27:38.313390 31119 net.cpp:165] Memory required for data: 7680000
I0814 15:27:38.313401 31119 layer_factory.hpp:77] Creating layer labels
I0814 15:27:38.313483 31119 net.cpp:100] Creating Layer labels
I0814 15:27:38.313499 31119 net.cpp:408] labels -> labels
I0814 15:27:38.316587 31129 db_lmdb.cpp:35] Opened lmdb examples/gender_glasses/gender_glasses_val_label_lmdb
I0814 15:27:38.317301 31119 data_layer.cpp:41] output data size: 64,2,1,1
I0814 15:27:38.317653 31119 net.cpp:150] Setting up labels
I0814 15:27:38.317672 31119 net.cpp:157] Top shape: 64 2 1 1 (128)
I0814 15:27:38.317682 31119 net.cpp:165] Memory required for data: 7680512
I0814 15:27:38.317690 31119 layer_factory.hpp:77] Creating layer slice1
I0814 15:27:38.317704 31119 net.cpp:100] Creating Layer slice1
I0814 15:27:38.317714 31119 net.cpp:434] slice1 <- labels
I0814 15:27:38.317728 31119 net.cpp:408] slice1 -> glasses
I0814 15:27:38.317745 31119 net.cpp:408] slice1 -> gender
I0814 15:27:38.317786 31119 net.cpp:150] Setting up slice1
I0814 15:27:38.317801 31119 net.cpp:157] Top shape: 64 1 1 1 (64)
I0814 15:27:38.317823 31119 net.cpp:157] Top shape: 64 1 1 1 (64)
I0814 15:27:38.317831 31119 net.cpp:165] Memory required for data: 7681024
I0814 15:27:38.317839 31119 layer_factory.hpp:77] Creating layer glasses_slice1_0_split
I0814 15:27:38.317852 31119 net.cpp:100] Creating Layer glasses_slice1_0_split
I0814 15:27:38.317862 31119 net.cpp:434] glasses_slice1_0_split <- glasses
I0814 15:27:38.317873 31119 net.cpp:408] glasses_slice1_0_split -> glasses_slice1_0_split_0
I0814 15:27:38.317886 31119 net.cpp:408] glasses_slice1_0_split -> glasses_slice1_0_split_1
I0814 15:27:38.317927 31119 net.cpp:150] Setting up glasses_slice1_0_split
I0814 15:27:38.317941 31119 net.cpp:157] Top shape: 64 1 1 1 (64)
I0814 15:27:38.317951 31119 net.cpp:157] Top shape: 64 1 1 1 (64)
I0814 15:27:38.317960 31119 net.cpp:165] Memory required for data: 7681536
I0814 15:27:38.317968 31119 layer_factory.hpp:77] Creating layer gender_slice1_1_split
I0814 15:27:38.317981 31119 net.cpp:100] Creating Layer gender_slice1_1_split
I0814 15:27:38.317989 31119 net.cpp:434] gender_slice1_1_split <- gender
I0814 15:27:38.317999 31119 net.cpp:408] gender_slice1_1_split -> gender_slice1_1_split_0
I0814 15:27:38.318011 31119 net.cpp:408] gender_slice1_1_split -> gender_slice1_1_split_1
I0814 15:27:38.318048 31119 net.cpp:150] Setting up gender_slice1_1_split
I0814 15:27:38.318079 31119 net.cpp:157] Top shape: 64 1 1 1 (64)
I0814 15:27:38.318090 31119 net.cpp:157] Top shape: 64 1 1 1 (64)
I0814 15:27:38.318099 31119 net.cpp:165] Memory required for data: 7682048
I0814 15:27:38.318106 31119 layer_factory.hpp:77] Creating layer conv1
I0814 15:27:38.318125 31119 net.cpp:100] Creating Layer conv1
I0814 15:27:38.318141 31119 net.cpp:434] conv1 <- data
I0814 15:27:38.318153 31119 net.cpp:408] conv1 -> conv1
I0814 15:27:38.319546 31119 net.cpp:150] Setting up conv1
I0814 15:27:38.319574 31119 net.cpp:157] Top shape: 64 20 96 96 (11796480)
I0814 15:27:38.319586 31119 net.cpp:165] Memory required for data: 54867968
I0814 15:27:38.319603 31119 layer_factory.hpp:77] Creating layer relu1
I0814 15:27:38.319619 31119 net.cpp:100] Creating Layer relu1
I0814 15:27:38.319631 31119 net.cpp:434] relu1 <- conv1
I0814 15:27:38.319643 31119 net.cpp:395] relu1 -> conv1 (in-place)
I0814 15:27:38.319797 31119 net.cpp:150] Setting up relu1
I0814 15:27:38.319811 31119 net.cpp:157] Top shape: 64 20 96 96 (11796480)
I0814 15:27:38.319820 31119 net.cpp:165] Memory required for data: 102053888
I0814 15:27:38.319829 31119 layer_factory.hpp:77] Creating layer pool1
I0814 15:27:38.319841 31119 net.cpp:100] Creating Layer pool1
I0814 15:27:38.319850 31119 net.cpp:434] pool1 <- conv1
I0814 15:27:38.319862 31119 net.cpp:408] pool1 -> pool1
I0814 15:27:38.319908 31119 net.cpp:150] Setting up pool1
I0814 15:27:38.319921 31119 net.cpp:157] Top shape: 64 20 48 48 (2949120)
I0814 15:27:38.319931 31119 net.cpp:165] Memory required for data: 113850368
I0814 15:27:38.319938 31119 layer_factory.hpp:77] Creating layer conv2
I0814 15:27:38.319957 31119 net.cpp:100] Creating Layer conv2
I0814 15:27:38.319967 31119 net.cpp:434] conv2 <- pool1
I0814 15:27:38.319978 31119 net.cpp:408] conv2 -> conv2
I0814 15:27:38.321331 31119 net.cpp:150] Setting up conv2
I0814 15:27:38.321357 31119 net.cpp:157] Top shape: 64 48 44 44 (5947392)
I0814 15:27:38.321365 31119 net.cpp:165] Memory required for data: 137639936
I0814 15:27:38.321382 31119 layer_factory.hpp:77] Creating layer relu2
I0814 15:27:38.321396 31119 net.cpp:100] Creating Layer relu2
I0814 15:27:38.321408 31119 net.cpp:434] relu2 <- conv2
I0814 15:27:38.321419 31119 net.cpp:395] relu2 -> conv2 (in-place)
I0814 15:27:38.321705 31119 net.cpp:150] Setting up relu2
I0814 15:27:38.321725 31119 net.cpp:157] Top shape: 64 48 44 44 (5947392)
I0814 15:27:38.321734 31119 net.cpp:165] Memory required for data: 161429504
I0814 15:27:38.321743 31119 layer_factory.hpp:77] Creating layer pool2
I0814 15:27:38.321758 31119 net.cpp:100] Creating Layer pool2
I0814 15:27:38.321768 31119 net.cpp:434] pool2 <- conv2
I0814 15:27:38.321779 31119 net.cpp:408] pool2 -> pool2
I0814 15:27:38.321825 31119 net.cpp:150] Setting up pool2
I0814 15:27:38.321841 31119 net.cpp:157] Top shape: 64 48 22 22 (1486848)
I0814 15:27:38.321848 31119 net.cpp:165] Memory required for data: 167376896
I0814 15:27:38.321857 31119 layer_factory.hpp:77] Creating layer conv3
I0814 15:27:38.321874 31119 net.cpp:100] Creating Layer conv3
I0814 15:27:38.321885 31119 net.cpp:434] conv3 <- pool2
I0814 15:27:38.321898 31119 net.cpp:408] conv3 -> conv3
I0814 15:27:38.322899 31119 net.cpp:150] Setting up conv3
I0814 15:27:38.322919 31119 net.cpp:157] Top shape: 64 64 20 20 (1638400)
I0814 15:27:38.322929 31119 net.cpp:165] Memory required for data: 173930496
I0814 15:27:38.322944 31119 layer_factory.hpp:77] Creating layer relu3
I0814 15:27:38.322957 31119 net.cpp:100] Creating Layer relu3
I0814 15:27:38.322967 31119 net.cpp:434] relu3 <- conv3
I0814 15:27:38.322978 31119 net.cpp:395] relu3 -> conv3 (in-place)
I0814 15:27:38.323199 31119 net.cpp:150] Setting up relu3
I0814 15:27:38.323217 31119 net.cpp:157] Top shape: 64 64 20 20 (1638400)
I0814 15:27:38.323226 31119 net.cpp:165] Memory required for data: 180484096
I0814 15:27:38.323235 31119 layer_factory.hpp:77] Creating layer conv4
I0814 15:27:38.323251 31119 net.cpp:100] Creating Layer conv4
I0814 15:27:38.323263 31119 net.cpp:434] conv4 <- conv3
I0814 15:27:38.323298 31119 net.cpp:408] conv4 -> conv4
I0814 15:27:38.325511 31119 net.cpp:150] Setting up conv4
I0814 15:27:38.325542 31119 net.cpp:157] Top shape: 64 80 18 18 (1658880)
I0814 15:27:38.325552 31119 net.cpp:165] Memory required for data: 187119616
I0814 15:27:38.325565 31119 layer_factory.hpp:77] Creating layer relu4
I0814 15:27:38.325578 31119 net.cpp:100] Creating Layer relu4
I0814 15:27:38.325588 31119 net.cpp:434] relu4 <- conv4
I0814 15:27:38.325603 31119 net.cpp:395] relu4 -> conv4 (in-place)
I0814 15:27:38.325734 31119 net.cpp:150] Setting up relu4
I0814 15:27:38.325749 31119 net.cpp:157] Top shape: 64 80 18 18 (1658880)
I0814 15:27:38.325757 31119 net.cpp:165] Memory required for data: 193755136
I0814 15:27:38.325767 31119 layer_factory.hpp:77] Creating layer ip1
I0814 15:27:38.325781 31119 net.cpp:100] Creating Layer ip1
I0814 15:27:38.325790 31119 net.cpp:434] ip1 <- conv4
I0814 15:27:38.325803 31119 net.cpp:408] ip1 -> ip1
I0814 15:27:38.425848 31119 net.cpp:150] Setting up ip1
I0814 15:27:38.425894 31119 net.cpp:157] Top shape: 64 512 (32768)
I0814 15:27:38.425904 31119 net.cpp:165] Memory required for data: 193886208
I0814 15:27:38.425925 31119 layer_factory.hpp:77] Creating layer relu5
I0814 15:27:38.425946 31119 net.cpp:100] Creating Layer relu5
I0814 15:27:38.425958 31119 net.cpp:434] relu5 <- ip1
I0814 15:27:38.425971 31119 net.cpp:395] relu5 -> ip1 (in-place)
I0814 15:27:38.426544 31119 net.cpp:150] Setting up relu5
I0814 15:27:38.426568 31119 net.cpp:157] Top shape: 64 512 (32768)
I0814 15:27:38.426579 31119 net.cpp:165] Memory required for data: 194017280
I0814 15:27:38.426589 31119 layer_factory.hpp:77] Creating layer drop1
I0814 15:27:38.426602 31119 net.cpp:100] Creating Layer drop1
I0814 15:27:38.426611 31119 net.cpp:434] drop1 <- ip1
I0814 15:27:38.426621 31119 net.cpp:395] drop1 -> ip1 (in-place)
I0814 15:27:38.426656 31119 net.cpp:150] Setting up drop1
I0814 15:27:38.426669 31119 net.cpp:157] Top shape: 64 512 (32768)
I0814 15:27:38.426677 31119 net.cpp:165] Memory required for data: 194148352
I0814 15:27:38.426687 31119 layer_factory.hpp:77] Creating layer ip1_drop1_0_split
I0814 15:27:38.426697 31119 net.cpp:100] Creating Layer ip1_drop1_0_split
I0814 15:27:38.426707 31119 net.cpp:434] ip1_drop1_0_split <- ip1
I0814 15:27:38.426718 31119 net.cpp:408] ip1_drop1_0_split -> ip1_drop1_0_split_0
I0814 15:27:38.426733 31119 net.cpp:408] ip1_drop1_0_split -> ip1_drop1_0_split_1
I0814 15:27:38.426774 31119 net.cpp:150] Setting up ip1_drop1_0_split
I0814 15:27:38.426789 31119 net.cpp:157] Top shape: 64 512 (32768)
I0814 15:27:38.426800 31119 net.cpp:157] Top shape: 64 512 (32768)
I0814 15:27:38.426807 31119 net.cpp:165] Memory required for data: 194410496
I0814 15:27:38.426816 31119 layer_factory.hpp:77] Creating layer ip2
I0814 15:27:38.426829 31119 net.cpp:100] Creating Layer ip2
I0814 15:27:38.426838 31119 net.cpp:434] ip2 <- ip1_drop1_0_split_0
I0814 15:27:38.426851 31119 net.cpp:408] ip2 -> ip2
I0814 15:27:38.426959 31119 net.cpp:150] Setting up ip2
I0814 15:27:38.426972 31119 net.cpp:157] Top shape: 64 2 (128)
I0814 15:27:38.426981 31119 net.cpp:165] Memory required for data: 194411008
I0814 15:27:38.426993 31119 layer_factory.hpp:77] Creating layer ip2_ip2_0_split
I0814 15:27:38.427006 31119 net.cpp:100] Creating Layer ip2_ip2_0_split
I0814 15:27:38.427016 31119 net.cpp:434] ip2_ip2_0_split <- ip2
I0814 15:27:38.427026 31119 net.cpp:408] ip2_ip2_0_split -> ip2_ip2_0_split_0
I0814 15:27:38.427037 31119 net.cpp:408] ip2_ip2_0_split -> ip2_ip2_0_split_1
I0814 15:27:38.427078 31119 net.cpp:150] Setting up ip2_ip2_0_split
I0814 15:27:38.427091 31119 net.cpp:157] Top shape: 64 2 (128)
I0814 15:27:38.427100 31119 net.cpp:157] Top shape: 64 2 (128)
I0814 15:27:38.427109 31119 net.cpp:165] Memory required for data: 194412032
I0814 15:27:38.427119 31119 layer_factory.hpp:77] Creating layer loss1
I0814 15:27:38.427130 31119 net.cpp:100] Creating Layer loss1
I0814 15:27:38.427139 31119 net.cpp:434] loss1 <- ip2_ip2_0_split_0
I0814 15:27:38.427150 31119 net.cpp:434] loss1 <- glasses_slice1_0_split_0
I0814 15:27:38.427186 31119 net.cpp:408] loss1 -> loss1
…
