…
I0814 14:18:42.649101 29179 net.cpp:58] Initializing net from parameters: 
name: "multi_task"
state {
  phase: TRAIN
  level: 0
  stage: ""
}
layer {
  name: "data"
  type: "Data"
  top: "data"
  include {
    phase: TRAIN
  }
  transform_param {
    mirror: true
  }
  data_param {
    source: "examples/gender_glasses/gender_glasses_train_lmdb"
    batch_size: 100
    backend: LMDB
  }
}
layer {
  name: "labels"
  type: "Data"
  top: "labels"
  include {
    phase: TRAIN
  }
  data_param {
    source: "examples/gender_glasses/gender_glasses_train_label_lmdb"
    batch_size: 100
    backend: LMDB
  }
}
layer {
  name: "slice1"
  type: "Slice"
  bottom: "labels"
  top: "glasses"
  top: "gender"
  slice_param {
    slice_dim: 1
    slice_point: 1
  }
}
layer {
  name: "conv1"
  type: "Convolution"
  bottom: "data"
  top: "conv1"
  param {
    lr_mult: 1
  }
  param {
    lr_mult: 0.1
  }
  convolution_param {
    num_output: 20
    pad: 0
    kernel_size: 5
    stride: 1
    weight_filler {
      type: "xavier"
    }
    bias_filler {
      type: "constant"
      value: 0
    }
  }
}
layer {
  name: "relu1"
  type: "ReLU"
  bottom: "conv1"
  top: "conv1"
}
layer {
  name: "pool1"
  type: "Pooling"
  bottom: "conv1"
  top: "pool1"
  pooling_param {
    pool: MAX
    kernel_size: 2
    stride: 2
  }
}
layer {
  name: "conv2"
  type: "Convolution"
  bottom: "pool1"
  top: "conv2"
  param {
    lr_mult: 1
  }
  param {
    lr_mult: 0.1
  }
  convolution_param {
    num_output: 48
    pad: 0
    kernel_size: 5
    stride: 1
    weight_filler {
      type: "xavier"
    }
    bias_filler {
      type: "constant"
      value: 0
    }
  }
}
layer {
  name: "relu2"
  type: "ReLU"
  bottom: "conv2"
  top: "conv2"
}
layer {
  name: "pool2"
  type: "Pooling"
  bottom: "conv2"
  top: "pool2"
  pooling_param {
    pool: MAX
    kernel_size: 2
    stride: 2
  }
}
layer {
  name: "conv3"
  type: "Convolution"
  bottom: "pool2"
  top: "conv3"
  param {
    lr_mult: 0.1
  }
  param {
    lr_mult: 0.1
  }
  convolution_param {
    num_output: 64
    pad: 0
    kernel_size: 3
    stride: 1
    weight_filler {
      type: "xavier"
    }
    bias_filler {
      type: "constant"
      value: 0
    }
  }
}
layer {
  name: "relu3"
  type: "ReLU"
  bottom: "conv3"
  top: "conv3"
}
layer {
  name: "conv4"
  type: "Convolution"
  bottom: "conv3"
  top: "conv4"
  param {
    lr_mult: 0.1
  }
  param {
    lr_mult: 0.1
  }
  convolution_param {
    num_output: 80
    pad: 0
    kernel_size: 3
    stride: 1
    weight_filler {
      type: "xavier"
    }
    bias_filler {
      type: "constant"
      value: 0
    }
  }
}
layer {
  name: "relu4"
  type: "ReLU"
  bottom: "conv4"
  top: "conv4"
}
layer {
  name: "ip1"
  type: "InnerProduct"
  bottom: "conv4"
  top: "ip1"
  inner_product_param {
    num_output: 512
    weight_filler {
      type: "xavier"
    }
    bias_filler {
      type: "constant"
    }
  }
}
layer {
  name: "relu5"
  type: "ReLU"
  bottom: "ip1"
  top: "ip1"
}
layer {
  name: "drop1"
  type: "Dropout"
  bottom: "ip1"
  top: "ip1"
  dropout_param {
    dropout_ratio: 0.5
  }
}
layer {
  name: "ip2"
  type: "InnerProduct"
  bottom: "ip1"
  top: "ip2"
  inner_product_param {
    num_output: 2
    weight_filler {
      type: "xavier"
    }
    bias_filler {
      type: "constant"
    }
  }
}
layer {
  name: "loss1"
  type: "SoftmaxWithLoss"
  bottom: "ip2"
  bottom: "glasses"
  top: "loss1"
  loss_weight: 0.5
}
layer {
  name: "ip3"
  type: "InnerProduct"
  bottom: "ip1"
  top: "ip3"
  inner_product_param {
    num_output: 512
    weight_filler {
      type: "xavier"
    }
    bias_filler {
      type: "constant"
    }
  }
}
layer {
  name: "loss2"
  type: "SoftmaxWithLoss"
  bottom: "ip3"
  bottom: "gender"
  top: "loss2"
  loss_weight: 0.5
}
I0814 14:18:42.649747 29179 layer_factory.hpp:77] Creating layer data
I0814 14:18:42.650111 29179 net.cpp:100] Creating Layer data
I0814 14:18:42.650128 29179 net.cpp:408] data -> data
I0814 14:18:42.651237 29183 db_lmdb.cpp:35] Opened lmdb examples/gender_glasses/gender_glasses_train_lmdb
I0814 14:18:42.659827 29179 data_layer.cpp:41] output data size: 100,3,100,100
I0814 14:18:42.678189 29179 net.cpp:150] Setting up data
I0814 14:18:42.678232 29179 net.cpp:157] Top shape: 100 3 100 100 (3000000)
I0814 14:18:42.678244 29179 net.cpp:165] Memory required for data: 12000000
I0814 14:18:42.678261 29179 layer_factory.hpp:77] Creating layer labels
I0814 14:18:42.678382 29179 net.cpp:100] Creating Layer labels
I0814 14:18:42.678405 29179 net.cpp:408] labels -> labels
I0814 14:18:42.680312 29185 db_lmdb.cpp:35] Opened lmdb examples/gender_glasses/gender_glasses_train_label_lmdb
I0814 14:18:42.681358 29179 data_layer.cpp:41] output data size: 100,2,1,1
I0814 14:18:42.681553 29179 net.cpp:150] Setting up labels
I0814 14:18:42.681573 29179 net.cpp:157] Top shape: 100 2 1 1 (200)
I0814 14:18:42.681583 29179 net.cpp:165] Memory required for data: 12000800
I0814 14:18:42.681593 29179 layer_factory.hpp:77] Creating layer slice1
I0814 14:18:42.681608 29179 net.cpp:100] Creating Layer slice1
I0814 14:18:42.681619 29179 net.cpp:434] slice1 <- labels
I0814 14:18:42.681639 29179 net.cpp:408] slice1 -> glasses
I0814 14:18:42.681658 29179 net.cpp:408] slice1 -> gender
I0814 14:18:42.681704 29179 net.cpp:150] Setting up slice1
I0814 14:18:42.681720 29179 net.cpp:157] Top shape: 100 1 1 1 (100)
I0814 14:18:42.681730 29179 net.cpp:157] Top shape: 100 1 1 1 (100)
I0814 14:18:42.681737 29179 net.cpp:165] Memory required for data: 12001600
I0814 14:18:42.681746 29179 layer_factory.hpp:77] Creating layer conv1
I0814 14:18:42.681769 29179 net.cpp:100] Creating Layer conv1
I0814 14:18:42.681785 29179 net.cpp:434] conv1 <- data
I0814 14:18:42.681799 29179 net.cpp:408] conv1 -> conv1
I0814 14:18:42.820134 29179 net.cpp:150] Setting up conv1
I0814 14:18:42.820184 29179 net.cpp:157] Top shape: 100 20 96 96 (18432000)
I0814 14:18:42.820195 29179 net.cpp:165] Memory required for data: 85729600
I0814 14:18:42.820220 29179 layer_factory.hpp:77] Creating layer relu1
I0814 14:18:42.820240 29179 net.cpp:100] Creating Layer relu1
I0814 14:18:42.820250 29179 net.cpp:434] relu1 <- conv1
I0814 14:18:42.820261 29179 net.cpp:395] relu1 -> conv1 (in-place)
I0814 14:18:42.820399 29179 net.cpp:150] Setting up relu1
I0814 14:18:42.820416 29179 net.cpp:157] Top shape: 100 20 96 96 (18432000)
I0814 14:18:42.820425 29179 net.cpp:165] Memory required for data: 159457600
I0814 14:18:42.820433 29179 layer_factory.hpp:77] Creating layer pool1
I0814 14:18:42.820446 29179 net.cpp:100] Creating Layer pool1
I0814 14:18:42.820454 29179 net.cpp:434] pool1 <- conv1
I0814 14:18:42.820466 29179 net.cpp:408] pool1 -> pool1
I0814 14:18:42.820518 29179 net.cpp:150] Setting up pool1
I0814 14:18:42.820533 29179 net.cpp:157] Top shape: 100 20 48 48 (4608000)
I0814 14:18:42.820540 29179 net.cpp:165] Memory required for data: 177889600
I0814 14:18:42.820549 29179 layer_factory.hpp:77] Creating layer conv2
I0814 14:18:42.820569 29179 net.cpp:100] Creating Layer conv2
I0814 14:18:42.820579 29179 net.cpp:434] conv2 <- pool1
I0814 14:18:42.820614 29179 net.cpp:408] conv2 -> conv2
I0814 14:18:42.821988 29179 net.cpp:150] Setting up conv2
I0814 14:18:42.822010 29179 net.cpp:157] Top shape: 100 48 44 44 (9292800)
I0814 14:18:42.822021 29179 net.cpp:165] Memory required for data: 215060800
I0814 14:18:42.822036 29179 layer_factory.hpp:77] Creating layer relu2
I0814 14:18:42.822046 29179 net.cpp:100] Creating Layer relu2
I0814 14:18:42.822055 29179 net.cpp:434] relu2 <- conv2
I0814 14:18:42.822065 29179 net.cpp:395] relu2 -> conv2 (in-place)
I0814 14:18:42.822342 29179 net.cpp:150] Setting up relu2
I0814 14:18:42.822360 29179 net.cpp:157] Top shape: 100 48 44 44 (9292800)
I0814 14:18:42.822368 29179 net.cpp:165] Memory required for data: 252232000
I0814 14:18:42.822377 29179 layer_factory.hpp:77] Creating layer pool2
I0814 14:18:42.822391 29179 net.cpp:100] Creating Layer pool2
I0814 14:18:42.822402 29179 net.cpp:434] pool2 <- conv2
I0814 14:18:42.822412 29179 net.cpp:408] pool2 -> pool2
I0814 14:18:42.822454 29179 net.cpp:150] Setting up pool2
I0814 14:18:42.822468 29179 net.cpp:157] Top shape: 100 48 22 22 (2323200)
I0814 14:18:42.822476 29179 net.cpp:165] Memory required for data: 261524800
I0814 14:18:42.822485 29179 layer_factory.hpp:77] Creating layer conv3
I0814 14:18:42.822500 29179 net.cpp:100] Creating Layer conv3
I0814 14:18:42.822510 29179 net.cpp:434] conv3 <- pool2
I0814 14:18:42.822522 29179 net.cpp:408] conv3 -> conv3
I0814 14:18:42.823742 29179 net.cpp:150] Setting up conv3
I0814 14:18:42.823763 29179 net.cpp:157] Top shape: 100 64 20 20 (2560000)
I0814 14:18:42.823773 29179 net.cpp:165] Memory required for data: 271764800
I0814 14:18:42.823787 29179 layer_factory.hpp:77] Creating layer relu3
I0814 14:18:42.823799 29179 net.cpp:100] Creating Layer relu3
I0814 14:18:42.823807 29179 net.cpp:434] relu3 <- conv3
I0814 14:18:42.823820 29179 net.cpp:395] relu3 -> conv3 (in-place)
I0814 14:18:42.824096 29179 net.cpp:150] Setting up relu3
I0814 14:18:42.824115 29179 net.cpp:157] Top shape: 100 64 20 20 (2560000)
I0814 14:18:42.824125 29179 net.cpp:165] Memory required for data: 282004800
I0814 14:18:42.824132 29179 layer_factory.hpp:77] Creating layer conv4
I0814 14:18:42.824149 29179 net.cpp:100] Creating Layer conv4
I0814 14:18:42.824159 29179 net.cpp:434] conv4 <- conv3
I0814 14:18:42.824170 29179 net.cpp:408] conv4 -> conv4
I0814 14:18:42.825305 29179 net.cpp:150] Setting up conv4
I0814 14:18:42.825326 29179 net.cpp:157] Top shape: 100 80 18 18 (2592000)
I0814 14:18:42.825335 29179 net.cpp:165] Memory required for data: 292372800
I0814 14:18:42.825347 29179 layer_factory.hpp:77] Creating layer relu4
I0814 14:18:42.825358 29179 net.cpp:100] Creating Layer relu4
I0814 14:18:42.825367 29179 net.cpp:434] relu4 <- conv4
I0814 14:18:42.825377 29179 net.cpp:395] relu4 -> conv4 (in-place)
I0814 14:18:42.825505 29179 net.cpp:150] Setting up relu4
I0814 14:18:42.825520 29179 net.cpp:157] Top shape: 100 80 18 18 (2592000)
I0814 14:18:42.825531 29179 net.cpp:165] Memory required for data: 302740800
I0814 14:18:42.825539 29179 layer_factory.hpp:77] Creating layer ip1
I0814 14:18:42.825551 29179 net.cpp:100] Creating Layer ip1
I0814 14:18:42.825561 29179 net.cpp:434] ip1 <- conv4
I0814 14:18:42.825570 29179 net.cpp:408] ip1 -> ip1
I0814 14:18:42.922304 29179 net.cpp:150] Setting up ip1
I0814 14:18:42.922353 29179 net.cpp:157] Top shape: 100 512 (51200)
I0814 14:18:42.922363 29179 net.cpp:165] Memory required for data: 302945600
I0814 14:18:42.922386 29179 layer_factory.hpp:77] Creating layer relu5
I0814 14:18:42.922405 29179 net.cpp:100] Creating Layer relu5
I0814 14:18:42.922415 29179 net.cpp:434] relu5 <- ip1
I0814 14:18:42.922426 29179 net.cpp:395] relu5 -> ip1 (in-place)
I0814 14:18:42.922845 29179 net.cpp:150] Setting up relu5
I0814 14:18:42.922865 29179 net.cpp:157] Top shape: 100 512 (51200)
I0814 14:18:42.922874 29179 net.cpp:165] Memory required for data: 303150400
I0814 14:18:42.922884 29179 layer_factory.hpp:77] Creating layer drop1
I0814 14:18:42.922902 29179 net.cpp:100] Creating Layer drop1
I0814 14:18:42.922935 29179 net.cpp:434] drop1 <- ip1
I0814 14:18:42.922950 29179 net.cpp:395] drop1 -> ip1 (in-place)
I0814 14:18:42.922992 29179 net.cpp:150] Setting up drop1
I0814 14:18:42.923008 29179 net.cpp:157] Top shape: 100 512 (51200)
I0814 14:18:42.923017 29179 net.cpp:165] Memory required for data: 303355200
I0814 14:18:42.923025 29179 layer_factory.hpp:77] Creating layer ip1_drop1_0_split
I0814 14:18:42.923043 29179 net.cpp:100] Creating Layer ip1_drop1_0_split
I0814 14:18:42.923053 29179 net.cpp:434] ip1_drop1_0_split <- ip1
I0814 14:18:42.923064 29179 net.cpp:408] ip1_drop1_0_split -> ip1_drop1_0_split_0
I0814 14:18:42.923079 29179 net.cpp:408] ip1_drop1_0_split -> ip1_drop1_0_split_1
I0814 14:18:42.923120 29179 net.cpp:150] Setting up ip1_drop1_0_split
I0814 14:18:42.923135 29179 net.cpp:157] Top shape: 100 512 (51200)
I0814 14:18:42.923143 29179 net.cpp:157] Top shape: 100 512 (51200)
I0814 14:18:42.923152 29179 net.cpp:165] Memory required for data: 303764800
I0814 14:18:42.923161 29179 layer_factory.hpp:77] Creating layer ip2
I0814 14:18:42.923182 29179 net.cpp:100] Creating Layer ip2
I0814 14:18:42.923192 29179 net.cpp:434] ip2 <- ip1_drop1_0_split_0
I0814 14:18:42.923207 29179 net.cpp:408] ip2 -> ip2
I0814 14:18:42.923349 29179 net.cpp:150] Setting up ip2
I0814 14:18:42.923370 29179 net.cpp:157] Top shape: 100 2 (200)
I0814 14:18:42.923379 29179 net.cpp:165] Memory required for data: 303765600
I0814 14:18:42.923393 29179 layer_factory.hpp:77] Creating layer loss1
I0814 14:18:42.923413 29179 net.cpp:100] Creating Layer loss1
I0814 14:18:42.923426 29179 net.cpp:434] loss1 <- ip2
I0814 14:18:42.923436 29179 net.cpp:434] loss1 <- glasses
I0814 14:18:42.923447 29179 net.cpp:408] loss1 -> loss1
I0814 14:18:42.923463 29179 layer_factory.hpp:77] Creating layer loss1
I0814 14:18:42.923694 29179 net.cpp:150] Setting up loss1
I0814 14:18:42.923710 29179 net.cpp:157] Top shape: (1)
I0814 14:18:42.923719 29179 net.cpp:160]     with loss weight 0.5
I0814 14:18:42.923745 29179 net.cpp:165] Memory required for data: 303765604
I0814 14:18:42.923754 29179 layer_factory.hpp:77] Creating layer ip3
I0814 14:18:42.923766 29179 net.cpp:100] Creating Layer ip3
I0814 14:18:42.923777 29179 net.cpp:434] ip3 <- ip1_drop1_0_split_1
I0814 14:18:42.923787 29179 net.cpp:408] ip3 -> ip3
I0814 14:18:42.925973 29179 net.cpp:150] Setting up ip3
I0814 14:18:42.925992 29179 net.cpp:157] Top shape: 100 512 (51200)
I0814 14:18:42.926000 29179 net.cpp:165] Memory required for data: 303970404
I0814 14:18:42.926012 29179 layer_factory.hpp:77] Creating layer loss2
I0814 14:18:42.926024 29179 net.cpp:100] Creating Layer loss2
I0814 14:18:42.926033 29179 net.cpp:434] loss2 <- ip3
I0814 14:18:42.926043 29179 net.cpp:434] loss2 <- gender
I0814 14:18:42.926055 29179 net.cpp:408] loss2 -> loss2
I0814 14:18:42.926071 29179 layer_factory.hpp:77] Creating layer loss2
…
I0814 14:18:42.927558 29179 net.cpp:58] Initializing net from parameters: 
name: "multi_task"
state {
  phase: TEST
}
layer {
  name: "data"
  type: "Data"
  top: "data"
  include {
    phase: TEST
  }
  transform_param {
    mirror: false
  }
  data_param {
    source: "examples/gender_glasses/gender_glasses_val_lmdb"
    batch_size: 64
    backend: LMDB
  }
}
layer {
  name: "labels"
  type: "Data"
  top: "labels"
  include {
    phase: TEST
  }
  data_param {
    source: "examples/gender_glasses/gender_glasses_val_label_lmdb"
    batch_size: 64
    backend: LMDB
  }
}
layer {
  name: "slice1"
  type: "Slice"
  bottom: "labels"
  top: "glasses"
  top: "gender"
  slice_param {
    slice_dim: 1
    slice_point: 1
  }
}
layer {
  name: "conv1"
  type: "Convolution"
  bottom: "data"
  top: "conv1"
  param {
    lr_mult: 1
  }
  param {
    lr_mult: 0.1
  }
  convolution_param {
    num_output: 20
    pad: 0
    kernel_size: 5
    stride: 1
    weight_filler {
      type: "xavier"
    }
    bias_filler {
      type: "constant"
      value: 0
    }
  }
}
layer {
  name: "relu1"
  type: "ReLU"
  bottom: "conv1"
  top: "conv1"
}
layer {
  name: "pool1"
  type: "Pooling"
  bottom: "conv1"
  top: "pool1"
  pooling_param {
    pool: MAX
    kernel_size: 2
    stride: 2
  }
}
layer {
  name: "conv2"
  type: "Convolution"
  bottom: "pool1"
  top: "conv2"
  param {
    lr_mult: 1
  }
  param {
    lr_mult: 0.1
  }
  convolution_param {
    num_output: 48
    pad: 0
    kernel_size: 5
    stride: 1
    weight_filler {
      type: "xavier"
    }
    bias_filler {
      type: "constant"
      value: 0
    }
  }
}
layer {
  name: "relu2"
  type: "ReLU"
  bottom: "conv2"
  top: "conv2"
}
layer {
  name: "pool2"
  type: "Pooling"
  bottom: "conv2"
  top: "pool2"
  pooling_param {
    pool: MAX
    kernel_size: 2
    stride: 2
  }
}
layer {
  name: "conv3"
  type: "Convolution"
  bottom: "pool2"
  top: "conv3"
  param {
    lr_mult: 0.1
  }
  param {
    lr_mult: 0.1
  }
  convolution_param {
    num_output: 64
    pad: 0
    kernel_size: 3
    stride: 1
    weight_filler {
      type: "xavier"
    }
    bias_filler {
      type: "constant"
      value: 0
    }
  }
}
layer {
  name: "relu3"
  type: "ReLU"
  bottom: "conv3"
  top: "conv3"
}
layer {
  name: "conv4"
  type: "Convolution"
  bottom: "conv3"
  top: "conv4"
  param {
    lr_mult: 0.1
  }
  param {
    lr_mult: 0.1
  }
  convolution_param {
    num_output: 80
    pad: 0
    kernel_size: 3
    stride: 1
    weight_filler {
      type: "xavier"
    }
    bias_filler {
      type: "constant"
      value: 0
    }
  }
}
layer {
  name: "relu4"
  type: "ReLU"
  bottom: "conv4"
  top: "conv4"
}
layer {
  name: "ip1"
  type: "InnerProduct"
  bottom: "conv4"
  top: "ip1"
  inner_product_param {
    num_output: 512
    weight_filler {
      type: "xavier"
    }
    bias_filler {
      type: "constant"
    }
  }
}
layer {
  name: "relu5"
  type: "ReLU"
  bottom: "ip1"
  top: "ip1"
}
layer {
  name: "drop1"
  type: "Dropout"
  bottom: "ip1"
  top: "ip1"
  dropout_param {
    dropout_ratio: 0.5
  }
}
layer {
  name: "ip2"
  type: "InnerProduct"
  bottom: "ip1"
  top: "ip2"
  inner_product_param {
    num_output: 2
    weight_filler {
      type: "xavier"
    }
    bias_filler {
      type: "constant"
    }
  }
}
layer {
  name: "loss1"
  type: "SoftmaxWithLoss"
  bottom: "ip2"
  bottom: "glasses"
  top: "loss1"
  loss_weight: 0.5
}
layer {
  name: "accuracy_glasses"
  type: "Accuracy"
  bottom: "ip2"
  bottom: "glasses"
  top: "accuracy_glasses"
  include {
    phase: TEST
  }
}
layer {
  name: "ip3"
  type: "InnerProduct"
  bottom: "ip1"
  top: "ip3"
  inner_product_param {
    num_output: 512
    weight_filler {
      type: "xavier"
    }
    bias_filler {
      type: "constant"
    }
  }
}
layer {
  name: "loss2"
  type: "SoftmaxWithLoss"
  bottom: "ip3"
  bottom: "gender"
  top: "loss2"
  loss_weight: 0.5
}
layer {
  name: "accuracy_gender"
  type: "Accuracy"
  bottom: "ip3"
  bottom: "gender"
  top: "accuracy_gender"
  include {
    phase: TEST
  }
}
I0814 14:18:42.928202 29179 layer_factory.hpp:77] Creating layer data
I0814 14:18:42.928297 29179 net.cpp:100] Creating Layer data
I0814 14:18:42.928310 29179 net.cpp:408] data -> data
I0814 14:18:42.929568 29187 db_lmdb.cpp:35] Opened lmdb examples/gender_glasses/gender_glasses_val_lmdb
I0814 14:18:42.929790 29179 data_layer.cpp:41] output data size: 64,3,100,100
I0814 14:18:42.943830 29179 net.cpp:150] Setting up data
I0814 14:18:42.943881 29179 net.cpp:157] Top shape: 64 3 100 100 (1920000)
I0814 14:18:42.943892 29179 net.cpp:165] Memory required for data: 7680000
I0814 14:18:42.943904 29179 layer_factory.hpp:77] Creating layer labels
I0814 14:18:42.943991 29179 net.cpp:100] Creating Layer labels
I0814 14:18:42.944006 29179 net.cpp:408] labels -> labels
I0814 14:18:42.946830 29189 db_lmdb.cpp:35] Opened lmdb examples/gender_glasses/gender_glasses_val_label_lmdb
I0814 14:18:42.947530 29179 data_layer.cpp:41] output data size: 64,2,1,1
I0814 14:18:42.947846 29179 net.cpp:150] Setting up labels
I0814 14:18:42.947865 29179 net.cpp:157] Top shape: 64 2 1 1 (128)
I0814 14:18:42.947873 29179 net.cpp:165] Memory required for data: 7680512
I0814 14:18:42.947882 29179 layer_factory.hpp:77] Creating layer slice1
I0814 14:18:42.947898 29179 net.cpp:100] Creating Layer slice1
I0814 14:18:42.947911 29179 net.cpp:434] slice1 <- labels
I0814 14:18:42.947923 29179 net.cpp:408] slice1 -> glasses
I0814 14:18:42.947937 29179 net.cpp:408] slice1 -> gender
I0814 14:18:42.947979 29179 net.cpp:150] Setting up slice1
I0814 14:18:42.947994 29179 net.cpp:157] Top shape: 64 1 1 1 (64)
I0814 14:18:42.948004 29179 net.cpp:157] Top shape: 64 1 1 1 (64)
I0814 14:18:42.948011 29179 net.cpp:165] Memory required for data: 7681024
I0814 14:18:42.948020 29179 layer_factory.hpp:77] Creating layer glasses_slice1_0_split
I0814 14:18:42.948030 29179 net.cpp:100] Creating Layer glasses_slice1_0_split
I0814 14:18:42.948040 29179 net.cpp:434] glasses_slice1_0_split <- glasses
I0814 14:18:42.948048 29179 net.cpp:408] glasses_slice1_0_split -> glasses_slice1_0_split_0
I0814 14:18:42.948063 29179 net.cpp:408] glasses_slice1_0_split -> glasses_slice1_0_split_1
I0814 14:18:42.948104 29179 net.cpp:150] Setting up glasses_slice1_0_split
I0814 14:18:42.948117 29179 net.cpp:157] Top shape: 64 1 1 1 (64)
I0814 14:18:42.948127 29179 net.cpp:157] Top shape: 64 1 1 1 (64)
I0814 14:18:42.948135 29179 net.cpp:165] Memory required for data: 7681536
I0814 14:18:42.948143 29179 layer_factory.hpp:77] Creating layer gender_slice1_1_split
I0814 14:18:42.948155 29179 net.cpp:100] Creating Layer gender_slice1_1_split
I0814 14:18:42.948164 29179 net.cpp:434] gender_slice1_1_split <- gender
I0814 14:18:42.948175 29179 net.cpp:408] gender_slice1_1_split -> gender_slice1_1_split_0
I0814 14:18:42.948186 29179 net.cpp:408] gender_slice1_1_split -> gender_slice1_1_split_1
I0814 14:18:42.948223 29179 net.cpp:150] Setting up gender_slice1_1_split
I0814 14:18:42.948249 29179 net.cpp:157] Top shape: 64 1 1 1 (64)
I0814 14:18:42.948259 29179 net.cpp:157] Top shape: 64 1 1 1 (64)
I0814 14:18:42.948267 29179 net.cpp:165] Memory required for data: 7682048
I0814 14:18:42.948276 29179 layer_factory.hpp:77] Creating layer conv1
I0814 14:18:42.948297 29179 net.cpp:100] Creating Layer conv1
I0814 14:18:42.948305 29179 net.cpp:434] conv1 <- data
I0814 14:18:42.948318 29179 net.cpp:408] conv1 -> conv1
I0814 14:18:42.949446 29179 net.cpp:150] Setting up conv1
I0814 14:18:42.949472 29179 net.cpp:157] Top shape: 64 20 96 96 (11796480)
I0814 14:18:42.949483 29179 net.cpp:165] Memory required for data: 54867968
I0814 14:18:42.949501 29179 layer_factory.hpp:77] Creating layer relu1
I0814 14:18:42.949514 29179 net.cpp:100] Creating Layer relu1
I0814 14:18:42.949529 29179 net.cpp:434] relu1 <- conv1
I0814 14:18:42.949542 29179 net.cpp:395] relu1 -> conv1 (in-place)
I0814 14:18:42.949677 29179 net.cpp:150] Setting up relu1
I0814 14:18:42.949692 29179 net.cpp:157] Top shape: 64 20 96 96 (11796480)
I0814 14:18:42.949702 29179 net.cpp:165] Memory required for data: 102053888
I0814 14:18:42.949710 29179 layer_factory.hpp:77] Creating layer pool1
I0814 14:18:42.949723 29179 net.cpp:100] Creating Layer pool1
I0814 14:18:42.949760 29179 net.cpp:434] pool1 <- conv1
I0814 14:18:42.949779 29179 net.cpp:408] pool1 -> pool1
I0814 14:18:42.949836 29179 net.cpp:150] Setting up pool1
I0814 14:18:42.949852 29179 net.cpp:157] Top shape: 64 20 48 48 (2949120)
I0814 14:18:42.949862 29179 net.cpp:165] Memory required for data: 113850368
I0814 14:18:42.949869 29179 layer_factory.hpp:77] Creating layer conv2
I0814 14:18:42.949887 29179 net.cpp:100] Creating Layer conv2
I0814 14:18:42.949898 29179 net.cpp:434] conv2 <- pool1
I0814 14:18:42.949908 29179 net.cpp:408] conv2 -> conv2
I0814 14:18:42.951184 29179 net.cpp:150] Setting up conv2
I0814 14:18:42.951208 29179 net.cpp:157] Top shape: 64 48 44 44 (5947392)
I0814 14:18:42.951218 29179 net.cpp:165] Memory required for data: 137639936
I0814 14:18:42.951233 29179 layer_factory.hpp:77] Creating layer relu2
I0814 14:18:42.951246 29179 net.cpp:100] Creating Layer relu2
I0814 14:18:42.951258 29179 net.cpp:434] relu2 <- conv2
I0814 14:18:42.951269 29179 net.cpp:395] relu2 -> conv2 (in-place)
I0814 14:18:42.951552 29179 net.cpp:150] Setting up relu2
I0814 14:18:42.951570 29179 net.cpp:157] Top shape: 64 48 44 44 (5947392)
I0814 14:18:42.951580 29179 net.cpp:165] Memory required for data: 161429504
I0814 14:18:42.951589 29179 layer_factory.hpp:77] Creating layer pool2
I0814 14:18:42.951602 29179 net.cpp:100] Creating Layer pool2
I0814 14:18:42.951612 29179 net.cpp:434] pool2 <- conv2
I0814 14:18:42.951623 29179 net.cpp:408] pool2 -> pool2
I0814 14:18:42.951670 29179 net.cpp:150] Setting up pool2
I0814 14:18:42.951684 29179 net.cpp:157] Top shape: 64 48 22 22 (1486848)
I0814 14:18:42.951694 29179 net.cpp:165] Memory required for data: 167376896
I0814 14:18:42.951701 29179 layer_factory.hpp:77] Creating layer conv3
I0814 14:18:42.951716 29179 net.cpp:100] Creating Layer conv3
I0814 14:18:42.951725 29179 net.cpp:434] conv3 <- pool2
I0814 14:18:42.951740 29179 net.cpp:408] conv3 -> conv3
I0814 14:18:42.952671 29179 net.cpp:150] Setting up conv3
I0814 14:18:42.952689 29179 net.cpp:157] Top shape: 64 64 20 20 (1638400)
I0814 14:18:42.952698 29179 net.cpp:165] Memory required for data: 173930496
I0814 14:18:42.952713 29179 layer_factory.hpp:77] Creating layer relu3
I0814 14:18:42.952728 29179 net.cpp:100] Creating Layer relu3
I0814 14:18:42.952739 29179 net.cpp:434] relu3 <- conv3
I0814 14:18:42.952749 29179 net.cpp:395] relu3 -> conv3 (in-place)
I0814 14:18:42.953027 29179 net.cpp:150] Setting up relu3
I0814 14:18:42.953043 29179 net.cpp:157] Top shape: 64 64 20 20 (1638400)
I0814 14:18:42.953052 29179 net.cpp:165] Memory required for data: 180484096
I0814 14:18:42.953060 29179 layer_factory.hpp:77] Creating layer conv4
I0814 14:18:42.953076 29179 net.cpp:100] Creating Layer conv4
I0814 14:18:42.953085 29179 net.cpp:434] conv4 <- conv3
I0814 14:18:42.953128 29179 net.cpp:408] conv4 -> conv4
I0814 14:18:42.955201 29179 net.cpp:150] Setting up conv4
I0814 14:18:42.955224 29179 net.cpp:157] Top shape: 64 80 18 18 (1658880)
I0814 14:18:42.955234 29179 net.cpp:165] Memory required for data: 187119616
I0814 14:18:42.955245 29179 layer_factory.hpp:77] Creating layer relu4
I0814 14:18:42.955257 29179 net.cpp:100] Creating Layer relu4
I0814 14:18:42.955266 29179 net.cpp:434] relu4 <- conv4
I0814 14:18:42.955278 29179 net.cpp:395] relu4 -> conv4 (in-place)
I0814 14:18:42.955418 29179 net.cpp:150] Setting up relu4
I0814 14:18:42.955433 29179 net.cpp:157] Top shape: 64 80 18 18 (1658880)
I0814 14:18:42.955442 29179 net.cpp:165] Memory required for data: 193755136
I0814 14:18:42.955451 29179 layer_factory.hpp:77] Creating layer ip1
I0814 14:18:42.955463 29179 net.cpp:100] Creating Layer ip1
I0814 14:18:42.955472 29179 net.cpp:434] ip1 <- conv4
I0814 14:18:42.955488 29179 net.cpp:408] ip1 -> ip1
I0814 14:18:43.055788 29179 net.cpp:150] Setting up ip1
I0814 14:18:43.055835 29179 net.cpp:157] Top shape: 64 512 (32768)
I0814 14:18:43.055845 29179 net.cpp:165] Memory required for data: 193886208
I0814 14:18:43.055869 29179 layer_factory.hpp:77] Creating layer relu5
I0814 14:18:43.055888 29179 net.cpp:100] Creating Layer relu5
I0814 14:18:43.055901 29179 net.cpp:434] relu5 <- ip1
I0814 14:18:43.055912 29179 net.cpp:395] relu5 -> ip1 (in-place)
I0814 14:18:43.056318 29179 net.cpp:150] Setting up relu5
I0814 14:18:43.056335 29179 net.cpp:157] Top shape: 64 512 (32768)
I0814 14:18:43.056344 29179 net.cpp:165] Memory required for data: 194017280
I0814 14:18:43.056354 29179 layer_factory.hpp:77] Creating layer drop1
I0814 14:18:43.056368 29179 net.cpp:100] Creating Layer drop1
I0814 14:18:43.056377 29179 net.cpp:434] drop1 <- ip1
I0814 14:18:43.056388 29179 net.cpp:395] drop1 -> ip1 (in-place)
I0814 14:18:43.056421 29179 net.cpp:150] Setting up drop1
I0814 14:18:43.056434 29179 net.cpp:157] Top shape: 64 512 (32768)
I0814 14:18:43.056442 29179 net.cpp:165] Memory required for data: 194148352
I0814 14:18:43.056452 29179 layer_factory.hpp:77] Creating layer ip1_drop1_0_split
I0814 14:18:43.056462 29179 net.cpp:100] Creating Layer ip1_drop1_0_split
I0814 14:18:43.056471 29179 net.cpp:434] ip1_drop1_0_split <- ip1
I0814 14:18:43.056483 29179 net.cpp:408] ip1_drop1_0_split -> ip1_drop1_0_split_0
I0814 14:18:43.056498 29179 net.cpp:408] ip1_drop1_0_split -> ip1_drop1_0_split_1
I0814 14:18:43.056540 29179 net.cpp:150] Setting up ip1_drop1_0_split
I0814 14:18:43.056555 29179 net.cpp:157] Top shape: 64 512 (32768)
I0814 14:18:43.056565 29179 net.cpp:157] Top shape: 64 512 (32768)
I0814 14:18:43.056574 29179 net.cpp:165] Memory required for data: 194410496
I0814 14:18:43.056582 29179 layer_factory.hpp:77] Creating layer ip2
I0814 14:18:43.056594 29179 net.cpp:100] Creating Layer ip2
I0814 14:18:43.056604 29179 net.cpp:434] ip2 <- ip1_drop1_0_split_0
I0814 14:18:43.056617 29179 net.cpp:408] ip2 -> ip2
I0814 14:18:43.056720 29179 net.cpp:150] Setting up ip2
I0814 14:18:43.056735 29179 net.cpp:157] Top shape: 64 2 (128)
I0814 14:18:43.056742 29179 net.cpp:165] Memory required for data: 194411008
I0814 14:18:43.056754 29179 layer_factory.hpp:77] Creating layer ip2_ip2_0_split
I0814 14:18:43.056764 29179 net.cpp:100] Creating Layer ip2_ip2_0_split
I0814 14:18:43.056773 29179 net.cpp:434] ip2_ip2_0_split <- ip2
I0814 14:18:43.056783 29179 net.cpp:408] ip2_ip2_0_split -> ip2_ip2_0_split_0
I0814 14:18:43.056794 29179 net.cpp:408] ip2_ip2_0_split -> ip2_ip2_0_split_1
I0814 14:18:43.056833 29179 net.cpp:150] Setting up ip2_ip2_0_split
I0814 14:18:43.056846 29179 net.cpp:157] Top shape: 64 2 (128)
I0814 14:18:43.056856 29179 net.cpp:157] Top shape: 64 2 (128)
I0814 14:18:43.056864 29179 net.cpp:165] Memory required for data: 194412032
I0814 14:18:43.056872 29179 layer_factory.hpp:77] Creating layer loss1
I0814 14:18:43.056885 29179 net.cpp:100] Creating Layer loss1
I0814 14:18:43.056895 29179 net.cpp:434] loss1 <- ip2_ip2_0_split_0
I0814 14:18:43.056905 29179 net.cpp:434] loss1 <- glasses_slice1_0_split_0
I0814 14:18:43.056944 29179 net.cpp:408] loss1 -> loss1
…
