…
  stage: ""
}
layer {
  name: "data"
  type: "Data"
  top: "data"
  include {
    phase: TRAIN
  }
  transform_param {
    scale: 0.00390625
  }
  data_param {
    source: "/home/jaychou/code/new_caffe/caffe-master/examples/gender_glasses/gender_glasses_train_lmdb"
    batch_size: 100
    backend: LMDB
  }
}
layer {
  name: "labels"
  type: "Data"
  top: "labels"
  include {
    phase: TRAIN
  }
  data_param {
    source: "/home/jaychou/code/new_caffe/caffe-master/examples/gender_glasses/gender_glasses_train_label_lmdb"
    batch_size: 100
    backend: LMDB
  }
}
layer {
  name: "slice1"
  type: "Slice"
  bottom: "labels"
  top: "glasses"
  top: "gender"
  slice_param {
    slice_dim: 1
    slice_point: 1
  }
}
layer {
  name: "conv1"
  type: "Convolution"
  bottom: "data"
  top: "conv1"
  param {
    lr_mult: 1
  }
  param {
    lr_mult: 0.1
  }
  convolution_param {
    num_output: 20
    pad: 0
    kernel_size: 5
    stride: 1
    weight_filler {
      type: "xavier"
    }
    bias_filler {
      type: "constant"
      value: 0
    }
  }
}
layer {
  name: "relu1"
  type: "PReLU"
  bottom: "conv1"
  top: "conv1"
}
layer {
  name: "pool1"
  type: "Pooling"
  bottom: "conv1"
  top: "pool1"
  pooling_param {
    pool: MAX
    kernel_size: 2
    stride: 2
  }
}
layer {
  name: "conv2"
  type: "Convolution"
  bottom: "pool1"
  top: "conv2"
  param {
    lr_mult: 1
  }
  param {
    lr_mult: 0.1
  }
  convolution_param {
    num_output: 48
    pad: 0
    kernel_size: 5
    stride: 1
    weight_filler {
      type: "xavier"
    }
    bias_filler {
      type: "constant"
      value: 0
    }
  }
}
layer {
  name: "relu2"
  type: "PReLU"
  bottom: "conv2"
  top: "conv2"
}
layer {
  name: "pool2"
  type: "Pooling"
  bottom: "conv2"
  top: "pool2"
  pooling_param {
    pool: MAX
    kernel_size: 2
    stride: 2
  }
}
layer {
  name: "conv3"
  type: "Convolution"
  bottom: "pool2"
  top: "conv3"
  param {
    lr_mult: 0.1
  }
  param {
    lr_mult: 0.1
  }
  convolution_param {
    num_output: 64
    pad: 0
    kernel_size: 3
    stride: 1
    weight_filler {
      type: "xavier"
    }
    bias_filler {
      type: "constant"
      value: 0
    }
  }
}
layer {
  name: "relu3"
  type: "PReLU"
  bottom: "conv3"
  top: "conv3"
}
layer {
  name: "ip1"
  type: "InnerProduct"
  bottom: "conv3"
  top: "ip1"
  inner_product_param {
    num_output: 512
    weight_filler {
      type: "xavier"
    }
    bias_filler {
      type: "constant"
    }
  }
}
layer {
  name: "relu5"
  type: "PReLU"
  bottom: "ip1"
  top: "ip1"
}
layer {
  name: "drop1"
  type: "Dropout"
  bottom: "ip1"
  top: "ip1"
  dropout_param {
    dropout_ratio: 0.5
  }
}
layer {
  name: "ip2"
  type: "InnerProduct"
  bottom: "ip1"
  top: "ip2"
  inner_product_param {
    num_output: 2
    weight_filler {
      type: "xavier"
    }
    bias_filler {
      type: "constant"
    }
  }
}
layer {
  name: "loss1"
  type: "SoftmaxWithLoss"
  bottom: "ip2"
  bottom: "glasses"
  top: "loss1"
  loss_weight: 0.5
}
layer {
  name: "ip3"
  type: "InnerProduct"
  bottom: "ip1"
  top: "ip3"
  inner_product_param {
    num_output: 2
    weight_filler {
      type: "xavier"
    }
    bias_filler {
      type: "constant"
    }
  }
}
layer {
  name: "loss2"
  type: "SoftmaxWithLoss"
  bottom: "ip3"
  bottom: "gender"
  top: "loss2"
  loss_weight: 0.5
}
I0820 19:43:07.430120 18060 layer_factory.hpp:77] Creating layer data
I0820 19:43:07.430490 18060 net.cpp:100] Creating Layer data
I0820 19:43:07.430508 18060 net.cpp:408] data -> data
I0820 19:43:07.431898 18068 db_lmdb.cpp:35] Opened lmdb /home/jaychou/code/new_caffe/caffe-master/examples/gender_glasses/gender_glasses_train_lmdb
I0820 19:43:07.442030 18060 data_layer.cpp:41] output data size: 100,3,80,80
I0820 19:43:07.454500 18060 net.cpp:150] Setting up data
I0820 19:43:07.454551 18060 net.cpp:157] Top shape: 100 3 80 80 (1920000)
I0820 19:43:07.454562 18060 net.cpp:165] Memory required for data: 7680000
I0820 19:43:07.454579 18060 layer_factory.hpp:77] Creating layer labels
I0820 19:43:07.454682 18060 net.cpp:100] Creating Layer labels
I0820 19:43:07.454697 18060 net.cpp:408] labels -> labels
I0820 19:43:07.456404 18073 db_lmdb.cpp:35] Opened lmdb /home/jaychou/code/new_caffe/caffe-master/examples/gender_glasses/gender_glasses_train_label_lmdb
I0820 19:43:07.457165 18060 data_layer.cpp:41] output data size: 100,2,1,1
I0820 19:43:07.457346 18060 net.cpp:150] Setting up labels
I0820 19:43:07.457366 18060 net.cpp:157] Top shape: 100 2 1 1 (200)
I0820 19:43:07.457376 18060 net.cpp:165] Memory required for data: 7680800
I0820 19:43:07.457386 18060 layer_factory.hpp:77] Creating layer slice1
I0820 19:43:07.457401 18060 net.cpp:100] Creating Layer slice1
I0820 19:43:07.457413 18060 net.cpp:434] slice1 <- labels
I0820 19:43:07.457432 18060 net.cpp:408] slice1 -> glasses
I0820 19:43:07.457453 18060 net.cpp:408] slice1 -> gender
I0820 19:43:07.457497 18060 net.cpp:150] Setting up slice1
I0820 19:43:07.457512 18060 net.cpp:157] Top shape: 100 1 1 1 (100)
I0820 19:43:07.457522 18060 net.cpp:157] Top shape: 100 1 1 1 (100)
I0820 19:43:07.457530 18060 net.cpp:165] Memory required for data: 7681600
I0820 19:43:07.457540 18060 layer_factory.hpp:77] Creating layer conv1
I0820 19:43:07.457564 18060 net.cpp:100] Creating Layer conv1
I0820 19:43:07.457577 18060 net.cpp:434] conv1 <- data
I0820 19:43:07.457589 18060 net.cpp:408] conv1 -> conv1
I0820 19:43:07.650132 18060 net.cpp:150] Setting up conv1
I0820 19:43:07.650182 18060 net.cpp:157] Top shape: 100 20 76 76 (11552000)
I0820 19:43:07.650193 18060 net.cpp:165] Memory required for data: 53889600
I0820 19:43:07.650221 18060 layer_factory.hpp:77] Creating layer relu1
I0820 19:43:07.650240 18060 net.cpp:100] Creating Layer relu1
I0820 19:43:07.650251 18060 net.cpp:434] relu1 <- conv1
I0820 19:43:07.650264 18060 net.cpp:395] relu1 -> conv1 (in-place)
I0820 19:43:07.650760 18060 net.cpp:150] Setting up relu1
I0820 19:43:07.650779 18060 net.cpp:157] Top shape: 100 20 76 76 (11552000)
I0820 19:43:07.650789 18060 net.cpp:165] Memory required for data: 100097600
I0820 19:43:07.650804 18060 layer_factory.hpp:77] Creating layer pool1
I0820 19:43:07.650816 18060 net.cpp:100] Creating Layer pool1
I0820 19:43:07.650826 18060 net.cpp:434] pool1 <- conv1
I0820 19:43:07.650837 18060 net.cpp:408] pool1 -> pool1
I0820 19:43:07.650885 18060 net.cpp:150] Setting up pool1
I0820 19:43:07.650900 18060 net.cpp:157] Top shape: 100 20 38 38 (2888000)
I0820 19:43:07.650909 18060 net.cpp:165] Memory required for data: 111649600
I0820 19:43:07.650919 18060 layer_factory.hpp:77] Creating layer conv2
I0820 19:43:07.650936 18060 net.cpp:100] Creating Layer conv2
I0820 19:43:07.650946 18060 net.cpp:434] conv2 <- pool1
I0820 19:43:07.650957 18060 net.cpp:408] conv2 -> conv2
I0820 19:43:07.652272 18060 net.cpp:150] Setting up conv2
I0820 19:43:07.652293 18060 net.cpp:157] Top shape: 100 48 34 34 (5548800)
I0820 19:43:07.652304 18060 net.cpp:165] Memory required for data: 133844800
I0820 19:43:07.652343 18060 layer_factory.hpp:77] Creating layer relu2
I0820 19:43:07.652355 18060 net.cpp:100] Creating Layer relu2
I0820 19:43:07.652365 18060 net.cpp:434] relu2 <- conv2
I0820 19:43:07.652376 18060 net.cpp:395] relu2 -> conv2 (in-place)
I0820 19:43:07.652482 18060 net.cpp:150] Setting up relu2
I0820 19:43:07.652498 18060 net.cpp:157] Top shape: 100 48 34 34 (5548800)
I0820 19:43:07.652508 18060 net.cpp:165] Memory required for data: 156040000
I0820 19:43:07.652519 18060 layer_factory.hpp:77] Creating layer pool2
I0820 19:43:07.652532 18060 net.cpp:100] Creating Layer pool2
I0820 19:43:07.652542 18060 net.cpp:434] pool2 <- conv2
I0820 19:43:07.652554 18060 net.cpp:408] pool2 -> pool2
I0820 19:43:07.652590 18060 net.cpp:150] Setting up pool2
I0820 19:43:07.652604 18060 net.cpp:157] Top shape: 100 48 17 17 (1387200)
I0820 19:43:07.652613 18060 net.cpp:165] Memory required for data: 161588800
I0820 19:43:07.652623 18060 layer_factory.hpp:77] Creating layer conv3
I0820 19:43:07.652637 18060 net.cpp:100] Creating Layer conv3
I0820 19:43:07.652647 18060 net.cpp:434] conv3 <- pool2
I0820 19:43:07.652658 18060 net.cpp:408] conv3 -> conv3
I0820 19:43:07.653486 18060 net.cpp:150] Setting up conv3
I0820 19:43:07.653506 18060 net.cpp:157] Top shape: 100 64 15 15 (1440000)
I0820 19:43:07.653517 18060 net.cpp:165] Memory required for data: 167348800
I0820 19:43:07.653529 18060 layer_factory.hpp:77] Creating layer relu3
I0820 19:43:07.653540 18060 net.cpp:100] Creating Layer relu3
I0820 19:43:07.653550 18060 net.cpp:434] relu3 <- conv3
I0820 19:43:07.653561 18060 net.cpp:395] relu3 -> conv3 (in-place)
I0820 19:43:07.653651 18060 net.cpp:150] Setting up relu3
I0820 19:43:07.653666 18060 net.cpp:157] Top shape: 100 64 15 15 (1440000)
I0820 19:43:07.653676 18060 net.cpp:165] Memory required for data: 173108800
I0820 19:43:07.653689 18060 layer_factory.hpp:77] Creating layer ip1
I0820 19:43:07.653707 18060 net.cpp:100] Creating Layer ip1
I0820 19:43:07.653717 18060 net.cpp:434] ip1 <- conv3
I0820 19:43:07.653728 18060 net.cpp:408] ip1 -> ip1
I0820 19:43:07.708667 18060 net.cpp:150] Setting up ip1
I0820 19:43:07.708714 18060 net.cpp:157] Top shape: 100 512 (51200)
I0820 19:43:07.708724 18060 net.cpp:165] Memory required for data: 173313600
I0820 19:43:07.708741 18060 layer_factory.hpp:77] Creating layer relu5
I0820 19:43:07.708757 18060 net.cpp:100] Creating Layer relu5
I0820 19:43:07.708767 18060 net.cpp:434] relu5 <- ip1
I0820 19:43:07.708781 18060 net.cpp:395] relu5 -> ip1 (in-place)
I0820 19:43:07.708859 18060 net.cpp:150] Setting up relu5
I0820 19:43:07.708874 18060 net.cpp:157] Top shape: 100 512 (51200)
I0820 19:43:07.708884 18060 net.cpp:165] Memory required for data: 173518400
I0820 19:43:07.708895 18060 layer_factory.hpp:77] Creating layer drop1
I0820 19:43:07.708914 18060 net.cpp:100] Creating Layer drop1
I0820 19:43:07.708925 18060 net.cpp:434] drop1 <- ip1
I0820 19:43:07.708935 18060 net.cpp:395] drop1 -> ip1 (in-place)
I0820 19:43:07.708967 18060 net.cpp:150] Setting up drop1
I0820 19:43:07.708981 18060 net.cpp:157] Top shape: 100 512 (51200)
I0820 19:43:07.708991 18060 net.cpp:165] Memory required for data: 173723200
I0820 19:43:07.708999 18060 layer_factory.hpp:77] Creating layer ip1_drop1_0_split
I0820 19:43:07.709013 18060 net.cpp:100] Creating Layer ip1_drop1_0_split
I0820 19:43:07.709023 18060 net.cpp:434] ip1_drop1_0_split <- ip1
I0820 19:43:07.709035 18060 net.cpp:408] ip1_drop1_0_split -> ip1_drop1_0_split_0
I0820 19:43:07.709050 18060 net.cpp:408] ip1_drop1_0_split -> ip1_drop1_0_split_1
I0820 19:43:07.709085 18060 net.cpp:150] Setting up ip1_drop1_0_split
I0820 19:43:07.709100 18060 net.cpp:157] Top shape: 100 512 (51200)
I0820 19:43:07.709110 18060 net.cpp:157] Top shape: 100 512 (51200)
I0820 19:43:07.709118 18060 net.cpp:165] Memory required for data: 174132800
I0820 19:43:07.709128 18060 layer_factory.hpp:77] Creating layer ip2
I0820 19:43:07.709141 18060 net.cpp:100] Creating Layer ip2
I0820 19:43:07.709151 18060 net.cpp:434] ip2 <- ip1_drop1_0_split_0
I0820 19:43:07.709189 18060 net.cpp:408] ip2 -> ip2
I0820 19:43:07.709281 18060 net.cpp:150] Setting up ip2
I0820 19:43:07.709296 18060 net.cpp:157] Top shape: 100 2 (200)
I0820 19:43:07.709306 18060 net.cpp:165] Memory required for data: 174133600
I0820 19:43:07.709318 18060 layer_factory.hpp:77] Creating layer loss1
I0820 19:43:07.709334 18060 net.cpp:100] Creating Layer loss1
I0820 19:43:07.709343 18060 net.cpp:434] loss1 <- ip2
I0820 19:43:07.709353 18060 net.cpp:434] loss1 <- glasses
I0820 19:43:07.709364 18060 net.cpp:408] loss1 -> loss1
I0820 19:43:07.709379 18060 layer_factory.hpp:77] Creating layer loss1
I0820 19:43:07.709800 18060 net.cpp:150] Setting up loss1
I0820 19:43:07.709816 18060 net.cpp:157] Top shape: (1)
I0820 19:43:07.709826 18060 net.cpp:160]     with loss weight 0.5
I0820 19:43:07.709851 18060 net.cpp:165] Memory required for data: 174133604
I0820 19:43:07.709859 18060 layer_factory.hpp:77] Creating layer ip3
I0820 19:43:07.709872 18060 net.cpp:100] Creating Layer ip3
I0820 19:43:07.709882 18060 net.cpp:434] ip3 <- ip1_drop1_0_split_1
I0820 19:43:07.709894 18060 net.cpp:408] ip3 -> ip3
I0820 19:43:07.709990 18060 net.cpp:150] Setting up ip3
I0820 19:43:07.710005 18060 net.cpp:157] Top shape: 100 2 (200)
I0820 19:43:07.710012 18060 net.cpp:165] Memory required for data: 174134404
I0820 19:43:07.710026 18060 layer_factory.hpp:77] Creating layer loss2
I0820 19:43:07.710037 18060 net.cpp:100] Creating Layer loss2
I0820 19:43:07.710047 18060 net.cpp:434] loss2 <- ip3
I0820 19:43:07.710057 18060 net.cpp:434] loss2 <- gender
I0820 19:43:07.710067 18060 net.cpp:408] loss2 -> loss2
I0820 19:43:07.710080 18060 layer_factory.hpp:77] Creating layer loss2
…
  phase: TEST
}
layer {
  name: "data"
  type: "Data"
  top: "data"
  include {
    phase: TEST
  }
  transform_param {
    scale: 0.00390625
  }
  data_param {
    source: "/home/jaychou/code/new_caffe/caffe-master/examples/gender_glasses/gender_glasses_val_lmdb"
    batch_size: 64
    backend: LMDB
  }
}
layer {
  name: "labels"
  type: "Data"
  top: "labels"
  include {
    phase: TEST
  }
  data_param {
    source: "/home/jaychou/code/new_caffe/caffe-master/examples/gender_glasses/gender_glasses_val_label_lmdb"
    batch_size: 64
    backend: LMDB
  }
}
layer {
  name: "slice1"
  type: "Slice"
  bottom: "labels"
  top: "glasses"
  top: "gender"
  slice_param {
    slice_dim: 1
    slice_point: 1
  }
}
layer {
  name: "conv1"
  type: "Convolution"
  bottom: "data"
  top: "conv1"
  param {
    lr_mult: 1
  }
  param {
    lr_mult: 0.1
  }
  convolution_param {
    num_output: 20
    pad: 0
    kernel_size: 5
    stride: 1
    weight_filler {
      type: "xavier"
    }
    bias_filler {
      type: "constant"
      value: 0
    }
  }
}
layer {
  name: "relu1"
  type: "PReLU"
  bottom: "conv1"
  top: "conv1"
}
layer {
  name: "pool1"
  type: "Pooling"
  bottom: "conv1"
  top: "pool1"
  pooling_param {
    pool: MAX
    kernel_size: 2
    stride: 2
  }
}
layer {
  name: "conv2"
  type: "Convolution"
  bottom: "pool1"
  top: "conv2"
  param {
    lr_mult: 1
  }
  param {
    lr_mult: 0.1
  }
  convolution_param {
    num_output: 48
    pad: 0
    kernel_size: 5
    stride: 1
    weight_filler {
      type: "xavier"
    }
    bias_filler {
      type: "constant"
      value: 0
    }
  }
}
layer {
  name: "relu2"
  type: "PReLU"
  bottom: "conv2"
  top: "conv2"
}
layer {
  name: "pool2"
  type: "Pooling"
  bottom: "conv2"
  top: "pool2"
  pooling_param {
    pool: MAX
    kernel_size: 2
    stride: 2
  }
}
layer {
  name: "conv3"
  type: "Convolution"
  bottom: "pool2"
  top: "conv3"
  param {
    lr_mult: 0.1
  }
  param {
    lr_mult: 0.1
  }
  convolution_param {
    num_output: 64
    pad: 0
    kernel_size: 3
    stride: 1
    weight_filler {
      type: "xavier"
    }
    bias_filler {
      type: "constant"
      value: 0
    }
  }
}
layer {
  name: "relu3"
  type: "PReLU"
  bottom: "conv3"
  top: "conv3"
}
layer {
  name: "ip1"
  type: "InnerProduct"
  bottom: "conv3"
  top: "ip1"
  inner_product_param {
    num_output: 512
    weight_filler {
      type: "xavier"
    }
    bias_filler {
      type: "constant"
    }
  }
}
layer {
  name: "relu5"
  type: "PReLU"
  bottom: "ip1"
  top: "ip1"
}
layer {
  name: "drop1"
  type: "Dropout"
  bottom: "ip1"
  top: "ip1"
  dropout_param {
    dropout_ratio: 0.5
  }
}
layer {
  name: "ip2"
  type: "InnerProduct"
  bottom: "ip1"
  top: "ip2"
  inner_product_param {
    num_output: 2
    weight_filler {
      type: "xavier"
    }
    bias_filler {
      type: "constant"
    }
  }
}
layer {
  name: "loss1"
  type: "SoftmaxWithLoss"
  bottom: "ip2"
  bottom: "glasses"
  top: "loss1"
  loss_weight: 0.5
}
layer {
  name: "accuracy_glasses"
  type: "Accuracy"
  bottom: "ip2"
  bottom: "glasses"
  top: "accuracy_glasses"
  include {
    phase: TEST
  }
}
layer {
  name: "ip3"
  type: "InnerProduct"
  bottom: "ip1"
  top: "ip3"
  inner_product_param {
    num_output: 2
    weight_filler {
      type: "xavier"
    }
    bias_filler {
      type: "constant"
    }
  }
}
layer {
  name: "loss2"
  type: "SoftmaxWithLoss"
  bottom: "ip3"
  bottom: "gender"
  top: "loss2"
  loss_weight: 0.5
}
layer {
  name: "accuracy_gender"
  type: "Accuracy"
  bottom: "ip3"
  bottom: "gender"
  top: "accuracy_gender"
  include {
    phase: TEST
  }
}
I0820 19:43:07.711810 18060 layer_factory.hpp:77] Creating layer data
I0820 19:43:07.711915 18060 net.cpp:100] Creating Layer data
I0820 19:43:07.711928 18060 net.cpp:408] data -> data
I0820 19:43:07.712784 18075 db_lmdb.cpp:35] Opened lmdb /home/jaychou/code/new_caffe/caffe-master/examples/gender_glasses/gender_glasses_val_lmdb
I0820 19:43:07.712954 18060 data_layer.cpp:41] output data size: 64,3,80,80
I0820 19:43:07.722748 18060 net.cpp:150] Setting up data
I0820 19:43:07.722849 18060 net.cpp:157] Top shape: 64 3 80 80 (1228800)
I0820 19:43:07.722861 18060 net.cpp:165] Memory required for data: 4915200
I0820 19:43:07.722873 18060 layer_factory.hpp:77] Creating layer labels
I0820 19:43:07.722957 18060 net.cpp:100] Creating Layer labels
I0820 19:43:07.722972 18060 net.cpp:408] labels -> labels
I0820 19:43:07.725203 18077 db_lmdb.cpp:35] Opened lmdb /home/jaychou/code/new_caffe/caffe-master/examples/gender_glasses/gender_glasses_val_label_lmdb
I0820 19:43:07.725535 18060 data_layer.cpp:41] output data size: 64,2,1,1
I0820 19:43:07.725919 18060 net.cpp:150] Setting up labels
I0820 19:43:07.725937 18060 net.cpp:157] Top shape: 64 2 1 1 (128)
I0820 19:43:07.725946 18060 net.cpp:165] Memory required for data: 4915712
I0820 19:43:07.725955 18060 layer_factory.hpp:77] Creating layer slice1
I0820 19:43:07.725970 18060 net.cpp:100] Creating Layer slice1
I0820 19:43:07.725980 18060 net.cpp:434] slice1 <- labels
I0820 19:43:07.725994 18060 net.cpp:408] slice1 -> glasses
I0820 19:43:07.726011 18060 net.cpp:408] slice1 -> gender
I0820 19:43:07.726050 18060 net.cpp:150] Setting up slice1
I0820 19:43:07.726064 18060 net.cpp:157] Top shape: 64 1 1 1 (64)
I0820 19:43:07.726074 18060 net.cpp:157] Top shape: 64 1 1 1 (64)
I0820 19:43:07.726083 18060 net.cpp:165] Memory required for data: 4916224
I0820 19:43:07.726097 18060 layer_factory.hpp:77] Creating layer glasses_slice1_0_split
I0820 19:43:07.726116 18060 net.cpp:100] Creating Layer glasses_slice1_0_split
I0820 19:43:07.726127 18060 net.cpp:434] glasses_slice1_0_split <- glasses
I0820 19:43:07.726137 18060 net.cpp:408] glasses_slice1_0_split -> glasses_slice1_0_split_0
I0820 19:43:07.726152 18060 net.cpp:408] glasses_slice1_0_split -> glasses_slice1_0_split_1
I0820 19:43:07.726193 18060 net.cpp:150] Setting up glasses_slice1_0_split
I0820 19:43:07.726210 18060 net.cpp:157] Top shape: 64 1 1 1 (64)
I0820 19:43:07.726220 18060 net.cpp:157] Top shape: 64 1 1 1 (64)
I0820 19:43:07.726229 18060 net.cpp:165] Memory required for data: 4916736
I0820 19:43:07.726238 18060 layer_factory.hpp:77] Creating layer gender_slice1_1_split
I0820 19:43:07.726250 18060 net.cpp:100] Creating Layer gender_slice1_1_split
I0820 19:43:07.726260 18060 net.cpp:434] gender_slice1_1_split <- gender
I0820 19:43:07.726271 18060 net.cpp:408] gender_slice1_1_split -> gender_slice1_1_split_0
I0820 19:43:07.726284 18060 net.cpp:408] gender_slice1_1_split -> gender_slice1_1_split_1
I0820 19:43:07.726321 18060 net.cpp:150] Setting up gender_slice1_1_split
I0820 19:43:07.726335 18060 net.cpp:157] Top shape: 64 1 1 1 (64)
I0820 19:43:07.726344 18060 net.cpp:157] Top shape: 64 1 1 1 (64)
I0820 19:43:07.726352 18060 net.cpp:165] Memory required for data: 4917248
I0820 19:43:07.726361 18060 layer_factory.hpp:77] Creating layer conv1
I0820 19:43:07.726380 18060 net.cpp:100] Creating Layer conv1
I0820 19:43:07.726392 18060 net.cpp:434] conv1 <- data
I0820 19:43:07.726402 18060 net.cpp:408] conv1 -> conv1
I0820 19:43:07.727586 18060 net.cpp:150] Setting up conv1
I0820 19:43:07.727610 18060 net.cpp:157] Top shape: 64 20 76 76 (7393280)
I0820 19:43:07.727640 18060 net.cpp:165] Memory required for data: 34490368
I0820 19:43:07.727659 18060 layer_factory.hpp:77] Creating layer relu1
I0820 19:43:07.727676 18060 net.cpp:100] Creating Layer relu1
I0820 19:43:07.727689 18060 net.cpp:434] relu1 <- conv1
I0820 19:43:07.727700 18060 net.cpp:395] relu1 -> conv1 (in-place)
I0820 19:43:07.727926 18060 net.cpp:150] Setting up relu1
I0820 19:43:07.727941 18060 net.cpp:157] Top shape: 64 20 76 76 (7393280)
I0820 19:43:07.727949 18060 net.cpp:165] Memory required for data: 64063488
I0820 19:43:07.727963 18060 layer_factory.hpp:77] Creating layer pool1
I0820 19:43:07.727979 18060 net.cpp:100] Creating Layer pool1
I0820 19:43:07.727989 18060 net.cpp:434] pool1 <- conv1
I0820 19:43:07.728000 18060 net.cpp:408] pool1 -> pool1
I0820 19:43:07.728046 18060 net.cpp:150] Setting up pool1
I0820 19:43:07.728070 18060 net.cpp:157] Top shape: 64 20 38 38 (1848320)
I0820 19:43:07.728080 18060 net.cpp:165] Memory required for data: 71456768
I0820 19:43:07.728107 18060 layer_factory.hpp:77] Creating layer conv2
I0820 19:43:07.728128 18060 net.cpp:100] Creating Layer conv2
I0820 19:43:07.728138 18060 net.cpp:434] conv2 <- pool1
I0820 19:43:07.728152 18060 net.cpp:408] conv2 -> conv2
I0820 19:43:07.729287 18060 net.cpp:150] Setting up conv2
I0820 19:43:07.729305 18060 net.cpp:157] Top shape: 64 48 34 34 (3551232)
I0820 19:43:07.729315 18060 net.cpp:165] Memory required for data: 85661696
I0820 19:43:07.729331 18060 layer_factory.hpp:77] Creating layer relu2
I0820 19:43:07.729343 18060 net.cpp:100] Creating Layer relu2
I0820 19:43:07.729353 18060 net.cpp:434] relu2 <- conv2
I0820 19:43:07.729365 18060 net.cpp:395] relu2 -> conv2 (in-place)
I0820 19:43:07.729532 18060 net.cpp:150] Setting up relu2
I0820 19:43:07.729547 18060 net.cpp:157] Top shape: 64 48 34 34 (3551232)
I0820 19:43:07.729554 18060 net.cpp:165] Memory required for data: 99866624
I0820 19:43:07.729565 18060 layer_factory.hpp:77] Creating layer pool2
I0820 19:43:07.729578 18060 net.cpp:100] Creating Layer pool2
I0820 19:43:07.729588 18060 net.cpp:434] pool2 <- conv2
I0820 19:43:07.729599 18060 net.cpp:408] pool2 -> pool2
I0820 19:43:07.729640 18060 net.cpp:150] Setting up pool2
I0820 19:43:07.729653 18060 net.cpp:157] Top shape: 64 48 17 17 (887808)
I0820 19:43:07.729661 18060 net.cpp:165] Memory required for data: 103417856
I0820 19:43:07.729671 18060 layer_factory.hpp:77] Creating layer conv3
I0820 19:43:07.729688 18060 net.cpp:100] Creating Layer conv3
I0820 19:43:07.729697 18060 net.cpp:434] conv3 <- pool2
I0820 19:43:07.729709 18060 net.cpp:408] conv3 -> conv3
I0820 19:43:07.731145 18060 net.cpp:150] Setting up conv3
I0820 19:43:07.731168 18060 net.cpp:157] Top shape: 64 64 15 15 (921600)
I0820 19:43:07.731178 18060 net.cpp:165] Memory required for data: 107104256
I0820 19:43:07.731189 18060 layer_factory.hpp:77] Creating layer relu3
I0820 19:43:07.731201 18060 net.cpp:100] Creating Layer relu3
I0820 19:43:07.731212 18060 net.cpp:434] relu3 <- conv3
I0820 19:43:07.731225 18060 net.cpp:395] relu3 -> conv3 (in-place)
I0820 19:43:07.731330 18060 net.cpp:150] Setting up relu3
I0820 19:43:07.731344 18060 net.cpp:157] Top shape: 64 64 15 15 (921600)
I0820 19:43:07.731353 18060 net.cpp:165] Memory required for data: 110790656
I0820 19:43:07.731366 18060 layer_factory.hpp:77] Creating layer ip1
I0820 19:43:07.731382 18060 net.cpp:100] Creating Layer ip1
I0820 19:43:07.731391 18060 net.cpp:434] ip1 <- conv3
I0820 19:43:07.731402 18060 net.cpp:408] ip1 -> ip1
I0820 19:43:07.789538 18060 net.cpp:150] Setting up ip1
I0820 19:43:07.789585 18060 net.cpp:157] Top shape: 64 512 (32768)
I0820 19:43:07.789597 18060 net.cpp:165] Memory required for data: 110921728
I0820 19:43:07.789613 18060 layer_factory.hpp:77] Creating layer relu5
I0820 19:43:07.789629 18060 net.cpp:100] Creating Layer relu5
I0820 19:43:07.789639 18060 net.cpp:434] relu5 <- ip1
I0820 19:43:07.789652 18060 net.cpp:395] relu5 -> ip1 (in-place)
I0820 19:43:07.789742 18060 net.cpp:150] Setting up relu5
I0820 19:43:07.789757 18060 net.cpp:157] Top shape: 64 512 (32768)
I0820 19:43:07.789767 18060 net.cpp:165] Memory required for data: 111052800
I0820 19:43:07.789777 18060 layer_factory.hpp:77] Creating layer drop1
I0820 19:43:07.789790 18060 net.cpp:100] Creating Layer drop1
I0820 19:43:07.789800 18060 net.cpp:434] drop1 <- ip1
I0820 19:43:07.789811 18060 net.cpp:395] drop1 -> ip1 (in-place)
I0820 19:43:07.789840 18060 net.cpp:150] Setting up drop1
I0820 19:43:07.789855 18060 net.cpp:157] Top shape: 64 512 (32768)
I0820 19:43:07.789863 18060 net.cpp:165] Memory required for data: 111183872
I0820 19:43:07.789872 18060 layer_factory.hpp:77] Creating layer ip1_drop1_0_split
I0820 19:43:07.789888 18060 net.cpp:100] Creating Layer ip1_drop1_0_split
I0820 19:43:07.789898 18060 net.cpp:434] ip1_drop1_0_split <- ip1
I0820 19:43:07.789911 18060 net.cpp:408] ip1_drop1_0_split -> ip1_drop1_0_split_0
I0820 19:43:07.789923 18060 net.cpp:408] ip1_drop1_0_split -> ip1_drop1_0_split_1
I0820 19:43:07.789963 18060 net.cpp:150] Setting up ip1_drop1_0_split
I0820 19:43:07.789999 18060 net.cpp:157] Top shape: 64 512 (32768)
I0820 19:43:07.790011 18060 net.cpp:157] Top shape: 64 512 (32768)
I0820 19:43:07.790020 18060 net.cpp:165] Memory required for data: 111446016
I0820 19:43:07.790030 18060 layer_factory.hpp:77] Creating layer ip2
I0820 19:43:07.790042 18060 net.cpp:100] Creating Layer ip2
I0820 19:43:07.790051 18060 net.cpp:434] ip2 <- ip1_drop1_0_split_0
I0820 19:43:07.790062 18060 net.cpp:408] ip2 -> ip2
I0820 19:43:07.790172 18060 net.cpp:150] Setting up ip2
I0820 19:43:07.790189 18060 net.cpp:157] Top shape: 64 2 (128)
I0820 19:43:07.790197 18060 net.cpp:165] Memory required for data: 111446528
I0820 19:43:07.790210 18060 layer_factory.hpp:77] Creating layer ip2_ip2_0_split
I0820 19:43:07.790223 18060 net.cpp:100] Creating Layer ip2_ip2_0_split
I0820 19:43:07.790233 18060 net.cpp:434] ip2_ip2_0_split <- ip2
I0820 19:43:07.790243 18060 net.cpp:408] ip2_ip2_0_split -> ip2_ip2_0_split_0
I0820 19:43:07.790256 18060 net.cpp:408] ip2_ip2_0_split -> ip2_ip2_0_split_1
I0820 19:43:07.790295 18060 net.cpp:150] Setting up ip2_ip2_0_split
I0820 19:43:07.790309 18060 net.cpp:157] Top shape: 64 2 (128)
I0820 19:43:07.790319 18060 net.cpp:157] Top shape: 64 2 (128)
I0820 19:43:07.790328 18060 net.cpp:165] Memory required for data: 111447552
I0820 19:43:07.790338 18060 layer_factory.hpp:77] Creating layer loss1
I0820 19:43:07.790349 18060 net.cpp:100] Creating Layer loss1
I0820 19:43:07.790359 18060 net.cpp:434] loss1 <- ip2_ip2_0_split_0
I0820 19:43:07.790369 18060 net.cpp:434] loss1 <- glasses_slice1_0_split_0
I0820 19:43:07.790380 18060 net.cpp:408] loss1 -> loss1
…
