…
  stage: ""
}
layer {
  name: "data"
  type: "Data"
  top: "data"
  include {
    phase: TRAIN
  }
  transform_param {
    scale: 0.00390625
  }
  data_param {
    source: "/home/jaychou/code/new_caffe/caffe-master/examples/gender_glasses/gender_glasses_train_lmdb"
    batch_size: 100
    backend: LMDB
  }
}
layer {
  name: "labels"
  type: "Data"
  top: "labels"
  include {
    phase: TRAIN
  }
  data_param {
    source: "/home/jaychou/code/new_caffe/caffe-master/examples/gender_glasses/gender_glasses_train_label_lmdb"
    batch_size: 100
    backend: LMDB
  }
}
layer {
  name: "slice1"
  type: "Slice"
  bottom: "labels"
  top: "glasses"
  top: "gender"
  slice_param {
    slice_dim: 1
    slice_point: 1
  }
}
layer {
  name: "conv1"
  type: "Convolution"
  bottom: "data"
  top: "conv1"
  param {
    lr_mult: 1
  }
  param {
    lr_mult: 0.1
  }
  convolution_param {
    num_output: 20
    pad: 0
    kernel_size: 5
    stride: 1
    weight_filler {
      type: "xavier"
    }
    bias_filler {
      type: "constant"
      value: 0
    }
  }
}
layer {
  name: "relu1"
  type: "PReLU"
  bottom: "conv1"
  top: "conv1"
}
layer {
  name: "pool1"
  type: "Pooling"
  bottom: "conv1"
  top: "pool1"
  pooling_param {
    pool: MAX
    kernel_size: 2
    stride: 2
  }
}
layer {
  name: "conv2"
  type: "Convolution"
  bottom: "pool1"
  top: "conv2"
  param {
    lr_mult: 1
  }
  param {
    lr_mult: 0.1
  }
  convolution_param {
    num_output: 48
    pad: 0
    kernel_size: 5
    stride: 1
    weight_filler {
      type: "xavier"
    }
    bias_filler {
      type: "constant"
      value: 0
    }
  }
}
layer {
  name: "relu2"
  type: "PReLU"
  bottom: "conv2"
  top: "conv2"
}
layer {
  name: "pool2"
  type: "Pooling"
  bottom: "conv2"
  top: "pool2"
  pooling_param {
    pool: MAX
    kernel_size: 2
    stride: 2
  }
}
layer {
  name: "conv3"
  type: "Convolution"
  bottom: "pool2"
  top: "conv3"
  param {
    lr_mult: 0.1
  }
  param {
    lr_mult: 0.1
  }
  convolution_param {
    num_output: 64
    pad: 0
    kernel_size: 3
    stride: 1
    weight_filler {
      type: "xavier"
    }
    bias_filler {
      type: "constant"
      value: 0
    }
  }
}
layer {
  name: "relu3"
  type: "PReLU"
  bottom: "conv3"
  top: "conv3"
}
layer {
  name: "ip1"
  type: "InnerProduct"
  bottom: "conv3"
  top: "ip1"
  inner_product_param {
    num_output: 512
    weight_filler {
      type: "xavier"
    }
    bias_filler {
      type: "constant"
    }
  }
}
layer {
  name: "relu5"
  type: "PReLU"
  bottom: "ip1"
  top: "ip1"
}
layer {
  name: "drop1"
  type: "Dropout"
  bottom: "ip1"
  top: "ip1"
  dropout_param {
    dropout_ratio: 0.5
  }
}
layer {
  name: "ip2"
  type: "InnerProduct"
  bottom: "ip1"
  top: "ip2"
  inner_product_param {
    num_output: 2
    weight_filler {
      type: "xavier"
    }
    bias_filler {
      type: "constant"
    }
  }
}
layer {
  name: "loss1"
  type: "SoftmaxWithLoss"
  bottom: "ip2"
  bottom: "glasses"
  top: "loss1"
  loss_weight: 0.5
}
layer {
  name: "ip3"
  type: "InnerProduct"
  bottom: "ip1"
  top: "ip3"
  inner_product_param {
    num_output: 512
    weight_filler {
      type: "xavier"
    }
    bias_filler {
      type: "constant"
    }
  }
}
layer {
  name: "loss2"
  type: "SoftmaxWithLoss"
  bottom: "ip3"
  bottom: "gender"
  top: "loss2"
  loss_weight: 0.5
}
I0815 14:02:15.975932 26769 layer_factory.hpp:77] Creating layer data
I0815 14:02:15.976296 26769 net.cpp:100] Creating Layer data
I0815 14:02:15.976313 26769 net.cpp:408] data -> data
I0815 14:02:15.977226 26773 db_lmdb.cpp:35] Opened lmdb /home/jaychou/code/new_caffe/caffe-master/examples/gender_glasses/gender_glasses_train_lmdb
I0815 14:02:15.986105 26769 data_layer.cpp:41] output data size: 100,3,80,80
I0815 14:02:15.997992 26769 net.cpp:150] Setting up data
I0815 14:02:15.998047 26769 net.cpp:157] Top shape: 100 3 80 80 (1920000)
I0815 14:02:15.998059 26769 net.cpp:165] Memory required for data: 7680000
I0815 14:02:15.998077 26769 layer_factory.hpp:77] Creating layer labels
I0815 14:02:15.998186 26769 net.cpp:100] Creating Layer labels
I0815 14:02:15.998203 26769 net.cpp:408] labels -> labels
I0815 14:02:15.999755 26775 db_lmdb.cpp:35] Opened lmdb /home/jaychou/code/new_caffe/caffe-master/examples/gender_glasses/gender_glasses_train_label_lmdb
I0815 14:02:16.000298 26769 data_layer.cpp:41] output data size: 100,2,1,1
I0815 14:02:16.000478 26769 net.cpp:150] Setting up labels
I0815 14:02:16.000502 26769 net.cpp:157] Top shape: 100 2 1 1 (200)
I0815 14:02:16.000511 26769 net.cpp:165] Memory required for data: 7680800
I0815 14:02:16.000519 26769 layer_factory.hpp:77] Creating layer slice1
I0815 14:02:16.000535 26769 net.cpp:100] Creating Layer slice1
I0815 14:02:16.000545 26769 net.cpp:434] slice1 <- labels
I0815 14:02:16.000560 26769 net.cpp:408] slice1 -> glasses
I0815 14:02:16.000573 26769 net.cpp:408] slice1 -> gender
I0815 14:02:16.000623 26769 net.cpp:150] Setting up slice1
I0815 14:02:16.000635 26769 net.cpp:157] Top shape: 100 1 1 1 (100)
I0815 14:02:16.000643 26769 net.cpp:157] Top shape: 100 1 1 1 (100)
I0815 14:02:16.000646 26769 net.cpp:165] Memory required for data: 7681600
I0815 14:02:16.000653 26769 layer_factory.hpp:77] Creating layer conv1
I0815 14:02:16.000674 26769 net.cpp:100] Creating Layer conv1
I0815 14:02:16.000679 26769 net.cpp:434] conv1 <- data
I0815 14:02:16.000690 26769 net.cpp:408] conv1 -> conv1
I0815 14:02:16.135545 26769 net.cpp:150] Setting up conv1
I0815 14:02:16.135591 26769 net.cpp:157] Top shape: 100 20 76 76 (11552000)
I0815 14:02:16.135601 26769 net.cpp:165] Memory required for data: 53889600
I0815 14:02:16.135628 26769 layer_factory.hpp:77] Creating layer relu1
I0815 14:02:16.135646 26769 net.cpp:100] Creating Layer relu1
I0815 14:02:16.135656 26769 net.cpp:434] relu1 <- conv1
I0815 14:02:16.135668 26769 net.cpp:395] relu1 -> conv1 (in-place)
I0815 14:02:16.136165 26769 net.cpp:150] Setting up relu1
I0815 14:02:16.136183 26769 net.cpp:157] Top shape: 100 20 76 76 (11552000)
I0815 14:02:16.136193 26769 net.cpp:165] Memory required for data: 100097600
I0815 14:02:16.136206 26769 layer_factory.hpp:77] Creating layer pool1
I0815 14:02:16.136219 26769 net.cpp:100] Creating Layer pool1
I0815 14:02:16.136229 26769 net.cpp:434] pool1 <- conv1
I0815 14:02:16.136262 26769 net.cpp:408] pool1 -> pool1
I0815 14:02:16.136312 26769 net.cpp:150] Setting up pool1
I0815 14:02:16.136325 26769 net.cpp:157] Top shape: 100 20 38 38 (2888000)
I0815 14:02:16.136334 26769 net.cpp:165] Memory required for data: 111649600
I0815 14:02:16.136343 26769 layer_factory.hpp:77] Creating layer conv2
I0815 14:02:16.136360 26769 net.cpp:100] Creating Layer conv2
I0815 14:02:16.136369 26769 net.cpp:434] conv2 <- pool1
I0815 14:02:16.136380 26769 net.cpp:408] conv2 -> conv2
I0815 14:02:16.137715 26769 net.cpp:150] Setting up conv2
I0815 14:02:16.137739 26769 net.cpp:157] Top shape: 100 48 34 34 (5548800)
I0815 14:02:16.137749 26769 net.cpp:165] Memory required for data: 133844800
I0815 14:02:16.137805 26769 layer_factory.hpp:77] Creating layer relu2
I0815 14:02:16.137819 26769 net.cpp:100] Creating Layer relu2
I0815 14:02:16.137827 26769 net.cpp:434] relu2 <- conv2
I0815 14:02:16.137837 26769 net.cpp:395] relu2 -> conv2 (in-place)
I0815 14:02:16.137956 26769 net.cpp:150] Setting up relu2
I0815 14:02:16.137971 26769 net.cpp:157] Top shape: 100 48 34 34 (5548800)
I0815 14:02:16.137980 26769 net.cpp:165] Memory required for data: 156040000
I0815 14:02:16.137991 26769 layer_factory.hpp:77] Creating layer pool2
I0815 14:02:16.138005 26769 net.cpp:100] Creating Layer pool2
I0815 14:02:16.138012 26769 net.cpp:434] pool2 <- conv2
I0815 14:02:16.138023 26769 net.cpp:408] pool2 -> pool2
I0815 14:02:16.138061 26769 net.cpp:150] Setting up pool2
I0815 14:02:16.138073 26769 net.cpp:157] Top shape: 100 48 17 17 (1387200)
I0815 14:02:16.138082 26769 net.cpp:165] Memory required for data: 161588800
I0815 14:02:16.138090 26769 layer_factory.hpp:77] Creating layer conv3
I0815 14:02:16.138104 26769 net.cpp:100] Creating Layer conv3
I0815 14:02:16.138113 26769 net.cpp:434] conv3 <- pool2
I0815 14:02:16.138124 26769 net.cpp:408] conv3 -> conv3
I0815 14:02:16.138984 26769 net.cpp:150] Setting up conv3
I0815 14:02:16.139004 26769 net.cpp:157] Top shape: 100 64 15 15 (1440000)
I0815 14:02:16.139014 26769 net.cpp:165] Memory required for data: 167348800
I0815 14:02:16.139026 26769 layer_factory.hpp:77] Creating layer relu3
I0815 14:02:16.139037 26769 net.cpp:100] Creating Layer relu3
I0815 14:02:16.139046 26769 net.cpp:434] relu3 <- conv3
I0815 14:02:16.139060 26769 net.cpp:395] relu3 -> conv3 (in-place)
I0815 14:02:16.139163 26769 net.cpp:150] Setting up relu3
I0815 14:02:16.139178 26769 net.cpp:157] Top shape: 100 64 15 15 (1440000)
I0815 14:02:16.139186 26769 net.cpp:165] Memory required for data: 173108800
I0815 14:02:16.139199 26769 layer_factory.hpp:77] Creating layer ip1
I0815 14:02:16.139217 26769 net.cpp:100] Creating Layer ip1
I0815 14:02:16.139226 26769 net.cpp:434] ip1 <- conv3
I0815 14:02:16.139236 26769 net.cpp:408] ip1 -> ip1
I0815 14:02:16.194295 26769 net.cpp:150] Setting up ip1
I0815 14:02:16.194340 26769 net.cpp:157] Top shape: 100 512 (51200)
I0815 14:02:16.194350 26769 net.cpp:165] Memory required for data: 173313600
I0815 14:02:16.194366 26769 layer_factory.hpp:77] Creating layer relu5
I0815 14:02:16.194383 26769 net.cpp:100] Creating Layer relu5
I0815 14:02:16.194393 26769 net.cpp:434] relu5 <- ip1
I0815 14:02:16.194406 26769 net.cpp:395] relu5 -> ip1 (in-place)
I0815 14:02:16.194491 26769 net.cpp:150] Setting up relu5
I0815 14:02:16.194507 26769 net.cpp:157] Top shape: 100 512 (51200)
I0815 14:02:16.194515 26769 net.cpp:165] Memory required for data: 173518400
I0815 14:02:16.194526 26769 layer_factory.hpp:77] Creating layer drop1
I0815 14:02:16.194542 26769 net.cpp:100] Creating Layer drop1
I0815 14:02:16.194551 26769 net.cpp:434] drop1 <- ip1
I0815 14:02:16.194566 26769 net.cpp:395] drop1 -> ip1 (in-place)
I0815 14:02:16.194599 26769 net.cpp:150] Setting up drop1
I0815 14:02:16.194613 26769 net.cpp:157] Top shape: 100 512 (51200)
I0815 14:02:16.194622 26769 net.cpp:165] Memory required for data: 173723200
I0815 14:02:16.194631 26769 layer_factory.hpp:77] Creating layer ip1_drop1_0_split
I0815 14:02:16.194645 26769 net.cpp:100] Creating Layer ip1_drop1_0_split
I0815 14:02:16.194653 26769 net.cpp:434] ip1_drop1_0_split <- ip1
I0815 14:02:16.194664 26769 net.cpp:408] ip1_drop1_0_split -> ip1_drop1_0_split_0
I0815 14:02:16.194679 26769 net.cpp:408] ip1_drop1_0_split -> ip1_drop1_0_split_1
I0815 14:02:16.194725 26769 net.cpp:150] Setting up ip1_drop1_0_split
I0815 14:02:16.194738 26769 net.cpp:157] Top shape: 100 512 (51200)
I0815 14:02:16.194748 26769 net.cpp:157] Top shape: 100 512 (51200)
I0815 14:02:16.194756 26769 net.cpp:165] Memory required for data: 174132800
I0815 14:02:16.194764 26769 layer_factory.hpp:77] Creating layer ip2
I0815 14:02:16.194778 26769 net.cpp:100] Creating Layer ip2
I0815 14:02:16.194787 26769 net.cpp:434] ip2 <- ip1_drop1_0_split_0
I0815 14:02:16.194828 26769 net.cpp:408] ip2 -> ip2
I0815 14:02:16.194924 26769 net.cpp:150] Setting up ip2
I0815 14:02:16.194938 26769 net.cpp:157] Top shape: 100 2 (200)
I0815 14:02:16.194947 26769 net.cpp:165] Memory required for data: 174133600
I0815 14:02:16.194958 26769 layer_factory.hpp:77] Creating layer loss1
I0815 14:02:16.194972 26769 net.cpp:100] Creating Layer loss1
I0815 14:02:16.194983 26769 net.cpp:434] loss1 <- ip2
I0815 14:02:16.194993 26769 net.cpp:434] loss1 <- glasses
I0815 14:02:16.195003 26769 net.cpp:408] loss1 -> loss1
I0815 14:02:16.195019 26769 layer_factory.hpp:77] Creating layer loss1
I0815 14:02:16.195446 26769 net.cpp:150] Setting up loss1
I0815 14:02:16.195463 26769 net.cpp:157] Top shape: (1)
I0815 14:02:16.195472 26769 net.cpp:160]     with loss weight 0.5
I0815 14:02:16.195497 26769 net.cpp:165] Memory required for data: 174133604
I0815 14:02:16.195505 26769 layer_factory.hpp:77] Creating layer ip3
I0815 14:02:16.195518 26769 net.cpp:100] Creating Layer ip3
I0815 14:02:16.195526 26769 net.cpp:434] ip3 <- ip1_drop1_0_split_1
I0815 14:02:16.195538 26769 net.cpp:408] ip3 -> ip3
I0815 14:02:16.197548 26769 net.cpp:150] Setting up ip3
I0815 14:02:16.197566 26769 net.cpp:157] Top shape: 100 512 (51200)
I0815 14:02:16.197574 26769 net.cpp:165] Memory required for data: 174338404
I0815 14:02:16.197587 26769 layer_factory.hpp:77] Creating layer loss2
I0815 14:02:16.197598 26769 net.cpp:100] Creating Layer loss2
I0815 14:02:16.197608 26769 net.cpp:434] loss2 <- ip3
I0815 14:02:16.197618 26769 net.cpp:434] loss2 <- gender
I0815 14:02:16.197628 26769 net.cpp:408] loss2 -> loss2
I0815 14:02:16.197641 26769 layer_factory.hpp:77] Creating layer loss2
…
  phase: TEST
}
layer {
  name: "data"
  type: "Data"
  top: "data"
  include {
    phase: TEST
  }
  transform_param {
    scale: 0.00390625
  }
  data_param {
    source: "/home/jaychou/code/new_caffe/caffe-master/examples/gender_glasses/gender_glasses_val_lmdb"
    batch_size: 64
    backend: LMDB
  }
}
layer {
  name: "labels"
  type: "Data"
  top: "labels"
  include {
    phase: TEST
  }
  data_param {
    source: "/home/jaychou/code/new_caffe/caffe-master/examples/gender_glasses/gender_glasses_val_label_lmdb"
    batch_size: 64
    backend: LMDB
  }
}
layer {
  name: "slice1"
  type: "Slice"
  bottom: "labels"
  top: "glasses"
  top: "gender"
  slice_param {
    slice_dim: 1
    slice_point: 1
  }
}
layer {
  name: "conv1"
  type: "Convolution"
  bottom: "data"
  top: "conv1"
  param {
    lr_mult: 1
  }
  param {
    lr_mult: 0.1
  }
  convolution_param {
    num_output: 20
    pad: 0
    kernel_size: 5
    stride: 1
    weight_filler {
      type: "xavier"
    }
    bias_filler {
      type: "constant"
      value: 0
    }
  }
}
layer {
  name: "relu1"
  type: "PReLU"
  bottom: "conv1"
  top: "conv1"
}
layer {
  name: "pool1"
  type: "Pooling"
  bottom: "conv1"
  top: "pool1"
  pooling_param {
    pool: MAX
    kernel_size: 2
    stride: 2
  }
}
layer {
  name: "conv2"
  type: "Convolution"
  bottom: "pool1"
  top: "conv2"
  param {
    lr_mult: 1
  }
  param {
    lr_mult: 0.1
  }
  convolution_param {
    num_output: 48
    pad: 0
    kernel_size: 5
    stride: 1
    weight_filler {
      type: "xavier"
    }
    bias_filler {
      type: "constant"
      value: 0
    }
  }
}
layer {
  name: "relu2"
  type: "PReLU"
  bottom: "conv2"
  top: "conv2"
}
layer {
  name: "pool2"
  type: "Pooling"
  bottom: "conv2"
  top: "pool2"
  pooling_param {
    pool: MAX
    kernel_size: 2
    stride: 2
  }
}
layer {
  name: "conv3"
  type: "Convolution"
  bottom: "pool2"
  top: "conv3"
  param {
    lr_mult: 0.1
  }
  param {
    lr_mult: 0.1
  }
  convolution_param {
    num_output: 64
    pad: 0
    kernel_size: 3
    stride: 1
    weight_filler {
      type: "xavier"
    }
    bias_filler {
      type: "constant"
      value: 0
    }
  }
}
layer {
  name: "relu3"
  type: "PReLU"
  bottom: "conv3"
  top: "conv3"
}
layer {
  name: "ip1"
  type: "InnerProduct"
  bottom: "conv3"
  top: "ip1"
  inner_product_param {
    num_output: 512
    weight_filler {
      type: "xavier"
    }
    bias_filler {
      type: "constant"
    }
  }
}
layer {
  name: "relu5"
  type: "PReLU"
  bottom: "ip1"
  top: "ip1"
}
layer {
  name: "drop1"
  type: "Dropout"
  bottom: "ip1"
  top: "ip1"
  dropout_param {
    dropout_ratio: 0.5
  }
}
layer {
  name: "ip2"
  type: "InnerProduct"
  bottom: "ip1"
  top: "ip2"
  inner_product_param {
    num_output: 2
    weight_filler {
      type: "xavier"
    }
    bias_filler {
      type: "constant"
    }
  }
}
layer {
  name: "loss1"
  type: "SoftmaxWithLoss"
  bottom: "ip2"
  bottom: "glasses"
  top: "loss1"
  loss_weight: 0.5
}
layer {
  name: "accuracy_glasses"
  type: "Accuracy"
  bottom: "ip2"
  bottom: "glasses"
  top: "accuracy_glasses"
  include {
    phase: TEST
  }
}
layer {
  name: "ip3"
  type: "InnerProduct"
  bottom: "ip1"
  top: "ip3"
  inner_product_param {
    num_output: 512
    weight_filler {
      type: "xavier"
    }
    bias_filler {
      type: "constant"
    }
  }
}
layer {
  name: "loss2"
  type: "SoftmaxWithLoss"
  bottom: "ip3"
  bottom: "gender"
  top: "loss2"
  loss_weight: 0.5
}
layer {
  name: "accuracy_gender"
  type: "Accuracy"
  bottom: "ip3"
  bottom: "gender"
  top: "accuracy_gender"
  include {
    phase: TEST
  }
}
I0815 14:02:16.199405 26769 layer_factory.hpp:77] Creating layer data
I0815 14:02:16.199499 26769 net.cpp:100] Creating Layer data
I0815 14:02:16.199515 26769 net.cpp:408] data -> data
I0815 14:02:16.200431 26784 db_lmdb.cpp:35] Opened lmdb /home/jaychou/code/new_caffe/caffe-master/examples/gender_glasses/gender_glasses_val_lmdb
I0815 14:02:16.200598 26769 data_layer.cpp:41] output data size: 64,3,80,80
I0815 14:02:16.208585 26769 net.cpp:150] Setting up data
I0815 14:02:16.208626 26769 net.cpp:157] Top shape: 64 3 80 80 (1228800)
I0815 14:02:16.208636 26769 net.cpp:165] Memory required for data: 4915200
I0815 14:02:16.208648 26769 layer_factory.hpp:77] Creating layer labels
I0815 14:02:16.208739 26769 net.cpp:100] Creating Layer labels
I0815 14:02:16.208755 26769 net.cpp:408] labels -> labels
I0815 14:02:16.210901 26786 db_lmdb.cpp:35] Opened lmdb /home/jaychou/code/new_caffe/caffe-master/examples/gender_glasses/gender_glasses_val_label_lmdb
I0815 14:02:16.211344 26769 data_layer.cpp:41] output data size: 64,2,1,1
I0815 14:02:16.211520 26769 net.cpp:150] Setting up labels
I0815 14:02:16.211540 26769 net.cpp:157] Top shape: 64 2 1 1 (128)
I0815 14:02:16.211549 26769 net.cpp:165] Memory required for data: 4915712
I0815 14:02:16.211558 26769 layer_factory.hpp:77] Creating layer slice1
I0815 14:02:16.211575 26769 net.cpp:100] Creating Layer slice1
I0815 14:02:16.211586 26769 net.cpp:434] slice1 <- labels
I0815 14:02:16.211599 26769 net.cpp:408] slice1 -> glasses
I0815 14:02:16.211614 26769 net.cpp:408] slice1 -> gender
I0815 14:02:16.211657 26769 net.cpp:150] Setting up slice1
I0815 14:02:16.211678 26769 net.cpp:157] Top shape: 64 1 1 1 (64)
I0815 14:02:16.211688 26769 net.cpp:157] Top shape: 64 1 1 1 (64)
I0815 14:02:16.211694 26769 net.cpp:165] Memory required for data: 4916224
I0815 14:02:16.211704 26769 layer_factory.hpp:77] Creating layer glasses_slice1_0_split
I0815 14:02:16.211715 26769 net.cpp:100] Creating Layer glasses_slice1_0_split
I0815 14:02:16.211724 26769 net.cpp:434] glasses_slice1_0_split <- glasses
I0815 14:02:16.211735 26769 net.cpp:408] glasses_slice1_0_split -> glasses_slice1_0_split_0
I0815 14:02:16.211747 26769 net.cpp:408] glasses_slice1_0_split -> glasses_slice1_0_split_1
I0815 14:02:16.211791 26769 net.cpp:150] Setting up glasses_slice1_0_split
I0815 14:02:16.211807 26769 net.cpp:157] Top shape: 64 1 1 1 (64)
I0815 14:02:16.211818 26769 net.cpp:157] Top shape: 64 1 1 1 (64)
I0815 14:02:16.211827 26769 net.cpp:165] Memory required for data: 4916736
I0815 14:02:16.211834 26769 layer_factory.hpp:77] Creating layer gender_slice1_1_split
I0815 14:02:16.211845 26769 net.cpp:100] Creating Layer gender_slice1_1_split
I0815 14:02:16.211854 26769 net.cpp:434] gender_slice1_1_split <- gender
I0815 14:02:16.211866 26769 net.cpp:408] gender_slice1_1_split -> gender_slice1_1_split_0
I0815 14:02:16.211879 26769 net.cpp:408] gender_slice1_1_split -> gender_slice1_1_split_1
I0815 14:02:16.211915 26769 net.cpp:150] Setting up gender_slice1_1_split
I0815 14:02:16.211930 26769 net.cpp:157] Top shape: 64 1 1 1 (64)
I0815 14:02:16.211938 26769 net.cpp:157] Top shape: 64 1 1 1 (64)
I0815 14:02:16.211946 26769 net.cpp:165] Memory required for data: 4917248
I0815 14:02:16.211954 26769 layer_factory.hpp:77] Creating layer conv1
I0815 14:02:16.211976 26769 net.cpp:100] Creating Layer conv1
I0815 14:02:16.211984 26769 net.cpp:434] conv1 <- data
I0815 14:02:16.211997 26769 net.cpp:408] conv1 -> conv1
I0815 14:02:16.213192 26769 net.cpp:150] Setting up conv1
I0815 14:02:16.213217 26769 net.cpp:157] Top shape: 64 20 76 76 (7393280)
I0815 14:02:16.213228 26769 net.cpp:165] Memory required for data: 34490368
I0815 14:02:16.213246 26769 layer_factory.hpp:77] Creating layer relu1
I0815 14:02:16.213259 26769 net.cpp:100] Creating Layer relu1
I0815 14:02:16.213270 26769 net.cpp:434] relu1 <- conv1
I0815 14:02:16.213280 26769 net.cpp:395] relu1 -> conv1 (in-place)
I0815 14:02:16.213500 26769 net.cpp:150] Setting up relu1
I0815 14:02:16.213515 26769 net.cpp:157] Top shape: 64 20 76 76 (7393280)
I0815 14:02:16.213524 26769 net.cpp:165] Memory required for data: 64063488
I0815 14:02:16.213536 26769 layer_factory.hpp:77] Creating layer pool1
I0815 14:02:16.213548 26769 net.cpp:100] Creating Layer pool1
I0815 14:02:16.213557 26769 net.cpp:434] pool1 <- conv1
I0815 14:02:16.213567 26769 net.cpp:408] pool1 -> pool1
I0815 14:02:16.213611 26769 net.cpp:150] Setting up pool1
I0815 14:02:16.213626 26769 net.cpp:157] Top shape: 64 20 38 38 (1848320)
I0815 14:02:16.213657 26769 net.cpp:165] Memory required for data: 71456768
I0815 14:02:16.213666 26769 layer_factory.hpp:77] Creating layer conv2
I0815 14:02:16.213687 26769 net.cpp:100] Creating Layer conv2
I0815 14:02:16.213697 26769 net.cpp:434] conv2 <- pool1
I0815 14:02:16.213708 26769 net.cpp:408] conv2 -> conv2
I0815 14:02:16.214879 26769 net.cpp:150] Setting up conv2
I0815 14:02:16.214898 26769 net.cpp:157] Top shape: 64 48 34 34 (3551232)
I0815 14:02:16.214908 26769 net.cpp:165] Memory required for data: 85661696
I0815 14:02:16.214922 26769 layer_factory.hpp:77] Creating layer relu2
I0815 14:02:16.214942 26769 net.cpp:100] Creating Layer relu2
I0815 14:02:16.214951 26769 net.cpp:434] relu2 <- conv2
I0815 14:02:16.214962 26769 net.cpp:395] relu2 -> conv2 (in-place)
I0815 14:02:16.215140 26769 net.cpp:150] Setting up relu2
I0815 14:02:16.215154 26769 net.cpp:157] Top shape: 64 48 34 34 (3551232)
I0815 14:02:16.215163 26769 net.cpp:165] Memory required for data: 99866624
I0815 14:02:16.215174 26769 layer_factory.hpp:77] Creating layer pool2
I0815 14:02:16.215188 26769 net.cpp:100] Creating Layer pool2
I0815 14:02:16.215198 26769 net.cpp:434] pool2 <- conv2
I0815 14:02:16.215209 26769 net.cpp:408] pool2 -> pool2
I0815 14:02:16.215250 26769 net.cpp:150] Setting up pool2
I0815 14:02:16.215263 26769 net.cpp:157] Top shape: 64 48 17 17 (887808)
I0815 14:02:16.215271 26769 net.cpp:165] Memory required for data: 103417856
I0815 14:02:16.215281 26769 layer_factory.hpp:77] Creating layer conv3
I0815 14:02:16.215296 26769 net.cpp:100] Creating Layer conv3
I0815 14:02:16.215306 26769 net.cpp:434] conv3 <- pool2
I0815 14:02:16.215318 26769 net.cpp:408] conv3 -> conv3
I0815 14:02:16.217025 26769 net.cpp:150] Setting up conv3
I0815 14:02:16.217048 26769 net.cpp:157] Top shape: 64 64 15 15 (921600)
I0815 14:02:16.217057 26769 net.cpp:165] Memory required for data: 107104256
I0815 14:02:16.217069 26769 layer_factory.hpp:77] Creating layer relu3
I0815 14:02:16.217082 26769 net.cpp:100] Creating Layer relu3
I0815 14:02:16.217092 26769 net.cpp:434] relu3 <- conv3
I0815 14:02:16.217102 26769 net.cpp:395] relu3 -> conv3 (in-place)
I0815 14:02:16.217206 26769 net.cpp:150] Setting up relu3
I0815 14:02:16.217222 26769 net.cpp:157] Top shape: 64 64 15 15 (921600)
I0815 14:02:16.217231 26769 net.cpp:165] Memory required for data: 110790656
I0815 14:02:16.217243 26769 layer_factory.hpp:77] Creating layer ip1
I0815 14:02:16.217258 26769 net.cpp:100] Creating Layer ip1
I0815 14:02:16.217267 26769 net.cpp:434] ip1 <- conv3
I0815 14:02:16.217278 26769 net.cpp:408] ip1 -> ip1
I0815 14:02:16.273730 26769 net.cpp:150] Setting up ip1
I0815 14:02:16.273779 26769 net.cpp:157] Top shape: 64 512 (32768)
I0815 14:02:16.273789 26769 net.cpp:165] Memory required for data: 110921728
I0815 14:02:16.273807 26769 layer_factory.hpp:77] Creating layer relu5
I0815 14:02:16.273823 26769 net.cpp:100] Creating Layer relu5
I0815 14:02:16.273833 26769 net.cpp:434] relu5 <- ip1
I0815 14:02:16.273844 26769 net.cpp:395] relu5 -> ip1 (in-place)
I0815 14:02:16.273931 26769 net.cpp:150] Setting up relu5
I0815 14:02:16.273947 26769 net.cpp:157] Top shape: 64 512 (32768)
I0815 14:02:16.273954 26769 net.cpp:165] Memory required for data: 111052800
I0815 14:02:16.273964 26769 layer_factory.hpp:77] Creating layer drop1
I0815 14:02:16.273979 26769 net.cpp:100] Creating Layer drop1
I0815 14:02:16.273988 26769 net.cpp:434] drop1 <- ip1
I0815 14:02:16.273998 26769 net.cpp:395] drop1 -> ip1 (in-place)
I0815 14:02:16.274026 26769 net.cpp:150] Setting up drop1
I0815 14:02:16.274039 26769 net.cpp:157] Top shape: 64 512 (32768)
I0815 14:02:16.274049 26769 net.cpp:165] Memory required for data: 111183872
I0815 14:02:16.274056 26769 layer_factory.hpp:77] Creating layer ip1_drop1_0_split
I0815 14:02:16.274070 26769 net.cpp:100] Creating Layer ip1_drop1_0_split
I0815 14:02:16.274080 26769 net.cpp:434] ip1_drop1_0_split <- ip1
I0815 14:02:16.274091 26769 net.cpp:408] ip1_drop1_0_split -> ip1_drop1_0_split_0
I0815 14:02:16.274106 26769 net.cpp:408] ip1_drop1_0_split -> ip1_drop1_0_split_1
I0815 14:02:16.274171 26769 net.cpp:150] Setting up ip1_drop1_0_split
I0815 14:02:16.274184 26769 net.cpp:157] Top shape: 64 512 (32768)
I0815 14:02:16.274194 26769 net.cpp:157] Top shape: 64 512 (32768)
I0815 14:02:16.274202 26769 net.cpp:165] Memory required for data: 111446016
I0815 14:02:16.274210 26769 layer_factory.hpp:77] Creating layer ip2
I0815 14:02:16.274224 26769 net.cpp:100] Creating Layer ip2
I0815 14:02:16.274236 26769 net.cpp:434] ip2 <- ip1_drop1_0_split_0
I0815 14:02:16.274250 26769 net.cpp:408] ip2 -> ip2
I0815 14:02:16.274349 26769 net.cpp:150] Setting up ip2
I0815 14:02:16.274364 26769 net.cpp:157] Top shape: 64 2 (128)
I0815 14:02:16.274374 26769 net.cpp:165] Memory required for data: 111446528
I0815 14:02:16.274384 26769 layer_factory.hpp:77] Creating layer ip2_ip2_0_split
I0815 14:02:16.274395 26769 net.cpp:100] Creating Layer ip2_ip2_0_split
I0815 14:02:16.274405 26769 net.cpp:434] ip2_ip2_0_split <- ip2
I0815 14:02:16.274415 26769 net.cpp:408] ip2_ip2_0_split -> ip2_ip2_0_split_0
I0815 14:02:16.274426 26769 net.cpp:408] ip2_ip2_0_split -> ip2_ip2_0_split_1
I0815 14:02:16.274464 26769 net.cpp:150] Setting up ip2_ip2_0_split
I0815 14:02:16.274478 26769 net.cpp:157] Top shape: 64 2 (128)
I0815 14:02:16.274487 26769 net.cpp:157] Top shape: 64 2 (128)
I0815 14:02:16.274495 26769 net.cpp:165] Memory required for data: 111447552
I0815 14:02:16.274503 26769 layer_factory.hpp:77] Creating layer loss1
I0815 14:02:16.274518 26769 net.cpp:100] Creating Layer loss1
I0815 14:02:16.274526 26769 net.cpp:434] loss1 <- ip2_ip2_0_split_0
I0815 14:02:16.274536 26769 net.cpp:434] loss1 <- glasses_slice1_0_split_0
I0815 14:02:16.274546 26769 net.cpp:408] loss1 -> loss1
…
