…
  stage: ""
}
layer {
  name: "data"
  type: "Data"
  top: "data"
  include {
    phase: TRAIN
  }
  transform_param {
    scale: 0.00390625
  }
  data_param {
    source: "/home/jaychou/code/new_caffe/caffe-master/examples/gender_glasses/gender_glasses_train_lmdb"
    batch_size: 100
    backend: LMDB
  }
}
layer {
  name: "labels"
  type: "Data"
  top: "labels"
  include {
    phase: TRAIN
  }
  data_param {
    source: "/home/jaychou/code/new_caffe/caffe-master/examples/gender_glasses/gender_glasses_train_label_lmdb"
    batch_size: 100
    backend: LMDB
  }
}
layer {
  name: "slice1"
  type: "Slice"
  bottom: "labels"
  top: "glasses"
  top: "gender"
  slice_param {
    slice_dim: 1
    slice_point: 1
  }
}
layer {
  name: "conv1"
  type: "Convolution"
  bottom: "data"
  top: "conv1"
  param {
    lr_mult: 1
  }
  param {
    lr_mult: 0.1
  }
  convolution_param {
    num_output: 20
    pad: 0
    kernel_size: 5
    stride: 1
    weight_filler {
      type: "xavier"
    }
    bias_filler {
      type: "constant"
      value: 0
    }
  }
}
layer {
  name: "relu1"
  type: "PReLU"
  bottom: "conv1"
  top: "conv1"
}
layer {
  name: "pool1"
  type: "Pooling"
  bottom: "conv1"
  top: "pool1"
  pooling_param {
    pool: MAX
    kernel_size: 2
    stride: 2
  }
}
layer {
  name: "conv2"
  type: "Convolution"
  bottom: "pool1"
  top: "conv2"
  param {
    lr_mult: 1
  }
  param {
    lr_mult: 0.1
  }
  convolution_param {
    num_output: 48
    pad: 0
    kernel_size: 5
    stride: 1
    weight_filler {
      type: "xavier"
    }
    bias_filler {
      type: "constant"
      value: 0
    }
  }
}
layer {
  name: "relu2"
  type: "PReLU"
  bottom: "conv2"
  top: "conv2"
}
layer {
  name: "pool2"
  type: "Pooling"
  bottom: "conv2"
  top: "pool2"
  pooling_param {
    pool: MAX
    kernel_size: 2
    stride: 2
  }
}
layer {
  name: "conv3"
  type: "Convolution"
  bottom: "pool2"
  top: "conv3"
  param {
    lr_mult: 0.1
  }
  param {
    lr_mult: 0.1
  }
  convolution_param {
    num_output: 64
    pad: 0
    kernel_size: 3
    stride: 1
    weight_filler {
      type: "xavier"
    }
    bias_filler {
      type: "constant"
      value: 0
    }
  }
}
layer {
  name: "relu3"
  type: "PReLU"
  bottom: "conv3"
  top: "conv3"
}
layer {
  name: "ip1"
  type: "InnerProduct"
  bottom: "conv3"
  top: "ip1"
  inner_product_param {
    num_output: 512
    weight_filler {
      type: "xavier"
    }
    bias_filler {
      type: "constant"
    }
  }
}
layer {
  name: "relu5"
  type: "PReLU"
  bottom: "ip1"
  top: "ip1"
}
layer {
  name: "drop1"
  type: "Dropout"
  bottom: "ip1"
  top: "ip1"
  dropout_param {
    dropout_ratio: 0.5
  }
}
layer {
  name: "ip2"
  type: "InnerProduct"
  bottom: "ip1"
  top: "ip2"
  inner_product_param {
    num_output: 2
    weight_filler {
      type: "xavier"
    }
    bias_filler {
      type: "constant"
    }
  }
}
layer {
  name: "loss1"
  type: "SoftmaxWithLoss"
  bottom: "ip2"
  bottom: "glasses"
  top: "loss1"
  loss_weight: 0.5
}
layer {
  name: "ip3"
  type: "InnerProduct"
  bottom: "ip1"
  top: "ip3"
  inner_product_param {
    num_output: 512
    weight_filler {
      type: "xavier"
    }
    bias_filler {
      type: "constant"
    }
  }
}
layer {
  name: "loss2"
  type: "SoftmaxWithLoss"
  bottom: "ip3"
  bottom: "gender"
  top: "loss2"
  loss_weight: 0.5
}
I0815 12:00:12.189611 15726 layer_factory.hpp:77] Creating layer data
I0815 12:00:12.189978 15726 net.cpp:100] Creating Layer data
I0815 12:00:12.189996 15726 net.cpp:408] data -> data
I0815 12:00:12.191542 15730 db_lmdb.cpp:35] Opened lmdb /home/jaychou/code/new_caffe/caffe-master/examples/gender_glasses/gender_glasses_train_lmdb
I0815 12:00:12.199713 15726 data_layer.cpp:41] output data size: 100,3,120,120
I0815 12:00:12.225088 15726 net.cpp:150] Setting up data
I0815 12:00:12.225136 15726 net.cpp:157] Top shape: 100 3 120 120 (4320000)
I0815 12:00:12.225147 15726 net.cpp:165] Memory required for data: 17280000
I0815 12:00:12.225163 15726 layer_factory.hpp:77] Creating layer labels
I0815 12:00:12.225365 15726 net.cpp:100] Creating Layer labels
I0815 12:00:12.225383 15726 net.cpp:408] labels -> labels
I0815 12:00:12.226768 15732 db_lmdb.cpp:35] Opened lmdb /home/jaychou/code/new_caffe/caffe-master/examples/gender_glasses/gender_glasses_train_label_lmdb
I0815 12:00:12.228057 15726 data_layer.cpp:41] output data size: 100,2,1,1
I0815 12:00:12.228410 15726 net.cpp:150] Setting up labels
I0815 12:00:12.228430 15726 net.cpp:157] Top shape: 100 2 1 1 (200)
I0815 12:00:12.228438 15726 net.cpp:165] Memory required for data: 17280800
I0815 12:00:12.228447 15726 layer_factory.hpp:77] Creating layer slice1
I0815 12:00:12.228466 15726 net.cpp:100] Creating Layer slice1
I0815 12:00:12.228478 15726 net.cpp:434] slice1 <- labels
I0815 12:00:12.228497 15726 net.cpp:408] slice1 -> glasses
I0815 12:00:12.228513 15726 net.cpp:408] slice1 -> gender
I0815 12:00:12.228562 15726 net.cpp:150] Setting up slice1
I0815 12:00:12.228577 15726 net.cpp:157] Top shape: 100 1 1 1 (100)
I0815 12:00:12.228588 15726 net.cpp:157] Top shape: 100 1 1 1 (100)
I0815 12:00:12.228596 15726 net.cpp:165] Memory required for data: 17281600
I0815 12:00:12.228605 15726 layer_factory.hpp:77] Creating layer conv1
I0815 12:00:12.228626 15726 net.cpp:100] Creating Layer conv1
I0815 12:00:12.228638 15726 net.cpp:434] conv1 <- data
I0815 12:00:12.228649 15726 net.cpp:408] conv1 -> conv1
I0815 12:00:12.228960 15731 blocking_queue.cpp:50] Waiting for data
I0815 12:00:12.413997 15726 net.cpp:150] Setting up conv1
I0815 12:00:12.414043 15726 net.cpp:157] Top shape: 100 20 116 116 (26912000)
I0815 12:00:12.414054 15726 net.cpp:165] Memory required for data: 124929600
I0815 12:00:12.414080 15726 layer_factory.hpp:77] Creating layer relu1
I0815 12:00:12.414098 15726 net.cpp:100] Creating Layer relu1
I0815 12:00:12.414109 15726 net.cpp:434] relu1 <- conv1
I0815 12:00:12.414121 15726 net.cpp:395] relu1 -> conv1 (in-place)
I0815 12:00:12.414713 15726 net.cpp:150] Setting up relu1
I0815 12:00:12.414733 15726 net.cpp:157] Top shape: 100 20 116 116 (26912000)
I0815 12:00:12.414742 15726 net.cpp:165] Memory required for data: 232577600
I0815 12:00:12.414755 15726 layer_factory.hpp:77] Creating layer pool1
I0815 12:00:12.414769 15726 net.cpp:100] Creating Layer pool1
I0815 12:00:12.414778 15726 net.cpp:434] pool1 <- conv1
I0815 12:00:12.414789 15726 net.cpp:408] pool1 -> pool1
I0815 12:00:12.414835 15726 net.cpp:150] Setting up pool1
I0815 12:00:12.414850 15726 net.cpp:157] Top shape: 100 20 58 58 (6728000)
I0815 12:00:12.414860 15726 net.cpp:165] Memory required for data: 259489600
I0815 12:00:12.414868 15726 layer_factory.hpp:77] Creating layer conv2
I0815 12:00:12.414885 15726 net.cpp:100] Creating Layer conv2
I0815 12:00:12.414893 15726 net.cpp:434] conv2 <- pool1
I0815 12:00:12.414906 15726 net.cpp:408] conv2 -> conv2
I0815 12:00:12.416227 15726 net.cpp:150] Setting up conv2
I0815 12:00:12.416268 15726 net.cpp:157] Top shape: 100 48 54 54 (13996800)
I0815 12:00:12.416280 15726 net.cpp:165] Memory required for data: 315476800
I0815 12:00:12.416293 15726 layer_factory.hpp:77] Creating layer relu2
I0815 12:00:12.416306 15726 net.cpp:100] Creating Layer relu2
I0815 12:00:12.416314 15726 net.cpp:434] relu2 <- conv2
I0815 12:00:12.416324 15726 net.cpp:395] relu2 -> conv2 (in-place)
I0815 12:00:12.416841 15726 net.cpp:150] Setting up relu2
I0815 12:00:12.416858 15726 net.cpp:157] Top shape: 100 48 54 54 (13996800)
I0815 12:00:12.416868 15726 net.cpp:165] Memory required for data: 371464000
I0815 12:00:12.416879 15726 layer_factory.hpp:77] Creating layer pool2
I0815 12:00:12.416893 15726 net.cpp:100] Creating Layer pool2
I0815 12:00:12.416903 15726 net.cpp:434] pool2 <- conv2
I0815 12:00:12.416913 15726 net.cpp:408] pool2 -> pool2
I0815 12:00:12.416951 15726 net.cpp:150] Setting up pool2
I0815 12:00:12.416965 15726 net.cpp:157] Top shape: 100 48 27 27 (3499200)
I0815 12:00:12.416975 15726 net.cpp:165] Memory required for data: 385460800
I0815 12:00:12.416982 15726 layer_factory.hpp:77] Creating layer conv3
I0815 12:00:12.416997 15726 net.cpp:100] Creating Layer conv3
I0815 12:00:12.417006 15726 net.cpp:434] conv3 <- pool2
I0815 12:00:12.417017 15726 net.cpp:408] conv3 -> conv3
I0815 12:00:12.418221 15726 net.cpp:150] Setting up conv3
I0815 12:00:12.418243 15726 net.cpp:157] Top shape: 100 64 25 25 (4000000)
I0815 12:00:12.418253 15726 net.cpp:165] Memory required for data: 401460800
I0815 12:00:12.418267 15726 layer_factory.hpp:77] Creating layer relu3
I0815 12:00:12.418277 15726 net.cpp:100] Creating Layer relu3
I0815 12:00:12.418287 15726 net.cpp:434] relu3 <- conv3
I0815 12:00:12.418297 15726 net.cpp:395] relu3 -> conv3 (in-place)
I0815 12:00:12.418402 15726 net.cpp:150] Setting up relu3
I0815 12:00:12.418417 15726 net.cpp:157] Top shape: 100 64 25 25 (4000000)
I0815 12:00:12.418427 15726 net.cpp:165] Memory required for data: 417460800
I0815 12:00:12.418440 15726 layer_factory.hpp:77] Creating layer ip1
I0815 12:00:12.418457 15726 net.cpp:100] Creating Layer ip1
I0815 12:00:12.418467 15726 net.cpp:434] ip1 <- conv3
I0815 12:00:12.418478 15726 net.cpp:408] ip1 -> ip1
I0815 12:00:12.570613 15726 net.cpp:150] Setting up ip1
I0815 12:00:12.570660 15726 net.cpp:157] Top shape: 100 512 (51200)
I0815 12:00:12.570670 15726 net.cpp:165] Memory required for data: 417665600
I0815 12:00:12.570688 15726 layer_factory.hpp:77] Creating layer relu5
I0815 12:00:12.570703 15726 net.cpp:100] Creating Layer relu5
I0815 12:00:12.570713 15726 net.cpp:434] relu5 <- ip1
I0815 12:00:12.570725 15726 net.cpp:395] relu5 -> ip1 (in-place)
I0815 12:00:12.570803 15726 net.cpp:150] Setting up relu5
I0815 12:00:12.570817 15726 net.cpp:157] Top shape: 100 512 (51200)
I0815 12:00:12.570827 15726 net.cpp:165] Memory required for data: 417870400
I0815 12:00:12.570837 15726 layer_factory.hpp:77] Creating layer drop1
I0815 12:00:12.570857 15726 net.cpp:100] Creating Layer drop1
I0815 12:00:12.570866 15726 net.cpp:434] drop1 <- ip1
I0815 12:00:12.570876 15726 net.cpp:395] drop1 -> ip1 (in-place)
I0815 12:00:12.570910 15726 net.cpp:150] Setting up drop1
I0815 12:00:12.570924 15726 net.cpp:157] Top shape: 100 512 (51200)
I0815 12:00:12.570932 15726 net.cpp:165] Memory required for data: 418075200
I0815 12:00:12.570941 15726 layer_factory.hpp:77] Creating layer ip1_drop1_0_split
I0815 12:00:12.570955 15726 net.cpp:100] Creating Layer ip1_drop1_0_split
I0815 12:00:12.570965 15726 net.cpp:434] ip1_drop1_0_split <- ip1
I0815 12:00:12.570974 15726 net.cpp:408] ip1_drop1_0_split -> ip1_drop1_0_split_0
I0815 12:00:12.570987 15726 net.cpp:408] ip1_drop1_0_split -> ip1_drop1_0_split_1
I0815 12:00:12.571028 15726 net.cpp:150] Setting up ip1_drop1_0_split
I0815 12:00:12.571040 15726 net.cpp:157] Top shape: 100 512 (51200)
I0815 12:00:12.571050 15726 net.cpp:157] Top shape: 100 512 (51200)
I0815 12:00:12.571059 15726 net.cpp:165] Memory required for data: 418484800
I0815 12:00:12.571068 15726 layer_factory.hpp:77] Creating layer ip2
I0815 12:00:12.571080 15726 net.cpp:100] Creating Layer ip2
I0815 12:00:12.571113 15726 net.cpp:434] ip2 <- ip1_drop1_0_split_0
I0815 12:00:12.571125 15726 net.cpp:408] ip2 -> ip2
I0815 12:00:12.571215 15726 net.cpp:150] Setting up ip2
I0815 12:00:12.571230 15726 net.cpp:157] Top shape: 100 2 (200)
I0815 12:00:12.571239 15726 net.cpp:165] Memory required for data: 418485600
I0815 12:00:12.571250 15726 layer_factory.hpp:77] Creating layer loss1
I0815 12:00:12.571266 15726 net.cpp:100] Creating Layer loss1
I0815 12:00:12.571275 15726 net.cpp:434] loss1 <- ip2
I0815 12:00:12.571285 15726 net.cpp:434] loss1 <- glasses
I0815 12:00:12.571296 15726 net.cpp:408] loss1 -> loss1
I0815 12:00:12.571311 15726 layer_factory.hpp:77] Creating layer loss1
I0815 12:00:12.571758 15726 net.cpp:150] Setting up loss1
I0815 12:00:12.571775 15726 net.cpp:157] Top shape: (1)
I0815 12:00:12.571784 15726 net.cpp:160]     with loss weight 0.5
I0815 12:00:12.571810 15726 net.cpp:165] Memory required for data: 418485604
I0815 12:00:12.571820 15726 layer_factory.hpp:77] Creating layer ip3
I0815 12:00:12.571831 15726 net.cpp:100] Creating Layer ip3
I0815 12:00:12.571841 15726 net.cpp:434] ip3 <- ip1_drop1_0_split_1
I0815 12:00:12.571851 15726 net.cpp:408] ip3 -> ip3
I0815 12:00:12.573912 15726 net.cpp:150] Setting up ip3
I0815 12:00:12.573933 15726 net.cpp:157] Top shape: 100 512 (51200)
I0815 12:00:12.573942 15726 net.cpp:165] Memory required for data: 418690404
I0815 12:00:12.573956 15726 layer_factory.hpp:77] Creating layer loss2
I0815 12:00:12.573967 15726 net.cpp:100] Creating Layer loss2
I0815 12:00:12.573976 15726 net.cpp:434] loss2 <- ip3
I0815 12:00:12.573987 15726 net.cpp:434] loss2 <- gender
I0815 12:00:12.573997 15726 net.cpp:408] loss2 -> loss2
I0815 12:00:12.574010 15726 layer_factory.hpp:77] Creating layer loss2
…
  phase: TEST
}
layer {
  name: "data"
  type: "Data"
  top: "data"
  include {
    phase: TEST
  }
  transform_param {
    scale: 0.00390625
  }
  data_param {
    source: "/home/jaychou/code/new_caffe/caffe-master/examples/gender_glasses/gender_glasses_val_lmdb"
    batch_size: 64
    backend: LMDB
  }
}
layer {
  name: "labels"
  type: "Data"
  top: "labels"
  include {
    phase: TEST
  }
  data_param {
    source: "/home/jaychou/code/new_caffe/caffe-master/examples/gender_glasses/gender_glasses_val_label_lmdb"
    batch_size: 64
    backend: LMDB
  }
}
layer {
  name: "slice1"
  type: "Slice"
  bottom: "labels"
  top: "glasses"
  top: "gender"
  slice_param {
    slice_dim: 1
    slice_point: 1
  }
}
layer {
  name: "conv1"
  type: "Convolution"
  bottom: "data"
  top: "conv1"
  param {
    lr_mult: 1
  }
  param {
    lr_mult: 0.1
  }
  convolution_param {
    num_output: 20
    pad: 0
    kernel_size: 5
    stride: 1
    weight_filler {
      type: "xavier"
    }
    bias_filler {
      type: "constant"
      value: 0
    }
  }
}
layer {
  name: "relu1"
  type: "PReLU"
  bottom: "conv1"
  top: "conv1"
}
layer {
  name: "pool1"
  type: "Pooling"
  bottom: "conv1"
  top: "pool1"
  pooling_param {
    pool: MAX
    kernel_size: 2
    stride: 2
  }
}
layer {
  name: "conv2"
  type: "Convolution"
  bottom: "pool1"
  top: "conv2"
  param {
    lr_mult: 1
  }
  param {
    lr_mult: 0.1
  }
  convolution_param {
    num_output: 48
    pad: 0
    kernel_size: 5
    stride: 1
    weight_filler {
      type: "xavier"
    }
    bias_filler {
      type: "constant"
      value: 0
    }
  }
}
layer {
  name: "relu2"
  type: "PReLU"
  bottom: "conv2"
  top: "conv2"
}
layer {
  name: "pool2"
  type: "Pooling"
  bottom: "conv2"
  top: "pool2"
  pooling_param {
    pool: MAX
    kernel_size: 2
    stride: 2
  }
}
layer {
  name: "conv3"
  type: "Convolution"
  bottom: "pool2"
  top: "conv3"
  param {
    lr_mult: 0.1
  }
  param {
    lr_mult: 0.1
  }
  convolution_param {
    num_output: 64
    pad: 0
    kernel_size: 3
    stride: 1
    weight_filler {
      type: "xavier"
    }
    bias_filler {
      type: "constant"
      value: 0
    }
  }
}
layer {
  name: "relu3"
  type: "PReLU"
  bottom: "conv3"
  top: "conv3"
}
layer {
  name: "ip1"
  type: "InnerProduct"
  bottom: "conv3"
  top: "ip1"
  inner_product_param {
    num_output: 512
    weight_filler {
      type: "xavier"
    }
    bias_filler {
      type: "constant"
    }
  }
}
layer {
  name: "relu5"
  type: "PReLU"
  bottom: "ip1"
  top: "ip1"
}
layer {
  name: "drop1"
  type: "Dropout"
  bottom: "ip1"
  top: "ip1"
  dropout_param {
    dropout_ratio: 0.5
  }
}
layer {
  name: "ip2"
  type: "InnerProduct"
  bottom: "ip1"
  top: "ip2"
  inner_product_param {
    num_output: 2
    weight_filler {
      type: "xavier"
    }
    bias_filler {
      type: "constant"
    }
  }
}
layer {
  name: "loss1"
  type: "SoftmaxWithLoss"
  bottom: "ip2"
  bottom: "glasses"
  top: "loss1"
  loss_weight: 0.5
}
layer {
  name: "accuracy_glasses"
  type: "Accuracy"
  bottom: "ip2"
  bottom: "glasses"
  top: "accuracy_glasses"
  include {
    phase: TEST
  }
}
layer {
  name: "ip3"
  type: "InnerProduct"
  bottom: "ip1"
  top: "ip3"
  inner_product_param {
    num_output: 512
    weight_filler {
      type: "xavier"
    }
    bias_filler {
      type: "constant"
    }
  }
}
layer {
  name: "loss2"
  type: "SoftmaxWithLoss"
  bottom: "ip3"
  bottom: "gender"
  top: "loss2"
  loss_weight: 0.5
}
layer {
  name: "accuracy_gender"
  type: "Accuracy"
  bottom: "ip3"
  bottom: "gender"
  top: "accuracy_gender"
  include {
    phase: TEST
  }
}
I0815 12:00:12.575992 15726 layer_factory.hpp:77] Creating layer data
I0815 12:00:12.576084 15726 net.cpp:100] Creating Layer data
I0815 12:00:12.576099 15726 net.cpp:408] data -> data
I0815 12:00:12.577033 15734 db_lmdb.cpp:35] Opened lmdb /home/jaychou/code/new_caffe/caffe-master/examples/gender_glasses/gender_glasses_val_lmdb
I0815 12:00:12.577179 15726 data_layer.cpp:41] output data size: 64,3,120,120
I0815 12:00:12.596874 15726 net.cpp:150] Setting up data
I0815 12:00:12.596918 15726 net.cpp:157] Top shape: 64 3 120 120 (2764800)
I0815 12:00:12.596928 15726 net.cpp:165] Memory required for data: 11059200
I0815 12:00:12.596940 15726 layer_factory.hpp:77] Creating layer labels
I0815 12:00:12.597024 15726 net.cpp:100] Creating Layer labels
I0815 12:00:12.597038 15726 net.cpp:408] labels -> labels
I0815 12:00:12.599108 15736 db_lmdb.cpp:35] Opened lmdb /home/jaychou/code/new_caffe/caffe-master/examples/gender_glasses/gender_glasses_val_label_lmdb
I0815 12:00:12.600119 15726 data_layer.cpp:41] output data size: 64,2,1,1
I0815 12:00:12.600291 15726 net.cpp:150] Setting up labels
I0815 12:00:12.600312 15726 net.cpp:157] Top shape: 64 2 1 1 (128)
I0815 12:00:12.600322 15726 net.cpp:165] Memory required for data: 11059712
I0815 12:00:12.600332 15726 layer_factory.hpp:77] Creating layer slice1
I0815 12:00:12.600347 15726 net.cpp:100] Creating Layer slice1
I0815 12:00:12.600358 15726 net.cpp:434] slice1 <- labels
I0815 12:00:12.600368 15726 net.cpp:408] slice1 -> glasses
I0815 12:00:12.600384 15726 net.cpp:408] slice1 -> gender
I0815 12:00:12.600426 15726 net.cpp:150] Setting up slice1
I0815 12:00:12.600443 15726 net.cpp:157] Top shape: 64 1 1 1 (64)
I0815 12:00:12.600455 15726 net.cpp:157] Top shape: 64 1 1 1 (64)
I0815 12:00:12.600462 15726 net.cpp:165] Memory required for data: 11060224
I0815 12:00:12.600471 15726 layer_factory.hpp:77] Creating layer glasses_slice1_0_split
I0815 12:00:12.600481 15726 net.cpp:100] Creating Layer glasses_slice1_0_split
I0815 12:00:12.600491 15726 net.cpp:434] glasses_slice1_0_split <- glasses
I0815 12:00:12.600500 15726 net.cpp:408] glasses_slice1_0_split -> glasses_slice1_0_split_0
I0815 12:00:12.600512 15726 net.cpp:408] glasses_slice1_0_split -> glasses_slice1_0_split_1
I0815 12:00:12.600556 15726 net.cpp:150] Setting up glasses_slice1_0_split
I0815 12:00:12.600570 15726 net.cpp:157] Top shape: 64 1 1 1 (64)
I0815 12:00:12.600580 15726 net.cpp:157] Top shape: 64 1 1 1 (64)
I0815 12:00:12.600589 15726 net.cpp:165] Memory required for data: 11060736
I0815 12:00:12.600597 15726 layer_factory.hpp:77] Creating layer gender_slice1_1_split
I0815 12:00:12.600608 15726 net.cpp:100] Creating Layer gender_slice1_1_split
I0815 12:00:12.600616 15726 net.cpp:434] gender_slice1_1_split <- gender
I0815 12:00:12.600628 15726 net.cpp:408] gender_slice1_1_split -> gender_slice1_1_split_0
I0815 12:00:12.600641 15726 net.cpp:408] gender_slice1_1_split -> gender_slice1_1_split_1
I0815 12:00:12.600677 15726 net.cpp:150] Setting up gender_slice1_1_split
I0815 12:00:12.600692 15726 net.cpp:157] Top shape: 64 1 1 1 (64)
I0815 12:00:12.600702 15726 net.cpp:157] Top shape: 64 1 1 1 (64)
I0815 12:00:12.600709 15726 net.cpp:165] Memory required for data: 11061248
I0815 12:00:12.600718 15726 layer_factory.hpp:77] Creating layer conv1
I0815 12:00:12.600735 15726 net.cpp:100] Creating Layer conv1
I0815 12:00:12.600746 15726 net.cpp:434] conv1 <- data
I0815 12:00:12.600759 15726 net.cpp:408] conv1 -> conv1
I0815 12:00:12.601879 15726 net.cpp:150] Setting up conv1
I0815 12:00:12.601903 15726 net.cpp:157] Top shape: 64 20 116 116 (17223680)
I0815 12:00:12.601913 15726 net.cpp:165] Memory required for data: 79955968
I0815 12:00:12.601933 15726 layer_factory.hpp:77] Creating layer relu1
I0815 12:00:12.601946 15726 net.cpp:100] Creating Layer relu1
I0815 12:00:12.601956 15726 net.cpp:434] relu1 <- conv1
I0815 12:00:12.601969 15726 net.cpp:395] relu1 -> conv1 (in-place)
I0815 12:00:12.602624 15726 net.cpp:150] Setting up relu1
I0815 12:00:12.602651 15726 net.cpp:157] Top shape: 64 20 116 116 (17223680)
I0815 12:00:12.602660 15726 net.cpp:165] Memory required for data: 148850688
I0815 12:00:12.602674 15726 layer_factory.hpp:77] Creating layer pool1
I0815 12:00:12.602692 15726 net.cpp:100] Creating Layer pool1
I0815 12:00:12.602702 15726 net.cpp:434] pool1 <- conv1
I0815 12:00:12.602715 15726 net.cpp:408] pool1 -> pool1
I0815 12:00:12.602761 15726 net.cpp:150] Setting up pool1
I0815 12:00:12.602821 15726 net.cpp:157] Top shape: 64 20 58 58 (4305920)
I0815 12:00:12.602831 15726 net.cpp:165] Memory required for data: 166074368
I0815 12:00:12.602839 15726 layer_factory.hpp:77] Creating layer conv2
I0815 12:00:12.602859 15726 net.cpp:100] Creating Layer conv2
I0815 12:00:12.602869 15726 net.cpp:434] conv2 <- pool1
I0815 12:00:12.602895 15726 net.cpp:408] conv2 -> conv2
I0815 12:00:12.604077 15726 net.cpp:150] Setting up conv2
I0815 12:00:12.604105 15726 net.cpp:157] Top shape: 64 48 54 54 (8957952)
I0815 12:00:12.604115 15726 net.cpp:165] Memory required for data: 201906176
I0815 12:00:12.604130 15726 layer_factory.hpp:77] Creating layer relu2
I0815 12:00:12.604141 15726 net.cpp:100] Creating Layer relu2
I0815 12:00:12.604151 15726 net.cpp:434] relu2 <- conv2
I0815 12:00:12.604163 15726 net.cpp:395] relu2 -> conv2 (in-place)
I0815 12:00:12.604833 15726 net.cpp:150] Setting up relu2
I0815 12:00:12.604852 15726 net.cpp:157] Top shape: 64 48 54 54 (8957952)
I0815 12:00:12.604861 15726 net.cpp:165] Memory required for data: 237737984
I0815 12:00:12.604872 15726 layer_factory.hpp:77] Creating layer pool2
I0815 12:00:12.604893 15726 net.cpp:100] Creating Layer pool2
I0815 12:00:12.604903 15726 net.cpp:434] pool2 <- conv2
I0815 12:00:12.604915 15726 net.cpp:408] pool2 -> pool2
I0815 12:00:12.604959 15726 net.cpp:150] Setting up pool2
I0815 12:00:12.604971 15726 net.cpp:157] Top shape: 64 48 27 27 (2239488)
I0815 12:00:12.604980 15726 net.cpp:165] Memory required for data: 246695936
I0815 12:00:12.604991 15726 layer_factory.hpp:77] Creating layer conv3
I0815 12:00:12.605010 15726 net.cpp:100] Creating Layer conv3
I0815 12:00:12.605020 15726 net.cpp:434] conv3 <- pool2
I0815 12:00:12.605032 15726 net.cpp:408] conv3 -> conv3
I0815 12:00:12.606173 15726 net.cpp:150] Setting up conv3
I0815 12:00:12.606192 15726 net.cpp:157] Top shape: 64 64 25 25 (2560000)
I0815 12:00:12.606201 15726 net.cpp:165] Memory required for data: 256935936
I0815 12:00:12.606215 15726 layer_factory.hpp:77] Creating layer relu3
I0815 12:00:12.606227 15726 net.cpp:100] Creating Layer relu3
I0815 12:00:12.606236 15726 net.cpp:434] relu3 <- conv3
I0815 12:00:12.606247 15726 net.cpp:395] relu3 -> conv3 (in-place)
I0815 12:00:12.606382 15726 net.cpp:150] Setting up relu3
I0815 12:00:12.606396 15726 net.cpp:157] Top shape: 64 64 25 25 (2560000)
I0815 12:00:12.606405 15726 net.cpp:165] Memory required for data: 267175936
I0815 12:00:12.606420 15726 layer_factory.hpp:77] Creating layer ip1
I0815 12:00:12.606437 15726 net.cpp:100] Creating Layer ip1
I0815 12:00:12.606446 15726 net.cpp:434] ip1 <- conv3
I0815 12:00:12.606457 15726 net.cpp:408] ip1 -> ip1
I0815 12:00:12.763238 15726 net.cpp:150] Setting up ip1
I0815 12:00:12.763288 15726 net.cpp:157] Top shape: 64 512 (32768)
I0815 12:00:12.763298 15726 net.cpp:165] Memory required for data: 267307008
I0815 12:00:12.763315 15726 layer_factory.hpp:77] Creating layer relu5
I0815 12:00:12.763330 15726 net.cpp:100] Creating Layer relu5
I0815 12:00:12.763342 15726 net.cpp:434] relu5 <- ip1
I0815 12:00:12.763355 15726 net.cpp:395] relu5 -> ip1 (in-place)
I0815 12:00:12.763449 15726 net.cpp:150] Setting up relu5
I0815 12:00:12.763464 15726 net.cpp:157] Top shape: 64 512 (32768)
I0815 12:00:12.763473 15726 net.cpp:165] Memory required for data: 267438080
I0815 12:00:12.763484 15726 layer_factory.hpp:77] Creating layer drop1
I0815 12:00:12.763496 15726 net.cpp:100] Creating Layer drop1
I0815 12:00:12.763505 15726 net.cpp:434] drop1 <- ip1
I0815 12:00:12.763515 15726 net.cpp:395] drop1 -> ip1 (in-place)
I0815 12:00:12.763543 15726 net.cpp:150] Setting up drop1
I0815 12:00:12.763556 15726 net.cpp:157] Top shape: 64 512 (32768)
I0815 12:00:12.763566 15726 net.cpp:165] Memory required for data: 267569152
I0815 12:00:12.763573 15726 layer_factory.hpp:77] Creating layer ip1_drop1_0_split
I0815 12:00:12.763589 15726 net.cpp:100] Creating Layer ip1_drop1_0_split
I0815 12:00:12.763600 15726 net.cpp:434] ip1_drop1_0_split <- ip1
I0815 12:00:12.763610 15726 net.cpp:408] ip1_drop1_0_split -> ip1_drop1_0_split_0
I0815 12:00:12.763648 15726 net.cpp:408] ip1_drop1_0_split -> ip1_drop1_0_split_1
I0815 12:00:12.763689 15726 net.cpp:150] Setting up ip1_drop1_0_split
I0815 12:00:12.763702 15726 net.cpp:157] Top shape: 64 512 (32768)
I0815 12:00:12.763711 15726 net.cpp:157] Top shape: 64 512 (32768)
I0815 12:00:12.763720 15726 net.cpp:165] Memory required for data: 267831296
I0815 12:00:12.763728 15726 layer_factory.hpp:77] Creating layer ip2
I0815 12:00:12.763742 15726 net.cpp:100] Creating Layer ip2
I0815 12:00:12.763752 15726 net.cpp:434] ip2 <- ip1_drop1_0_split_0
I0815 12:00:12.763763 15726 net.cpp:408] ip2 -> ip2
I0815 12:00:12.763865 15726 net.cpp:150] Setting up ip2
I0815 12:00:12.763880 15726 net.cpp:157] Top shape: 64 2 (128)
I0815 12:00:12.763888 15726 net.cpp:165] Memory required for data: 267831808
I0815 12:00:12.763900 15726 layer_factory.hpp:77] Creating layer ip2_ip2_0_split
I0815 12:00:12.763911 15726 net.cpp:100] Creating Layer ip2_ip2_0_split
I0815 12:00:12.763921 15726 net.cpp:434] ip2_ip2_0_split <- ip2
I0815 12:00:12.763932 15726 net.cpp:408] ip2_ip2_0_split -> ip2_ip2_0_split_0
I0815 12:00:12.763944 15726 net.cpp:408] ip2_ip2_0_split -> ip2_ip2_0_split_1
I0815 12:00:12.763983 15726 net.cpp:150] Setting up ip2_ip2_0_split
I0815 12:00:12.763995 15726 net.cpp:157] Top shape: 64 2 (128)
I0815 12:00:12.764005 15726 net.cpp:157] Top shape: 64 2 (128)
I0815 12:00:12.764014 15726 net.cpp:165] Memory required for data: 267832832
I0815 12:00:12.764022 15726 layer_factory.hpp:77] Creating layer loss1
I0815 12:00:12.764032 15726 net.cpp:100] Creating Layer loss1
I0815 12:00:12.764041 15726 net.cpp:434] loss1 <- ip2_ip2_0_split_0
I0815 12:00:12.764051 15726 net.cpp:434] loss1 <- glasses_slice1_0_split_0
I0815 12:00:12.764061 15726 net.cpp:408] loss1 -> loss1
…
