…
  stage: ""
}
layer {
  name: "data"
  type: "Data"
  top: "data"
  include {
    phase: TRAIN
  }
  transform_param {
    scale: 0.00390625
  }
  data_param {
    source: "/home/jaychou/code/new_caffe/caffe-master/examples/gender_glasses/gender_glasses_train_lmdb"
    batch_size: 100
    backend: LMDB
  }
}
layer {
  name: "labels"
  type: "Data"
  top: "labels"
  include {
    phase: TRAIN
  }
  data_param {
    source: "/home/jaychou/code/new_caffe/caffe-master/examples/gender_glasses/gender_glasses_train_label_lmdb"
    batch_size: 100
    backend: LMDB
  }
}
layer {
  name: "slice1"
  type: "Slice"
  bottom: "labels"
  top: "glasses"
  top: "gender"
  slice_param {
    slice_dim: 1
    slice_point: 1
  }
}
layer {
  name: "conv1"
  type: "Convolution"
  bottom: "data"
  top: "conv1"
  param {
    lr_mult: 1
  }
  param {
    lr_mult: 0.1
  }
  convolution_param {
    num_output: 20
    pad: 0
    kernel_size: 5
    stride: 1
    weight_filler {
      type: "xavier"
    }
    bias_filler {
      type: "constant"
      value: 0
    }
  }
}
layer {
  name: "relu1"
  type: "PReLU"
  bottom: "conv1"
  top: "conv1"
}
layer {
  name: "pool1"
  type: "Pooling"
  bottom: "conv1"
  top: "pool1"
  pooling_param {
    pool: MAX
    kernel_size: 2
    stride: 2
  }
}
layer {
  name: "conv2"
  type: "Convolution"
  bottom: "pool1"
  top: "conv2"
  param {
    lr_mult: 1
  }
  param {
    lr_mult: 0.1
  }
  convolution_param {
    num_output: 48
    pad: 0
    kernel_size: 5
    stride: 1
    weight_filler {
      type: "xavier"
    }
    bias_filler {
      type: "constant"
      value: 0
    }
  }
}
layer {
  name: "relu2"
  type: "PReLU"
  bottom: "conv2"
  top: "conv2"
}
layer {
  name: "pool2"
  type: "Pooling"
  bottom: "conv2"
  top: "pool2"
  pooling_param {
    pool: MAX
    kernel_size: 2
    stride: 2
  }
}
layer {
  name: "conv3"
  type: "Convolution"
  bottom: "pool2"
  top: "conv3"
  param {
    lr_mult: 0.1
  }
  param {
    lr_mult: 0.1
  }
  convolution_param {
    num_output: 64
    pad: 0
    kernel_size: 3
    stride: 1
    weight_filler {
      type: "xavier"
    }
    bias_filler {
      type: "constant"
      value: 0
    }
  }
}
layer {
  name: "relu3"
  type: "PReLU"
  bottom: "conv3"
  top: "conv3"
}
layer {
  name: "ip1"
  type: "InnerProduct"
  bottom: "conv3"
  top: "ip1"
  inner_product_param {
    num_output: 512
    weight_filler {
      type: "xavier"
    }
    bias_filler {
      type: "constant"
    }
  }
}
layer {
  name: "relu5"
  type: "PReLU"
  bottom: "ip1"
  top: "ip1"
}
layer {
  name: "drop1"
  type: "Dropout"
  bottom: "ip1"
  top: "ip1"
  dropout_param {
    dropout_ratio: 0.5
  }
}
layer {
  name: "ip2"
  type: "InnerProduct"
  bottom: "ip1"
  top: "ip2"
  inner_product_param {
    num_output: 3
    weight_filler {
      type: "xavier"
    }
    bias_filler {
      type: "constant"
    }
  }
}
layer {
  name: "loss1"
  type: "SoftmaxWithLoss"
  bottom: "ip2"
  bottom: "glasses"
  top: "loss1"
  loss_weight: 0.5
}
layer {
  name: "ip3"
  type: "InnerProduct"
  bottom: "ip1"
  top: "ip3"
  inner_product_param {
    num_output: 2
    weight_filler {
      type: "xavier"
    }
    bias_filler {
      type: "constant"
    }
  }
}
layer {
  name: "loss2"
  type: "SoftmaxWithLoss"
  bottom: "ip3"
  bottom: "gender"
  top: "loss2"
  loss_weight: 0.5
}
I0824 17:35:50.574746  2794 layer_factory.hpp:77] Creating layer data
I0824 17:35:50.576951  2794 net.cpp:100] Creating Layer data
I0824 17:35:50.576990  2794 net.cpp:408] data -> data
I0824 17:35:50.577919  2798 db_lmdb.cpp:35] Opened lmdb /home/jaychou/code/new_caffe/caffe-master/examples/gender_glasses/gender_glasses_train_lmdb
I0824 17:35:50.651067  2794 data_layer.cpp:41] output data size: 100,3,80,80
I0824 17:35:50.663563  2794 net.cpp:150] Setting up data
I0824 17:35:50.663627  2794 net.cpp:157] Top shape: 100 3 80 80 (1920000)
I0824 17:35:50.663638  2794 net.cpp:165] Memory required for data: 7680000
I0824 17:35:50.663661  2794 layer_factory.hpp:77] Creating layer labels
I0824 17:35:50.664851  2794 net.cpp:100] Creating Layer labels
I0824 17:35:50.664890  2794 net.cpp:408] labels -> labels
I0824 17:35:50.670460  2800 db_lmdb.cpp:35] Opened lmdb /home/jaychou/code/new_caffe/caffe-master/examples/gender_glasses/gender_glasses_train_label_lmdb
I0824 17:35:50.670733  2794 data_layer.cpp:41] output data size: 100,2,1,1
I0824 17:35:50.671236  2794 net.cpp:150] Setting up labels
I0824 17:35:50.671320  2794 net.cpp:157] Top shape: 100 2 1 1 (200)
I0824 17:35:50.671382  2794 net.cpp:165] Memory required for data: 7680800
I0824 17:35:50.671448  2794 layer_factory.hpp:77] Creating layer slice1
I0824 17:35:50.671522  2794 net.cpp:100] Creating Layer slice1
I0824 17:35:50.671588  2794 net.cpp:434] slice1 <- labels
I0824 17:35:50.671669  2794 net.cpp:408] slice1 -> glasses
I0824 17:35:50.671747  2794 net.cpp:408] slice1 -> gender
I0824 17:35:50.671862  2794 net.cpp:150] Setting up slice1
I0824 17:35:50.671932  2794 net.cpp:157] Top shape: 100 1 1 1 (100)
I0824 17:35:50.671995  2794 net.cpp:157] Top shape: 100 1 1 1 (100)
I0824 17:35:50.672055  2794 net.cpp:165] Memory required for data: 7681600
I0824 17:35:50.672116  2794 layer_factory.hpp:77] Creating layer conv1
I0824 17:35:50.672200  2794 net.cpp:100] Creating Layer conv1
I0824 17:35:50.672266  2794 net.cpp:434] conv1 <- data
I0824 17:35:50.672334  2794 net.cpp:408] conv1 -> conv1
I0824 17:35:51.751565  2794 net.cpp:150] Setting up conv1
I0824 17:35:51.751628  2794 net.cpp:157] Top shape: 100 20 76 76 (11552000)
I0824 17:35:51.751646  2794 net.cpp:165] Memory required for data: 53889600
I0824 17:35:51.751684  2794 layer_factory.hpp:77] Creating layer relu1
I0824 17:35:51.751711  2794 net.cpp:100] Creating Layer relu1
I0824 17:35:51.751734  2794 net.cpp:434] relu1 <- conv1
I0824 17:35:51.751752  2794 net.cpp:395] relu1 -> conv1 (in-place)
I0824 17:35:51.752543  2794 net.cpp:150] Setting up relu1
I0824 17:35:51.752576  2794 net.cpp:157] Top shape: 100 20 76 76 (11552000)
I0824 17:35:51.752593  2794 net.cpp:165] Memory required for data: 100097600
I0824 17:35:51.752615  2794 layer_factory.hpp:77] Creating layer pool1
I0824 17:35:51.752637  2794 net.cpp:100] Creating Layer pool1
I0824 17:35:51.752657  2794 net.cpp:434] pool1 <- conv1
I0824 17:35:51.752676  2794 net.cpp:408] pool1 -> pool1
I0824 17:35:51.752753  2794 net.cpp:150] Setting up pool1
I0824 17:35:51.752789  2794 net.cpp:157] Top shape: 100 20 38 38 (2888000)
I0824 17:35:51.752813  2794 net.cpp:165] Memory required for data: 111649600
I0824 17:35:51.752828  2794 layer_factory.hpp:77] Creating layer conv2
I0824 17:35:51.752852  2794 net.cpp:100] Creating Layer conv2
I0824 17:35:51.752868  2794 net.cpp:434] conv2 <- pool1
I0824 17:35:51.752887  2794 net.cpp:408] conv2 -> conv2
I0824 17:35:51.754873  2794 net.cpp:150] Setting up conv2
I0824 17:35:51.754906  2794 net.cpp:157] Top shape: 100 48 34 34 (5548800)
I0824 17:35:51.754922  2794 net.cpp:165] Memory required for data: 133844800
I0824 17:35:51.754983  2794 layer_factory.hpp:77] Creating layer relu2
I0824 17:35:51.755007  2794 net.cpp:100] Creating Layer relu2
I0824 17:35:51.755022  2794 net.cpp:434] relu2 <- conv2
I0824 17:35:51.755038  2794 net.cpp:395] relu2 -> conv2 (in-place)
I0824 17:35:51.755211  2794 net.cpp:150] Setting up relu2
I0824 17:35:51.755236  2794 net.cpp:157] Top shape: 100 48 34 34 (5548800)
I0824 17:35:51.755250  2794 net.cpp:165] Memory required for data: 156040000
I0824 17:35:51.755267  2794 layer_factory.hpp:77] Creating layer pool2
I0824 17:35:51.755287  2794 net.cpp:100] Creating Layer pool2
I0824 17:35:51.755303  2794 net.cpp:434] pool2 <- conv2
I0824 17:35:51.755321  2794 net.cpp:408] pool2 -> pool2
I0824 17:35:51.755380  2794 net.cpp:150] Setting up pool2
I0824 17:35:51.755403  2794 net.cpp:157] Top shape: 100 48 17 17 (1387200)
I0824 17:35:51.755416  2794 net.cpp:165] Memory required for data: 161588800
I0824 17:35:51.755429  2794 layer_factory.hpp:77] Creating layer conv3
I0824 17:35:51.755451  2794 net.cpp:100] Creating Layer conv3
I0824 17:35:51.755465  2794 net.cpp:434] conv3 <- pool2
I0824 17:35:51.755483  2794 net.cpp:408] conv3 -> conv3
I0824 17:35:51.756788  2794 net.cpp:150] Setting up conv3
I0824 17:35:51.756820  2794 net.cpp:157] Top shape: 100 64 15 15 (1440000)
I0824 17:35:51.756836  2794 net.cpp:165] Memory required for data: 167348800
I0824 17:35:51.756856  2794 layer_factory.hpp:77] Creating layer relu3
I0824 17:35:51.756875  2794 net.cpp:100] Creating Layer relu3
I0824 17:35:51.756893  2794 net.cpp:434] relu3 <- conv3
I0824 17:35:51.756911  2794 net.cpp:395] relu3 -> conv3 (in-place)
I0824 17:35:51.757056  2794 net.cpp:150] Setting up relu3
I0824 17:35:51.757079  2794 net.cpp:157] Top shape: 100 64 15 15 (1440000)
I0824 17:35:51.757093  2794 net.cpp:165] Memory required for data: 173108800
I0824 17:35:51.757114  2794 layer_factory.hpp:77] Creating layer ip1
I0824 17:35:51.784879  2794 net.cpp:100] Creating Layer ip1
I0824 17:35:51.784934  2794 net.cpp:434] ip1 <- conv3
I0824 17:35:51.784956  2794 net.cpp:408] ip1 -> ip1
I0824 17:35:51.871800  2794 net.cpp:150] Setting up ip1
I0824 17:35:51.871853  2794 net.cpp:157] Top shape: 100 512 (51200)
I0824 17:35:51.871870  2794 net.cpp:165] Memory required for data: 173313600
I0824 17:35:51.871891  2794 layer_factory.hpp:77] Creating layer relu5
I0824 17:35:51.871912  2794 net.cpp:100] Creating Layer relu5
I0824 17:35:51.871927  2794 net.cpp:434] relu5 <- ip1
I0824 17:35:51.871944  2794 net.cpp:395] relu5 -> ip1 (in-place)
I0824 17:35:51.872056  2794 net.cpp:150] Setting up relu5
I0824 17:35:51.872077  2794 net.cpp:157] Top shape: 100 512 (51200)
I0824 17:35:51.872090  2794 net.cpp:165] Memory required for data: 173518400
I0824 17:35:51.872107  2794 layer_factory.hpp:77] Creating layer drop1
I0824 17:35:51.883610  2794 net.cpp:100] Creating Layer drop1
I0824 17:35:51.883646  2794 net.cpp:434] drop1 <- ip1
I0824 17:35:51.883664  2794 net.cpp:395] drop1 -> ip1 (in-place)
I0824 17:35:51.883738  2794 net.cpp:150] Setting up drop1
I0824 17:35:51.883759  2794 net.cpp:157] Top shape: 100 512 (51200)
I0824 17:35:51.883772  2794 net.cpp:165] Memory required for data: 173723200
I0824 17:35:51.883785  2794 layer_factory.hpp:77] Creating layer ip1_drop1_0_split
I0824 17:35:51.890797  2794 net.cpp:100] Creating Layer ip1_drop1_0_split
I0824 17:35:51.890831  2794 net.cpp:434] ip1_drop1_0_split <- ip1
I0824 17:35:51.890851  2794 net.cpp:408] ip1_drop1_0_split -> ip1_drop1_0_split_0
I0824 17:35:51.890878  2794 net.cpp:408] ip1_drop1_0_split -> ip1_drop1_0_split_1
I0824 17:35:51.890949  2794 net.cpp:150] Setting up ip1_drop1_0_split
I0824 17:35:51.890969  2794 net.cpp:157] Top shape: 100 512 (51200)
I0824 17:35:51.890983  2794 net.cpp:157] Top shape: 100 512 (51200)
I0824 17:35:51.890995  2794 net.cpp:165] Memory required for data: 174132800
I0824 17:35:51.891016  2794 layer_factory.hpp:77] Creating layer ip2
I0824 17:35:51.891032  2794 net.cpp:100] Creating Layer ip2
I0824 17:35:51.891044  2794 net.cpp:434] ip2 <- ip1_drop1_0_split_0
I0824 17:35:51.891084  2794 net.cpp:408] ip2 -> ip2
I0824 17:35:51.891252  2794 net.cpp:150] Setting up ip2
I0824 17:35:51.891274  2794 net.cpp:157] Top shape: 100 3 (300)
I0824 17:35:51.891286  2794 net.cpp:165] Memory required for data: 174134000
I0824 17:35:51.891304  2794 layer_factory.hpp:77] Creating layer loss1
I0824 17:35:51.891333  2794 net.cpp:100] Creating Layer loss1
I0824 17:35:51.891347  2794 net.cpp:434] loss1 <- ip2
I0824 17:35:51.891360  2794 net.cpp:434] loss1 <- glasses
I0824 17:35:51.891381  2794 net.cpp:408] loss1 -> loss1
I0824 17:35:51.891403  2794 layer_factory.hpp:77] Creating layer loss1
I0824 17:35:51.891958  2794 net.cpp:150] Setting up loss1
I0824 17:35:51.891983  2794 net.cpp:157] Top shape: (1)
I0824 17:35:51.891995  2794 net.cpp:160]     with loss weight 0.5
I0824 17:35:51.892033  2794 net.cpp:165] Memory required for data: 174134004
I0824 17:35:51.892045  2794 layer_factory.hpp:77] Creating layer ip3
I0824 17:35:51.892066  2794 net.cpp:100] Creating Layer ip3
I0824 17:35:51.892079  2794 net.cpp:434] ip3 <- ip1_drop1_0_split_1
I0824 17:35:51.892094  2794 net.cpp:408] ip3 -> ip3
I0824 17:35:51.892243  2794 net.cpp:150] Setting up ip3
I0824 17:35:51.892263  2794 net.cpp:157] Top shape: 100 2 (200)
I0824 17:35:51.892277  2794 net.cpp:165] Memory required for data: 174134804
I0824 17:35:51.892302  2794 layer_factory.hpp:77] Creating layer loss2
I0824 17:35:51.892318  2794 net.cpp:100] Creating Layer loss2
I0824 17:35:51.892328  2794 net.cpp:434] loss2 <- ip3
I0824 17:35:51.892340  2794 net.cpp:434] loss2 <- gender
I0824 17:35:51.892357  2794 net.cpp:408] loss2 -> loss2
I0824 17:35:51.892376  2794 layer_factory.hpp:77] Creating layer loss2
…
  phase: TEST
}
layer {
  name: "data"
  type: "Data"
  top: "data"
  include {
    phase: TEST
  }
  transform_param {
    scale: 0.00390625
  }
  data_param {
    source: "/home/jaychou/code/new_caffe/caffe-master/examples/gender_glasses/gender_glasses_val_lmdb"
    batch_size: 64
    backend: LMDB
  }
}
layer {
  name: "labels"
  type: "Data"
  top: "labels"
  include {
    phase: TEST
  }
  data_param {
    source: "/home/jaychou/code/new_caffe/caffe-master/examples/gender_glasses/gender_glasses_val_label_lmdb"
    batch_size: 64
    backend: LMDB
  }
}
layer {
  name: "slice1"
  type: "Slice"
  bottom: "labels"
  top: "glasses"
  top: "gender"
  slice_param {
    slice_dim: 1
    slice_point: 1
  }
}
layer {
  name: "conv1"
  type: "Convolution"
  bottom: "data"
  top: "conv1"
  param {
    lr_mult: 1
  }
  param {
    lr_mult: 0.1
  }
  convolution_param {
    num_output: 20
    pad: 0
    kernel_size: 5
    stride: 1
    weight_filler {
      type: "xavier"
    }
    bias_filler {
      type: "constant"
      value: 0
    }
  }
}
layer {
  name: "relu1"
  type: "PReLU"
  bottom: "conv1"
  top: "conv1"
}
layer {
  name: "pool1"
  type: "Pooling"
  bottom: "conv1"
  top: "pool1"
  pooling_param {
    pool: MAX
    kernel_size: 2
    stride: 2
  }
}
layer {
  name: "conv2"
  type: "Convolution"
  bottom: "pool1"
  top: "conv2"
  param {
    lr_mult: 1
  }
  param {
    lr_mult: 0.1
  }
  convolution_param {
    num_output: 48
    pad: 0
    kernel_size: 5
    stride: 1
    weight_filler {
      type: "xavier"
    }
    bias_filler {
      type: "constant"
      value: 0
    }
  }
}
layer {
  name: "relu2"
  type: "PReLU"
  bottom: "conv2"
  top: "conv2"
}
layer {
  name: "pool2"
  type: "Pooling"
  bottom: "conv2"
  top: "pool2"
  pooling_param {
    pool: MAX
    kernel_size: 2
    stride: 2
  }
}
layer {
  name: "conv3"
  type: "Convolution"
  bottom: "pool2"
  top: "conv3"
  param {
    lr_mult: 0.1
  }
  param {
    lr_mult: 0.1
  }
  convolution_param {
    num_output: 64
    pad: 0
    kernel_size: 3
    stride: 1
    weight_filler {
      type: "xavier"
    }
    bias_filler {
      type: "constant"
      value: 0
    }
  }
}
layer {
  name: "relu3"
  type: "PReLU"
  bottom: "conv3"
  top: "conv3"
}
layer {
  name: "ip1"
  type: "InnerProduct"
  bottom: "conv3"
  top: "ip1"
  inner_product_param {
    num_output: 512
    weight_filler {
      type: "xavier"
    }
    bias_filler {
      type: "constant"
    }
  }
}
layer {
  name: "relu5"
  type: "PReLU"
  bottom: "ip1"
  top: "ip1"
}
layer {
  name: "drop1"
  type: "Dropout"
  bottom: "ip1"
  top: "ip1"
  dropout_param {
    dropout_ratio: 0.5
  }
}
layer {
  name: "ip2"
  type: "InnerProduct"
  bottom: "ip1"
  top: "ip2"
  inner_product_param {
    num_output: 3
    weight_filler {
      type: "xavier"
    }
    bias_filler {
      type: "constant"
    }
  }
}
layer {
  name: "loss1"
  type: "SoftmaxWithLoss"
  bottom: "ip2"
  bottom: "glasses"
  top: "loss1"
  loss_weight: 0.5
}
layer {
  name: "accuracy_glasses"
  type: "Accuracy"
  bottom: "ip2"
  bottom: "glasses"
  top: "accuracy_glasses"
  include {
    phase: TEST
  }
}
layer {
  name: "ip3"
  type: "InnerProduct"
  bottom: "ip1"
  top: "ip3"
  inner_product_param {
    num_output: 2
    weight_filler {
      type: "xavier"
    }
    bias_filler {
      type: "constant"
    }
  }
}
layer {
  name: "loss2"
  type: "SoftmaxWithLoss"
  bottom: "ip3"
  bottom: "gender"
  top: "loss2"
  loss_weight: 0.5
}
layer {
  name: "accuracy_gender"
  type: "Accuracy"
  bottom: "ip3"
  bottom: "gender"
  top: "accuracy_gender"
  include {
    phase: TEST
  }
}
I0824 17:35:51.894784  2794 layer_factory.hpp:77] Creating layer data
I0824 17:35:51.894914  2794 net.cpp:100] Creating Layer data
I0824 17:35:51.894935  2794 net.cpp:408] data -> data
I0824 17:35:51.896176  2802 db_lmdb.cpp:35] Opened lmdb /home/jaychou/code/new_caffe/caffe-master/examples/gender_glasses/gender_glasses_val_lmdb
I0824 17:35:51.896386  2794 data_layer.cpp:41] output data size: 64,3,80,80
I0824 17:35:51.906132  2794 net.cpp:150] Setting up data
I0824 17:35:51.906225  2794 net.cpp:157] Top shape: 64 3 80 80 (1228800)
I0824 17:35:51.906240  2794 net.cpp:165] Memory required for data: 4915200
I0824 17:35:51.906258  2794 layer_factory.hpp:77] Creating layer labels
I0824 17:35:51.906364  2794 net.cpp:100] Creating Layer labels
I0824 17:35:51.906397  2794 net.cpp:408] labels -> labels
I0824 17:35:51.908640  2804 db_lmdb.cpp:35] Opened lmdb /home/jaychou/code/new_caffe/caffe-master/examples/gender_glasses/gender_glasses_val_label_lmdb
I0824 17:35:51.908970  2794 data_layer.cpp:41] output data size: 64,2,1,1
I0824 17:35:51.909163  2794 net.cpp:150] Setting up labels
I0824 17:35:51.909188  2794 net.cpp:157] Top shape: 64 2 1 1 (128)
I0824 17:35:51.909200  2794 net.cpp:165] Memory required for data: 4915712
I0824 17:35:51.909212  2794 layer_factory.hpp:77] Creating layer slice1
I0824 17:35:51.909234  2794 net.cpp:100] Creating Layer slice1
I0824 17:35:51.909250  2794 net.cpp:434] slice1 <- labels
I0824 17:35:51.909266  2794 net.cpp:408] slice1 -> glasses
I0824 17:35:51.909291  2794 net.cpp:408] slice1 -> gender
I0824 17:35:51.909343  2794 net.cpp:150] Setting up slice1
I0824 17:35:51.909363  2794 net.cpp:157] Top shape: 64 1 1 1 (64)
I0824 17:35:51.909375  2794 net.cpp:157] Top shape: 64 1 1 1 (64)
I0824 17:35:51.909385  2794 net.cpp:165] Memory required for data: 4916224
I0824 17:35:51.909396  2794 layer_factory.hpp:77] Creating layer glasses_slice1_0_split
I0824 17:35:51.909410  2794 net.cpp:100] Creating Layer glasses_slice1_0_split
I0824 17:35:51.909425  2794 net.cpp:434] glasses_slice1_0_split <- glasses
I0824 17:35:51.909438  2794 net.cpp:408] glasses_slice1_0_split -> glasses_slice1_0_split_0
I0824 17:35:51.909456  2794 net.cpp:408] glasses_slice1_0_split -> glasses_slice1_0_split_1
I0824 17:35:51.909507  2794 net.cpp:150] Setting up glasses_slice1_0_split
I0824 17:35:51.909525  2794 net.cpp:157] Top shape: 64 1 1 1 (64)
I0824 17:35:51.909538  2794 net.cpp:157] Top shape: 64 1 1 1 (64)
I0824 17:35:51.909548  2794 net.cpp:165] Memory required for data: 4916736
I0824 17:35:51.909559  2794 layer_factory.hpp:77] Creating layer gender_slice1_1_split
I0824 17:35:51.909574  2794 net.cpp:100] Creating Layer gender_slice1_1_split
I0824 17:35:51.909585  2794 net.cpp:434] gender_slice1_1_split <- gender
I0824 17:35:51.909598  2794 net.cpp:408] gender_slice1_1_split -> gender_slice1_1_split_0
I0824 17:35:51.909618  2794 net.cpp:408] gender_slice1_1_split -> gender_slice1_1_split_1
I0824 17:35:51.909665  2794 net.cpp:150] Setting up gender_slice1_1_split
I0824 17:35:51.909682  2794 net.cpp:157] Top shape: 64 1 1 1 (64)
I0824 17:35:51.909694  2794 net.cpp:157] Top shape: 64 1 1 1 (64)
I0824 17:35:51.909704  2794 net.cpp:165] Memory required for data: 4917248
I0824 17:35:51.909715  2794 layer_factory.hpp:77] Creating layer conv1
I0824 17:35:51.909741  2794 net.cpp:100] Creating Layer conv1
I0824 17:35:51.909754  2794 net.cpp:434] conv1 <- data
I0824 17:35:51.909768  2794 net.cpp:408] conv1 -> conv1
I0824 17:35:51.911196  2794 net.cpp:150] Setting up conv1
I0824 17:35:51.911227  2794 net.cpp:157] Top shape: 64 20 76 76 (7393280)
I0824 17:35:51.911240  2794 net.cpp:165] Memory required for data: 34490368
I0824 17:35:51.911263  2794 layer_factory.hpp:77] Creating layer relu1
I0824 17:35:51.911284  2794 net.cpp:100] Creating Layer relu1
I0824 17:35:51.911303  2794 net.cpp:434] relu1 <- conv1
I0824 17:35:51.911319  2794 net.cpp:395] relu1 -> conv1 (in-place)
I0824 17:35:51.911582  2794 net.cpp:150] Setting up relu1
I0824 17:35:51.911603  2794 net.cpp:157] Top shape: 64 20 76 76 (7393280)
I0824 17:35:51.911614  2794 net.cpp:165] Memory required for data: 64063488
I0824 17:35:51.911630  2794 layer_factory.hpp:77] Creating layer pool1
I0824 17:35:51.911648  2794 net.cpp:100] Creating Layer pool1
I0824 17:35:51.911661  2794 net.cpp:434] pool1 <- conv1
I0824 17:35:51.911674  2794 net.cpp:408] pool1 -> pool1
I0824 17:35:51.911732  2794 net.cpp:150] Setting up pool1
I0824 17:35:51.911751  2794 net.cpp:157] Top shape: 64 20 38 38 (1848320)
I0824 17:35:51.911762  2794 net.cpp:165] Memory required for data: 71456768
I0824 17:35:51.911795  2794 layer_factory.hpp:77] Creating layer conv2
I0824 17:35:51.911820  2794 net.cpp:100] Creating Layer conv2
I0824 17:35:51.911834  2794 net.cpp:434] conv2 <- pool1
I0824 17:35:51.911849  2794 net.cpp:408] conv2 -> conv2
I0824 17:35:51.913210  2794 net.cpp:150] Setting up conv2
I0824 17:35:51.913236  2794 net.cpp:157] Top shape: 64 48 34 34 (3551232)
I0824 17:35:51.913249  2794 net.cpp:165] Memory required for data: 85661696
I0824 17:35:51.913267  2794 layer_factory.hpp:77] Creating layer relu2
I0824 17:35:51.913285  2794 net.cpp:100] Creating Layer relu2
I0824 17:35:51.913297  2794 net.cpp:434] relu2 <- conv2
I0824 17:35:51.913311  2794 net.cpp:395] relu2 -> conv2 (in-place)
I0824 17:35:51.913549  2794 net.cpp:150] Setting up relu2
I0824 17:35:51.913569  2794 net.cpp:157] Top shape: 64 48 34 34 (3551232)
I0824 17:35:51.913581  2794 net.cpp:165] Memory required for data: 99866624
I0824 17:35:51.913596  2794 layer_factory.hpp:77] Creating layer pool2
I0824 17:35:51.913616  2794 net.cpp:100] Creating Layer pool2
I0824 17:35:51.913628  2794 net.cpp:434] pool2 <- conv2
I0824 17:35:51.913642  2794 net.cpp:408] pool2 -> pool2
I0824 17:35:51.913702  2794 net.cpp:150] Setting up pool2
I0824 17:35:51.913720  2794 net.cpp:157] Top shape: 64 48 17 17 (887808)
I0824 17:35:51.913732  2794 net.cpp:165] Memory required for data: 103417856
I0824 17:35:51.913743  2794 layer_factory.hpp:77] Creating layer conv3
I0824 17:35:51.913765  2794 net.cpp:100] Creating Layer conv3
I0824 17:35:51.913779  2794 net.cpp:434] conv3 <- pool2
I0824 17:35:51.913796  2794 net.cpp:408] conv3 -> conv3
I0824 17:35:51.915604  2794 net.cpp:150] Setting up conv3
I0824 17:35:51.915635  2794 net.cpp:157] Top shape: 64 64 15 15 (921600)
I0824 17:35:51.915647  2794 net.cpp:165] Memory required for data: 107104256
I0824 17:35:51.915663  2794 layer_factory.hpp:77] Creating layer relu3
I0824 17:35:51.915681  2794 net.cpp:100] Creating Layer relu3
I0824 17:35:51.915693  2794 net.cpp:434] relu3 <- conv3
I0824 17:35:51.915706  2794 net.cpp:395] relu3 -> conv3 (in-place)
I0824 17:35:51.915841  2794 net.cpp:150] Setting up relu3
I0824 17:35:51.915859  2794 net.cpp:157] Top shape: 64 64 15 15 (921600)
I0824 17:35:51.915870  2794 net.cpp:165] Memory required for data: 110790656
I0824 17:35:51.915887  2794 layer_factory.hpp:77] Creating layer ip1
I0824 17:35:51.915907  2794 net.cpp:100] Creating Layer ip1
I0824 17:35:51.915920  2794 net.cpp:434] ip1 <- conv3
I0824 17:35:51.915935  2794 net.cpp:408] ip1 -> ip1
I0824 17:35:51.980137  2794 net.cpp:150] Setting up ip1
I0824 17:35:51.980185  2794 net.cpp:157] Top shape: 64 512 (32768)
I0824 17:35:51.980197  2794 net.cpp:165] Memory required for data: 110921728
I0824 17:35:51.980214  2794 layer_factory.hpp:77] Creating layer relu5
I0824 17:35:51.980231  2794 net.cpp:100] Creating Layer relu5
I0824 17:35:51.980242  2794 net.cpp:434] relu5 <- ip1
I0824 17:35:51.980257  2794 net.cpp:395] relu5 -> ip1 (in-place)
I0824 17:35:51.980347  2794 net.cpp:150] Setting up relu5
I0824 17:35:51.980363  2794 net.cpp:157] Top shape: 64 512 (32768)
I0824 17:35:51.980373  2794 net.cpp:165] Memory required for data: 111052800
I0824 17:35:51.980384  2794 layer_factory.hpp:77] Creating layer drop1
I0824 17:35:51.980397  2794 net.cpp:100] Creating Layer drop1
I0824 17:35:51.980406  2794 net.cpp:434] drop1 <- ip1
I0824 17:35:51.980417  2794 net.cpp:395] drop1 -> ip1 (in-place)
I0824 17:35:51.980449  2794 net.cpp:150] Setting up drop1
I0824 17:35:51.980464  2794 net.cpp:157] Top shape: 64 512 (32768)
I0824 17:35:51.980473  2794 net.cpp:165] Memory required for data: 111183872
I0824 17:35:51.980484  2794 layer_factory.hpp:77] Creating layer ip1_drop1_0_split
I0824 17:35:51.980499  2794 net.cpp:100] Creating Layer ip1_drop1_0_split
I0824 17:35:51.980507  2794 net.cpp:434] ip1_drop1_0_split <- ip1
I0824 17:35:51.980520  2794 net.cpp:408] ip1_drop1_0_split -> ip1_drop1_0_split_0
I0824 17:35:51.980532  2794 net.cpp:408] ip1_drop1_0_split -> ip1_drop1_0_split_1
I0824 17:35:51.980574  2794 net.cpp:150] Setting up ip1_drop1_0_split
I0824 17:35:51.980614  2794 net.cpp:157] Top shape: 64 512 (32768)
I0824 17:35:51.980625  2794 net.cpp:157] Top shape: 64 512 (32768)
I0824 17:35:51.980634  2794 net.cpp:165] Memory required for data: 111446016
I0824 17:35:51.980643  2794 layer_factory.hpp:77] Creating layer ip2
I0824 17:35:51.980657  2794 net.cpp:100] Creating Layer ip2
I0824 17:35:51.980666  2794 net.cpp:434] ip2 <- ip1_drop1_0_split_0
I0824 17:35:51.980682  2794 net.cpp:408] ip2 -> ip2
I0824 17:35:51.980816  2794 net.cpp:150] Setting up ip2
I0824 17:35:51.980834  2794 net.cpp:157] Top shape: 64 3 (192)
I0824 17:35:51.980844  2794 net.cpp:165] Memory required for data: 111446784
I0824 17:35:51.980857  2794 layer_factory.hpp:77] Creating layer ip2_ip2_0_split
I0824 17:35:51.980868  2794 net.cpp:100] Creating Layer ip2_ip2_0_split
I0824 17:35:51.980878  2794 net.cpp:434] ip2_ip2_0_split <- ip2
I0824 17:35:51.980890  2794 net.cpp:408] ip2_ip2_0_split -> ip2_ip2_0_split_0
I0824 17:35:51.980904  2794 net.cpp:408] ip2_ip2_0_split -> ip2_ip2_0_split_1
I0824 17:35:51.980945  2794 net.cpp:150] Setting up ip2_ip2_0_split
I0824 17:35:51.980960  2794 net.cpp:157] Top shape: 64 3 (192)
I0824 17:35:51.980972  2794 net.cpp:157] Top shape: 64 3 (192)
I0824 17:35:51.980980  2794 net.cpp:165] Memory required for data: 111448320
I0824 17:35:51.980989  2794 layer_factory.hpp:77] Creating layer loss1
I0824 17:35:51.981003  2794 net.cpp:100] Creating Layer loss1
I0824 17:35:51.981016  2794 net.cpp:434] loss1 <- ip2_ip2_0_split_0
I0824 17:35:51.981027  2794 net.cpp:434] loss1 <- glasses_slice1_0_split_0
I0824 17:35:51.981039  2794 net.cpp:408] loss1 -> loss1
…
