…
  stage: ""
}
layer {
  name: "data"
  type: "Data"
  top: "data"
  include {
    phase: TRAIN
  }
  transform_param {
    scale: 0.00390625
  }
  data_param {
    source: "/home/jaychou/code/new_caffe/caffe-master/examples/gender_glasses/gender_glasses_train_lmdb"
    batch_size: 100
    backend: LMDB
  }
}
layer {
  name: "labels"
  type: "Data"
  top: "labels"
  include {
    phase: TRAIN
  }
  data_param {
    source: "/home/jaychou/code/new_caffe/caffe-master/examples/gender_glasses/gender_glasses_train_label_lmdb"
    batch_size: 100
    backend: LMDB
  }
}
layer {
  name: "slice1"
  type: "Slice"
  bottom: "labels"
  top: "glasses"
  top: "gender"
  slice_param {
    slice_dim: 1
    slice_point: 1
  }
}
layer {
  name: "conv1"
  type: "Convolution"
  bottom: "data"
  top: "conv1"
  param {
    lr_mult: 1
  }
  param {
    lr_mult: 0.1
  }
  convolution_param {
    num_output: 20
    pad: 0
    kernel_size: 5
    stride: 1
    weight_filler {
      type: "xavier"
    }
    bias_filler {
      type: "constant"
      value: 0
    }
  }
}
layer {
  name: "relu1"
  type: "ReLU"
  bottom: "conv1"
  top: "conv1"
}
layer {
  name: "pool1"
  type: "Pooling"
  bottom: "conv1"
  top: "pool1"
  pooling_param {
    pool: MAX
    kernel_size: 2
    stride: 2
  }
}
layer {
  name: "conv2"
  type: "Convolution"
  bottom: "pool1"
  top: "conv2"
  param {
    lr_mult: 1
  }
  param {
    lr_mult: 0.1
  }
  convolution_param {
    num_output: 48
    pad: 0
    kernel_size: 5
    stride: 1
    weight_filler {
      type: "xavier"
    }
    bias_filler {
      type: "constant"
      value: 0
    }
  }
}
layer {
  name: "relu2"
  type: "ReLU"
  bottom: "conv2"
  top: "conv2"
}
layer {
  name: "pool2"
  type: "Pooling"
  bottom: "conv2"
  top: "pool2"
  pooling_param {
    pool: MAX
    kernel_size: 2
    stride: 2
  }
}
layer {
  name: "conv3"
  type: "Convolution"
  bottom: "pool2"
  top: "conv3"
  param {
    lr_mult: 0.1
  }
  param {
    lr_mult: 0.1
  }
  convolution_param {
    num_output: 64
    pad: 0
    kernel_size: 3
    stride: 1
    weight_filler {
      type: "xavier"
    }
    bias_filler {
      type: "constant"
      value: 0
    }
  }
}
layer {
  name: "relu3"
  type: "ReLU"
  bottom: "conv3"
  top: "conv3"
}
layer {
  name: "conv4"
  type: "Convolution"
  bottom: "conv3"
  top: "conv4"
  param {
    lr_mult: 0.1
  }
  param {
    lr_mult: 0.1
  }
  convolution_param {
    num_output: 80
    pad: 0
    kernel_size: 3
    stride: 1
    weight_filler {
      type: "xavier"
    }
    bias_filler {
      type: "constant"
      value: 0
    }
  }
}
layer {
  name: "relu4"
  type: "ReLU"
  bottom: "conv4"
  top: "conv4"
}
layer {
  name: "ip1"
  type: "InnerProduct"
  bottom: "conv4"
  top: "ip1"
  inner_product_param {
    num_output: 512
    weight_filler {
      type: "xavier"
    }
    bias_filler {
      type: "constant"
    }
  }
}
layer {
  name: "relu5"
  type: "ReLU"
  bottom: "ip1"
  top: "ip1"
}
layer {
  name: "ip2"
  type: "InnerProduct"
  bottom: "ip1"
  top: "ip2"
  inner_product_param {
    num_output: 2
    weight_filler {
      type: "xavier"
    }
    bias_filler {
      type: "constant"
    }
  }
}
layer {
  name: "loss1"
  type: "SoftmaxWithLoss"
  bottom: "ip2"
  bottom: "glasses"
  top: "loss1"
  loss_weight: 0.5
}
layer {
  name: "ip3"
  type: "InnerProduct"
  bottom: "ip1"
  top: "ip3"
  inner_product_param {
    num_output: 512
    weight_filler {
      type: "xavier"
    }
    bias_filler {
      type: "constant"
    }
  }
}
layer {
  name: "loss2"
  type: "SoftmaxWithLoss"
  bottom: "ip3"
  bottom: "gender"
  top: "loss2"
  loss_weight: 0.5
}
I0814 09:30:53.107174 19797 layer_factory.hpp:77] Creating layer data
I0814 09:30:53.107552 19797 net.cpp:100] Creating Layer data
I0814 09:30:53.107580 19797 net.cpp:408] data -> data
I0814 09:30:53.108669 19801 db_lmdb.cpp:35] Opened lmdb /home/jaychou/code/new_caffe/caffe-master/examples/gender_glasses/gender_glasses_train_lmdb
I0814 09:30:53.117699 19797 data_layer.cpp:41] output data size: 100,3,100,100
I0814 09:30:53.135983 19797 net.cpp:150] Setting up data
I0814 09:30:53.136029 19797 net.cpp:157] Top shape: 100 3 100 100 (3000000)
I0814 09:30:53.136040 19797 net.cpp:165] Memory required for data: 12000000
I0814 09:30:53.136057 19797 layer_factory.hpp:77] Creating layer labels
I0814 09:30:53.137089 19797 net.cpp:100] Creating Layer labels
I0814 09:30:53.137107 19797 net.cpp:408] labels -> labels
I0814 09:30:53.138003 19803 db_lmdb.cpp:35] Opened lmdb /home/jaychou/code/new_caffe/caffe-master/examples/gender_glasses/gender_glasses_train_label_lmdb
I0814 09:30:53.138527 19797 data_layer.cpp:41] output data size: 100,2,1,1
I0814 09:30:53.138684 19797 net.cpp:150] Setting up labels
I0814 09:30:53.138696 19797 net.cpp:157] Top shape: 100 2 1 1 (200)
I0814 09:30:53.138702 19797 net.cpp:165] Memory required for data: 12000800
I0814 09:30:53.138708 19797 layer_factory.hpp:77] Creating layer slice1
I0814 09:30:53.138720 19797 net.cpp:100] Creating Layer slice1
I0814 09:30:53.138726 19797 net.cpp:434] slice1 <- labels
I0814 09:30:53.138742 19797 net.cpp:408] slice1 -> glasses
I0814 09:30:53.138754 19797 net.cpp:408] slice1 -> gender
I0814 09:30:53.138806 19797 net.cpp:150] Setting up slice1
I0814 09:30:53.138823 19797 net.cpp:157] Top shape: 100 1 1 1 (100)
I0814 09:30:53.138833 19797 net.cpp:157] Top shape: 100 1 1 1 (100)
I0814 09:30:53.138840 19797 net.cpp:165] Memory required for data: 12001600
I0814 09:30:53.138850 19797 layer_factory.hpp:77] Creating layer conv1
I0814 09:30:53.138873 19797 net.cpp:100] Creating Layer conv1
I0814 09:30:53.138885 19797 net.cpp:434] conv1 <- data
I0814 09:30:53.138896 19797 net.cpp:408] conv1 -> conv1
I0814 09:30:53.276104 19797 net.cpp:150] Setting up conv1
I0814 09:30:53.276151 19797 net.cpp:157] Top shape: 100 20 96 96 (18432000)
I0814 09:30:53.276162 19797 net.cpp:165] Memory required for data: 85729600
I0814 09:30:53.276188 19797 layer_factory.hpp:77] Creating layer relu1
I0814 09:30:53.276207 19797 net.cpp:100] Creating Layer relu1
I0814 09:30:53.276217 19797 net.cpp:434] relu1 <- conv1
I0814 09:30:53.276229 19797 net.cpp:395] relu1 -> conv1 (in-place)
I0814 09:30:53.276362 19797 net.cpp:150] Setting up relu1
I0814 09:30:53.276379 19797 net.cpp:157] Top shape: 100 20 96 96 (18432000)
I0814 09:30:53.276388 19797 net.cpp:165] Memory required for data: 159457600
I0814 09:30:53.276397 19797 layer_factory.hpp:77] Creating layer pool1
I0814 09:30:53.276409 19797 net.cpp:100] Creating Layer pool1
I0814 09:30:53.276418 19797 net.cpp:434] pool1 <- conv1
I0814 09:30:53.276429 19797 net.cpp:408] pool1 -> pool1
I0814 09:30:53.276479 19797 net.cpp:150] Setting up pool1
I0814 09:30:53.276492 19797 net.cpp:157] Top shape: 100 20 48 48 (4608000)
I0814 09:30:53.276501 19797 net.cpp:165] Memory required for data: 177889600
I0814 09:30:53.276510 19797 layer_factory.hpp:77] Creating layer conv2
I0814 09:30:53.276527 19797 net.cpp:100] Creating Layer conv2
I0814 09:30:53.276561 19797 net.cpp:434] conv2 <- pool1
I0814 09:30:53.276573 19797 net.cpp:408] conv2 -> conv2
I0814 09:30:53.277902 19797 net.cpp:150] Setting up conv2
I0814 09:30:53.277925 19797 net.cpp:157] Top shape: 100 48 44 44 (9292800)
I0814 09:30:53.277935 19797 net.cpp:165] Memory required for data: 215060800
I0814 09:30:53.277950 19797 layer_factory.hpp:77] Creating layer relu2
I0814 09:30:53.277961 19797 net.cpp:100] Creating Layer relu2
I0814 09:30:53.277969 19797 net.cpp:434] relu2 <- conv2
I0814 09:30:53.277979 19797 net.cpp:395] relu2 -> conv2 (in-place)
I0814 09:30:53.278264 19797 net.cpp:150] Setting up relu2
I0814 09:30:53.278281 19797 net.cpp:157] Top shape: 100 48 44 44 (9292800)
I0814 09:30:53.278290 19797 net.cpp:165] Memory required for data: 252232000
I0814 09:30:53.278298 19797 layer_factory.hpp:77] Creating layer pool2
I0814 09:30:53.278312 19797 net.cpp:100] Creating Layer pool2
I0814 09:30:53.278322 19797 net.cpp:434] pool2 <- conv2
I0814 09:30:53.278332 19797 net.cpp:408] pool2 -> pool2
I0814 09:30:53.278379 19797 net.cpp:150] Setting up pool2
I0814 09:30:53.278393 19797 net.cpp:157] Top shape: 100 48 22 22 (2323200)
I0814 09:30:53.278401 19797 net.cpp:165] Memory required for data: 261524800
I0814 09:30:53.278410 19797 layer_factory.hpp:77] Creating layer conv3
I0814 09:30:53.278426 19797 net.cpp:100] Creating Layer conv3
I0814 09:30:53.278436 19797 net.cpp:434] conv3 <- pool2
I0814 09:30:53.278450 19797 net.cpp:408] conv3 -> conv3
I0814 09:30:53.279680 19797 net.cpp:150] Setting up conv3
I0814 09:30:53.279701 19797 net.cpp:157] Top shape: 100 64 20 20 (2560000)
I0814 09:30:53.279711 19797 net.cpp:165] Memory required for data: 271764800
I0814 09:30:53.279726 19797 layer_factory.hpp:77] Creating layer relu3
I0814 09:30:53.279736 19797 net.cpp:100] Creating Layer relu3
I0814 09:30:53.279747 19797 net.cpp:434] relu3 <- conv3
I0814 09:30:53.279759 19797 net.cpp:395] relu3 -> conv3 (in-place)
I0814 09:30:53.280040 19797 net.cpp:150] Setting up relu3
I0814 09:30:53.280058 19797 net.cpp:157] Top shape: 100 64 20 20 (2560000)
I0814 09:30:53.280066 19797 net.cpp:165] Memory required for data: 282004800
I0814 09:30:53.280076 19797 layer_factory.hpp:77] Creating layer conv4
I0814 09:30:53.280095 19797 net.cpp:100] Creating Layer conv4
I0814 09:30:53.280107 19797 net.cpp:434] conv4 <- conv3
I0814 09:30:53.280118 19797 net.cpp:408] conv4 -> conv4
I0814 09:30:53.281262 19797 net.cpp:150] Setting up conv4
I0814 09:30:53.281283 19797 net.cpp:157] Top shape: 100 80 18 18 (2592000)
I0814 09:30:53.281292 19797 net.cpp:165] Memory required for data: 292372800
I0814 09:30:53.281304 19797 layer_factory.hpp:77] Creating layer relu4
I0814 09:30:53.281316 19797 net.cpp:100] Creating Layer relu4
I0814 09:30:53.281324 19797 net.cpp:434] relu4 <- conv4
I0814 09:30:53.281334 19797 net.cpp:395] relu4 -> conv4 (in-place)
I0814 09:30:53.281461 19797 net.cpp:150] Setting up relu4
I0814 09:30:53.281476 19797 net.cpp:157] Top shape: 100 80 18 18 (2592000)
I0814 09:30:53.281484 19797 net.cpp:165] Memory required for data: 302740800
I0814 09:30:53.281493 19797 layer_factory.hpp:77] Creating layer ip1
I0814 09:30:53.281510 19797 net.cpp:100] Creating Layer ip1
I0814 09:30:53.281520 19797 net.cpp:434] ip1 <- conv4
I0814 09:30:53.281530 19797 net.cpp:408] ip1 -> ip1
I0814 09:30:53.377975 19797 net.cpp:150] Setting up ip1
I0814 09:30:53.378021 19797 net.cpp:157] Top shape: 100 512 (51200)
I0814 09:30:53.378031 19797 net.cpp:165] Memory required for data: 302945600
I0814 09:30:53.378052 19797 layer_factory.hpp:77] Creating layer relu5
I0814 09:30:53.378072 19797 net.cpp:100] Creating Layer relu5
I0814 09:30:53.378082 19797 net.cpp:434] relu5 <- ip1
I0814 09:30:53.378093 19797 net.cpp:395] relu5 -> ip1 (in-place)
I0814 09:30:53.378484 19797 net.cpp:150] Setting up relu5
I0814 09:30:53.378501 19797 net.cpp:157] Top shape: 100 512 (51200)
I0814 09:30:53.378510 19797 net.cpp:165] Memory required for data: 303150400
I0814 09:30:53.378520 19797 layer_factory.hpp:77] Creating layer ip1_relu5_0_split
I0814 09:30:53.378564 19797 net.cpp:100] Creating Layer ip1_relu5_0_split
I0814 09:30:53.378576 19797 net.cpp:434] ip1_relu5_0_split <- ip1
I0814 09:30:53.378587 19797 net.cpp:408] ip1_relu5_0_split -> ip1_relu5_0_split_0
I0814 09:30:53.378605 19797 net.cpp:408] ip1_relu5_0_split -> ip1_relu5_0_split_1
I0814 09:30:53.378648 19797 net.cpp:150] Setting up ip1_relu5_0_split
I0814 09:30:53.378662 19797 net.cpp:157] Top shape: 100 512 (51200)
I0814 09:30:53.378672 19797 net.cpp:157] Top shape: 100 512 (51200)
I0814 09:30:53.378680 19797 net.cpp:165] Memory required for data: 303560000
I0814 09:30:53.378689 19797 layer_factory.hpp:77] Creating layer ip2
I0814 09:30:53.378705 19797 net.cpp:100] Creating Layer ip2
I0814 09:30:53.378716 19797 net.cpp:434] ip2 <- ip1_relu5_0_split_0
I0814 09:30:53.378728 19797 net.cpp:408] ip2 -> ip2
I0814 09:30:53.378829 19797 net.cpp:150] Setting up ip2
I0814 09:30:53.378844 19797 net.cpp:157] Top shape: 100 2 (200)
I0814 09:30:53.378854 19797 net.cpp:165] Memory required for data: 303560800
I0814 09:30:53.378865 19797 layer_factory.hpp:77] Creating layer loss1
I0814 09:30:53.378876 19797 net.cpp:100] Creating Layer loss1
I0814 09:30:53.378885 19797 net.cpp:434] loss1 <- ip2
I0814 09:30:53.378895 19797 net.cpp:434] loss1 <- glasses
I0814 09:30:53.378904 19797 net.cpp:408] loss1 -> loss1
I0814 09:30:53.378921 19797 layer_factory.hpp:77] Creating layer loss1
I0814 09:30:53.379133 19797 net.cpp:150] Setting up loss1
I0814 09:30:53.379149 19797 net.cpp:157] Top shape: (1)
I0814 09:30:53.379158 19797 net.cpp:160]     with loss weight 0.5
I0814 09:30:53.379184 19797 net.cpp:165] Memory required for data: 303560804
I0814 09:30:53.379192 19797 layer_factory.hpp:77] Creating layer ip3
I0814 09:30:53.379205 19797 net.cpp:100] Creating Layer ip3
I0814 09:30:53.379215 19797 net.cpp:434] ip3 <- ip1_relu5_0_split_1
I0814 09:30:53.379225 19797 net.cpp:408] ip3 -> ip3
I0814 09:30:53.381234 19797 net.cpp:150] Setting up ip3
I0814 09:30:53.381252 19797 net.cpp:157] Top shape: 100 512 (51200)
I0814 09:30:53.381260 19797 net.cpp:165] Memory required for data: 303765604
I0814 09:30:53.381273 19797 layer_factory.hpp:77] Creating layer loss2
I0814 09:30:53.381285 19797 net.cpp:100] Creating Layer loss2
I0814 09:30:53.381294 19797 net.cpp:434] loss2 <- ip3
I0814 09:30:53.381304 19797 net.cpp:434] loss2 <- gender
I0814 09:30:53.381314 19797 net.cpp:408] loss2 -> loss2
I0814 09:30:53.381331 19797 layer_factory.hpp:77] Creating layer loss2
…
  phase: TEST
}
layer {
  name: "data"
  type: "Data"
  top: "data"
  include {
    phase: TEST
  }
  transform_param {
    scale: 0.00390625
  }
  data_param {
    source: "/home/jaychou/code/new_caffe/caffe-master/examples/gender_glasses/gender_glasses_val_lmdb"
    batch_size: 64
    backend: LMDB
  }
}
layer {
  name: "labels"
  type: "Data"
  top: "labels"
  include {
    phase: TEST
  }
  data_param {
    source: "/home/jaychou/code/new_caffe/caffe-master/examples/gender_glasses/gender_glasses_val_label_lmdb"
    batch_size: 64
    backend: LMDB
  }
}
layer {
  name: "slice1"
  type: "Slice"
  bottom: "labels"
  top: "glasses"
  top: "gender"
  slice_param {
    slice_dim: 1
    slice_point: 1
  }
}
layer {
  name: "conv1"
  type: "Convolution"
  bottom: "data"
  top: "conv1"
  param {
    lr_mult: 1
  }
  param {
    lr_mult: 0.1
  }
  convolution_param {
    num_output: 20
    pad: 0
    kernel_size: 5
    stride: 1
    weight_filler {
      type: "xavier"
    }
    bias_filler {
      type: "constant"
      value: 0
    }
  }
}
layer {
  name: "relu1"
  type: "ReLU"
  bottom: "conv1"
  top: "conv1"
}
layer {
  name: "pool1"
  type: "Pooling"
  bottom: "conv1"
  top: "pool1"
  pooling_param {
    pool: MAX
    kernel_size: 2
    stride: 2
  }
}
layer {
  name: "conv2"
  type: "Convolution"
  bottom: "pool1"
  top: "conv2"
  param {
    lr_mult: 1
  }
  param {
    lr_mult: 0.1
  }
  convolution_param {
    num_output: 48
    pad: 0
    kernel_size: 5
    stride: 1
    weight_filler {
      type: "xavier"
    }
    bias_filler {
      type: "constant"
      value: 0
    }
  }
}
layer {
  name: "relu2"
  type: "ReLU"
  bottom: "conv2"
  top: "conv2"
}
layer {
  name: "pool2"
  type: "Pooling"
  bottom: "conv2"
  top: "pool2"
  pooling_param {
    pool: MAX
    kernel_size: 2
    stride: 2
  }
}
layer {
  name: "conv3"
  type: "Convolution"
  bottom: "pool2"
  top: "conv3"
  param {
    lr_mult: 0.1
  }
  param {
    lr_mult: 0.1
  }
  convolution_param {
    num_output: 64
    pad: 0
    kernel_size: 3
    stride: 1
    weight_filler {
      type: "xavier"
    }
    bias_filler {
      type: "constant"
      value: 0
    }
  }
}
layer {
  name: "relu3"
  type: "ReLU"
  bottom: "conv3"
  top: "conv3"
}
layer {
  name: "conv4"
  type: "Convolution"
  bottom: "conv3"
  top: "conv4"
  param {
    lr_mult: 0.1
  }
  param {
    lr_mult: 0.1
  }
  convolution_param {
    num_output: 80
    pad: 0
    kernel_size: 3
    stride: 1
    weight_filler {
      type: "xavier"
    }
    bias_filler {
      type: "constant"
      value: 0
    }
  }
}
layer {
  name: "relu4"
  type: "ReLU"
  bottom: "conv4"
  top: "conv4"
}
layer {
  name: "ip1"
  type: "InnerProduct"
  bottom: "conv4"
  top: "ip1"
  inner_product_param {
    num_output: 512
    weight_filler {
      type: "xavier"
    }
    bias_filler {
      type: "constant"
    }
  }
}
layer {
  name: "relu5"
  type: "ReLU"
  bottom: "ip1"
  top: "ip1"
}
layer {
  name: "ip2"
  type: "InnerProduct"
  bottom: "ip1"
  top: "ip2"
  inner_product_param {
    num_output: 2
    weight_filler {
      type: "xavier"
    }
    bias_filler {
      type: "constant"
    }
  }
}
layer {
  name: "loss1"
  type: "SoftmaxWithLoss"
  bottom: "ip2"
  bottom: "glasses"
  top: "loss1"
  loss_weight: 0.5
}
layer {
  name: "accuracy_glasses"
  type: "Accuracy"
  bottom: "ip2"
  bottom: "glasses"
  top: "accuracy_glasses"
  include {
    phase: TEST
  }
}
layer {
  name: "ip3"
  type: "InnerProduct"
  bottom: "ip1"
  top: "ip3"
  inner_product_param {
    num_output: 512
    weight_filler {
      type: "xavier"
    }
    bias_filler {
      type: "constant"
    }
  }
}
layer {
  name: "loss2"
  type: "SoftmaxWithLoss"
  bottom: "ip3"
  bottom: "gender"
  top: "loss2"
  loss_weight: 0.5
}
layer {
  name: "accuracy_gender"
  type: "Accuracy"
  bottom: "ip3"
  bottom: "gender"
  top: "accuracy_gender"
  include {
    phase: TEST
  }
}
I0814 09:30:53.383348 19797 layer_factory.hpp:77] Creating layer data
I0814 09:30:53.383441 19797 net.cpp:100] Creating Layer data
I0814 09:30:53.383455 19797 net.cpp:408] data -> data
I0814 09:30:53.384407 19805 db_lmdb.cpp:35] Opened lmdb /home/jaychou/code/new_caffe/caffe-master/examples/gender_glasses/gender_glasses_val_lmdb
I0814 09:30:53.384649 19797 data_layer.cpp:41] output data size: 64,3,100,100
I0814 09:30:53.398567 19797 net.cpp:150] Setting up data
I0814 09:30:53.398617 19797 net.cpp:157] Top shape: 64 3 100 100 (1920000)
I0814 09:30:53.398627 19797 net.cpp:165] Memory required for data: 7680000
I0814 09:30:53.398640 19797 layer_factory.hpp:77] Creating layer labels
I0814 09:30:53.398727 19797 net.cpp:100] Creating Layer labels
I0814 09:30:53.398744 19797 net.cpp:408] labels -> labels
I0814 09:30:53.400936 19807 db_lmdb.cpp:35] Opened lmdb /home/jaychou/code/new_caffe/caffe-master/examples/gender_glasses/gender_glasses_val_label_lmdb
I0814 09:30:53.401593 19797 data_layer.cpp:41] output data size: 64,2,1,1
I0814 09:30:53.401921 19797 net.cpp:150] Setting up labels
I0814 09:30:53.401939 19797 net.cpp:157] Top shape: 64 2 1 1 (128)
I0814 09:30:53.401948 19797 net.cpp:165] Memory required for data: 7680512
I0814 09:30:53.401957 19797 layer_factory.hpp:77] Creating layer slice1
I0814 09:30:53.401974 19797 net.cpp:100] Creating Layer slice1
I0814 09:30:53.401986 19797 net.cpp:434] slice1 <- labels
I0814 09:30:53.401998 19797 net.cpp:408] slice1 -> glasses
I0814 09:30:53.402015 19797 net.cpp:408] slice1 -> gender
I0814 09:30:53.402057 19797 net.cpp:150] Setting up slice1
I0814 09:30:53.402072 19797 net.cpp:157] Top shape: 64 1 1 1 (64)
I0814 09:30:53.402081 19797 net.cpp:157] Top shape: 64 1 1 1 (64)
I0814 09:30:53.402089 19797 net.cpp:165] Memory required for data: 7681024
I0814 09:30:53.402098 19797 layer_factory.hpp:77] Creating layer glasses_slice1_0_split
I0814 09:30:53.402109 19797 net.cpp:100] Creating Layer glasses_slice1_0_split
I0814 09:30:53.402118 19797 net.cpp:434] glasses_slice1_0_split <- glasses
I0814 09:30:53.402127 19797 net.cpp:408] glasses_slice1_0_split -> glasses_slice1_0_split_0
I0814 09:30:53.402143 19797 net.cpp:408] glasses_slice1_0_split -> glasses_slice1_0_split_1
I0814 09:30:53.402181 19797 net.cpp:150] Setting up glasses_slice1_0_split
I0814 09:30:53.402195 19797 net.cpp:157] Top shape: 64 1 1 1 (64)
I0814 09:30:53.402205 19797 net.cpp:157] Top shape: 64 1 1 1 (64)
I0814 09:30:53.402214 19797 net.cpp:165] Memory required for data: 7681536
I0814 09:30:53.402221 19797 layer_factory.hpp:77] Creating layer gender_slice1_1_split
I0814 09:30:53.402233 19797 net.cpp:100] Creating Layer gender_slice1_1_split
I0814 09:30:53.402242 19797 net.cpp:434] gender_slice1_1_split <- gender
I0814 09:30:53.402253 19797 net.cpp:408] gender_slice1_1_split -> gender_slice1_1_split_0
I0814 09:30:53.402264 19797 net.cpp:408] gender_slice1_1_split -> gender_slice1_1_split_1
I0814 09:30:53.402302 19797 net.cpp:150] Setting up gender_slice1_1_split
I0814 09:30:53.402313 19797 net.cpp:157] Top shape: 64 1 1 1 (64)
I0814 09:30:53.402323 19797 net.cpp:157] Top shape: 64 1 1 1 (64)
I0814 09:30:53.402331 19797 net.cpp:165] Memory required for data: 7682048
I0814 09:30:53.402339 19797 layer_factory.hpp:77] Creating layer conv1
I0814 09:30:53.402359 19797 net.cpp:100] Creating Layer conv1
I0814 09:30:53.402367 19797 net.cpp:434] conv1 <- data
I0814 09:30:53.402398 19797 net.cpp:408] conv1 -> conv1
I0814 09:30:53.403583 19797 net.cpp:150] Setting up conv1
I0814 09:30:53.403619 19797 net.cpp:157] Top shape: 64 20 96 96 (11796480)
I0814 09:30:53.403630 19797 net.cpp:165] Memory required for data: 54867968
I0814 09:30:53.403648 19797 layer_factory.hpp:77] Creating layer relu1
I0814 09:30:53.403664 19797 net.cpp:100] Creating Layer relu1
I0814 09:30:53.403674 19797 net.cpp:434] relu1 <- conv1
I0814 09:30:53.403686 19797 net.cpp:395] relu1 -> conv1 (in-place)
I0814 09:30:53.403836 19797 net.cpp:150] Setting up relu1
I0814 09:30:53.403857 19797 net.cpp:157] Top shape: 64 20 96 96 (11796480)
I0814 09:30:53.403867 19797 net.cpp:165] Memory required for data: 102053888
I0814 09:30:53.403877 19797 layer_factory.hpp:77] Creating layer pool1
I0814 09:30:53.403890 19797 net.cpp:100] Creating Layer pool1
I0814 09:30:53.403903 19797 net.cpp:434] pool1 <- conv1
I0814 09:30:53.403915 19797 net.cpp:408] pool1 -> pool1
I0814 09:30:53.403962 19797 net.cpp:150] Setting up pool1
I0814 09:30:53.403980 19797 net.cpp:157] Top shape: 64 20 48 48 (2949120)
I0814 09:30:53.403988 19797 net.cpp:165] Memory required for data: 113850368
I0814 09:30:53.403998 19797 layer_factory.hpp:77] Creating layer conv2
I0814 09:30:53.404016 19797 net.cpp:100] Creating Layer conv2
I0814 09:30:53.404026 19797 net.cpp:434] conv2 <- pool1
I0814 09:30:53.404039 19797 net.cpp:408] conv2 -> conv2
I0814 09:30:53.405292 19797 net.cpp:150] Setting up conv2
I0814 09:30:53.405316 19797 net.cpp:157] Top shape: 64 48 44 44 (5947392)
I0814 09:30:53.405326 19797 net.cpp:165] Memory required for data: 137639936
I0814 09:30:53.405342 19797 layer_factory.hpp:77] Creating layer relu2
I0814 09:30:53.405354 19797 net.cpp:100] Creating Layer relu2
I0814 09:30:53.405364 19797 net.cpp:434] relu2 <- conv2
I0814 09:30:53.405374 19797 net.cpp:395] relu2 -> conv2 (in-place)
I0814 09:30:53.405659 19797 net.cpp:150] Setting up relu2
I0814 09:30:53.405676 19797 net.cpp:157] Top shape: 64 48 44 44 (5947392)
I0814 09:30:53.405685 19797 net.cpp:165] Memory required for data: 161429504
I0814 09:30:53.405694 19797 layer_factory.hpp:77] Creating layer pool2
I0814 09:30:53.405709 19797 net.cpp:100] Creating Layer pool2
I0814 09:30:53.405719 19797 net.cpp:434] pool2 <- conv2
I0814 09:30:53.405730 19797 net.cpp:408] pool2 -> pool2
I0814 09:30:53.405777 19797 net.cpp:150] Setting up pool2
I0814 09:30:53.405791 19797 net.cpp:157] Top shape: 64 48 22 22 (1486848)
I0814 09:30:53.405799 19797 net.cpp:165] Memory required for data: 167376896
I0814 09:30:53.405807 19797 layer_factory.hpp:77] Creating layer conv3
I0814 09:30:53.405823 19797 net.cpp:100] Creating Layer conv3
I0814 09:30:53.405833 19797 net.cpp:434] conv3 <- pool2
I0814 09:30:53.405845 19797 net.cpp:408] conv3 -> conv3
I0814 09:30:53.406821 19797 net.cpp:150] Setting up conv3
I0814 09:30:53.406857 19797 net.cpp:157] Top shape: 64 64 20 20 (1638400)
I0814 09:30:53.406865 19797 net.cpp:165] Memory required for data: 173930496
I0814 09:30:53.406890 19797 layer_factory.hpp:77] Creating layer relu3
I0814 09:30:53.406908 19797 net.cpp:100] Creating Layer relu3
I0814 09:30:53.406918 19797 net.cpp:434] relu3 <- conv3
I0814 09:30:53.406930 19797 net.cpp:395] relu3 -> conv3 (in-place)
I0814 09:30:53.407172 19797 net.cpp:150] Setting up relu3
I0814 09:30:53.407191 19797 net.cpp:157] Top shape: 64 64 20 20 (1638400)
I0814 09:30:53.407198 19797 net.cpp:165] Memory required for data: 180484096
I0814 09:30:53.407208 19797 layer_factory.hpp:77] Creating layer conv4
I0814 09:30:53.407228 19797 net.cpp:100] Creating Layer conv4
I0814 09:30:53.407238 19797 net.cpp:434] conv4 <- conv3
I0814 09:30:53.407253 19797 net.cpp:408] conv4 -> conv4
I0814 09:30:53.409148 19797 net.cpp:150] Setting up conv4
I0814 09:30:53.409175 19797 net.cpp:157] Top shape: 64 80 18 18 (1658880)
I0814 09:30:53.409185 19797 net.cpp:165] Memory required for data: 187119616
I0814 09:30:53.409198 19797 layer_factory.hpp:77] Creating layer relu4
I0814 09:30:53.409209 19797 net.cpp:100] Creating Layer relu4
I0814 09:30:53.409245 19797 net.cpp:434] relu4 <- conv4
I0814 09:30:53.409260 19797 net.cpp:395] relu4 -> conv4 (in-place)
I0814 09:30:53.409392 19797 net.cpp:150] Setting up relu4
I0814 09:30:53.409409 19797 net.cpp:157] Top shape: 64 80 18 18 (1658880)
I0814 09:30:53.409417 19797 net.cpp:165] Memory required for data: 193755136
I0814 09:30:53.409426 19797 layer_factory.hpp:77] Creating layer ip1
I0814 09:30:53.409440 19797 net.cpp:100] Creating Layer ip1
I0814 09:30:53.409451 19797 net.cpp:434] ip1 <- conv4
I0814 09:30:53.409464 19797 net.cpp:408] ip1 -> ip1
I0814 09:30:53.510509 19797 net.cpp:150] Setting up ip1
I0814 09:30:53.510556 19797 net.cpp:157] Top shape: 64 512 (32768)
I0814 09:30:53.510571 19797 net.cpp:165] Memory required for data: 193886208
I0814 09:30:53.510592 19797 layer_factory.hpp:77] Creating layer relu5
I0814 09:30:53.510610 19797 net.cpp:100] Creating Layer relu5
I0814 09:30:53.510623 19797 net.cpp:434] relu5 <- ip1
I0814 09:30:53.510635 19797 net.cpp:395] relu5 -> ip1 (in-place)
I0814 09:30:53.511046 19797 net.cpp:150] Setting up relu5
I0814 09:30:53.511065 19797 net.cpp:157] Top shape: 64 512 (32768)
I0814 09:30:53.511073 19797 net.cpp:165] Memory required for data: 194017280
I0814 09:30:53.511082 19797 layer_factory.hpp:77] Creating layer ip1_relu5_0_split
I0814 09:30:53.511096 19797 net.cpp:100] Creating Layer ip1_relu5_0_split
I0814 09:30:53.511106 19797 net.cpp:434] ip1_relu5_0_split <- ip1
I0814 09:30:53.511116 19797 net.cpp:408] ip1_relu5_0_split -> ip1_relu5_0_split_0
I0814 09:30:53.511129 19797 net.cpp:408] ip1_relu5_0_split -> ip1_relu5_0_split_1
I0814 09:30:53.511178 19797 net.cpp:150] Setting up ip1_relu5_0_split
I0814 09:30:53.511193 19797 net.cpp:157] Top shape: 64 512 (32768)
I0814 09:30:53.511204 19797 net.cpp:157] Top shape: 64 512 (32768)
I0814 09:30:53.511212 19797 net.cpp:165] Memory required for data: 194279424
I0814 09:30:53.511221 19797 layer_factory.hpp:77] Creating layer ip2
I0814 09:30:53.511234 19797 net.cpp:100] Creating Layer ip2
I0814 09:30:53.511243 19797 net.cpp:434] ip2 <- ip1_relu5_0_split_0
I0814 09:30:53.511253 19797 net.cpp:408] ip2 -> ip2
I0814 09:30:53.511369 19797 net.cpp:150] Setting up ip2
I0814 09:30:53.511384 19797 net.cpp:157] Top shape: 64 2 (128)
I0814 09:30:53.511394 19797 net.cpp:165] Memory required for data: 194279936
I0814 09:30:53.511404 19797 layer_factory.hpp:77] Creating layer ip2_ip2_0_split
I0814 09:30:53.511415 19797 net.cpp:100] Creating Layer ip2_ip2_0_split
I0814 09:30:53.511425 19797 net.cpp:434] ip2_ip2_0_split <- ip2
I0814 09:30:53.511436 19797 net.cpp:408] ip2_ip2_0_split -> ip2_ip2_0_split_0
I0814 09:30:53.511448 19797 net.cpp:408] ip2_ip2_0_split -> ip2_ip2_0_split_1
I0814 09:30:53.511487 19797 net.cpp:150] Setting up ip2_ip2_0_split
I0814 09:30:53.511502 19797 net.cpp:157] Top shape: 64 2 (128)
I0814 09:30:53.511510 19797 net.cpp:157] Top shape: 64 2 (128)
I0814 09:30:53.511518 19797 net.cpp:165] Memory required for data: 194280960
I0814 09:30:53.511526 19797 layer_factory.hpp:77] Creating layer loss1
I0814 09:30:53.511539 19797 net.cpp:100] Creating Layer loss1
I0814 09:30:53.511549 19797 net.cpp:434] loss1 <- ip2_ip2_0_split_0
I0814 09:30:53.511559 19797 net.cpp:434] loss1 <- glasses_slice1_0_split_0
I0814 09:30:53.511572 19797 net.cpp:408] loss1 -> loss1
…
