…
  stage: ""
}
layer {
  name: "data"
  type: "Data"
  top: "data"
  include {
    phase: TRAIN
  }
  transform_param {
    scale: 0.00390625
  }
  data_param {
    source: "/home/jaychou/code/new_caffe/caffe-master/examples/gender_glasses/gender_glasses_train_lmdb"
    batch_size: 100
    backend: LMDB
  }
}
layer {
  name: "labels"
  type: "Data"
  top: "labels"
  include {
    phase: TRAIN
  }
  data_param {
    source: "/home/jaychou/code/new_caffe/caffe-master/examples/gender_glasses/gender_glasses_train_label_lmdb"
    batch_size: 100
    backend: LMDB
  }
}
layer {
  name: "slice1"
  type: "Slice"
  bottom: "labels"
  top: "gender"
  top: "glasses"
  slice_param {
    slice_dim: 1
    slice_point: 1
  }
}
layer {
  name: "conv1"
  type: "Convolution"
  bottom: "data"
  top: "conv1"
  param {
    lr_mult: 1
  }
  param {
    lr_mult: 0.1
  }
  convolution_param {
    num_output: 20
    pad: 0
    kernel_size: 5
    stride: 1
    weight_filler {
      type: "xavier"
    }
    bias_filler {
      type: "constant"
      value: 0
    }
  }
}
layer {
  name: "relu1"
  type: "ReLU"
  bottom: "conv1"
  top: "conv1"
}
layer {
  name: "pool1"
  type: "Pooling"
  bottom: "conv1"
  top: "pool1"
  pooling_param {
    pool: MAX
    kernel_size: 2
    stride: 2
  }
}
layer {
  name: "conv2"
  type: "Convolution"
  bottom: "pool1"
  top: "conv2"
  param {
    lr_mult: 1
  }
  param {
    lr_mult: 0.1
  }
  convolution_param {
    num_output: 48
    pad: 0
    kernel_size: 5
    stride: 1
    weight_filler {
      type: "xavier"
    }
    bias_filler {
      type: "constant"
      value: 0
    }
  }
}
layer {
  name: "relu2"
  type: "ReLU"
  bottom: "conv2"
  top: "conv2"
}
layer {
  name: "pool2"
  type: "Pooling"
  bottom: "conv2"
  top: "pool2"
  pooling_param {
    pool: MAX
    kernel_size: 2
    stride: 2
  }
}
layer {
  name: "conv3"
  type: "Convolution"
  bottom: "pool2"
  top: "conv3"
  param {
    lr_mult: 0.1
  }
  param {
    lr_mult: 0.1
  }
  convolution_param {
    num_output: 64
    pad: 0
    kernel_size: 3
    stride: 1
    weight_filler {
      type: "xavier"
    }
    bias_filler {
      type: "constant"
      value: 0
    }
  }
}
layer {
  name: "relu3"
  type: "ReLU"
  bottom: "conv3"
  top: "conv3"
}
layer {
  name: "conv4"
  type: "Convolution"
  bottom: "conv3"
  top: "conv4"
  param {
    lr_mult: 0.1
  }
  param {
    lr_mult: 0.1
  }
  convolution_param {
    num_output: 80
    pad: 0
    kernel_size: 3
    stride: 1
    weight_filler {
      type: "xavier"
    }
    bias_filler {
      type: "constant"
      value: 0
    }
  }
}
layer {
  name: "relu4"
  type: "ReLU"
  bottom: "conv4"
  top: "conv4"
}
layer {
  name: "ip1"
  type: "InnerProduct"
  bottom: "conv4"
  top: "ip1"
  inner_product_param {
    num_output: 512
    weight_filler {
      type: "xavier"
    }
    bias_filler {
      type: "constant"
    }
  }
}
layer {
  name: "relu5"
  type: "ReLU"
  bottom: "ip1"
  top: "ip1"
}
layer {
  name: "ip2"
  type: "InnerProduct"
  bottom: "ip1"
  top: "ip2"
  inner_product_param {
    num_output: 2
    weight_filler {
      type: "xavier"
    }
    bias_filler {
      type: "constant"
    }
  }
}
layer {
  name: "loss1"
  type: "SoftmaxWithLoss"
  bottom: "ip2"
  bottom: "glasses"
  top: "loss1"
  loss_weight: 0.5
}
layer {
  name: "ip3"
  type: "InnerProduct"
  bottom: "ip1"
  top: "ip3"
  inner_product_param {
    num_output: 512
    weight_filler {
      type: "xavier"
    }
    bias_filler {
      type: "constant"
    }
  }
}
layer {
  name: "loss2"
  type: "SoftmaxWithLoss"
  bottom: "ip3"
  bottom: "gender"
  top: "loss2"
  loss_weight: 0.5
}
I0813 23:06:00.009444  4464 layer_factory.hpp:77] Creating layer data
I0813 23:06:00.009807  4464 net.cpp:100] Creating Layer data
I0813 23:06:00.009824  4464 net.cpp:408] data -> data
I0813 23:06:00.011040  4468 db_lmdb.cpp:35] Opened lmdb /home/jaychou/code/new_caffe/caffe-master/examples/gender_glasses/gender_glasses_train_lmdb
I0813 23:06:00.020699  4464 data_layer.cpp:41] output data size: 100,3,100,100
I0813 23:06:00.037931  4464 net.cpp:150] Setting up data
I0813 23:06:00.037973  4464 net.cpp:157] Top shape: 100 3 100 100 (3000000)
I0813 23:06:00.037984  4464 net.cpp:165] Memory required for data: 12000000
I0813 23:06:00.038000  4464 layer_factory.hpp:77] Creating layer labels
I0813 23:06:00.038103  4464 net.cpp:100] Creating Layer labels
I0813 23:06:00.038125  4464 net.cpp:408] labels -> labels
I0813 23:06:00.040175  4470 db_lmdb.cpp:35] Opened lmdb /home/jaychou/code/new_caffe/caffe-master/examples/gender_glasses/gender_glasses_train_label_lmdb
I0813 23:06:00.041043  4464 data_layer.cpp:41] output data size: 100,2,1,1
I0813 23:06:00.041477  4464 net.cpp:150] Setting up labels
I0813 23:06:00.041498  4464 net.cpp:157] Top shape: 100 2 1 1 (200)
I0813 23:06:00.041512  4464 net.cpp:165] Memory required for data: 12000800
I0813 23:06:00.041520  4464 layer_factory.hpp:77] Creating layer slice1
I0813 23:06:00.041540  4464 net.cpp:100] Creating Layer slice1
I0813 23:06:00.041553  4464 net.cpp:434] slice1 <- labels
I0813 23:06:00.041569  4464 net.cpp:408] slice1 -> gender
I0813 23:06:00.041587  4464 net.cpp:408] slice1 -> glasses
I0813 23:06:00.041632  4464 net.cpp:150] Setting up slice1
I0813 23:06:00.041646  4464 net.cpp:157] Top shape: 100 1 1 1 (100)
I0813 23:06:00.041656  4464 net.cpp:157] Top shape: 100 1 1 1 (100)
I0813 23:06:00.041663  4464 net.cpp:165] Memory required for data: 12001600
I0813 23:06:00.041672  4464 layer_factory.hpp:77] Creating layer conv1
I0813 23:06:00.041695  4464 net.cpp:100] Creating Layer conv1
I0813 23:06:00.041707  4464 net.cpp:434] conv1 <- data
I0813 23:06:00.041718  4464 net.cpp:408] conv1 -> conv1
I0813 23:06:00.187670  4464 net.cpp:150] Setting up conv1
I0813 23:06:00.187719  4464 net.cpp:157] Top shape: 100 20 96 96 (18432000)
I0813 23:06:00.187729  4464 net.cpp:165] Memory required for data: 85729600
I0813 23:06:00.187755  4464 layer_factory.hpp:77] Creating layer relu1
I0813 23:06:00.187774  4464 net.cpp:100] Creating Layer relu1
I0813 23:06:00.187793  4464 net.cpp:434] relu1 <- conv1
I0813 23:06:00.187805  4464 net.cpp:395] relu1 -> conv1 (in-place)
I0813 23:06:00.187937  4464 net.cpp:150] Setting up relu1
I0813 23:06:00.187954  4464 net.cpp:157] Top shape: 100 20 96 96 (18432000)
I0813 23:06:00.187963  4464 net.cpp:165] Memory required for data: 159457600
I0813 23:06:00.187971  4464 layer_factory.hpp:77] Creating layer pool1
I0813 23:06:00.187983  4464 net.cpp:100] Creating Layer pool1
I0813 23:06:00.187993  4464 net.cpp:434] pool1 <- conv1
I0813 23:06:00.188004  4464 net.cpp:408] pool1 -> pool1
I0813 23:06:00.188055  4464 net.cpp:150] Setting up pool1
I0813 23:06:00.188068  4464 net.cpp:157] Top shape: 100 20 48 48 (4608000)
I0813 23:06:00.188077  4464 net.cpp:165] Memory required for data: 177889600
I0813 23:06:00.188086  4464 layer_factory.hpp:77] Creating layer conv2
I0813 23:06:00.188102  4464 net.cpp:100] Creating Layer conv2
I0813 23:06:00.188135  4464 net.cpp:434] conv2 <- pool1
I0813 23:06:00.188148  4464 net.cpp:408] conv2 -> conv2
I0813 23:06:00.189558  4464 net.cpp:150] Setting up conv2
I0813 23:06:00.189577  4464 net.cpp:157] Top shape: 100 48 44 44 (9292800)
I0813 23:06:00.189587  4464 net.cpp:165] Memory required for data: 215060800
I0813 23:06:00.189601  4464 layer_factory.hpp:77] Creating layer relu2
I0813 23:06:00.189612  4464 net.cpp:100] Creating Layer relu2
I0813 23:06:00.189627  4464 net.cpp:434] relu2 <- conv2
I0813 23:06:00.189640  4464 net.cpp:395] relu2 -> conv2 (in-place)
I0813 23:06:00.189915  4464 net.cpp:150] Setting up relu2
I0813 23:06:00.189934  4464 net.cpp:157] Top shape: 100 48 44 44 (9292800)
I0813 23:06:00.189941  4464 net.cpp:165] Memory required for data: 252232000
I0813 23:06:00.189950  4464 layer_factory.hpp:77] Creating layer pool2
I0813 23:06:00.189965  4464 net.cpp:100] Creating Layer pool2
I0813 23:06:00.189975  4464 net.cpp:434] pool2 <- conv2
I0813 23:06:00.189986  4464 net.cpp:408] pool2 -> pool2
I0813 23:06:00.190031  4464 net.cpp:150] Setting up pool2
I0813 23:06:00.190045  4464 net.cpp:157] Top shape: 100 48 22 22 (2323200)
I0813 23:06:00.190054  4464 net.cpp:165] Memory required for data: 261524800
I0813 23:06:00.190062  4464 layer_factory.hpp:77] Creating layer conv3
I0813 23:06:00.190078  4464 net.cpp:100] Creating Layer conv3
I0813 23:06:00.190088  4464 net.cpp:434] conv3 <- pool2
I0813 23:06:00.190099  4464 net.cpp:408] conv3 -> conv3
I0813 23:06:00.191298  4464 net.cpp:150] Setting up conv3
I0813 23:06:00.191318  4464 net.cpp:157] Top shape: 100 64 20 20 (2560000)
I0813 23:06:00.191329  4464 net.cpp:165] Memory required for data: 271764800
I0813 23:06:00.191344  4464 layer_factory.hpp:77] Creating layer relu3
I0813 23:06:00.191359  4464 net.cpp:100] Creating Layer relu3
I0813 23:06:00.191368  4464 net.cpp:434] relu3 <- conv3
I0813 23:06:00.191378  4464 net.cpp:395] relu3 -> conv3 (in-place)
I0813 23:06:00.191655  4464 net.cpp:150] Setting up relu3
I0813 23:06:00.191673  4464 net.cpp:157] Top shape: 100 64 20 20 (2560000)
I0813 23:06:00.191682  4464 net.cpp:165] Memory required for data: 282004800
I0813 23:06:00.191690  4464 layer_factory.hpp:77] Creating layer conv4
I0813 23:06:00.191706  4464 net.cpp:100] Creating Layer conv4
I0813 23:06:00.191716  4464 net.cpp:434] conv4 <- conv3
I0813 23:06:00.191730  4464 net.cpp:408] conv4 -> conv4
I0813 23:06:00.192925  4464 net.cpp:150] Setting up conv4
I0813 23:06:00.192945  4464 net.cpp:157] Top shape: 100 80 18 18 (2592000)
I0813 23:06:00.192953  4464 net.cpp:165] Memory required for data: 292372800
I0813 23:06:00.192965  4464 layer_factory.hpp:77] Creating layer relu4
I0813 23:06:00.192976  4464 net.cpp:100] Creating Layer relu4
I0813 23:06:00.192984  4464 net.cpp:434] relu4 <- conv4
I0813 23:06:00.192997  4464 net.cpp:395] relu4 -> conv4 (in-place)
I0813 23:06:00.193121  4464 net.cpp:150] Setting up relu4
I0813 23:06:00.193136  4464 net.cpp:157] Top shape: 100 80 18 18 (2592000)
I0813 23:06:00.193145  4464 net.cpp:165] Memory required for data: 302740800
I0813 23:06:00.193152  4464 layer_factory.hpp:77] Creating layer ip1
I0813 23:06:00.193164  4464 net.cpp:100] Creating Layer ip1
I0813 23:06:00.193173  4464 net.cpp:434] ip1 <- conv4
I0813 23:06:00.193186  4464 net.cpp:408] ip1 -> ip1
I0813 23:06:00.289261  4464 net.cpp:150] Setting up ip1
I0813 23:06:00.289309  4464 net.cpp:157] Top shape: 100 512 (51200)
I0813 23:06:00.289319  4464 net.cpp:165] Memory required for data: 302945600
I0813 23:06:00.289341  4464 layer_factory.hpp:77] Creating layer relu5
I0813 23:06:00.289356  4464 net.cpp:100] Creating Layer relu5
I0813 23:06:00.289366  4464 net.cpp:434] relu5 <- ip1
I0813 23:06:00.289378  4464 net.cpp:395] relu5 -> ip1 (in-place)
I0813 23:06:00.289772  4464 net.cpp:150] Setting up relu5
I0813 23:06:00.289789  4464 net.cpp:157] Top shape: 100 512 (51200)
I0813 23:06:00.289798  4464 net.cpp:165] Memory required for data: 303150400
I0813 23:06:00.289806  4464 layer_factory.hpp:77] Creating layer ip1_relu5_0_split
I0813 23:06:00.289849  4464 net.cpp:100] Creating Layer ip1_relu5_0_split
I0813 23:06:00.289861  4464 net.cpp:434] ip1_relu5_0_split <- ip1
I0813 23:06:00.289871  4464 net.cpp:408] ip1_relu5_0_split -> ip1_relu5_0_split_0
I0813 23:06:00.289887  4464 net.cpp:408] ip1_relu5_0_split -> ip1_relu5_0_split_1
I0813 23:06:00.289930  4464 net.cpp:150] Setting up ip1_relu5_0_split
I0813 23:06:00.289943  4464 net.cpp:157] Top shape: 100 512 (51200)
I0813 23:06:00.289953  4464 net.cpp:157] Top shape: 100 512 (51200)
I0813 23:06:00.289960  4464 net.cpp:165] Memory required for data: 303560000
I0813 23:06:00.289968  4464 layer_factory.hpp:77] Creating layer ip2
I0813 23:06:00.289985  4464 net.cpp:100] Creating Layer ip2
I0813 23:06:00.289994  4464 net.cpp:434] ip2 <- ip1_relu5_0_split_0
I0813 23:06:00.290005  4464 net.cpp:408] ip2 -> ip2
I0813 23:06:00.290108  4464 net.cpp:150] Setting up ip2
I0813 23:06:00.290122  4464 net.cpp:157] Top shape: 100 2 (200)
I0813 23:06:00.290132  4464 net.cpp:165] Memory required for data: 303560800
I0813 23:06:00.290143  4464 layer_factory.hpp:77] Creating layer loss1
I0813 23:06:00.290154  4464 net.cpp:100] Creating Layer loss1
I0813 23:06:00.290163  4464 net.cpp:434] loss1 <- ip2
I0813 23:06:00.290171  4464 net.cpp:434] loss1 <- glasses
I0813 23:06:00.290184  4464 net.cpp:408] loss1 -> loss1
I0813 23:06:00.290201  4464 layer_factory.hpp:77] Creating layer loss1
I0813 23:06:00.290403  4464 net.cpp:150] Setting up loss1
I0813 23:06:00.290419  4464 net.cpp:157] Top shape: (1)
I0813 23:06:00.290427  4464 net.cpp:160]     with loss weight 0.5
I0813 23:06:00.290452  4464 net.cpp:165] Memory required for data: 303560804
I0813 23:06:00.290460  4464 layer_factory.hpp:77] Creating layer ip3
I0813 23:06:00.290472  4464 net.cpp:100] Creating Layer ip3
I0813 23:06:00.290480  4464 net.cpp:434] ip3 <- ip1_relu5_0_split_1
I0813 23:06:00.290493  4464 net.cpp:408] ip3 -> ip3
I0813 23:06:00.292505  4464 net.cpp:150] Setting up ip3
I0813 23:06:00.292522  4464 net.cpp:157] Top shape: 100 512 (51200)
I0813 23:06:00.292531  4464 net.cpp:165] Memory required for data: 303765604
I0813 23:06:00.292543  4464 layer_factory.hpp:77] Creating layer loss2
I0813 23:06:00.292554  4464 net.cpp:100] Creating Layer loss2
I0813 23:06:00.292563  4464 net.cpp:434] loss2 <- ip3
I0813 23:06:00.292573  4464 net.cpp:434] loss2 <- gender
I0813 23:06:00.292585  4464 net.cpp:408] loss2 -> loss2
I0813 23:06:00.292600  4464 layer_factory.hpp:77] Creating layer loss2
…
  phase: TEST
}
layer {
  name: "data"
  type: "Data"
  top: "data"
  include {
    phase: TEST
  }
  transform_param {
    scale: 0.00390625
  }
  data_param {
    source: "/home/jaychou/code/new_caffe/caffe-master/examples/gender_glasses/gender_glasses_val_lmdb"
    batch_size: 64
    backend: LMDB
  }
}
layer {
  name: "labels"
  type: "Data"
  top: "labels"
  include {
    phase: TEST
  }
  data_param {
    source: "/home/jaychou/code/new_caffe/caffe-master/examples/gender_glasses/gender_glasses_val_label_lmdb"
    batch_size: 64
    backend: LMDB
  }
}
layer {
  name: "slice1"
  type: "Slice"
  bottom: "labels"
  top: "gender"
  top: "glasses"
  slice_param {
    slice_dim: 1
    slice_point: 1
  }
}
layer {
  name: "conv1"
  type: "Convolution"
  bottom: "data"
  top: "conv1"
  param {
    lr_mult: 1
  }
  param {
    lr_mult: 0.1
  }
  convolution_param {
    num_output: 20
    pad: 0
    kernel_size: 5
    stride: 1
    weight_filler {
      type: "xavier"
    }
    bias_filler {
      type: "constant"
      value: 0
    }
  }
}
layer {
  name: "relu1"
  type: "ReLU"
  bottom: "conv1"
  top: "conv1"
}
layer {
  name: "pool1"
  type: "Pooling"
  bottom: "conv1"
  top: "pool1"
  pooling_param {
    pool: MAX
    kernel_size: 2
    stride: 2
  }
}
layer {
  name: "conv2"
  type: "Convolution"
  bottom: "pool1"
  top: "conv2"
  param {
    lr_mult: 1
  }
  param {
    lr_mult: 0.1
  }
  convolution_param {
    num_output: 48
    pad: 0
    kernel_size: 5
    stride: 1
    weight_filler {
      type: "xavier"
    }
    bias_filler {
      type: "constant"
      value: 0
    }
  }
}
layer {
  name: "relu2"
  type: "ReLU"
  bottom: "conv2"
  top: "conv2"
}
layer {
  name: "pool2"
  type: "Pooling"
  bottom: "conv2"
  top: "pool2"
  pooling_param {
    pool: MAX
    kernel_size: 2
    stride: 2
  }
}
layer {
  name: "conv3"
  type: "Convolution"
  bottom: "pool2"
  top: "conv3"
  param {
    lr_mult: 0.1
  }
  param {
    lr_mult: 0.1
  }
  convolution_param {
    num_output: 64
    pad: 0
    kernel_size: 3
    stride: 1
    weight_filler {
      type: "xavier"
    }
    bias_filler {
      type: "constant"
      value: 0
    }
  }
}
layer {
  name: "relu3"
  type: "ReLU"
  bottom: "conv3"
  top: "conv3"
}
layer {
  name: "conv4"
  type: "Convolution"
  bottom: "conv3"
  top: "conv4"
  param {
    lr_mult: 0.1
  }
  param {
    lr_mult: 0.1
  }
  convolution_param {
    num_output: 80
    pad: 0
    kernel_size: 3
    stride: 1
    weight_filler {
      type: "xavier"
    }
    bias_filler {
      type: "constant"
      value: 0
    }
  }
}
layer {
  name: "relu4"
  type: "ReLU"
  bottom: "conv4"
  top: "conv4"
}
layer {
  name: "ip1"
  type: "InnerProduct"
  bottom: "conv4"
  top: "ip1"
  inner_product_param {
    num_output: 512
    weight_filler {
      type: "xavier"
    }
    bias_filler {
      type: "constant"
    }
  }
}
layer {
  name: "relu5"
  type: "ReLU"
  bottom: "ip1"
  top: "ip1"
}
layer {
  name: "ip2"
  type: "InnerProduct"
  bottom: "ip1"
  top: "ip2"
  inner_product_param {
    num_output: 2
    weight_filler {
      type: "xavier"
    }
    bias_filler {
      type: "constant"
    }
  }
}
layer {
  name: "loss1"
  type: "SoftmaxWithLoss"
  bottom: "ip2"
  bottom: "glasses"
  top: "loss1"
  loss_weight: 0.5
}
layer {
  name: "accuracy_glasses"
  type: "Accuracy"
  bottom: "ip2"
  bottom: "glasses"
  top: "accuracy_glasses"
  include {
    phase: TEST
  }
}
layer {
  name: "ip3"
  type: "InnerProduct"
  bottom: "ip1"
  top: "ip3"
  inner_product_param {
    num_output: 512
    weight_filler {
      type: "xavier"
    }
    bias_filler {
      type: "constant"
    }
  }
}
layer {
  name: "loss2"
  type: "SoftmaxWithLoss"
  bottom: "ip3"
  bottom: "gender"
  top: "loss2"
  loss_weight: 0.5
}
layer {
  name: "accuracy_gender"
  type: "Accuracy"
  bottom: "ip3"
  bottom: "gender"
  top: "accuracy_gender"
  include {
    phase: TEST
  }
}
I0813 23:06:00.294603  4464 layer_factory.hpp:77] Creating layer data
I0813 23:06:00.294695  4464 net.cpp:100] Creating Layer data
I0813 23:06:00.294710  4464 net.cpp:408] data -> data
I0813 23:06:00.296284  4472 db_lmdb.cpp:35] Opened lmdb /home/jaychou/code/new_caffe/caffe-master/examples/gender_glasses/gender_glasses_val_lmdb
I0813 23:06:00.296495  4464 data_layer.cpp:41] output data size: 64,3,100,100
I0813 23:06:00.310336  4464 net.cpp:150] Setting up data
I0813 23:06:00.310382  4464 net.cpp:157] Top shape: 64 3 100 100 (1920000)
I0813 23:06:00.310391  4464 net.cpp:165] Memory required for data: 7680000
I0813 23:06:00.310405  4464 layer_factory.hpp:77] Creating layer labels
I0813 23:06:00.310484  4464 net.cpp:100] Creating Layer labels
I0813 23:06:00.310503  4464 net.cpp:408] labels -> labels
I0813 23:06:00.312942  4474 db_lmdb.cpp:35] Opened lmdb /home/jaychou/code/new_caffe/caffe-master/examples/gender_glasses/gender_glasses_val_label_lmdb
I0813 23:06:00.313503  4464 data_layer.cpp:41] output data size: 64,2,1,1
I0813 23:06:00.313837  4464 net.cpp:150] Setting up labels
I0813 23:06:00.313854  4464 net.cpp:157] Top shape: 64 2 1 1 (128)
I0813 23:06:00.313863  4464 net.cpp:165] Memory required for data: 7680512
I0813 23:06:00.313873  4464 layer_factory.hpp:77] Creating layer slice1
I0813 23:06:00.313886  4464 net.cpp:100] Creating Layer slice1
I0813 23:06:00.313895  4464 net.cpp:434] slice1 <- labels
I0813 23:06:00.313908  4464 net.cpp:408] slice1 -> gender
I0813 23:06:00.313927  4464 net.cpp:408] slice1 -> glasses
I0813 23:06:00.313967  4464 net.cpp:150] Setting up slice1
I0813 23:06:00.313982  4464 net.cpp:157] Top shape: 64 1 1 1 (64)
I0813 23:06:00.313992  4464 net.cpp:157] Top shape: 64 1 1 1 (64)
I0813 23:06:00.313999  4464 net.cpp:165] Memory required for data: 7681024
I0813 23:06:00.314007  4464 layer_factory.hpp:77] Creating layer gender_slice1_0_split
I0813 23:06:00.314023  4464 net.cpp:100] Creating Layer gender_slice1_0_split
I0813 23:06:00.314030  4464 net.cpp:434] gender_slice1_0_split <- gender
I0813 23:06:00.314043  4464 net.cpp:408] gender_slice1_0_split -> gender_slice1_0_split_0
I0813 23:06:00.314056  4464 net.cpp:408] gender_slice1_0_split -> gender_slice1_0_split_1
I0813 23:06:00.314095  4464 net.cpp:150] Setting up gender_slice1_0_split
I0813 23:06:00.314110  4464 net.cpp:157] Top shape: 64 1 1 1 (64)
I0813 23:06:00.314119  4464 net.cpp:157] Top shape: 64 1 1 1 (64)
I0813 23:06:00.314127  4464 net.cpp:165] Memory required for data: 7681536
I0813 23:06:00.314136  4464 layer_factory.hpp:77] Creating layer glasses_slice1_1_split
I0813 23:06:00.314146  4464 net.cpp:100] Creating Layer glasses_slice1_1_split
I0813 23:06:00.314154  4464 net.cpp:434] glasses_slice1_1_split <- glasses
I0813 23:06:00.314164  4464 net.cpp:408] glasses_slice1_1_split -> glasses_slice1_1_split_0
I0813 23:06:00.314175  4464 net.cpp:408] glasses_slice1_1_split -> glasses_slice1_1_split_1
I0813 23:06:00.314213  4464 net.cpp:150] Setting up glasses_slice1_1_split
I0813 23:06:00.314224  4464 net.cpp:157] Top shape: 64 1 1 1 (64)
I0813 23:06:00.314234  4464 net.cpp:157] Top shape: 64 1 1 1 (64)
I0813 23:06:00.314241  4464 net.cpp:165] Memory required for data: 7682048
I0813 23:06:00.314250  4464 layer_factory.hpp:77] Creating layer conv1
I0813 23:06:00.314270  4464 net.cpp:100] Creating Layer conv1
I0813 23:06:00.314280  4464 net.cpp:434] conv1 <- data
I0813 23:06:00.314309  4464 net.cpp:408] conv1 -> conv1
I0813 23:06:00.315553  4464 net.cpp:150] Setting up conv1
I0813 23:06:00.315580  4464 net.cpp:157] Top shape: 64 20 96 96 (11796480)
I0813 23:06:00.315590  4464 net.cpp:165] Memory required for data: 54867968
I0813 23:06:00.315608  4464 layer_factory.hpp:77] Creating layer relu1
I0813 23:06:00.315619  4464 net.cpp:100] Creating Layer relu1
I0813 23:06:00.315630  4464 net.cpp:434] relu1 <- conv1
I0813 23:06:00.315644  4464 net.cpp:395] relu1 -> conv1 (in-place)
I0813 23:06:00.315780  4464 net.cpp:150] Setting up relu1
I0813 23:06:00.315798  4464 net.cpp:157] Top shape: 64 20 96 96 (11796480)
I0813 23:06:00.315812  4464 net.cpp:165] Memory required for data: 102053888
I0813 23:06:00.315826  4464 layer_factory.hpp:77] Creating layer pool1
I0813 23:06:00.315845  4464 net.cpp:100] Creating Layer pool1
I0813 23:06:00.315855  4464 net.cpp:434] pool1 <- conv1
I0813 23:06:00.315870  4464 net.cpp:408] pool1 -> pool1
I0813 23:06:00.315919  4464 net.cpp:150] Setting up pool1
I0813 23:06:00.315932  4464 net.cpp:157] Top shape: 64 20 48 48 (2949120)
I0813 23:06:00.315940  4464 net.cpp:165] Memory required for data: 113850368
I0813 23:06:00.315949  4464 layer_factory.hpp:77] Creating layer conv2
I0813 23:06:00.315966  4464 net.cpp:100] Creating Layer conv2
I0813 23:06:00.315976  4464 net.cpp:434] conv2 <- pool1
I0813 23:06:00.315987  4464 net.cpp:408] conv2 -> conv2
I0813 23:06:00.317210  4464 net.cpp:150] Setting up conv2
I0813 23:06:00.317234  4464 net.cpp:157] Top shape: 64 48 44 44 (5947392)
I0813 23:06:00.317243  4464 net.cpp:165] Memory required for data: 137639936
I0813 23:06:00.317258  4464 layer_factory.hpp:77] Creating layer relu2
I0813 23:06:00.317271  4464 net.cpp:100] Creating Layer relu2
I0813 23:06:00.317281  4464 net.cpp:434] relu2 <- conv2
I0813 23:06:00.317293  4464 net.cpp:395] relu2 -> conv2 (in-place)
I0813 23:06:00.317575  4464 net.cpp:150] Setting up relu2
I0813 23:06:00.317592  4464 net.cpp:157] Top shape: 64 48 44 44 (5947392)
I0813 23:06:00.317601  4464 net.cpp:165] Memory required for data: 161429504
I0813 23:06:00.317612  4464 layer_factory.hpp:77] Creating layer pool2
I0813 23:06:00.317625  4464 net.cpp:100] Creating Layer pool2
I0813 23:06:00.317632  4464 net.cpp:434] pool2 <- conv2
I0813 23:06:00.317644  4464 net.cpp:408] pool2 -> pool2
I0813 23:06:00.317689  4464 net.cpp:150] Setting up pool2
I0813 23:06:00.317704  4464 net.cpp:157] Top shape: 64 48 22 22 (1486848)
I0813 23:06:00.317713  4464 net.cpp:165] Memory required for data: 167376896
I0813 23:06:00.317721  4464 layer_factory.hpp:77] Creating layer conv3
I0813 23:06:00.317739  4464 net.cpp:100] Creating Layer conv3
I0813 23:06:00.317747  4464 net.cpp:434] conv3 <- pool2
I0813 23:06:00.317759  4464 net.cpp:408] conv3 -> conv3
I0813 23:06:00.318931  4464 net.cpp:150] Setting up conv3
I0813 23:06:00.318955  4464 net.cpp:157] Top shape: 64 64 20 20 (1638400)
I0813 23:06:00.318964  4464 net.cpp:165] Memory required for data: 173930496
I0813 23:06:00.318982  4464 layer_factory.hpp:77] Creating layer relu3
I0813 23:06:00.319000  4464 net.cpp:100] Creating Layer relu3
I0813 23:06:00.319010  4464 net.cpp:434] relu3 <- conv3
I0813 23:06:00.319020  4464 net.cpp:395] relu3 -> conv3 (in-place)
I0813 23:06:00.319255  4464 net.cpp:150] Setting up relu3
I0813 23:06:00.319273  4464 net.cpp:157] Top shape: 64 64 20 20 (1638400)
I0813 23:06:00.319281  4464 net.cpp:165] Memory required for data: 180484096
I0813 23:06:00.319289  4464 layer_factory.hpp:77] Creating layer conv4
I0813 23:06:00.319308  4464 net.cpp:100] Creating Layer conv4
I0813 23:06:00.319319  4464 net.cpp:434] conv4 <- conv3
I0813 23:06:00.319331  4464 net.cpp:408] conv4 -> conv4
I0813 23:06:00.321063  4464 net.cpp:150] Setting up conv4
I0813 23:06:00.321094  4464 net.cpp:157] Top shape: 64 80 18 18 (1658880)
I0813 23:06:00.321104  4464 net.cpp:165] Memory required for data: 187119616
I0813 23:06:00.321116  4464 layer_factory.hpp:77] Creating layer relu4
I0813 23:06:00.321131  4464 net.cpp:100] Creating Layer relu4
I0813 23:06:00.321166  4464 net.cpp:434] relu4 <- conv4
I0813 23:06:00.321177  4464 net.cpp:395] relu4 -> conv4 (in-place)
I0813 23:06:00.321310  4464 net.cpp:150] Setting up relu4
I0813 23:06:00.321327  4464 net.cpp:157] Top shape: 64 80 18 18 (1658880)
I0813 23:06:00.321336  4464 net.cpp:165] Memory required for data: 193755136
I0813 23:06:00.321344  4464 layer_factory.hpp:77] Creating layer ip1
I0813 23:06:00.321359  4464 net.cpp:100] Creating Layer ip1
I0813 23:06:00.321369  4464 net.cpp:434] ip1 <- conv4
I0813 23:06:00.321380  4464 net.cpp:408] ip1 -> ip1
I0813 23:06:00.421460  4464 net.cpp:150] Setting up ip1
I0813 23:06:00.421504  4464 net.cpp:157] Top shape: 64 512 (32768)
I0813 23:06:00.421514  4464 net.cpp:165] Memory required for data: 193886208
I0813 23:06:00.421536  4464 layer_factory.hpp:77] Creating layer relu5
I0813 23:06:00.421558  4464 net.cpp:100] Creating Layer relu5
I0813 23:06:00.421576  4464 net.cpp:434] relu5 <- ip1
I0813 23:06:00.421588  4464 net.cpp:395] relu5 -> ip1 (in-place)
I0813 23:06:00.421988  4464 net.cpp:150] Setting up relu5
I0813 23:06:00.422005  4464 net.cpp:157] Top shape: 64 512 (32768)
I0813 23:06:00.422014  4464 net.cpp:165] Memory required for data: 194017280
I0813 23:06:00.422024  4464 layer_factory.hpp:77] Creating layer ip1_relu5_0_split
I0813 23:06:00.422035  4464 net.cpp:100] Creating Layer ip1_relu5_0_split
I0813 23:06:00.422044  4464 net.cpp:434] ip1_relu5_0_split <- ip1
I0813 23:06:00.422057  4464 net.cpp:408] ip1_relu5_0_split -> ip1_relu5_0_split_0
I0813 23:06:00.422077  4464 net.cpp:408] ip1_relu5_0_split -> ip1_relu5_0_split_1
I0813 23:06:00.422122  4464 net.cpp:150] Setting up ip1_relu5_0_split
I0813 23:06:00.422137  4464 net.cpp:157] Top shape: 64 512 (32768)
I0813 23:06:00.422147  4464 net.cpp:157] Top shape: 64 512 (32768)
I0813 23:06:00.422154  4464 net.cpp:165] Memory required for data: 194279424
I0813 23:06:00.422163  4464 layer_factory.hpp:77] Creating layer ip2
I0813 23:06:00.422175  4464 net.cpp:100] Creating Layer ip2
I0813 23:06:00.422188  4464 net.cpp:434] ip2 <- ip1_relu5_0_split_0
I0813 23:06:00.422200  4464 net.cpp:408] ip2 -> ip2
I0813 23:06:00.422303  4464 net.cpp:150] Setting up ip2
I0813 23:06:00.422317  4464 net.cpp:157] Top shape: 64 2 (128)
I0813 23:06:00.422325  4464 net.cpp:165] Memory required for data: 194279936
I0813 23:06:00.422338  4464 layer_factory.hpp:77] Creating layer ip2_ip2_0_split
I0813 23:06:00.422350  4464 net.cpp:100] Creating Layer ip2_ip2_0_split
I0813 23:06:00.422359  4464 net.cpp:434] ip2_ip2_0_split <- ip2
I0813 23:06:00.422369  4464 net.cpp:408] ip2_ip2_0_split -> ip2_ip2_0_split_0
I0813 23:06:00.422382  4464 net.cpp:408] ip2_ip2_0_split -> ip2_ip2_0_split_1
I0813 23:06:00.422420  4464 net.cpp:150] Setting up ip2_ip2_0_split
I0813 23:06:00.422433  4464 net.cpp:157] Top shape: 64 2 (128)
I0813 23:06:00.422443  4464 net.cpp:157] Top shape: 64 2 (128)
I0813 23:06:00.422451  4464 net.cpp:165] Memory required for data: 194280960
I0813 23:06:00.422459  4464 layer_factory.hpp:77] Creating layer loss1
I0813 23:06:00.422472  4464 net.cpp:100] Creating Layer loss1
I0813 23:06:00.422480  4464 net.cpp:434] loss1 <- ip2_ip2_0_split_0
I0813 23:06:00.422489  4464 net.cpp:434] loss1 <- glasses_slice1_1_split_0
I0813 23:06:00.422500  4464 net.cpp:408] loss1 -> loss1
…
