…
  stage: ""
}
layer {
  name: "data"
  type: "Data"
  top: "data"
  include {
    phase: TRAIN
  }
  transform_param {
    scale: 0.00390625
  }
  data_param {
    source: "/home/jaychou/code/new_caffe/caffe-master/examples/gender_glasses/gender_glasses_train_lmdb"
    batch_size: 100
    backend: LMDB
  }
}
layer {
  name: "labels"
  type: "Data"
  top: "labels"
  include {
    phase: TRAIN
  }
  data_param {
    source: "/home/jaychou/code/new_caffe/caffe-master/examples/gender_glasses/gender_glasses_train_label_lmdb"
    batch_size: 100
    backend: LMDB
  }
}
layer {
  name: "slice1"
  type: "Slice"
  bottom: "labels"
  top: "glasses"
  top: "gender"
  slice_param {
    slice_dim: 1
    slice_point: 1
  }
}
layer {
  name: "conv1"
  type: "Convolution"
  bottom: "data"
  top: "conv1"
  param {
    lr_mult: 1
  }
  param {
    lr_mult: 0.1
  }
  convolution_param {
    num_output: 20
    pad: 0
    kernel_size: 5
    stride: 1
    weight_filler {
      type: "xavier"
    }
    bias_filler {
      type: "constant"
      value: 0
    }
  }
}
layer {
  name: "relu1"
  type: "PReLU"
  bottom: "conv1"
  top: "conv1"
}
layer {
  name: "pool1"
  type: "Pooling"
  bottom: "conv1"
  top: "pool1"
  pooling_param {
    pool: MAX
    kernel_size: 2
    stride: 2
  }
}
layer {
  name: "conv2"
  type: "Convolution"
  bottom: "pool1"
  top: "conv2"
  param {
    lr_mult: 1
  }
  param {
    lr_mult: 0.1
  }
  convolution_param {
    num_output: 48
    pad: 0
    kernel_size: 5
    stride: 1
    weight_filler {
      type: "xavier"
    }
    bias_filler {
      type: "constant"
      value: 0
    }
  }
}
layer {
  name: "relu2"
  type: "PReLU"
  bottom: "conv2"
  top: "conv2"
}
layer {
  name: "pool2"
  type: "Pooling"
  bottom: "conv2"
  top: "pool2"
  pooling_param {
    pool: MAX
    kernel_size: 2
    stride: 2
  }
}
layer {
  name: "conv3"
  type: "Convolution"
  bottom: "pool2"
  top: "conv3"
  param {
    lr_mult: 0.1
  }
  param {
    lr_mult: 0.1
  }
  convolution_param {
    num_output: 64
    pad: 0
    kernel_size: 3
    stride: 1
    weight_filler {
      type: "xavier"
    }
    bias_filler {
      type: "constant"
      value: 0
    }
  }
}
layer {
  name: "relu3"
  type: "PReLU"
  bottom: "conv3"
  top: "conv3"
}
layer {
  name: "ip1"
  type: "InnerProduct"
  bottom: "conv3"
  top: "ip1"
  inner_product_param {
    num_output: 512
    weight_filler {
      type: "xavier"
    }
    bias_filler {
      type: "constant"
    }
  }
}
layer {
  name: "relu5"
  type: "PReLU"
  bottom: "ip1"
  top: "ip1"
}
layer {
  name: "drop1"
  type: "Dropout"
  bottom: "ip1"
  top: "ip1"
  dropout_param {
    dropout_ratio: 0.5
  }
}
layer {
  name: "ip2"
  type: "InnerProduct"
  bottom: "ip1"
  top: "ip2"
  inner_product_param {
    num_output: 2
    weight_filler {
      type: "xavier"
    }
    bias_filler {
      type: "constant"
    }
  }
}
layer {
  name: "loss1"
  type: "SoftmaxWithLoss"
  bottom: "ip2"
  bottom: "glasses"
  top: "loss1"
  loss_weight: 0.4
}
layer {
  name: "ip3"
  type: "InnerProduct"
  bottom: "ip1"
  top: "ip3"
  inner_product_param {
    num_output: 2
    weight_filler {
      type: "xavier"
    }
    bias_filler {
      type: "constant"
    }
  }
}
layer {
  name: "loss2"
  type: "SoftmaxWithLoss"
  bottom: "ip3"
  bottom: "gender"
  top: "loss2"
  loss_weight: 0.6
}
I0817 17:35:48.353314  6452 layer_factory.hpp:77] Creating layer data
I0817 17:35:48.353688  6452 net.cpp:100] Creating Layer data
I0817 17:35:48.353705  6452 net.cpp:408] data -> data
I0817 17:35:48.355101  6456 db_lmdb.cpp:35] Opened lmdb /home/jaychou/code/new_caffe/caffe-master/examples/gender_glasses/gender_glasses_train_lmdb
I0817 17:35:48.363466  6452 data_layer.cpp:41] output data size: 100,3,80,80
I0817 17:35:48.374452  6452 net.cpp:150] Setting up data
I0817 17:35:48.374501  6452 net.cpp:157] Top shape: 100 3 80 80 (1920000)
I0817 17:35:48.374512  6452 net.cpp:165] Memory required for data: 7680000
I0817 17:35:48.374528  6452 layer_factory.hpp:77] Creating layer labels
I0817 17:35:48.374629  6452 net.cpp:100] Creating Layer labels
I0817 17:35:48.374644  6452 net.cpp:408] labels -> labels
I0817 17:35:48.376324  6458 db_lmdb.cpp:35] Opened lmdb /home/jaychou/code/new_caffe/caffe-master/examples/gender_glasses/gender_glasses_train_label_lmdb
I0817 17:35:48.376969  6452 data_layer.cpp:41] output data size: 100,2,1,1
I0817 17:35:48.377143  6452 net.cpp:150] Setting up labels
I0817 17:35:48.377156  6452 net.cpp:157] Top shape: 100 2 1 1 (200)
I0817 17:35:48.377162  6452 net.cpp:165] Memory required for data: 7680800
I0817 17:35:48.377167  6452 layer_factory.hpp:77] Creating layer slice1
I0817 17:35:48.377183  6452 net.cpp:100] Creating Layer slice1
I0817 17:35:48.377193  6452 net.cpp:434] slice1 <- labels
I0817 17:35:48.377213  6452 net.cpp:408] slice1 -> glasses
I0817 17:35:48.377226  6452 net.cpp:408] slice1 -> gender
I0817 17:35:48.377266  6452 net.cpp:150] Setting up slice1
I0817 17:35:48.377275  6452 net.cpp:157] Top shape: 100 1 1 1 (100)
I0817 17:35:48.377281  6452 net.cpp:157] Top shape: 100 1 1 1 (100)
I0817 17:35:48.377286  6452 net.cpp:165] Memory required for data: 7681600
I0817 17:35:48.377295  6452 layer_factory.hpp:77] Creating layer conv1
I0817 17:35:48.377315  6452 net.cpp:100] Creating Layer conv1
I0817 17:35:48.377321  6452 net.cpp:434] conv1 <- data
I0817 17:35:48.377331  6452 net.cpp:408] conv1 -> conv1
I0817 17:35:48.511783  6452 net.cpp:150] Setting up conv1
I0817 17:35:48.511831  6452 net.cpp:157] Top shape: 100 20 76 76 (11552000)
I0817 17:35:48.511842  6452 net.cpp:165] Memory required for data: 53889600
I0817 17:35:48.511868  6452 layer_factory.hpp:77] Creating layer relu1
I0817 17:35:48.511886  6452 net.cpp:100] Creating Layer relu1
I0817 17:35:48.511904  6452 net.cpp:434] relu1 <- conv1
I0817 17:35:48.511916  6452 net.cpp:395] relu1 -> conv1 (in-place)
I0817 17:35:48.512418  6452 net.cpp:150] Setting up relu1
I0817 17:35:48.512435  6452 net.cpp:157] Top shape: 100 20 76 76 (11552000)
I0817 17:35:48.512444  6452 net.cpp:165] Memory required for data: 100097600
I0817 17:35:48.512459  6452 layer_factory.hpp:77] Creating layer pool1
I0817 17:35:48.512471  6452 net.cpp:100] Creating Layer pool1
I0817 17:35:48.512480  6452 net.cpp:434] pool1 <- conv1
I0817 17:35:48.512493  6452 net.cpp:408] pool1 -> pool1
I0817 17:35:48.512547  6452 net.cpp:150] Setting up pool1
I0817 17:35:48.512562  6452 net.cpp:157] Top shape: 100 20 38 38 (2888000)
I0817 17:35:48.512572  6452 net.cpp:165] Memory required for data: 111649600
I0817 17:35:48.512579  6452 layer_factory.hpp:77] Creating layer conv2
I0817 17:35:48.512596  6452 net.cpp:100] Creating Layer conv2
I0817 17:35:48.512606  6452 net.cpp:434] conv2 <- pool1
I0817 17:35:48.512617  6452 net.cpp:408] conv2 -> conv2
I0817 17:35:48.513967  6452 net.cpp:150] Setting up conv2
I0817 17:35:48.513988  6452 net.cpp:157] Top shape: 100 48 34 34 (5548800)
I0817 17:35:48.513998  6452 net.cpp:165] Memory required for data: 133844800
I0817 17:35:48.514036  6452 layer_factory.hpp:77] Creating layer relu2
I0817 17:35:48.514053  6452 net.cpp:100] Creating Layer relu2
I0817 17:35:48.514062  6452 net.cpp:434] relu2 <- conv2
I0817 17:35:48.514072  6452 net.cpp:395] relu2 -> conv2 (in-place)
I0817 17:35:48.514185  6452 net.cpp:150] Setting up relu2
I0817 17:35:48.514201  6452 net.cpp:157] Top shape: 100 48 34 34 (5548800)
I0817 17:35:48.514210  6452 net.cpp:165] Memory required for data: 156040000
I0817 17:35:48.514220  6452 layer_factory.hpp:77] Creating layer pool2
I0817 17:35:48.514232  6452 net.cpp:100] Creating Layer pool2
I0817 17:35:48.514242  6452 net.cpp:434] pool2 <- conv2
I0817 17:35:48.514255  6452 net.cpp:408] pool2 -> pool2
I0817 17:35:48.514292  6452 net.cpp:150] Setting up pool2
I0817 17:35:48.514307  6452 net.cpp:157] Top shape: 100 48 17 17 (1387200)
I0817 17:35:48.514314  6452 net.cpp:165] Memory required for data: 161588800
I0817 17:35:48.514322  6452 layer_factory.hpp:77] Creating layer conv3
I0817 17:35:48.514338  6452 net.cpp:100] Creating Layer conv3
I0817 17:35:48.514348  6452 net.cpp:434] conv3 <- pool2
I0817 17:35:48.514359  6452 net.cpp:408] conv3 -> conv3
I0817 17:35:48.515235  6452 net.cpp:150] Setting up conv3
I0817 17:35:48.515256  6452 net.cpp:157] Top shape: 100 64 15 15 (1440000)
I0817 17:35:48.515266  6452 net.cpp:165] Memory required for data: 167348800
I0817 17:35:48.515278  6452 layer_factory.hpp:77] Creating layer relu3
I0817 17:35:48.515290  6452 net.cpp:100] Creating Layer relu3
I0817 17:35:48.515298  6452 net.cpp:434] relu3 <- conv3
I0817 17:35:48.515308  6452 net.cpp:395] relu3 -> conv3 (in-place)
I0817 17:35:48.515400  6452 net.cpp:150] Setting up relu3
I0817 17:35:48.515417  6452 net.cpp:157] Top shape: 100 64 15 15 (1440000)
I0817 17:35:48.515425  6452 net.cpp:165] Memory required for data: 173108800
I0817 17:35:48.515439  6452 layer_factory.hpp:77] Creating layer ip1
I0817 17:35:48.515455  6452 net.cpp:100] Creating Layer ip1
I0817 17:35:48.515465  6452 net.cpp:434] ip1 <- conv3
I0817 17:35:48.515477  6452 net.cpp:408] ip1 -> ip1
I0817 17:35:48.570318  6452 net.cpp:150] Setting up ip1
I0817 17:35:48.570363  6452 net.cpp:157] Top shape: 100 512 (51200)
I0817 17:35:48.570371  6452 net.cpp:165] Memory required for data: 173313600
I0817 17:35:48.570387  6452 layer_factory.hpp:77] Creating layer relu5
I0817 17:35:48.570402  6452 net.cpp:100] Creating Layer relu5
I0817 17:35:48.570412  6452 net.cpp:434] relu5 <- ip1
I0817 17:35:48.570426  6452 net.cpp:395] relu5 -> ip1 (in-place)
I0817 17:35:48.570513  6452 net.cpp:150] Setting up relu5
I0817 17:35:48.570528  6452 net.cpp:157] Top shape: 100 512 (51200)
I0817 17:35:48.570535  6452 net.cpp:165] Memory required for data: 173518400
I0817 17:35:48.570545  6452 layer_factory.hpp:77] Creating layer drop1
I0817 17:35:48.570562  6452 net.cpp:100] Creating Layer drop1
I0817 17:35:48.570574  6452 net.cpp:434] drop1 <- ip1
I0817 17:35:48.570583  6452 net.cpp:395] drop1 -> ip1 (in-place)
I0817 17:35:48.570616  6452 net.cpp:150] Setting up drop1
I0817 17:35:48.570631  6452 net.cpp:157] Top shape: 100 512 (51200)
I0817 17:35:48.570638  6452 net.cpp:165] Memory required for data: 173723200
I0817 17:35:48.570647  6452 layer_factory.hpp:77] Creating layer ip1_drop1_0_split
I0817 17:35:48.570659  6452 net.cpp:100] Creating Layer ip1_drop1_0_split
I0817 17:35:48.570668  6452 net.cpp:434] ip1_drop1_0_split <- ip1
I0817 17:35:48.570679  6452 net.cpp:408] ip1_drop1_0_split -> ip1_drop1_0_split_0
I0817 17:35:48.570694  6452 net.cpp:408] ip1_drop1_0_split -> ip1_drop1_0_split_1
I0817 17:35:48.570730  6452 net.cpp:150] Setting up ip1_drop1_0_split
I0817 17:35:48.570745  6452 net.cpp:157] Top shape: 100 512 (51200)
I0817 17:35:48.570755  6452 net.cpp:157] Top shape: 100 512 (51200)
I0817 17:35:48.570763  6452 net.cpp:165] Memory required for data: 174132800
I0817 17:35:48.570771  6452 layer_factory.hpp:77] Creating layer ip2
I0817 17:35:48.570783  6452 net.cpp:100] Creating Layer ip2
I0817 17:35:48.570792  6452 net.cpp:434] ip2 <- ip1_drop1_0_split_0
I0817 17:35:48.570823  6452 net.cpp:408] ip2 -> ip2
I0817 17:35:48.570925  6452 net.cpp:150] Setting up ip2
I0817 17:35:48.570940  6452 net.cpp:157] Top shape: 100 2 (200)
I0817 17:35:48.570948  6452 net.cpp:165] Memory required for data: 174133600
I0817 17:35:48.570960  6452 layer_factory.hpp:77] Creating layer loss1
I0817 17:35:48.570976  6452 net.cpp:100] Creating Layer loss1
I0817 17:35:48.570986  6452 net.cpp:434] loss1 <- ip2
I0817 17:35:48.570996  6452 net.cpp:434] loss1 <- glasses
I0817 17:35:48.571005  6452 net.cpp:408] loss1 -> loss1
I0817 17:35:48.571020  6452 layer_factory.hpp:77] Creating layer loss1
I0817 17:35:48.571419  6452 net.cpp:150] Setting up loss1
I0817 17:35:48.571437  6452 net.cpp:157] Top shape: (1)
I0817 17:35:48.571446  6452 net.cpp:160]     with loss weight 0.4
I0817 17:35:48.571470  6452 net.cpp:165] Memory required for data: 174133604
I0817 17:35:48.571480  6452 layer_factory.hpp:77] Creating layer ip3
I0817 17:35:48.571492  6452 net.cpp:100] Creating Layer ip3
I0817 17:35:48.571501  6452 net.cpp:434] ip3 <- ip1_drop1_0_split_1
I0817 17:35:48.571512  6452 net.cpp:408] ip3 -> ip3
I0817 17:35:48.571609  6452 net.cpp:150] Setting up ip3
I0817 17:35:48.571624  6452 net.cpp:157] Top shape: 100 2 (200)
I0817 17:35:48.571632  6452 net.cpp:165] Memory required for data: 174134404
I0817 17:35:48.571643  6452 layer_factory.hpp:77] Creating layer loss2
I0817 17:35:48.571655  6452 net.cpp:100] Creating Layer loss2
I0817 17:35:48.571663  6452 net.cpp:434] loss2 <- ip3
I0817 17:35:48.571672  6452 net.cpp:434] loss2 <- gender
I0817 17:35:48.571686  6452 net.cpp:408] loss2 -> loss2
I0817 17:35:48.571698  6452 layer_factory.hpp:77] Creating layer loss2
…
  phase: TEST
}
layer {
  name: "data"
  type: "Data"
  top: "data"
  include {
    phase: TEST
  }
  transform_param {
    scale: 0.00390625
  }
  data_param {
    source: "/home/jaychou/code/new_caffe/caffe-master/examples/gender_glasses/gender_glasses_val_lmdb"
    batch_size: 64
    backend: LMDB
  }
}
layer {
  name: "labels"
  type: "Data"
  top: "labels"
  include {
    phase: TEST
  }
  data_param {
    source: "/home/jaychou/code/new_caffe/caffe-master/examples/gender_glasses/gender_glasses_val_label_lmdb"
    batch_size: 64
    backend: LMDB
  }
}
layer {
  name: "slice1"
  type: "Slice"
  bottom: "labels"
  top: "glasses"
  top: "gender"
  slice_param {
    slice_dim: 1
    slice_point: 1
  }
}
layer {
  name: "conv1"
  type: "Convolution"
  bottom: "data"
  top: "conv1"
  param {
    lr_mult: 1
  }
  param {
    lr_mult: 0.1
  }
  convolution_param {
    num_output: 20
    pad: 0
    kernel_size: 5
    stride: 1
    weight_filler {
      type: "xavier"
    }
    bias_filler {
      type: "constant"
      value: 0
    }
  }
}
layer {
  name: "relu1"
  type: "PReLU"
  bottom: "conv1"
  top: "conv1"
}
layer {
  name: "pool1"
  type: "Pooling"
  bottom: "conv1"
  top: "pool1"
  pooling_param {
    pool: MAX
    kernel_size: 2
    stride: 2
  }
}
layer {
  name: "conv2"
  type: "Convolution"
  bottom: "pool1"
  top: "conv2"
  param {
    lr_mult: 1
  }
  param {
    lr_mult: 0.1
  }
  convolution_param {
    num_output: 48
    pad: 0
    kernel_size: 5
    stride: 1
    weight_filler {
      type: "xavier"
    }
    bias_filler {
      type: "constant"
      value: 0
    }
  }
}
layer {
  name: "relu2"
  type: "PReLU"
  bottom: "conv2"
  top: "conv2"
}
layer {
  name: "pool2"
  type: "Pooling"
  bottom: "conv2"
  top: "pool2"
  pooling_param {
    pool: MAX
    kernel_size: 2
    stride: 2
  }
}
layer {
  name: "conv3"
  type: "Convolution"
  bottom: "pool2"
  top: "conv3"
  param {
    lr_mult: 0.1
  }
  param {
    lr_mult: 0.1
  }
  convolution_param {
    num_output: 64
    pad: 0
    kernel_size: 3
    stride: 1
    weight_filler {
      type: "xavier"
    }
    bias_filler {
      type: "constant"
      value: 0
    }
  }
}
layer {
  name: "relu3"
  type: "PReLU"
  bottom: "conv3"
  top: "conv3"
}
layer {
  name: "ip1"
  type: "InnerProduct"
  bottom: "conv3"
  top: "ip1"
  inner_product_param {
    num_output: 512
    weight_filler {
      type: "xavier"
    }
    bias_filler {
      type: "constant"
    }
  }
}
layer {
  name: "relu5"
  type: "PReLU"
  bottom: "ip1"
  top: "ip1"
}
layer {
  name: "drop1"
  type: "Dropout"
  bottom: "ip1"
  top: "ip1"
  dropout_param {
    dropout_ratio: 0.5
  }
}
layer {
  name: "ip2"
  type: "InnerProduct"
  bottom: "ip1"
  top: "ip2"
  inner_product_param {
    num_output: 2
    weight_filler {
      type: "xavier"
    }
    bias_filler {
      type: "constant"
    }
  }
}
layer {
  name: "loss1"
  type: "SoftmaxWithLoss"
  bottom: "ip2"
  bottom: "glasses"
  top: "loss1"
  loss_weight: 0.4
}
layer {
  name: "accuracy_glasses"
  type: "Accuracy"
  bottom: "ip2"
  bottom: "glasses"
  top: "accuracy_glasses"
  include {
    phase: TEST
  }
}
layer {
  name: "ip3"
  type: "InnerProduct"
  bottom: "ip1"
  top: "ip3"
  inner_product_param {
    num_output: 2
    weight_filler {
      type: "xavier"
    }
    bias_filler {
      type: "constant"
    }
  }
}
layer {
  name: "loss2"
  type: "SoftmaxWithLoss"
  bottom: "ip3"
  bottom: "gender"
  top: "loss2"
  loss_weight: 0.6
}
layer {
  name: "accuracy_gender"
  type: "Accuracy"
  bottom: "ip3"
  bottom: "gender"
  top: "accuracy_gender"
  include {
    phase: TEST
  }
}
I0817 17:35:48.573390  6452 layer_factory.hpp:77] Creating layer data
I0817 17:35:48.573479  6452 net.cpp:100] Creating Layer data
I0817 17:35:48.573493  6452 net.cpp:408] data -> data
I0817 17:35:48.574435  6460 db_lmdb.cpp:35] Opened lmdb /home/jaychou/code/new_caffe/caffe-master/examples/gender_glasses/gender_glasses_val_lmdb
I0817 17:35:48.574645  6452 data_layer.cpp:41] output data size: 64,3,80,80
I0817 17:35:48.582628  6452 net.cpp:150] Setting up data
I0817 17:35:48.582689  6452 net.cpp:157] Top shape: 64 3 80 80 (1228800)
I0817 17:35:48.582698  6452 net.cpp:165] Memory required for data: 4915200
I0817 17:35:48.582710  6452 layer_factory.hpp:77] Creating layer labels
I0817 17:35:48.582798  6452 net.cpp:100] Creating Layer labels
I0817 17:35:48.582815  6452 net.cpp:408] labels -> labels
I0817 17:35:48.584940  6462 db_lmdb.cpp:35] Opened lmdb /home/jaychou/code/new_caffe/caffe-master/examples/gender_glasses/gender_glasses_val_label_lmdb
I0817 17:35:48.585336  6452 data_layer.cpp:41] output data size: 64,2,1,1
I0817 17:35:48.585672  6452 net.cpp:150] Setting up labels
I0817 17:35:48.585690  6452 net.cpp:157] Top shape: 64 2 1 1 (128)
I0817 17:35:48.585700  6452 net.cpp:165] Memory required for data: 4915712
I0817 17:35:48.585708  6452 layer_factory.hpp:77] Creating layer slice1
I0817 17:35:48.585724  6452 net.cpp:100] Creating Layer slice1
I0817 17:35:48.585736  6452 net.cpp:434] slice1 <- labels
I0817 17:35:48.585748  6452 net.cpp:408] slice1 -> glasses
I0817 17:35:48.585765  6452 net.cpp:408] slice1 -> gender
I0817 17:35:48.585808  6452 net.cpp:150] Setting up slice1
I0817 17:35:48.585822  6452 net.cpp:157] Top shape: 64 1 1 1 (64)
I0817 17:35:48.585831  6452 net.cpp:157] Top shape: 64 1 1 1 (64)
I0817 17:35:48.585842  6452 net.cpp:165] Memory required for data: 4916224
I0817 17:35:48.585851  6452 layer_factory.hpp:77] Creating layer glasses_slice1_0_split
I0817 17:35:48.585861  6452 net.cpp:100] Creating Layer glasses_slice1_0_split
I0817 17:35:48.585870  6452 net.cpp:434] glasses_slice1_0_split <- glasses
I0817 17:35:48.585881  6452 net.cpp:408] glasses_slice1_0_split -> glasses_slice1_0_split_0
I0817 17:35:48.585896  6452 net.cpp:408] glasses_slice1_0_split -> glasses_slice1_0_split_1
I0817 17:35:48.585932  6452 net.cpp:150] Setting up glasses_slice1_0_split
I0817 17:35:48.585947  6452 net.cpp:157] Top shape: 64 1 1 1 (64)
I0817 17:35:48.585958  6452 net.cpp:157] Top shape: 64 1 1 1 (64)
I0817 17:35:48.585965  6452 net.cpp:165] Memory required for data: 4916736
I0817 17:35:48.585973  6452 layer_factory.hpp:77] Creating layer gender_slice1_1_split
I0817 17:35:48.585984  6452 net.cpp:100] Creating Layer gender_slice1_1_split
I0817 17:35:48.585993  6452 net.cpp:434] gender_slice1_1_split <- gender
I0817 17:35:48.586002  6452 net.cpp:408] gender_slice1_1_split -> gender_slice1_1_split_0
I0817 17:35:48.586014  6452 net.cpp:408] gender_slice1_1_split -> gender_slice1_1_split_1
I0817 17:35:48.586051  6452 net.cpp:150] Setting up gender_slice1_1_split
I0817 17:35:48.586063  6452 net.cpp:157] Top shape: 64 1 1 1 (64)
I0817 17:35:48.586072  6452 net.cpp:157] Top shape: 64 1 1 1 (64)
I0817 17:35:48.586081  6452 net.cpp:165] Memory required for data: 4917248
I0817 17:35:48.586088  6452 layer_factory.hpp:77] Creating layer conv1
I0817 17:35:48.586109  6452 net.cpp:100] Creating Layer conv1
I0817 17:35:48.586118  6452 net.cpp:434] conv1 <- data
I0817 17:35:48.586129  6452 net.cpp:408] conv1 -> conv1
I0817 17:35:48.587308  6452 net.cpp:150] Setting up conv1
I0817 17:35:48.587333  6452 net.cpp:157] Top shape: 64 20 76 76 (7393280)
I0817 17:35:48.587342  6452 net.cpp:165] Memory required for data: 34490368
I0817 17:35:48.587360  6452 layer_factory.hpp:77] Creating layer relu1
I0817 17:35:48.587376  6452 net.cpp:100] Creating Layer relu1
I0817 17:35:48.587388  6452 net.cpp:434] relu1 <- conv1
I0817 17:35:48.587399  6452 net.cpp:395] relu1 -> conv1 (in-place)
I0817 17:35:48.587620  6452 net.cpp:150] Setting up relu1
I0817 17:35:48.587633  6452 net.cpp:157] Top shape: 64 20 76 76 (7393280)
I0817 17:35:48.587641  6452 net.cpp:165] Memory required for data: 64063488
I0817 17:35:48.587654  6452 layer_factory.hpp:77] Creating layer pool1
I0817 17:35:48.587667  6452 net.cpp:100] Creating Layer pool1
I0817 17:35:48.587677  6452 net.cpp:434] pool1 <- conv1
I0817 17:35:48.587687  6452 net.cpp:408] pool1 -> pool1
I0817 17:35:48.587730  6452 net.cpp:150] Setting up pool1
I0817 17:35:48.587743  6452 net.cpp:157] Top shape: 64 20 38 38 (1848320)
I0817 17:35:48.587751  6452 net.cpp:165] Memory required for data: 71456768
I0817 17:35:48.587781  6452 layer_factory.hpp:77] Creating layer conv2
I0817 17:35:48.587800  6452 net.cpp:100] Creating Layer conv2
I0817 17:35:48.587810  6452 net.cpp:434] conv2 <- pool1
I0817 17:35:48.587821  6452 net.cpp:408] conv2 -> conv2
I0817 17:35:48.588924  6452 net.cpp:150] Setting up conv2
I0817 17:35:48.588943  6452 net.cpp:157] Top shape: 64 48 34 34 (3551232)
I0817 17:35:48.588953  6452 net.cpp:165] Memory required for data: 85661696
I0817 17:35:48.588965  6452 layer_factory.hpp:77] Creating layer relu2
I0817 17:35:48.588980  6452 net.cpp:100] Creating Layer relu2
I0817 17:35:48.588989  6452 net.cpp:434] relu2 <- conv2
I0817 17:35:48.589000  6452 net.cpp:395] relu2 -> conv2 (in-place)
I0817 17:35:48.589167  6452 net.cpp:150] Setting up relu2
I0817 17:35:48.589181  6452 net.cpp:157] Top shape: 64 48 34 34 (3551232)
I0817 17:35:48.589190  6452 net.cpp:165] Memory required for data: 99866624
I0817 17:35:48.589200  6452 layer_factory.hpp:77] Creating layer pool2
I0817 17:35:48.589213  6452 net.cpp:100] Creating Layer pool2
I0817 17:35:48.589222  6452 net.cpp:434] pool2 <- conv2
I0817 17:35:48.589232  6452 net.cpp:408] pool2 -> pool2
I0817 17:35:48.589273  6452 net.cpp:150] Setting up pool2
I0817 17:35:48.589287  6452 net.cpp:157] Top shape: 64 48 17 17 (887808)
I0817 17:35:48.589294  6452 net.cpp:165] Memory required for data: 103417856
I0817 17:35:48.589303  6452 layer_factory.hpp:77] Creating layer conv3
I0817 17:35:48.589318  6452 net.cpp:100] Creating Layer conv3
I0817 17:35:48.589326  6452 net.cpp:434] conv3 <- pool2
I0817 17:35:48.589339  6452 net.cpp:408] conv3 -> conv3
I0817 17:35:48.590654  6452 net.cpp:150] Setting up conv3
I0817 17:35:48.590672  6452 net.cpp:157] Top shape: 64 64 15 15 (921600)
I0817 17:35:48.590682  6452 net.cpp:165] Memory required for data: 107104256
I0817 17:35:48.590694  6452 layer_factory.hpp:77] Creating layer relu3
I0817 17:35:48.590706  6452 net.cpp:100] Creating Layer relu3
I0817 17:35:48.590715  6452 net.cpp:434] relu3 <- conv3
I0817 17:35:48.590725  6452 net.cpp:395] relu3 -> conv3 (in-place)
I0817 17:35:48.590828  6452 net.cpp:150] Setting up relu3
I0817 17:35:48.590842  6452 net.cpp:157] Top shape: 64 64 15 15 (921600)
I0817 17:35:48.590849  6452 net.cpp:165] Memory required for data: 110790656
I0817 17:35:48.590862  6452 layer_factory.hpp:77] Creating layer ip1
I0817 17:35:48.590876  6452 net.cpp:100] Creating Layer ip1
I0817 17:35:48.590885  6452 net.cpp:434] ip1 <- conv3
I0817 17:35:48.590908  6452 net.cpp:408] ip1 -> ip1
I0817 17:35:48.647405  6452 net.cpp:150] Setting up ip1
I0817 17:35:48.647452  6452 net.cpp:157] Top shape: 64 512 (32768)
I0817 17:35:48.647462  6452 net.cpp:165] Memory required for data: 110921728
I0817 17:35:48.647480  6452 layer_factory.hpp:77] Creating layer relu5
I0817 17:35:48.647495  6452 net.cpp:100] Creating Layer relu5
I0817 17:35:48.647505  6452 net.cpp:434] relu5 <- ip1
I0817 17:35:48.647518  6452 net.cpp:395] relu5 -> ip1 (in-place)
I0817 17:35:48.647606  6452 net.cpp:150] Setting up relu5
I0817 17:35:48.647621  6452 net.cpp:157] Top shape: 64 512 (32768)
I0817 17:35:48.647629  6452 net.cpp:165] Memory required for data: 111052800
I0817 17:35:48.647639  6452 layer_factory.hpp:77] Creating layer drop1
I0817 17:35:48.647652  6452 net.cpp:100] Creating Layer drop1
I0817 17:35:48.647661  6452 net.cpp:434] drop1 <- ip1
I0817 17:35:48.647670  6452 net.cpp:395] drop1 -> ip1 (in-place)
I0817 17:35:48.647701  6452 net.cpp:150] Setting up drop1
I0817 17:35:48.647713  6452 net.cpp:157] Top shape: 64 512 (32768)
I0817 17:35:48.647722  6452 net.cpp:165] Memory required for data: 111183872
I0817 17:35:48.647730  6452 layer_factory.hpp:77] Creating layer ip1_drop1_0_split
I0817 17:35:48.647743  6452 net.cpp:100] Creating Layer ip1_drop1_0_split
I0817 17:35:48.647753  6452 net.cpp:434] ip1_drop1_0_split <- ip1
I0817 17:35:48.647763  6452 net.cpp:408] ip1_drop1_0_split -> ip1_drop1_0_split_0
I0817 17:35:48.647775  6452 net.cpp:408] ip1_drop1_0_split -> ip1_drop1_0_split_1
I0817 17:35:48.647819  6452 net.cpp:150] Setting up ip1_drop1_0_split
I0817 17:35:48.647855  6452 net.cpp:157] Top shape: 64 512 (32768)
I0817 17:35:48.647864  6452 net.cpp:157] Top shape: 64 512 (32768)
I0817 17:35:48.647872  6452 net.cpp:165] Memory required for data: 111446016
I0817 17:35:48.647881  6452 layer_factory.hpp:77] Creating layer ip2
I0817 17:35:48.647893  6452 net.cpp:100] Creating Layer ip2
I0817 17:35:48.647904  6452 net.cpp:434] ip2 <- ip1_drop1_0_split_0
I0817 17:35:48.647917  6452 net.cpp:408] ip2 -> ip2
I0817 17:35:48.648025  6452 net.cpp:150] Setting up ip2
I0817 17:35:48.648041  6452 net.cpp:157] Top shape: 64 2 (128)
I0817 17:35:48.648049  6452 net.cpp:165] Memory required for data: 111446528
I0817 17:35:48.648061  6452 layer_factory.hpp:77] Creating layer ip2_ip2_0_split
I0817 17:35:48.648073  6452 net.cpp:100] Creating Layer ip2_ip2_0_split
I0817 17:35:48.648083  6452 net.cpp:434] ip2_ip2_0_split <- ip2
I0817 17:35:48.648094  6452 net.cpp:408] ip2_ip2_0_split -> ip2_ip2_0_split_0
I0817 17:35:48.648108  6452 net.cpp:408] ip2_ip2_0_split -> ip2_ip2_0_split_1
I0817 17:35:48.648145  6452 net.cpp:150] Setting up ip2_ip2_0_split
I0817 17:35:48.648159  6452 net.cpp:157] Top shape: 64 2 (128)
I0817 17:35:48.648167  6452 net.cpp:157] Top shape: 64 2 (128)
I0817 17:35:48.648175  6452 net.cpp:165] Memory required for data: 111447552
I0817 17:35:48.648183  6452 layer_factory.hpp:77] Creating layer loss1
I0817 17:35:48.648195  6452 net.cpp:100] Creating Layer loss1
I0817 17:35:48.648203  6452 net.cpp:434] loss1 <- ip2_ip2_0_split_0
I0817 17:35:48.648212  6452 net.cpp:434] loss1 <- glasses_slice1_0_split_0
I0817 17:35:48.648224  6452 net.cpp:408] loss1 -> loss1
…
