…
  stage: ""
}
layer {
  name: "data"
  type: "Data"
  top: "data"
  include {
    phase: TRAIN
  }
  transform_param {
    scale: 0.00390625
  }
  data_param {
    source: "/home/jaychou/code/new_caffe/caffe-master/examples/gender_glasses/gender_glasses_train_lmdb"
    batch_size: 100
    backend: LMDB
  }
}
layer {
  name: "labels"
  type: "Data"
  top: "labels"
  include {
    phase: TRAIN
  }
  data_param {
    source: "/home/jaychou/code/new_caffe/caffe-master/examples/gender_glasses/gender_glasses_train_label_lmdb"
    batch_size: 100
    backend: LMDB
  }
}
layer {
  name: "slice1"
  type: "Slice"
  bottom: "labels"
  top: "glasses"
  top: "gender"
  slice_param {
    slice_dim: 1
    slice_point: 1
  }
}
layer {
  name: "conv1"
  type: "Convolution"
  bottom: "data"
  top: "conv1"
  param {
    lr_mult: 1
  }
  param {
    lr_mult: 0.1
  }
  convolution_param {
    num_output: 20
    pad: 0
    kernel_size: 5
    stride: 1
    weight_filler {
      type: "xavier"
    }
    bias_filler {
      type: "constant"
      value: 0
    }
  }
}
layer {
  name: "relu1"
  type: "PReLU"
  bottom: "conv1"
  top: "conv1"
}
layer {
  name: "pool1"
  type: "Pooling"
  bottom: "conv1"
  top: "pool1"
  pooling_param {
    pool: MAX
    kernel_size: 2
    stride: 2
  }
}
layer {
  name: "conv2"
  type: "Convolution"
  bottom: "pool1"
  top: "conv2"
  param {
    lr_mult: 1
  }
  param {
    lr_mult: 0.1
  }
  convolution_param {
    num_output: 48
    pad: 0
    kernel_size: 5
    stride: 1
    weight_filler {
      type: "xavier"
    }
    bias_filler {
      type: "constant"
      value: 0
    }
  }
}
layer {
  name: "relu2"
  type: "PReLU"
  bottom: "conv2"
  top: "conv2"
}
layer {
  name: "pool2"
  type: "Pooling"
  bottom: "conv2"
  top: "pool2"
  pooling_param {
    pool: MAX
    kernel_size: 2
    stride: 2
  }
}
layer {
  name: "conv3"
  type: "Convolution"
  bottom: "pool2"
  top: "conv3"
  param {
    lr_mult: 0.1
  }
  param {
    lr_mult: 0.1
  }
  convolution_param {
    num_output: 64
    pad: 0
    kernel_size: 3
    stride: 1
    weight_filler {
      type: "xavier"
    }
    bias_filler {
      type: "constant"
      value: 0
    }
  }
}
layer {
  name: "relu3"
  type: "PReLU"
  bottom: "conv3"
  top: "conv3"
}
layer {
  name: "conv4"
  type: "Convolution"
  bottom: "conv3"
  top: "conv4"
  param {
    lr_mult: 0.1
  }
  param {
    lr_mult: 0.1
  }
  convolution_param {
    num_output: 80
    pad: 0
    kernel_size: 3
    stride: 1
    weight_filler {
      type: "xavier"
    }
    bias_filler {
      type: "constant"
      value: 0
    }
  }
}
layer {
  name: "relu4"
  type: "PReLU"
  bottom: "conv4"
  top: "conv4"
}
layer {
  name: "ip1"
  type: "InnerProduct"
  bottom: "conv4"
  top: "ip1"
  inner_product_param {
    num_output: 512
    weight_filler {
      type: "xavier"
    }
    bias_filler {
      type: "constant"
    }
  }
}
layer {
  name: "relu5"
  type: "PReLU"
  bottom: "ip1"
  top: "ip1"
}
layer {
  name: "drop1"
  type: "Dropout"
  bottom: "ip1"
  top: "ip1"
  dropout_param {
    dropout_ratio: 0.5
  }
}
layer {
  name: "ip2"
  type: "InnerProduct"
  bottom: "ip1"
  top: "ip2"
  inner_product_param {
    num_output: 2
    weight_filler {
      type: "xavier"
    }
    bias_filler {
      type: "constant"
    }
  }
}
layer {
  name: "loss1"
  type: "SoftmaxWithLoss"
  bottom: "ip2"
  bottom: "glasses"
  top: "loss1"
  loss_weight: 0.5
}
layer {
  name: "ip3"
  type: "InnerProduct"
  bottom: "ip1"
  top: "ip3"
  inner_product_param {
    num_output: 512
    weight_filler {
      type: "xavier"
    }
    bias_filler {
      type: "constant"
    }
  }
}
layer {
  name: "loss2"
  type: "SoftmaxWithLoss"
  bottom: "ip3"
  bottom: "gender"
  top: "loss2"
  loss_weight: 0.5
}
I0814 20:27:02.156406  6682 layer_factory.hpp:77] Creating layer data
I0814 20:27:02.156774  6682 net.cpp:100] Creating Layer data
I0814 20:27:02.156792  6682 net.cpp:408] data -> data
I0814 20:27:02.157789  6686 db_lmdb.cpp:35] Opened lmdb /home/jaychou/code/new_caffe/caffe-master/examples/gender_glasses/gender_glasses_train_lmdb
I0814 20:27:02.168870  6682 data_layer.cpp:41] output data size: 100,3,100,100
I0814 20:27:02.186663  6682 net.cpp:150] Setting up data
I0814 20:27:02.186708  6682 net.cpp:157] Top shape: 100 3 100 100 (3000000)
I0814 20:27:02.186718  6682 net.cpp:165] Memory required for data: 12000000
I0814 20:27:02.186735  6682 layer_factory.hpp:77] Creating layer labels
I0814 20:27:02.186940  6682 net.cpp:100] Creating Layer labels
I0814 20:27:02.186957  6682 net.cpp:408] labels -> labels
I0814 20:27:02.188539  6688 db_lmdb.cpp:35] Opened lmdb /home/jaychou/code/new_caffe/caffe-master/examples/gender_glasses/gender_glasses_train_label_lmdb
I0814 20:27:02.189352  6682 data_layer.cpp:41] output data size: 100,2,1,1
I0814 20:27:02.189697  6682 net.cpp:150] Setting up labels
I0814 20:27:02.189715  6682 net.cpp:157] Top shape: 100 2 1 1 (200)
I0814 20:27:02.189725  6682 net.cpp:165] Memory required for data: 12000800
I0814 20:27:02.189734  6682 layer_factory.hpp:77] Creating layer slice1
I0814 20:27:02.189755  6682 net.cpp:100] Creating Layer slice1
I0814 20:27:02.189767  6682 net.cpp:434] slice1 <- labels
I0814 20:27:02.189786  6682 net.cpp:408] slice1 -> glasses
I0814 20:27:02.189803  6682 net.cpp:408] slice1 -> gender
I0814 20:27:02.189849  6682 net.cpp:150] Setting up slice1
I0814 20:27:02.189864  6682 net.cpp:157] Top shape: 100 1 1 1 (100)
I0814 20:27:02.189874  6682 net.cpp:157] Top shape: 100 1 1 1 (100)
I0814 20:27:02.189882  6682 net.cpp:165] Memory required for data: 12001600
I0814 20:27:02.189891  6682 layer_factory.hpp:77] Creating layer conv1
I0814 20:27:02.189915  6682 net.cpp:100] Creating Layer conv1
I0814 20:27:02.189926  6682 net.cpp:434] conv1 <- data
I0814 20:27:02.189939  6682 net.cpp:408] conv1 -> conv1
I0814 20:27:02.345461  6682 net.cpp:150] Setting up conv1
I0814 20:27:02.345511  6682 net.cpp:157] Top shape: 100 20 96 96 (18432000)
I0814 20:27:02.345521  6682 net.cpp:165] Memory required for data: 85729600
I0814 20:27:02.345548  6682 layer_factory.hpp:77] Creating layer relu1
I0814 20:27:02.345567  6682 net.cpp:100] Creating Layer relu1
I0814 20:27:02.345578  6682 net.cpp:434] relu1 <- conv1
I0814 20:27:02.345590  6682 net.cpp:395] relu1 -> conv1 (in-place)
I0814 20:27:02.346118  6682 net.cpp:150] Setting up relu1
I0814 20:27:02.346138  6682 net.cpp:157] Top shape: 100 20 96 96 (18432000)
I0814 20:27:02.346148  6682 net.cpp:165] Memory required for data: 159457600
I0814 20:27:02.346160  6682 layer_factory.hpp:77] Creating layer pool1
I0814 20:27:02.346174  6682 net.cpp:100] Creating Layer pool1
I0814 20:27:02.346184  6682 net.cpp:434] pool1 <- conv1
I0814 20:27:02.346194  6682 net.cpp:408] pool1 -> pool1
I0814 20:27:02.346241  6682 net.cpp:150] Setting up pool1
I0814 20:27:02.346256  6682 net.cpp:157] Top shape: 100 20 48 48 (4608000)
I0814 20:27:02.346266  6682 net.cpp:165] Memory required for data: 177889600
I0814 20:27:02.346297  6682 layer_factory.hpp:77] Creating layer conv2
I0814 20:27:02.346314  6682 net.cpp:100] Creating Layer conv2
I0814 20:27:02.346324  6682 net.cpp:434] conv2 <- pool1
I0814 20:27:02.346336  6682 net.cpp:408] conv2 -> conv2
I0814 20:27:02.347651  6682 net.cpp:150] Setting up conv2
I0814 20:27:02.347671  6682 net.cpp:157] Top shape: 100 48 44 44 (9292800)
I0814 20:27:02.347681  6682 net.cpp:165] Memory required for data: 215060800
I0814 20:27:02.347695  6682 layer_factory.hpp:77] Creating layer relu2
I0814 20:27:02.347707  6682 net.cpp:100] Creating Layer relu2
I0814 20:27:02.347717  6682 net.cpp:434] relu2 <- conv2
I0814 20:27:02.347728  6682 net.cpp:395] relu2 -> conv2 (in-place)
I0814 20:27:02.348194  6682 net.cpp:150] Setting up relu2
I0814 20:27:02.348213  6682 net.cpp:157] Top shape: 100 48 44 44 (9292800)
I0814 20:27:02.348222  6682 net.cpp:165] Memory required for data: 252232000
I0814 20:27:02.348233  6682 layer_factory.hpp:77] Creating layer pool2
I0814 20:27:02.348247  6682 net.cpp:100] Creating Layer pool2
I0814 20:27:02.348255  6682 net.cpp:434] pool2 <- conv2
I0814 20:27:02.348268  6682 net.cpp:408] pool2 -> pool2
I0814 20:27:02.348305  6682 net.cpp:150] Setting up pool2
I0814 20:27:02.348320  6682 net.cpp:157] Top shape: 100 48 22 22 (2323200)
I0814 20:27:02.348328  6682 net.cpp:165] Memory required for data: 261524800
I0814 20:27:02.348337  6682 layer_factory.hpp:77] Creating layer conv3
I0814 20:27:02.348351  6682 net.cpp:100] Creating Layer conv3
I0814 20:27:02.348361  6682 net.cpp:434] conv3 <- pool2
I0814 20:27:02.348372  6682 net.cpp:408] conv3 -> conv3
I0814 20:27:02.349541  6682 net.cpp:150] Setting up conv3
I0814 20:27:02.349562  6682 net.cpp:157] Top shape: 100 64 20 20 (2560000)
I0814 20:27:02.349572  6682 net.cpp:165] Memory required for data: 271764800
I0814 20:27:02.349584  6682 layer_factory.hpp:77] Creating layer relu3
I0814 20:27:02.349596  6682 net.cpp:100] Creating Layer relu3
I0814 20:27:02.349606  6682 net.cpp:434] relu3 <- conv3
I0814 20:27:02.349617  6682 net.cpp:395] relu3 -> conv3 (in-place)
I0814 20:27:02.349707  6682 net.cpp:150] Setting up relu3
I0814 20:27:02.349723  6682 net.cpp:157] Top shape: 100 64 20 20 (2560000)
I0814 20:27:02.349732  6682 net.cpp:165] Memory required for data: 282004800
I0814 20:27:02.349745  6682 layer_factory.hpp:77] Creating layer conv4
I0814 20:27:02.349761  6682 net.cpp:100] Creating Layer conv4
I0814 20:27:02.349771  6682 net.cpp:434] conv4 <- conv3
I0814 20:27:02.349781  6682 net.cpp:408] conv4 -> conv4
I0814 20:27:02.350879  6682 net.cpp:150] Setting up conv4
I0814 20:27:02.350899  6682 net.cpp:157] Top shape: 100 80 18 18 (2592000)
I0814 20:27:02.350909  6682 net.cpp:165] Memory required for data: 292372800
I0814 20:27:02.350921  6682 layer_factory.hpp:77] Creating layer relu4
I0814 20:27:02.350934  6682 net.cpp:100] Creating Layer relu4
I0814 20:27:02.350942  6682 net.cpp:434] relu4 <- conv4
I0814 20:27:02.350953  6682 net.cpp:395] relu4 -> conv4 (in-place)
I0814 20:27:02.351048  6682 net.cpp:150] Setting up relu4
I0814 20:27:02.351063  6682 net.cpp:157] Top shape: 100 80 18 18 (2592000)
I0814 20:27:02.351070  6682 net.cpp:165] Memory required for data: 302740800
I0814 20:27:02.351081  6682 layer_factory.hpp:77] Creating layer ip1
I0814 20:27:02.351099  6682 net.cpp:100] Creating Layer ip1
I0814 20:27:02.351107  6682 net.cpp:434] ip1 <- conv4
I0814 20:27:02.351119  6682 net.cpp:408] ip1 -> ip1
I0814 20:27:02.447882  6682 net.cpp:150] Setting up ip1
I0814 20:27:02.447927  6682 net.cpp:157] Top shape: 100 512 (51200)
I0814 20:27:02.447938  6682 net.cpp:165] Memory required for data: 302945600
I0814 20:27:02.447954  6682 layer_factory.hpp:77] Creating layer relu5
I0814 20:27:02.447970  6682 net.cpp:100] Creating Layer relu5
I0814 20:27:02.447980  6682 net.cpp:434] relu5 <- ip1
I0814 20:27:02.447993  6682 net.cpp:395] relu5 -> ip1 (in-place)
I0814 20:27:02.448081  6682 net.cpp:150] Setting up relu5
I0814 20:27:02.448096  6682 net.cpp:157] Top shape: 100 512 (51200)
I0814 20:27:02.448103  6682 net.cpp:165] Memory required for data: 303150400
I0814 20:27:02.448137  6682 layer_factory.hpp:77] Creating layer drop1
I0814 20:27:02.448158  6682 net.cpp:100] Creating Layer drop1
I0814 20:27:02.448173  6682 net.cpp:434] drop1 <- ip1
I0814 20:27:02.448184  6682 net.cpp:395] drop1 -> ip1 (in-place)
I0814 20:27:02.448216  6682 net.cpp:150] Setting up drop1
I0814 20:27:02.448230  6682 net.cpp:157] Top shape: 100 512 (51200)
I0814 20:27:02.448238  6682 net.cpp:165] Memory required for data: 303355200
I0814 20:27:02.448247  6682 layer_factory.hpp:77] Creating layer ip1_drop1_0_split
I0814 20:27:02.448263  6682 net.cpp:100] Creating Layer ip1_drop1_0_split
I0814 20:27:02.448272  6682 net.cpp:434] ip1_drop1_0_split <- ip1
I0814 20:27:02.448285  6682 net.cpp:408] ip1_drop1_0_split -> ip1_drop1_0_split_0
I0814 20:27:02.448299  6682 net.cpp:408] ip1_drop1_0_split -> ip1_drop1_0_split_1
I0814 20:27:02.448338  6682 net.cpp:150] Setting up ip1_drop1_0_split
I0814 20:27:02.448353  6682 net.cpp:157] Top shape: 100 512 (51200)
I0814 20:27:02.448362  6682 net.cpp:157] Top shape: 100 512 (51200)
I0814 20:27:02.448370  6682 net.cpp:165] Memory required for data: 303764800
I0814 20:27:02.448379  6682 layer_factory.hpp:77] Creating layer ip2
I0814 20:27:02.448393  6682 net.cpp:100] Creating Layer ip2
I0814 20:27:02.448403  6682 net.cpp:434] ip2 <- ip1_drop1_0_split_0
I0814 20:27:02.448415  6682 net.cpp:408] ip2 -> ip2
I0814 20:27:02.448514  6682 net.cpp:150] Setting up ip2
I0814 20:27:02.448530  6682 net.cpp:157] Top shape: 100 2 (200)
I0814 20:27:02.448539  6682 net.cpp:165] Memory required for data: 303765600
I0814 20:27:02.448554  6682 layer_factory.hpp:77] Creating layer loss1
I0814 20:27:02.448567  6682 net.cpp:100] Creating Layer loss1
I0814 20:27:02.448576  6682 net.cpp:434] loss1 <- ip2
I0814 20:27:02.448586  6682 net.cpp:434] loss1 <- glasses
I0814 20:27:02.448599  6682 net.cpp:408] loss1 -> loss1
I0814 20:27:02.448614  6682 layer_factory.hpp:77] Creating layer loss1
I0814 20:27:02.449081  6682 net.cpp:150] Setting up loss1
I0814 20:27:02.449100  6682 net.cpp:157] Top shape: (1)
I0814 20:27:02.449108  6682 net.cpp:160]     with loss weight 0.5
I0814 20:27:02.449132  6682 net.cpp:165] Memory required for data: 303765604
I0814 20:27:02.449141  6682 layer_factory.hpp:77] Creating layer ip3
I0814 20:27:02.449156  6682 net.cpp:100] Creating Layer ip3
I0814 20:27:02.449165  6682 net.cpp:434] ip3 <- ip1_drop1_0_split_1
I0814 20:27:02.449177  6682 net.cpp:408] ip3 -> ip3
I0814 20:27:02.451184  6682 net.cpp:150] Setting up ip3
I0814 20:27:02.451202  6682 net.cpp:157] Top shape: 100 512 (51200)
I0814 20:27:02.451211  6682 net.cpp:165] Memory required for data: 303970404
I0814 20:27:02.451223  6682 layer_factory.hpp:77] Creating layer loss2
I0814 20:27:02.451236  6682 net.cpp:100] Creating Layer loss2
I0814 20:27:02.451244  6682 net.cpp:434] loss2 <- ip3
I0814 20:27:02.451253  6682 net.cpp:434] loss2 <- gender
I0814 20:27:02.451267  6682 net.cpp:408] loss2 -> loss2
I0814 20:27:02.451282  6682 layer_factory.hpp:77] Creating layer loss2
…
  phase: TEST
}
layer {
  name: "data"
  type: "Data"
  top: "data"
  include {
    phase: TEST
  }
  transform_param {
    scale: 0.00390625
  }
  data_param {
    source: "/home/jaychou/code/new_caffe/caffe-master/examples/gender_glasses/gender_glasses_val_lmdb"
    batch_size: 64
    backend: LMDB
  }
}
layer {
  name: "labels"
  type: "Data"
  top: "labels"
  include {
    phase: TEST
  }
  data_param {
    source: "/home/jaychou/code/new_caffe/caffe-master/examples/gender_glasses/gender_glasses_val_label_lmdb"
    batch_size: 64
    backend: LMDB
  }
}
layer {
  name: "slice1"
  type: "Slice"
  bottom: "labels"
  top: "glasses"
  top: "gender"
  slice_param {
    slice_dim: 1
    slice_point: 1
  }
}
layer {
  name: "conv1"
  type: "Convolution"
  bottom: "data"
  top: "conv1"
  param {
    lr_mult: 1
  }
  param {
    lr_mult: 0.1
  }
  convolution_param {
    num_output: 20
    pad: 0
    kernel_size: 5
    stride: 1
    weight_filler {
      type: "xavier"
    }
    bias_filler {
      type: "constant"
      value: 0
    }
  }
}
layer {
  name: "relu1"
  type: "PReLU"
  bottom: "conv1"
  top: "conv1"
}
layer {
  name: "pool1"
  type: "Pooling"
  bottom: "conv1"
  top: "pool1"
  pooling_param {
    pool: MAX
    kernel_size: 2
    stride: 2
  }
}
layer {
  name: "conv2"
  type: "Convolution"
  bottom: "pool1"
  top: "conv2"
  param {
    lr_mult: 1
  }
  param {
    lr_mult: 0.1
  }
  convolution_param {
    num_output: 48
    pad: 0
    kernel_size: 5
    stride: 1
    weight_filler {
      type: "xavier"
    }
    bias_filler {
      type: "constant"
      value: 0
    }
  }
}
layer {
  name: "relu2"
  type: "PReLU"
  bottom: "conv2"
  top: "conv2"
}
layer {
  name: "pool2"
  type: "Pooling"
  bottom: "conv2"
  top: "pool2"
  pooling_param {
    pool: MAX
    kernel_size: 2
    stride: 2
  }
}
layer {
  name: "conv3"
  type: "Convolution"
  bottom: "pool2"
  top: "conv3"
  param {
    lr_mult: 0.1
  }
  param {
    lr_mult: 0.1
  }
  convolution_param {
    num_output: 64
    pad: 0
    kernel_size: 3
    stride: 1
    weight_filler {
      type: "xavier"
    }
    bias_filler {
      type: "constant"
      value: 0
    }
  }
}
layer {
  name: "relu3"
  type: "PReLU"
  bottom: "conv3"
  top: "conv3"
}
layer {
  name: "conv4"
  type: "Convolution"
  bottom: "conv3"
  top: "conv4"
  param {
    lr_mult: 0.1
  }
  param {
    lr_mult: 0.1
  }
  convolution_param {
    num_output: 80
    pad: 0
    kernel_size: 3
    stride: 1
    weight_filler {
      type: "xavier"
    }
    bias_filler {
      type: "constant"
      value: 0
    }
  }
}
layer {
  name: "relu4"
  type: "PReLU"
  bottom: "conv4"
  top: "conv4"
}
layer {
  name: "ip1"
  type: "InnerProduct"
  bottom: "conv4"
  top: "ip1"
  inner_product_param {
    num_output: 512
    weight_filler {
      type: "xavier"
    }
    bias_filler {
      type: "constant"
    }
  }
}
layer {
  name: "relu5"
  type: "PReLU"
  bottom: "ip1"
  top: "ip1"
}
layer {
  name: "drop1"
  type: "Dropout"
  bottom: "ip1"
  top: "ip1"
  dropout_param {
    dropout_ratio: 0.5
  }
}
layer {
  name: "ip2"
  type: "InnerProduct"
  bottom: "ip1"
  top: "ip2"
  inner_product_param {
    num_output: 2
    weight_filler {
      type: "xavier"
    }
    bias_filler {
      type: "constant"
    }
  }
}
layer {
  name: "loss1"
  type: "SoftmaxWithLoss"
  bottom: "ip2"
  bottom: "glasses"
  top: "loss1"
  loss_weight: 0.5
}
layer {
  name: "accuracy_glasses"
  type: "Accuracy"
  bottom: "ip2"
  bottom: "glasses"
  top: "accuracy_glasses"
  include {
    phase: TEST
  }
}
layer {
  name: "ip3"
  type: "InnerProduct"
  bottom: "ip1"
  top: "ip3"
  inner_product_param {
    num_output: 512
    weight_filler {
      type: "xavier"
    }
    bias_filler {
      type: "constant"
    }
  }
}
layer {
  name: "loss2"
  type: "SoftmaxWithLoss"
  bottom: "ip3"
  bottom: "gender"
  top: "loss2"
  loss_weight: 0.5
}
layer {
  name: "accuracy_gender"
  type: "Accuracy"
  bottom: "ip3"
  bottom: "gender"
  top: "accuracy_gender"
  include {
    phase: TEST
  }
}
I0814 20:27:02.453214  6682 layer_factory.hpp:77] Creating layer data
I0814 20:27:02.453306  6682 net.cpp:100] Creating Layer data
I0814 20:27:02.453320  6682 net.cpp:408] data -> data
I0814 20:27:02.454244  6690 db_lmdb.cpp:35] Opened lmdb /home/jaychou/code/new_caffe/caffe-master/examples/gender_glasses/gender_glasses_val_lmdb
I0814 20:27:02.454409  6682 data_layer.cpp:41] output data size: 64,3,100,100
I0814 20:27:02.468225  6682 net.cpp:150] Setting up data
I0814 20:27:02.468269  6682 net.cpp:157] Top shape: 64 3 100 100 (1920000)
I0814 20:27:02.468279  6682 net.cpp:165] Memory required for data: 7680000
I0814 20:27:02.468291  6682 layer_factory.hpp:77] Creating layer labels
I0814 20:27:02.468372  6682 net.cpp:100] Creating Layer labels
I0814 20:27:02.468394  6682 net.cpp:408] labels -> labels
I0814 20:27:02.470724  6692 db_lmdb.cpp:35] Opened lmdb /home/jaychou/code/new_caffe/caffe-master/examples/gender_glasses/gender_glasses_val_label_lmdb
I0814 20:27:02.471279  6682 data_layer.cpp:41] output data size: 64,2,1,1
I0814 20:27:02.471623  6682 net.cpp:150] Setting up labels
I0814 20:27:02.471642  6682 net.cpp:157] Top shape: 64 2 1 1 (128)
I0814 20:27:02.471652  6682 net.cpp:165] Memory required for data: 7680512
I0814 20:27:02.471660  6682 layer_factory.hpp:77] Creating layer slice1
I0814 20:27:02.471676  6682 net.cpp:100] Creating Layer slice1
I0814 20:27:02.471688  6682 net.cpp:434] slice1 <- labels
I0814 20:27:02.471700  6682 net.cpp:408] slice1 -> glasses
I0814 20:27:02.471716  6682 net.cpp:408] slice1 -> gender
I0814 20:27:02.471757  6682 net.cpp:150] Setting up slice1
I0814 20:27:02.471772  6682 net.cpp:157] Top shape: 64 1 1 1 (64)
I0814 20:27:02.471782  6682 net.cpp:157] Top shape: 64 1 1 1 (64)
I0814 20:27:02.471791  6682 net.cpp:165] Memory required for data: 7681024
I0814 20:27:02.471799  6682 layer_factory.hpp:77] Creating layer glasses_slice1_0_split
I0814 20:27:02.471810  6682 net.cpp:100] Creating Layer glasses_slice1_0_split
I0814 20:27:02.471819  6682 net.cpp:434] glasses_slice1_0_split <- glasses
I0814 20:27:02.471830  6682 net.cpp:408] glasses_slice1_0_split -> glasses_slice1_0_split_0
I0814 20:27:02.471843  6682 net.cpp:408] glasses_slice1_0_split -> glasses_slice1_0_split_1
I0814 20:27:02.471882  6682 net.cpp:150] Setting up glasses_slice1_0_split
I0814 20:27:02.471896  6682 net.cpp:157] Top shape: 64 1 1 1 (64)
I0814 20:27:02.471906  6682 net.cpp:157] Top shape: 64 1 1 1 (64)
I0814 20:27:02.471915  6682 net.cpp:165] Memory required for data: 7681536
I0814 20:27:02.471923  6682 layer_factory.hpp:77] Creating layer gender_slice1_1_split
I0814 20:27:02.471952  6682 net.cpp:100] Creating Layer gender_slice1_1_split
I0814 20:27:02.471962  6682 net.cpp:434] gender_slice1_1_split <- gender
I0814 20:27:02.471972  6682 net.cpp:408] gender_slice1_1_split -> gender_slice1_1_split_0
I0814 20:27:02.471984  6682 net.cpp:408] gender_slice1_1_split -> gender_slice1_1_split_1
I0814 20:27:02.472023  6682 net.cpp:150] Setting up gender_slice1_1_split
I0814 20:27:02.472036  6682 net.cpp:157] Top shape: 64 1 1 1 (64)
I0814 20:27:02.472046  6682 net.cpp:157] Top shape: 64 1 1 1 (64)
I0814 20:27:02.472054  6682 net.cpp:165] Memory required for data: 7682048
I0814 20:27:02.472062  6682 layer_factory.hpp:77] Creating layer conv1
I0814 20:27:02.472082  6682 net.cpp:100] Creating Layer conv1
I0814 20:27:02.472092  6682 net.cpp:434] conv1 <- data
I0814 20:27:02.472107  6682 net.cpp:408] conv1 -> conv1
I0814 20:27:02.473556  6682 net.cpp:150] Setting up conv1
I0814 20:27:02.473583  6682 net.cpp:157] Top shape: 64 20 96 96 (11796480)
I0814 20:27:02.473593  6682 net.cpp:165] Memory required for data: 54867968
I0814 20:27:02.473613  6682 layer_factory.hpp:77] Creating layer relu1
I0814 20:27:02.473628  6682 net.cpp:100] Creating Layer relu1
I0814 20:27:02.473639  6682 net.cpp:434] relu1 <- conv1
I0814 20:27:02.473650  6682 net.cpp:395] relu1 -> conv1 (in-place)
I0814 20:27:02.474244  6682 net.cpp:150] Setting up relu1
I0814 20:27:02.474261  6682 net.cpp:157] Top shape: 64 20 96 96 (11796480)
I0814 20:27:02.474270  6682 net.cpp:165] Memory required for data: 102053888
I0814 20:27:02.474283  6682 layer_factory.hpp:77] Creating layer pool1
I0814 20:27:02.474299  6682 net.cpp:100] Creating Layer pool1
I0814 20:27:02.474309  6682 net.cpp:434] pool1 <- conv1
I0814 20:27:02.474320  6682 net.cpp:408] pool1 -> pool1
I0814 20:27:02.474365  6682 net.cpp:150] Setting up pool1
I0814 20:27:02.474380  6682 net.cpp:157] Top shape: 64 20 48 48 (2949120)
I0814 20:27:02.474388  6682 net.cpp:165] Memory required for data: 113850368
I0814 20:27:02.474397  6682 layer_factory.hpp:77] Creating layer conv2
I0814 20:27:02.474416  6682 net.cpp:100] Creating Layer conv2
I0814 20:27:02.474426  6682 net.cpp:434] conv2 <- pool1
I0814 20:27:02.474438  6682 net.cpp:408] conv2 -> conv2
I0814 20:27:02.475724  6682 net.cpp:150] Setting up conv2
I0814 20:27:02.475746  6682 net.cpp:157] Top shape: 64 48 44 44 (5947392)
I0814 20:27:02.475755  6682 net.cpp:165] Memory required for data: 137639936
I0814 20:27:02.475770  6682 layer_factory.hpp:77] Creating layer relu2
I0814 20:27:02.475785  6682 net.cpp:100] Creating Layer relu2
I0814 20:27:02.475795  6682 net.cpp:434] relu2 <- conv2
I0814 20:27:02.475805  6682 net.cpp:395] relu2 -> conv2 (in-place)
I0814 20:27:02.476028  6682 net.cpp:150] Setting up relu2
I0814 20:27:02.476043  6682 net.cpp:157] Top shape: 64 48 44 44 (5947392)
I0814 20:27:02.476052  6682 net.cpp:165] Memory required for data: 161429504
I0814 20:27:02.476063  6682 layer_factory.hpp:77] Creating layer pool2
I0814 20:27:02.476075  6682 net.cpp:100] Creating Layer pool2
I0814 20:27:02.476083  6682 net.cpp:434] pool2 <- conv2
I0814 20:27:02.476095  6682 net.cpp:408] pool2 -> pool2
I0814 20:27:02.476145  6682 net.cpp:150] Setting up pool2
I0814 20:27:02.476158  6682 net.cpp:157] Top shape: 64 48 22 22 (1486848)
I0814 20:27:02.476167  6682 net.cpp:165] Memory required for data: 167376896
I0814 20:27:02.476176  6682 layer_factory.hpp:77] Creating layer conv3
I0814 20:27:02.476193  6682 net.cpp:100] Creating Layer conv3
I0814 20:27:02.476203  6682 net.cpp:434] conv3 <- pool2
I0814 20:27:02.476217  6682 net.cpp:408] conv3 -> conv3
I0814 20:27:02.477367  6682 net.cpp:150] Setting up conv3
I0814 20:27:02.477386  6682 net.cpp:157] Top shape: 64 64 20 20 (1638400)
I0814 20:27:02.477396  6682 net.cpp:165] Memory required for data: 173930496
I0814 20:27:02.477407  6682 layer_factory.hpp:77] Creating layer relu3
I0814 20:27:02.477419  6682 net.cpp:100] Creating Layer relu3
I0814 20:27:02.477428  6682 net.cpp:434] relu3 <- conv3
I0814 20:27:02.477442  6682 net.cpp:395] relu3 -> conv3 (in-place)
I0814 20:27:02.478711  6682 net.cpp:150] Setting up relu3
I0814 20:27:02.478751  6682 net.cpp:157] Top shape: 64 64 20 20 (1638400)
I0814 20:27:02.478761  6682 net.cpp:165] Memory required for data: 180484096
I0814 20:27:02.478780  6682 layer_factory.hpp:77] Creating layer conv4
I0814 20:27:02.478798  6682 net.cpp:100] Creating Layer conv4
I0814 20:27:02.478811  6682 net.cpp:434] conv4 <- conv3
I0814 20:27:02.478823  6682 net.cpp:408] conv4 -> conv4
I0814 20:27:02.480170  6682 net.cpp:150] Setting up conv4
I0814 20:27:02.480341  6682 net.cpp:157] Top shape: 64 80 18 18 (1658880)
I0814 20:27:02.480355  6682 net.cpp:165] Memory required for data: 187119616
I0814 20:27:02.480402  6682 layer_factory.hpp:77] Creating layer relu4
I0814 20:27:02.480420  6682 net.cpp:100] Creating Layer relu4
I0814 20:27:02.480430  6682 net.cpp:434] relu4 <- conv4
I0814 20:27:02.480442  6682 net.cpp:395] relu4 -> conv4 (in-place)
I0814 20:27:02.480573  6682 net.cpp:150] Setting up relu4
I0814 20:27:02.480589  6682 net.cpp:157] Top shape: 64 80 18 18 (1658880)
I0814 20:27:02.480598  6682 net.cpp:165] Memory required for data: 193755136
I0814 20:27:02.480608  6682 layer_factory.hpp:77] Creating layer ip1
I0814 20:27:02.480621  6682 net.cpp:100] Creating Layer ip1
I0814 20:27:02.480633  6682 net.cpp:434] ip1 <- conv4
I0814 20:27:02.480646  6682 net.cpp:408] ip1 -> ip1
I0814 20:27:02.581250  6682 net.cpp:150] Setting up ip1
I0814 20:27:02.581295  6682 net.cpp:157] Top shape: 64 512 (32768)
I0814 20:27:02.581305  6682 net.cpp:165] Memory required for data: 193886208
I0814 20:27:02.581322  6682 layer_factory.hpp:77] Creating layer relu5
I0814 20:27:02.581342  6682 net.cpp:100] Creating Layer relu5
I0814 20:27:02.581353  6682 net.cpp:434] relu5 <- ip1
I0814 20:27:02.581367  6682 net.cpp:395] relu5 -> ip1 (in-place)
I0814 20:27:02.581455  6682 net.cpp:150] Setting up relu5
I0814 20:27:02.581470  6682 net.cpp:157] Top shape: 64 512 (32768)
I0814 20:27:02.581480  6682 net.cpp:165] Memory required for data: 194017280
I0814 20:27:02.581490  6682 layer_factory.hpp:77] Creating layer drop1
I0814 20:27:02.581502  6682 net.cpp:100] Creating Layer drop1
I0814 20:27:02.581511  6682 net.cpp:434] drop1 <- ip1
I0814 20:27:02.581521  6682 net.cpp:395] drop1 -> ip1 (in-place)
I0814 20:27:02.581550  6682 net.cpp:150] Setting up drop1
I0814 20:27:02.581563  6682 net.cpp:157] Top shape: 64 512 (32768)
I0814 20:27:02.581573  6682 net.cpp:165] Memory required for data: 194148352
I0814 20:27:02.581581  6682 layer_factory.hpp:77] Creating layer ip1_drop1_0_split
I0814 20:27:02.581594  6682 net.cpp:100] Creating Layer ip1_drop1_0_split
I0814 20:27:02.581609  6682 net.cpp:434] ip1_drop1_0_split <- ip1
I0814 20:27:02.581619  6682 net.cpp:408] ip1_drop1_0_split -> ip1_drop1_0_split_0
I0814 20:27:02.581632  6682 net.cpp:408] ip1_drop1_0_split -> ip1_drop1_0_split_1
I0814 20:27:02.581676  6682 net.cpp:150] Setting up ip1_drop1_0_split
I0814 20:27:02.581691  6682 net.cpp:157] Top shape: 64 512 (32768)
I0814 20:27:02.581701  6682 net.cpp:157] Top shape: 64 512 (32768)
I0814 20:27:02.581710  6682 net.cpp:165] Memory required for data: 194410496
I0814 20:27:02.581719  6682 layer_factory.hpp:77] Creating layer ip2
I0814 20:27:02.581732  6682 net.cpp:100] Creating Layer ip2
I0814 20:27:02.581740  6682 net.cpp:434] ip2 <- ip1_drop1_0_split_0
I0814 20:27:02.581753  6682 net.cpp:408] ip2 -> ip2
I0814 20:27:02.581854  6682 net.cpp:150] Setting up ip2
I0814 20:27:02.581868  6682 net.cpp:157] Top shape: 64 2 (128)
I0814 20:27:02.581877  6682 net.cpp:165] Memory required for data: 194411008
I0814 20:27:02.581894  6682 layer_factory.hpp:77] Creating layer ip2_ip2_0_split
I0814 20:27:02.581907  6682 net.cpp:100] Creating Layer ip2_ip2_0_split
I0814 20:27:02.581914  6682 net.cpp:434] ip2_ip2_0_split <- ip2
I0814 20:27:02.581926  6682 net.cpp:408] ip2_ip2_0_split -> ip2_ip2_0_split_0
I0814 20:27:02.581939  6682 net.cpp:408] ip2_ip2_0_split -> ip2_ip2_0_split_1
I0814 20:27:02.581980  6682 net.cpp:150] Setting up ip2_ip2_0_split
I0814 20:27:02.581995  6682 net.cpp:157] Top shape: 64 2 (128)
I0814 20:27:02.582003  6682 net.cpp:157] Top shape: 64 2 (128)
I0814 20:27:02.582034  6682 net.cpp:165] Memory required for data: 194412032
I0814 20:27:02.582044  6682 layer_factory.hpp:77] Creating layer loss1
I0814 20:27:02.582056  6682 net.cpp:100] Creating Layer loss1
I0814 20:27:02.582064  6682 net.cpp:434] loss1 <- ip2_ip2_0_split_0
I0814 20:27:02.582074  6682 net.cpp:434] loss1 <- glasses_slice1_0_split_0
I0814 20:27:02.582085  6682 net.cpp:408] loss1 -> loss1
…
