…
  stage: ""
}
layer {
  name: "data"
  type: "Data"
  top: "data"
  include {
    phase: TRAIN
  }
  transform_param {
    scale: 0.00390625
  }
  data_param {
    source: "/home/jaychou/code/new_caffe/caffe-master/examples/gender_glasses/gender_glasses_train_lmdb"
    batch_size: 100
    backend: LMDB
  }
}
layer {
  name: "labels"
  type: "Data"
  top: "labels"
  include {
    phase: TRAIN
  }
  data_param {
    source: "/home/jaychou/code/new_caffe/caffe-master/examples/gender_glasses/gender_glasses_train_label_lmdb"
    batch_size: 100
    backend: LMDB
  }
}
layer {
  name: "slice1"
  type: "Slice"
  bottom: "labels"
  top: "glasses"
  top: "gender"
  slice_param {
    slice_dim: 1
    slice_point: 1
  }
}
layer {
  name: "conv1"
  type: "Convolution"
  bottom: "data"
  top: "conv1"
  param {
    lr_mult: 1
  }
  param {
    lr_mult: 0.1
  }
  convolution_param {
    num_output: 20
    pad: 0
    kernel_size: 5
    stride: 1
    weight_filler {
      type: "xavier"
    }
    bias_filler {
      type: "constant"
      value: 0
    }
  }
}
layer {
  name: "relu1"
  type: "PReLU"
  bottom: "conv1"
  top: "conv1"
}
layer {
  name: "pool1"
  type: "Pooling"
  bottom: "conv1"
  top: "pool1"
  pooling_param {
    pool: MAX
    kernel_size: 2
    stride: 2
  }
}
layer {
  name: "conv2"
  type: "Convolution"
  bottom: "pool1"
  top: "conv2"
  param {
    lr_mult: 1
  }
  param {
    lr_mult: 0.1
  }
  convolution_param {
    num_output: 48
    pad: 0
    kernel_size: 5
    stride: 1
    weight_filler {
      type: "xavier"
    }
    bias_filler {
      type: "constant"
      value: 0
    }
  }
}
layer {
  name: "relu2"
  type: "PReLU"
  bottom: "conv2"
  top: "conv2"
}
layer {
  name: "pool2"
  type: "Pooling"
  bottom: "conv2"
  top: "pool2"
  pooling_param {
    pool: MAX
    kernel_size: 2
    stride: 2
  }
}
layer {
  name: "conv3"
  type: "Convolution"
  bottom: "pool2"
  top: "conv3"
  param {
    lr_mult: 0.1
  }
  param {
    lr_mult: 0.1
  }
  convolution_param {
    num_output: 64
    pad: 0
    kernel_size: 3
    stride: 1
    weight_filler {
      type: "xavier"
    }
    bias_filler {
      type: "constant"
      value: 0
    }
  }
}
layer {
  name: "relu3"
  type: "PReLU"
  bottom: "conv3"
  top: "conv3"
}
layer {
  name: "ip1"
  type: "InnerProduct"
  bottom: "conv3"
  top: "ip1"
  inner_product_param {
    num_output: 512
    weight_filler {
      type: "xavier"
    }
    bias_filler {
      type: "constant"
    }
  }
}
layer {
  name: "relu5"
  type: "PReLU"
  bottom: "ip1"
  top: "ip1"
}
layer {
  name: "drop1"
  type: "Dropout"
  bottom: "ip1"
  top: "ip1"
  dropout_param {
    dropout_ratio: 0.5
  }
}
layer {
  name: "ip2"
  type: "InnerProduct"
  bottom: "ip1"
  top: "ip2"
  inner_product_param {
    num_output: 2
    weight_filler {
      type: "xavier"
    }
    bias_filler {
      type: "constant"
    }
  }
}
layer {
  name: "loss1"
  type: "SoftmaxWithLoss"
  bottom: "ip2"
  bottom: "glasses"
  top: "loss1"
  loss_weight: 0.4
}
layer {
  name: "ip3"
  type: "InnerProduct"
  bottom: "ip1"
  top: "ip3"
  inner_product_param {
    num_output: 2
    weight_filler {
      type: "xavier"
    }
    bias_filler {
      type: "constant"
    }
  }
}
layer {
  name: "loss2"
  type: "SoftmaxWithLoss"
  bottom: "ip3"
  bottom: "gender"
  top: "loss2"
  loss_weight: 0.6
}
I0818 17:43:09.931371  2522 layer_factory.hpp:77] Creating layer data
I0818 17:43:09.931743  2522 net.cpp:100] Creating Layer data
I0818 17:43:09.931769  2522 net.cpp:408] data -> data
I0818 17:43:09.933048  2526 db_lmdb.cpp:35] Opened lmdb /home/jaychou/code/new_caffe/caffe-master/examples/gender_glasses/gender_glasses_train_lmdb
I0818 17:43:09.941548  2522 data_layer.cpp:41] output data size: 100,3,80,80
I0818 17:43:09.952411  2522 net.cpp:150] Setting up data
I0818 17:43:09.952466  2522 net.cpp:157] Top shape: 100 3 80 80 (1920000)
I0818 17:43:09.952476  2522 net.cpp:165] Memory required for data: 7680000
I0818 17:43:09.952491  2522 layer_factory.hpp:77] Creating layer labels
I0818 17:43:09.952595  2522 net.cpp:100] Creating Layer labels
I0818 17:43:09.952612  2522 net.cpp:408] labels -> labels
I0818 17:43:09.954917  2528 db_lmdb.cpp:35] Opened lmdb /home/jaychou/code/new_caffe/caffe-master/examples/gender_glasses/gender_glasses_train_label_lmdb
I0818 17:43:09.955507  2522 data_layer.cpp:41] output data size: 100,2,1,1
I0818 17:43:09.955637  2522 net.cpp:150] Setting up labels
I0818 17:43:09.955654  2522 net.cpp:157] Top shape: 100 2 1 1 (200)
I0818 17:43:09.955663  2522 net.cpp:165] Memory required for data: 7680800
I0818 17:43:09.955672  2522 layer_factory.hpp:77] Creating layer slice1
I0818 17:43:09.955687  2522 net.cpp:100] Creating Layer slice1
I0818 17:43:09.955699  2522 net.cpp:434] slice1 <- labels
I0818 17:43:09.955715  2522 net.cpp:408] slice1 -> glasses
I0818 17:43:09.955731  2522 net.cpp:408] slice1 -> gender
I0818 17:43:09.955775  2522 net.cpp:150] Setting up slice1
I0818 17:43:09.955787  2522 net.cpp:157] Top shape: 100 1 1 1 (100)
I0818 17:43:09.955801  2522 net.cpp:157] Top shape: 100 1 1 1 (100)
I0818 17:43:09.955808  2522 net.cpp:165] Memory required for data: 7681600
I0818 17:43:09.955817  2522 layer_factory.hpp:77] Creating layer conv1
I0818 17:43:09.955838  2522 net.cpp:100] Creating Layer conv1
I0818 17:43:09.955848  2522 net.cpp:434] conv1 <- data
I0818 17:43:09.955860  2522 net.cpp:408] conv1 -> conv1
I0818 17:43:10.084538  2522 net.cpp:150] Setting up conv1
I0818 17:43:10.084594  2522 net.cpp:157] Top shape: 100 20 76 76 (11552000)
I0818 17:43:10.084604  2522 net.cpp:165] Memory required for data: 53889600
I0818 17:43:10.084631  2522 layer_factory.hpp:77] Creating layer relu1
I0818 17:43:10.084651  2522 net.cpp:100] Creating Layer relu1
I0818 17:43:10.084662  2522 net.cpp:434] relu1 <- conv1
I0818 17:43:10.084674  2522 net.cpp:395] relu1 -> conv1 (in-place)
I0818 17:43:10.085177  2522 net.cpp:150] Setting up relu1
I0818 17:43:10.085196  2522 net.cpp:157] Top shape: 100 20 76 76 (11552000)
I0818 17:43:10.085206  2522 net.cpp:165] Memory required for data: 100097600
I0818 17:43:10.085219  2522 layer_factory.hpp:77] Creating layer pool1
I0818 17:43:10.085232  2522 net.cpp:100] Creating Layer pool1
I0818 17:43:10.085247  2522 net.cpp:434] pool1 <- conv1
I0818 17:43:10.085258  2522 net.cpp:408] pool1 -> pool1
I0818 17:43:10.085307  2522 net.cpp:150] Setting up pool1
I0818 17:43:10.085320  2522 net.cpp:157] Top shape: 100 20 38 38 (2888000)
I0818 17:43:10.085330  2522 net.cpp:165] Memory required for data: 111649600
I0818 17:43:10.085338  2522 layer_factory.hpp:77] Creating layer conv2
I0818 17:43:10.085355  2522 net.cpp:100] Creating Layer conv2
I0818 17:43:10.085363  2522 net.cpp:434] conv2 <- pool1
I0818 17:43:10.085376  2522 net.cpp:408] conv2 -> conv2
I0818 17:43:10.086683  2522 net.cpp:150] Setting up conv2
I0818 17:43:10.086704  2522 net.cpp:157] Top shape: 100 48 34 34 (5548800)
I0818 17:43:10.086714  2522 net.cpp:165] Memory required for data: 133844800
I0818 17:43:10.086750  2522 layer_factory.hpp:77] Creating layer relu2
I0818 17:43:10.086766  2522 net.cpp:100] Creating Layer relu2
I0818 17:43:10.086776  2522 net.cpp:434] relu2 <- conv2
I0818 17:43:10.086786  2522 net.cpp:395] relu2 -> conv2 (in-place)
I0818 17:43:10.086894  2522 net.cpp:150] Setting up relu2
I0818 17:43:10.086910  2522 net.cpp:157] Top shape: 100 48 34 34 (5548800)
I0818 17:43:10.086918  2522 net.cpp:165] Memory required for data: 156040000
I0818 17:43:10.086930  2522 layer_factory.hpp:77] Creating layer pool2
I0818 17:43:10.086942  2522 net.cpp:100] Creating Layer pool2
I0818 17:43:10.086951  2522 net.cpp:434] pool2 <- conv2
I0818 17:43:10.086962  2522 net.cpp:408] pool2 -> pool2
I0818 17:43:10.086999  2522 net.cpp:150] Setting up pool2
I0818 17:43:10.087013  2522 net.cpp:157] Top shape: 100 48 17 17 (1387200)
I0818 17:43:10.087020  2522 net.cpp:165] Memory required for data: 161588800
I0818 17:43:10.087029  2522 layer_factory.hpp:77] Creating layer conv3
I0818 17:43:10.087044  2522 net.cpp:100] Creating Layer conv3
I0818 17:43:10.087054  2522 net.cpp:434] conv3 <- pool2
I0818 17:43:10.087064  2522 net.cpp:408] conv3 -> conv3
I0818 17:43:10.087895  2522 net.cpp:150] Setting up conv3
I0818 17:43:10.087914  2522 net.cpp:157] Top shape: 100 64 15 15 (1440000)
I0818 17:43:10.087924  2522 net.cpp:165] Memory required for data: 167348800
I0818 17:43:10.087936  2522 layer_factory.hpp:77] Creating layer relu3
I0818 17:43:10.087949  2522 net.cpp:100] Creating Layer relu3
I0818 17:43:10.087957  2522 net.cpp:434] relu3 <- conv3
I0818 17:43:10.087967  2522 net.cpp:395] relu3 -> conv3 (in-place)
I0818 17:43:10.088057  2522 net.cpp:150] Setting up relu3
I0818 17:43:10.088073  2522 net.cpp:157] Top shape: 100 64 15 15 (1440000)
I0818 17:43:10.088081  2522 net.cpp:165] Memory required for data: 173108800
I0818 17:43:10.088094  2522 layer_factory.hpp:77] Creating layer ip1
I0818 17:43:10.088111  2522 net.cpp:100] Creating Layer ip1
I0818 17:43:10.088121  2522 net.cpp:434] ip1 <- conv3
I0818 17:43:10.088132  2522 net.cpp:408] ip1 -> ip1
I0818 17:43:10.142132  2522 net.cpp:150] Setting up ip1
I0818 17:43:10.142179  2522 net.cpp:157] Top shape: 100 512 (51200)
I0818 17:43:10.142189  2522 net.cpp:165] Memory required for data: 173313600
I0818 17:43:10.142206  2522 layer_factory.hpp:77] Creating layer relu5
I0818 17:43:10.142221  2522 net.cpp:100] Creating Layer relu5
I0818 17:43:10.142231  2522 net.cpp:434] relu5 <- ip1
I0818 17:43:10.142243  2522 net.cpp:395] relu5 -> ip1 (in-place)
I0818 17:43:10.142321  2522 net.cpp:150] Setting up relu5
I0818 17:43:10.142335  2522 net.cpp:157] Top shape: 100 512 (51200)
I0818 17:43:10.142344  2522 net.cpp:165] Memory required for data: 173518400
I0818 17:43:10.142355  2522 layer_factory.hpp:77] Creating layer drop1
I0818 17:43:10.142374  2522 net.cpp:100] Creating Layer drop1
I0818 17:43:10.142384  2522 net.cpp:434] drop1 <- ip1
I0818 17:43:10.142393  2522 net.cpp:395] drop1 -> ip1 (in-place)
I0818 17:43:10.142426  2522 net.cpp:150] Setting up drop1
I0818 17:43:10.142438  2522 net.cpp:157] Top shape: 100 512 (51200)
I0818 17:43:10.142446  2522 net.cpp:165] Memory required for data: 173723200
I0818 17:43:10.142455  2522 layer_factory.hpp:77] Creating layer ip1_drop1_0_split
I0818 17:43:10.142469  2522 net.cpp:100] Creating Layer ip1_drop1_0_split
I0818 17:43:10.142477  2522 net.cpp:434] ip1_drop1_0_split <- ip1
I0818 17:43:10.142488  2522 net.cpp:408] ip1_drop1_0_split -> ip1_drop1_0_split_0
I0818 17:43:10.142501  2522 net.cpp:408] ip1_drop1_0_split -> ip1_drop1_0_split_1
I0818 17:43:10.142535  2522 net.cpp:150] Setting up ip1_drop1_0_split
I0818 17:43:10.142549  2522 net.cpp:157] Top shape: 100 512 (51200)
I0818 17:43:10.142559  2522 net.cpp:157] Top shape: 100 512 (51200)
I0818 17:43:10.142566  2522 net.cpp:165] Memory required for data: 174132800
I0818 17:43:10.142575  2522 layer_factory.hpp:77] Creating layer ip2
I0818 17:43:10.142586  2522 net.cpp:100] Creating Layer ip2
I0818 17:43:10.142601  2522 net.cpp:434] ip2 <- ip1_drop1_0_split_0
I0818 17:43:10.142635  2522 net.cpp:408] ip2 -> ip2
I0818 17:43:10.142724  2522 net.cpp:150] Setting up ip2
I0818 17:43:10.142738  2522 net.cpp:157] Top shape: 100 2 (200)
I0818 17:43:10.142747  2522 net.cpp:165] Memory required for data: 174133600
I0818 17:43:10.142760  2522 layer_factory.hpp:77] Creating layer loss1
I0818 17:43:10.142773  2522 net.cpp:100] Creating Layer loss1
I0818 17:43:10.142783  2522 net.cpp:434] loss1 <- ip2
I0818 17:43:10.142793  2522 net.cpp:434] loss1 <- glasses
I0818 17:43:10.142804  2522 net.cpp:408] loss1 -> loss1
I0818 17:43:10.142819  2522 layer_factory.hpp:77] Creating layer loss1
I0818 17:43:10.143215  2522 net.cpp:150] Setting up loss1
I0818 17:43:10.143232  2522 net.cpp:157] Top shape: (1)
I0818 17:43:10.143241  2522 net.cpp:160]     with loss weight 0.4
I0818 17:43:10.143267  2522 net.cpp:165] Memory required for data: 174133604
I0818 17:43:10.143276  2522 layer_factory.hpp:77] Creating layer ip3
I0818 17:43:10.143288  2522 net.cpp:100] Creating Layer ip3
I0818 17:43:10.143297  2522 net.cpp:434] ip3 <- ip1_drop1_0_split_1
I0818 17:43:10.143308  2522 net.cpp:408] ip3 -> ip3
I0818 17:43:10.143396  2522 net.cpp:150] Setting up ip3
I0818 17:43:10.143409  2522 net.cpp:157] Top shape: 100 2 (200)
I0818 17:43:10.143419  2522 net.cpp:165] Memory required for data: 174134404
I0818 17:43:10.143429  2522 layer_factory.hpp:77] Creating layer loss2
I0818 17:43:10.143441  2522 net.cpp:100] Creating Layer loss2
I0818 17:43:10.143450  2522 net.cpp:434] loss2 <- ip3
I0818 17:43:10.143460  2522 net.cpp:434] loss2 <- gender
I0818 17:43:10.143470  2522 net.cpp:408] loss2 -> loss2
I0818 17:43:10.143482  2522 layer_factory.hpp:77] Creating layer loss2
…
  phase: TEST
}
layer {
  name: "data"
  type: "Data"
  top: "data"
  include {
    phase: TEST
  }
  transform_param {
    scale: 0.00390625
  }
  data_param {
    source: "/home/jaychou/code/new_caffe/caffe-master/examples/gender_glasses/gender_glasses_val_lmdb"
    batch_size: 64
    backend: LMDB
  }
}
layer {
  name: "labels"
  type: "Data"
  top: "labels"
  include {
    phase: TEST
  }
  data_param {
    source: "/home/jaychou/code/new_caffe/caffe-master/examples/gender_glasses/gender_glasses_val_label_lmdb"
    batch_size: 64
    backend: LMDB
  }
}
layer {
  name: "slice1"
  type: "Slice"
  bottom: "labels"
  top: "glasses"
  top: "gender"
  slice_param {
    slice_dim: 1
    slice_point: 1
  }
}
layer {
  name: "conv1"
  type: "Convolution"
  bottom: "data"
  top: "conv1"
  param {
    lr_mult: 1
  }
  param {
    lr_mult: 0.1
  }
  convolution_param {
    num_output: 20
    pad: 0
    kernel_size: 5
    stride: 1
    weight_filler {
      type: "xavier"
    }
    bias_filler {
      type: "constant"
      value: 0
    }
  }
}
layer {
  name: "relu1"
  type: "PReLU"
  bottom: "conv1"
  top: "conv1"
}
layer {
  name: "pool1"
  type: "Pooling"
  bottom: "conv1"
  top: "pool1"
  pooling_param {
    pool: MAX
    kernel_size: 2
    stride: 2
  }
}
layer {
  name: "conv2"
  type: "Convolution"
  bottom: "pool1"
  top: "conv2"
  param {
    lr_mult: 1
  }
  param {
    lr_mult: 0.1
  }
  convolution_param {
    num_output: 48
    pad: 0
    kernel_size: 5
    stride: 1
    weight_filler {
      type: "xavier"
    }
    bias_filler {
      type: "constant"
      value: 0
    }
  }
}
layer {
  name: "relu2"
  type: "PReLU"
  bottom: "conv2"
  top: "conv2"
}
layer {
  name: "pool2"
  type: "Pooling"
  bottom: "conv2"
  top: "pool2"
  pooling_param {
    pool: MAX
    kernel_size: 2
    stride: 2
  }
}
layer {
  name: "conv3"
  type: "Convolution"
  bottom: "pool2"
  top: "conv3"
  param {
    lr_mult: 0.1
  }
  param {
    lr_mult: 0.1
  }
  convolution_param {
    num_output: 64
    pad: 0
    kernel_size: 3
    stride: 1
    weight_filler {
      type: "xavier"
    }
    bias_filler {
      type: "constant"
      value: 0
    }
  }
}
layer {
  name: "relu3"
  type: "PReLU"
  bottom: "conv3"
  top: "conv3"
}
layer {
  name: "ip1"
  type: "InnerProduct"
  bottom: "conv3"
  top: "ip1"
  inner_product_param {
    num_output: 512
    weight_filler {
      type: "xavier"
    }
    bias_filler {
      type: "constant"
    }
  }
}
layer {
  name: "relu5"
  type: "PReLU"
  bottom: "ip1"
  top: "ip1"
}
layer {
  name: "drop1"
  type: "Dropout"
  bottom: "ip1"
  top: "ip1"
  dropout_param {
    dropout_ratio: 0.5
  }
}
layer {
  name: "ip2"
  type: "InnerProduct"
  bottom: "ip1"
  top: "ip2"
  inner_product_param {
    num_output: 2
    weight_filler {
      type: "xavier"
    }
    bias_filler {
      type: "constant"
    }
  }
}
layer {
  name: "loss1"
  type: "SoftmaxWithLoss"
  bottom: "ip2"
  bottom: "glasses"
  top: "loss1"
  loss_weight: 0.4
}
layer {
  name: "accuracy_glasses"
  type: "Accuracy"
  bottom: "ip2"
  bottom: "glasses"
  top: "accuracy_glasses"
  include {
    phase: TEST
  }
}
layer {
  name: "ip3"
  type: "InnerProduct"
  bottom: "ip1"
  top: "ip3"
  inner_product_param {
    num_output: 2
    weight_filler {
      type: "xavier"
    }
    bias_filler {
      type: "constant"
    }
  }
}
layer {
  name: "loss2"
  type: "SoftmaxWithLoss"
  bottom: "ip3"
  bottom: "gender"
  top: "loss2"
  loss_weight: 0.6
}
layer {
  name: "accuracy_gender"
  type: "Accuracy"
  bottom: "ip3"
  bottom: "gender"
  top: "accuracy_gender"
  include {
    phase: TEST
  }
}
I0818 17:43:10.145159  2522 layer_factory.hpp:77] Creating layer data
I0818 17:43:10.145254  2522 net.cpp:100] Creating Layer data
I0818 17:43:10.145272  2522 net.cpp:408] data -> data
I0818 17:43:10.145977  2530 db_lmdb.cpp:35] Opened lmdb /home/jaychou/code/new_caffe/caffe-master/examples/gender_glasses/gender_glasses_val_lmdb
I0818 17:43:10.146131  2522 data_layer.cpp:41] output data size: 64,3,80,80
I0818 17:43:10.153255  2522 net.cpp:150] Setting up data
I0818 17:43:10.153321  2522 net.cpp:157] Top shape: 64 3 80 80 (1228800)
I0818 17:43:10.153331  2522 net.cpp:165] Memory required for data: 4915200
I0818 17:43:10.153342  2522 layer_factory.hpp:77] Creating layer labels
I0818 17:43:10.153422  2522 net.cpp:100] Creating Layer labels
I0818 17:43:10.153436  2522 net.cpp:408] labels -> labels
I0818 17:43:10.155930  2532 db_lmdb.cpp:35] Opened lmdb /home/jaychou/code/new_caffe/caffe-master/examples/gender_glasses/gender_glasses_val_label_lmdb
I0818 17:43:10.156386  2522 data_layer.cpp:41] output data size: 64,2,1,1
I0818 17:43:10.156623  2522 net.cpp:150] Setting up labels
I0818 17:43:10.156641  2522 net.cpp:157] Top shape: 64 2 1 1 (128)
I0818 17:43:10.156651  2522 net.cpp:165] Memory required for data: 4915712
I0818 17:43:10.156659  2522 layer_factory.hpp:77] Creating layer slice1
I0818 17:43:10.156673  2522 net.cpp:100] Creating Layer slice1
I0818 17:43:10.156682  2522 net.cpp:434] slice1 <- labels
I0818 17:43:10.156694  2522 net.cpp:408] slice1 -> glasses
I0818 17:43:10.156709  2522 net.cpp:408] slice1 -> gender
I0818 17:43:10.156749  2522 net.cpp:150] Setting up slice1
I0818 17:43:10.156761  2522 net.cpp:157] Top shape: 64 1 1 1 (64)
I0818 17:43:10.156774  2522 net.cpp:157] Top shape: 64 1 1 1 (64)
I0818 17:43:10.156782  2522 net.cpp:165] Memory required for data: 4916224
I0818 17:43:10.156790  2522 layer_factory.hpp:77] Creating layer glasses_slice1_0_split
I0818 17:43:10.156801  2522 net.cpp:100] Creating Layer glasses_slice1_0_split
I0818 17:43:10.156810  2522 net.cpp:434] glasses_slice1_0_split <- glasses
I0818 17:43:10.156821  2522 net.cpp:408] glasses_slice1_0_split -> glasses_slice1_0_split_0
I0818 17:43:10.156833  2522 net.cpp:408] glasses_slice1_0_split -> glasses_slice1_0_split_1
I0818 17:43:10.156869  2522 net.cpp:150] Setting up glasses_slice1_0_split
I0818 17:43:10.156883  2522 net.cpp:157] Top shape: 64 1 1 1 (64)
I0818 17:43:10.156893  2522 net.cpp:157] Top shape: 64 1 1 1 (64)
I0818 17:43:10.156901  2522 net.cpp:165] Memory required for data: 4916736
I0818 17:43:10.156910  2522 layer_factory.hpp:77] Creating layer gender_slice1_1_split
I0818 17:43:10.156920  2522 net.cpp:100] Creating Layer gender_slice1_1_split
I0818 17:43:10.156929  2522 net.cpp:434] gender_slice1_1_split <- gender
I0818 17:43:10.156939  2522 net.cpp:408] gender_slice1_1_split -> gender_slice1_1_split_0
I0818 17:43:10.156951  2522 net.cpp:408] gender_slice1_1_split -> gender_slice1_1_split_1
I0818 17:43:10.156986  2522 net.cpp:150] Setting up gender_slice1_1_split
I0818 17:43:10.156998  2522 net.cpp:157] Top shape: 64 1 1 1 (64)
I0818 17:43:10.157008  2522 net.cpp:157] Top shape: 64 1 1 1 (64)
I0818 17:43:10.157016  2522 net.cpp:165] Memory required for data: 4917248
I0818 17:43:10.157027  2522 layer_factory.hpp:77] Creating layer conv1
I0818 17:43:10.157043  2522 net.cpp:100] Creating Layer conv1
I0818 17:43:10.157052  2522 net.cpp:434] conv1 <- data
I0818 17:43:10.157064  2522 net.cpp:408] conv1 -> conv1
I0818 17:43:10.158192  2522 net.cpp:150] Setting up conv1
I0818 17:43:10.158218  2522 net.cpp:157] Top shape: 64 20 76 76 (7393280)
I0818 17:43:10.158229  2522 net.cpp:165] Memory required for data: 34490368
I0818 17:43:10.158253  2522 layer_factory.hpp:77] Creating layer relu1
I0818 17:43:10.158267  2522 net.cpp:100] Creating Layer relu1
I0818 17:43:10.158277  2522 net.cpp:434] relu1 <- conv1
I0818 17:43:10.158293  2522 net.cpp:395] relu1 -> conv1 (in-place)
I0818 17:43:10.158532  2522 net.cpp:150] Setting up relu1
I0818 17:43:10.158547  2522 net.cpp:157] Top shape: 64 20 76 76 (7393280)
I0818 17:43:10.158557  2522 net.cpp:165] Memory required for data: 64063488
I0818 17:43:10.158570  2522 layer_factory.hpp:77] Creating layer pool1
I0818 17:43:10.158581  2522 net.cpp:100] Creating Layer pool1
I0818 17:43:10.158591  2522 net.cpp:434] pool1 <- conv1
I0818 17:43:10.158601  2522 net.cpp:408] pool1 -> pool1
I0818 17:43:10.158643  2522 net.cpp:150] Setting up pool1
I0818 17:43:10.158655  2522 net.cpp:157] Top shape: 64 20 38 38 (1848320)
I0818 17:43:10.158665  2522 net.cpp:165] Memory required for data: 71456768
I0818 17:43:10.158695  2522 layer_factory.hpp:77] Creating layer conv2
I0818 17:43:10.158712  2522 net.cpp:100] Creating Layer conv2
I0818 17:43:10.158722  2522 net.cpp:434] conv2 <- pool1
I0818 17:43:10.158733  2522 net.cpp:408] conv2 -> conv2
I0818 17:43:10.159809  2522 net.cpp:150] Setting up conv2
I0818 17:43:10.159829  2522 net.cpp:157] Top shape: 64 48 34 34 (3551232)
I0818 17:43:10.159839  2522 net.cpp:165] Memory required for data: 85661696
I0818 17:43:10.159853  2522 layer_factory.hpp:77] Creating layer relu2
I0818 17:43:10.159868  2522 net.cpp:100] Creating Layer relu2
I0818 17:43:10.159878  2522 net.cpp:434] relu2 <- conv2
I0818 17:43:10.159888  2522 net.cpp:395] relu2 -> conv2 (in-place)
I0818 17:43:10.160050  2522 net.cpp:150] Setting up relu2
I0818 17:43:10.160064  2522 net.cpp:157] Top shape: 64 48 34 34 (3551232)
I0818 17:43:10.160073  2522 net.cpp:165] Memory required for data: 99866624
I0818 17:43:10.160084  2522 layer_factory.hpp:77] Creating layer pool2
I0818 17:43:10.160096  2522 net.cpp:100] Creating Layer pool2
I0818 17:43:10.160105  2522 net.cpp:434] pool2 <- conv2
I0818 17:43:10.160115  2522 net.cpp:408] pool2 -> pool2
I0818 17:43:10.160156  2522 net.cpp:150] Setting up pool2
I0818 17:43:10.160168  2522 net.cpp:157] Top shape: 64 48 17 17 (887808)
I0818 17:43:10.160176  2522 net.cpp:165] Memory required for data: 103417856
I0818 17:43:10.160184  2522 layer_factory.hpp:77] Creating layer conv3
I0818 17:43:10.160199  2522 net.cpp:100] Creating Layer conv3
I0818 17:43:10.160209  2522 net.cpp:434] conv3 <- pool2
I0818 17:43:10.160221  2522 net.cpp:408] conv3 -> conv3
I0818 17:43:10.161654  2522 net.cpp:150] Setting up conv3
I0818 17:43:10.161677  2522 net.cpp:157] Top shape: 64 64 15 15 (921600)
I0818 17:43:10.161690  2522 net.cpp:165] Memory required for data: 107104256
I0818 17:43:10.161702  2522 layer_factory.hpp:77] Creating layer relu3
I0818 17:43:10.161715  2522 net.cpp:100] Creating Layer relu3
I0818 17:43:10.161725  2522 net.cpp:434] relu3 <- conv3
I0818 17:43:10.161736  2522 net.cpp:395] relu3 -> conv3 (in-place)
I0818 17:43:10.161844  2522 net.cpp:150] Setting up relu3
I0818 17:43:10.161859  2522 net.cpp:157] Top shape: 64 64 15 15 (921600)
I0818 17:43:10.161867  2522 net.cpp:165] Memory required for data: 110790656
I0818 17:43:10.161881  2522 layer_factory.hpp:77] Creating layer ip1
I0818 17:43:10.161896  2522 net.cpp:100] Creating Layer ip1
I0818 17:43:10.161906  2522 net.cpp:434] ip1 <- conv3
I0818 17:43:10.161917  2522 net.cpp:408] ip1 -> ip1
I0818 17:43:10.216828  2522 net.cpp:150] Setting up ip1
I0818 17:43:10.216871  2522 net.cpp:157] Top shape: 64 512 (32768)
I0818 17:43:10.216881  2522 net.cpp:165] Memory required for data: 110921728
I0818 17:43:10.216897  2522 layer_factory.hpp:77] Creating layer relu5
I0818 17:43:10.216912  2522 net.cpp:100] Creating Layer relu5
I0818 17:43:10.216922  2522 net.cpp:434] relu5 <- ip1
I0818 17:43:10.216933  2522 net.cpp:395] relu5 -> ip1 (in-place)
I0818 17:43:10.217021  2522 net.cpp:150] Setting up relu5
I0818 17:43:10.217036  2522 net.cpp:157] Top shape: 64 512 (32768)
I0818 17:43:10.217044  2522 net.cpp:165] Memory required for data: 111052800
I0818 17:43:10.217054  2522 layer_factory.hpp:77] Creating layer drop1
I0818 17:43:10.217069  2522 net.cpp:100] Creating Layer drop1
I0818 17:43:10.217078  2522 net.cpp:434] drop1 <- ip1
I0818 17:43:10.217087  2522 net.cpp:395] drop1 -> ip1 (in-place)
I0818 17:43:10.217120  2522 net.cpp:150] Setting up drop1
I0818 17:43:10.217133  2522 net.cpp:157] Top shape: 64 512 (32768)
I0818 17:43:10.217142  2522 net.cpp:165] Memory required for data: 111183872
I0818 17:43:10.217150  2522 layer_factory.hpp:77] Creating layer ip1_drop1_0_split
I0818 17:43:10.217164  2522 net.cpp:100] Creating Layer ip1_drop1_0_split
I0818 17:43:10.217172  2522 net.cpp:434] ip1_drop1_0_split <- ip1
I0818 17:43:10.217186  2522 net.cpp:408] ip1_drop1_0_split -> ip1_drop1_0_split_0
I0818 17:43:10.217206  2522 net.cpp:408] ip1_drop1_0_split -> ip1_drop1_0_split_1
I0818 17:43:10.217242  2522 net.cpp:150] Setting up ip1_drop1_0_split
I0818 17:43:10.217279  2522 net.cpp:157] Top shape: 64 512 (32768)
I0818 17:43:10.217290  2522 net.cpp:157] Top shape: 64 512 (32768)
I0818 17:43:10.217298  2522 net.cpp:165] Memory required for data: 111446016
I0818 17:43:10.217306  2522 layer_factory.hpp:77] Creating layer ip2
I0818 17:43:10.217326  2522 net.cpp:100] Creating Layer ip2
I0818 17:43:10.217336  2522 net.cpp:434] ip2 <- ip1_drop1_0_split_0
I0818 17:43:10.217350  2522 net.cpp:408] ip2 -> ip2
I0818 17:43:10.217452  2522 net.cpp:150] Setting up ip2
I0818 17:43:10.217466  2522 net.cpp:157] Top shape: 64 2 (128)
I0818 17:43:10.217474  2522 net.cpp:165] Memory required for data: 111446528
I0818 17:43:10.217486  2522 layer_factory.hpp:77] Creating layer ip2_ip2_0_split
I0818 17:43:10.217497  2522 net.cpp:100] Creating Layer ip2_ip2_0_split
I0818 17:43:10.217506  2522 net.cpp:434] ip2_ip2_0_split <- ip2
I0818 17:43:10.217516  2522 net.cpp:408] ip2_ip2_0_split -> ip2_ip2_0_split_0
I0818 17:43:10.217530  2522 net.cpp:408] ip2_ip2_0_split -> ip2_ip2_0_split_1
I0818 17:43:10.217566  2522 net.cpp:150] Setting up ip2_ip2_0_split
I0818 17:43:10.217579  2522 net.cpp:157] Top shape: 64 2 (128)
I0818 17:43:10.217589  2522 net.cpp:157] Top shape: 64 2 (128)
I0818 17:43:10.217597  2522 net.cpp:165] Memory required for data: 111447552
I0818 17:43:10.217605  2522 layer_factory.hpp:77] Creating layer loss1
I0818 17:43:10.217618  2522 net.cpp:100] Creating Layer loss1
I0818 17:43:10.217628  2522 net.cpp:434] loss1 <- ip2_ip2_0_split_0
I0818 17:43:10.217638  2522 net.cpp:434] loss1 <- glasses_slice1_0_split_0
I0818 17:43:10.217648  2522 net.cpp:408] loss1 -> loss1
…
