…
  stage: ""
}
layer {
  name: "data"
  type: "Data"
  top: "data"
  include {
    phase: TRAIN
  }
  transform_param {
    scale: 0.00390625
  }
  data_param {
    source: "/home/jaychou/code/new_caffe/caffe-master/examples/gender_glasses/gender_glasses_train_lmdb"
    batch_size: 100
    backend: LMDB
  }
}
layer {
  name: "labels"
  type: "Data"
  top: "labels"
  include {
    phase: TRAIN
  }
  data_param {
    source: "/home/jaychou/code/new_caffe/caffe-master/examples/gender_glasses/gender_glasses_train_label_lmdb"
    batch_size: 100
    backend: LMDB
  }
}
layer {
  name: "slice1"
  type: "Slice"
  bottom: "labels"
  top: "glasses"
  top: "gender"
  slice_param {
    slice_dim: 1
    slice_point: 1
  }
}
layer {
  name: "conv1"
  type: "Convolution"
  bottom: "data"
  top: "conv1"
  param {
    lr_mult: 1
  }
  param {
    lr_mult: 0.1
  }
  convolution_param {
    num_output: 20
    pad: 0
    kernel_size: 5
    stride: 1
    weight_filler {
      type: "xavier"
    }
    bias_filler {
      type: "constant"
      value: 0
    }
  }
}
layer {
  name: "relu1"
  type: "PReLU"
  bottom: "conv1"
  top: "conv1"
}
layer {
  name: "pool1"
  type: "Pooling"
  bottom: "conv1"
  top: "pool1"
  pooling_param {
    pool: MAX
    kernel_size: 2
    stride: 2
  }
}
layer {
  name: "conv2"
  type: "Convolution"
  bottom: "pool1"
  top: "conv2"
  param {
    lr_mult: 1
  }
  param {
    lr_mult: 0.1
  }
  convolution_param {
    num_output: 48
    pad: 0
    kernel_size: 5
    stride: 1
    weight_filler {
      type: "xavier"
    }
    bias_filler {
      type: "constant"
      value: 0
    }
  }
}
layer {
  name: "relu2"
  type: "PReLU"
  bottom: "conv2"
  top: "conv2"
}
layer {
  name: "pool2"
  type: "Pooling"
  bottom: "conv2"
  top: "pool2"
  pooling_param {
    pool: MAX
    kernel_size: 2
    stride: 2
  }
}
layer {
  name: "conv3"
  type: "Convolution"
  bottom: "pool2"
  top: "conv3"
  param {
    lr_mult: 0.1
  }
  param {
    lr_mult: 0.1
  }
  convolution_param {
    num_output: 64
    pad: 0
    kernel_size: 3
    stride: 1
    weight_filler {
      type: "xavier"
    }
    bias_filler {
      type: "constant"
      value: 0
    }
  }
}
layer {
  name: "relu3"
  type: "PReLU"
  bottom: "conv3"
  top: "conv3"
}
layer {
  name: "ip1"
  type: "InnerProduct"
  bottom: "conv3"
  top: "ip1"
  inner_product_param {
    num_output: 512
    weight_filler {
      type: "xavier"
    }
    bias_filler {
      type: "constant"
    }
  }
}
layer {
  name: "relu5"
  type: "PReLU"
  bottom: "ip1"
  top: "ip1"
}
layer {
  name: "drop1"
  type: "Dropout"
  bottom: "ip1"
  top: "ip1"
  dropout_param {
    dropout_ratio: 0.5
  }
}
layer {
  name: "ip2"
  type: "InnerProduct"
  bottom: "ip1"
  top: "ip2"
  inner_product_param {
    num_output: 2
    weight_filler {
      type: "xavier"
    }
    bias_filler {
      type: "constant"
    }
  }
}
layer {
  name: "loss1"
  type: "SoftmaxWithLoss"
  bottom: "ip2"
  bottom: "glasses"
  top: "loss1"
  loss_weight: 0.5
}
layer {
  name: "ip3"
  type: "InnerProduct"
  bottom: "ip1"
  top: "ip3"
  inner_product_param {
    num_output: 2
    weight_filler {
      type: "xavier"
    }
    bias_filler {
      type: "constant"
    }
  }
}
layer {
  name: "loss2"
  type: "SoftmaxWithLoss"
  bottom: "ip3"
  bottom: "gender"
  top: "loss2"
  loss_weight: 0.5
}
I0818 21:34:33.674301  3659 layer_factory.hpp:77] Creating layer data
I0818 21:34:33.674782  3659 net.cpp:100] Creating Layer data
I0818 21:34:33.674806  3659 net.cpp:408] data -> data
I0818 21:34:33.694844  3663 db_lmdb.cpp:35] Opened lmdb /home/jaychou/code/new_caffe/caffe-master/examples/gender_glasses/gender_glasses_train_lmdb
I0818 21:34:33.712168  3659 data_layer.cpp:41] output data size: 100,3,80,80
I0818 21:34:33.723906  3659 net.cpp:150] Setting up data
I0818 21:34:33.723963  3659 net.cpp:157] Top shape: 100 3 80 80 (1920000)
I0818 21:34:33.723975  3659 net.cpp:165] Memory required for data: 7680000
I0818 21:34:33.723995  3659 layer_factory.hpp:77] Creating layer labels
I0818 21:34:33.724124  3659 net.cpp:100] Creating Layer labels
I0818 21:34:33.724146  3659 net.cpp:408] labels -> labels
I0818 21:34:33.731967  3665 db_lmdb.cpp:35] Opened lmdb /home/jaychou/code/new_caffe/caffe-master/examples/gender_glasses/gender_glasses_train_label_lmdb
I0818 21:34:33.732205  3659 data_layer.cpp:41] output data size: 100,2,1,1
I0818 21:34:33.733136  3659 net.cpp:150] Setting up labels
I0818 21:34:33.733167  3659 net.cpp:157] Top shape: 100 2 1 1 (200)
I0818 21:34:33.733180  3659 net.cpp:165] Memory required for data: 7680800
I0818 21:34:33.733192  3659 layer_factory.hpp:77] Creating layer slice1
I0818 21:34:33.733217  3659 net.cpp:100] Creating Layer slice1
I0818 21:34:33.733233  3659 net.cpp:434] slice1 <- labels
I0818 21:34:33.733258  3659 net.cpp:408] slice1 -> glasses
I0818 21:34:33.733283  3659 net.cpp:408] slice1 -> gender
I0818 21:34:33.733336  3659 net.cpp:150] Setting up slice1
I0818 21:34:33.733356  3659 net.cpp:157] Top shape: 100 1 1 1 (100)
I0818 21:34:33.733368  3659 net.cpp:157] Top shape: 100 1 1 1 (100)
I0818 21:34:33.733378  3659 net.cpp:165] Memory required for data: 7681600
I0818 21:34:33.733389  3659 layer_factory.hpp:77] Creating layer conv1
I0818 21:34:33.733444  3659 net.cpp:100] Creating Layer conv1
I0818 21:34:33.733458  3659 net.cpp:434] conv1 <- data
I0818 21:34:33.733474  3659 net.cpp:408] conv1 -> conv1
I0818 21:34:33.889508  3659 net.cpp:150] Setting up conv1
I0818 21:34:33.889556  3659 net.cpp:157] Top shape: 100 20 76 76 (11552000)
I0818 21:34:33.889567  3659 net.cpp:165] Memory required for data: 53889600
I0818 21:34:33.889595  3659 layer_factory.hpp:77] Creating layer relu1
I0818 21:34:33.889613  3659 net.cpp:100] Creating Layer relu1
I0818 21:34:33.889628  3659 net.cpp:434] relu1 <- conv1
I0818 21:34:33.889641  3659 net.cpp:395] relu1 -> conv1 (in-place)
I0818 21:34:33.890118  3659 net.cpp:150] Setting up relu1
I0818 21:34:33.890136  3659 net.cpp:157] Top shape: 100 20 76 76 (11552000)
I0818 21:34:33.890146  3659 net.cpp:165] Memory required for data: 100097600
I0818 21:34:33.890161  3659 layer_factory.hpp:77] Creating layer pool1
I0818 21:34:33.890173  3659 net.cpp:100] Creating Layer pool1
I0818 21:34:33.890187  3659 net.cpp:434] pool1 <- conv1
I0818 21:34:33.890197  3659 net.cpp:408] pool1 -> pool1
I0818 21:34:33.890244  3659 net.cpp:150] Setting up pool1
I0818 21:34:33.890259  3659 net.cpp:157] Top shape: 100 20 38 38 (2888000)
I0818 21:34:33.890266  3659 net.cpp:165] Memory required for data: 111649600
I0818 21:34:33.890275  3659 layer_factory.hpp:77] Creating layer conv2
I0818 21:34:33.890291  3659 net.cpp:100] Creating Layer conv2
I0818 21:34:33.890301  3659 net.cpp:434] conv2 <- pool1
I0818 21:34:33.890312  3659 net.cpp:408] conv2 -> conv2
I0818 21:34:33.891604  3659 net.cpp:150] Setting up conv2
I0818 21:34:33.891625  3659 net.cpp:157] Top shape: 100 48 34 34 (5548800)
I0818 21:34:33.891635  3659 net.cpp:165] Memory required for data: 133844800
I0818 21:34:33.891671  3659 layer_factory.hpp:77] Creating layer relu2
I0818 21:34:33.891687  3659 net.cpp:100] Creating Layer relu2
I0818 21:34:33.891696  3659 net.cpp:434] relu2 <- conv2
I0818 21:34:33.891706  3659 net.cpp:395] relu2 -> conv2 (in-place)
I0818 21:34:33.891813  3659 net.cpp:150] Setting up relu2
I0818 21:34:33.891827  3659 net.cpp:157] Top shape: 100 48 34 34 (5548800)
I0818 21:34:33.891836  3659 net.cpp:165] Memory required for data: 156040000
I0818 21:34:33.891846  3659 layer_factory.hpp:77] Creating layer pool2
I0818 21:34:33.891860  3659 net.cpp:100] Creating Layer pool2
I0818 21:34:33.891868  3659 net.cpp:434] pool2 <- conv2
I0818 21:34:33.891878  3659 net.cpp:408] pool2 -> pool2
I0818 21:34:33.891914  3659 net.cpp:150] Setting up pool2
I0818 21:34:33.891927  3659 net.cpp:157] Top shape: 100 48 17 17 (1387200)
I0818 21:34:33.891937  3659 net.cpp:165] Memory required for data: 161588800
I0818 21:34:33.891944  3659 layer_factory.hpp:77] Creating layer conv3
I0818 21:34:33.891958  3659 net.cpp:100] Creating Layer conv3
I0818 21:34:33.891968  3659 net.cpp:434] conv3 <- pool2
I0818 21:34:33.891978  3659 net.cpp:408] conv3 -> conv3
I0818 21:34:33.892809  3659 net.cpp:150] Setting up conv3
I0818 21:34:33.892828  3659 net.cpp:157] Top shape: 100 64 15 15 (1440000)
I0818 21:34:33.892838  3659 net.cpp:165] Memory required for data: 167348800
I0818 21:34:33.892850  3659 layer_factory.hpp:77] Creating layer relu3
I0818 21:34:33.892861  3659 net.cpp:100] Creating Layer relu3
I0818 21:34:33.892870  3659 net.cpp:434] relu3 <- conv3
I0818 21:34:33.892880  3659 net.cpp:395] relu3 -> conv3 (in-place)
I0818 21:34:33.892969  3659 net.cpp:150] Setting up relu3
I0818 21:34:33.892984  3659 net.cpp:157] Top shape: 100 64 15 15 (1440000)
I0818 21:34:33.892992  3659 net.cpp:165] Memory required for data: 173108800
I0818 21:34:33.893005  3659 layer_factory.hpp:77] Creating layer ip1
I0818 21:34:33.893023  3659 net.cpp:100] Creating Layer ip1
I0818 21:34:33.893033  3659 net.cpp:434] ip1 <- conv3
I0818 21:34:33.893043  3659 net.cpp:408] ip1 -> ip1
I0818 21:34:33.948885  3659 net.cpp:150] Setting up ip1
I0818 21:34:33.948930  3659 net.cpp:157] Top shape: 100 512 (51200)
I0818 21:34:33.948940  3659 net.cpp:165] Memory required for data: 173313600
I0818 21:34:33.948957  3659 layer_factory.hpp:77] Creating layer relu5
I0818 21:34:33.948972  3659 net.cpp:100] Creating Layer relu5
I0818 21:34:33.948982  3659 net.cpp:434] relu5 <- ip1
I0818 21:34:33.948995  3659 net.cpp:395] relu5 -> ip1 (in-place)
I0818 21:34:33.949070  3659 net.cpp:150] Setting up relu5
I0818 21:34:33.949084  3659 net.cpp:157] Top shape: 100 512 (51200)
I0818 21:34:33.949093  3659 net.cpp:165] Memory required for data: 173518400
I0818 21:34:33.949103  3659 layer_factory.hpp:77] Creating layer drop1
I0818 21:34:33.949122  3659 net.cpp:100] Creating Layer drop1
I0818 21:34:33.949136  3659 net.cpp:434] drop1 <- ip1
I0818 21:34:33.949147  3659 net.cpp:395] drop1 -> ip1 (in-place)
I0818 21:34:33.949180  3659 net.cpp:150] Setting up drop1
I0818 21:34:33.949193  3659 net.cpp:157] Top shape: 100 512 (51200)
I0818 21:34:33.949203  3659 net.cpp:165] Memory required for data: 173723200
I0818 21:34:33.949211  3659 layer_factory.hpp:77] Creating layer ip1_drop1_0_split
I0818 21:34:33.949224  3659 net.cpp:100] Creating Layer ip1_drop1_0_split
I0818 21:34:33.949234  3659 net.cpp:434] ip1_drop1_0_split <- ip1
I0818 21:34:33.949244  3659 net.cpp:408] ip1_drop1_0_split -> ip1_drop1_0_split_0
I0818 21:34:33.949256  3659 net.cpp:408] ip1_drop1_0_split -> ip1_drop1_0_split_1
I0818 21:34:33.949290  3659 net.cpp:150] Setting up ip1_drop1_0_split
I0818 21:34:33.949303  3659 net.cpp:157] Top shape: 100 512 (51200)
I0818 21:34:33.949313  3659 net.cpp:157] Top shape: 100 512 (51200)
I0818 21:34:33.949321  3659 net.cpp:165] Memory required for data: 174132800
I0818 21:34:33.949331  3659 layer_factory.hpp:77] Creating layer ip2
I0818 21:34:33.949342  3659 net.cpp:100] Creating Layer ip2
I0818 21:34:33.949352  3659 net.cpp:434] ip2 <- ip1_drop1_0_split_0
I0818 21:34:33.949384  3659 net.cpp:408] ip2 -> ip2
I0818 21:34:33.949472  3659 net.cpp:150] Setting up ip2
I0818 21:34:33.949487  3659 net.cpp:157] Top shape: 100 2 (200)
I0818 21:34:33.949496  3659 net.cpp:165] Memory required for data: 174133600
I0818 21:34:33.949507  3659 layer_factory.hpp:77] Creating layer loss1
I0818 21:34:33.949523  3659 net.cpp:100] Creating Layer loss1
I0818 21:34:33.949532  3659 net.cpp:434] loss1 <- ip2
I0818 21:34:33.949542  3659 net.cpp:434] loss1 <- glasses
I0818 21:34:33.949553  3659 net.cpp:408] loss1 -> loss1
I0818 21:34:33.949569  3659 layer_factory.hpp:77] Creating layer loss1
I0818 21:34:33.950175  3659 net.cpp:150] Setting up loss1
I0818 21:34:33.950192  3659 net.cpp:157] Top shape: (1)
I0818 21:34:33.950201  3659 net.cpp:160]     with loss weight 0.5
I0818 21:34:33.950227  3659 net.cpp:165] Memory required for data: 174133604
I0818 21:34:33.950237  3659 layer_factory.hpp:77] Creating layer ip3
I0818 21:34:33.950249  3659 net.cpp:100] Creating Layer ip3
I0818 21:34:33.950259  3659 net.cpp:434] ip3 <- ip1_drop1_0_split_1
I0818 21:34:33.950270  3659 net.cpp:408] ip3 -> ip3
I0818 21:34:33.950357  3659 net.cpp:150] Setting up ip3
I0818 21:34:33.950372  3659 net.cpp:157] Top shape: 100 2 (200)
I0818 21:34:33.950381  3659 net.cpp:165] Memory required for data: 174134404
I0818 21:34:33.950392  3659 layer_factory.hpp:77] Creating layer loss2
I0818 21:34:33.950404  3659 net.cpp:100] Creating Layer loss2
I0818 21:34:33.950413  3659 net.cpp:434] loss2 <- ip3
I0818 21:34:33.950423  3659 net.cpp:434] loss2 <- gender
I0818 21:34:33.950434  3659 net.cpp:408] loss2 -> loss2
I0818 21:34:33.950446  3659 layer_factory.hpp:77] Creating layer loss2
…
  phase: TEST
}
layer {
  name: "data"
  type: "Data"
  top: "data"
  include {
    phase: TEST
  }
  transform_param {
    scale: 0.00390625
  }
  data_param {
    source: "/home/jaychou/code/new_caffe/caffe-master/examples/gender_glasses/gender_glasses_val_lmdb"
    batch_size: 64
    backend: LMDB
  }
}
layer {
  name: "labels"
  type: "Data"
  top: "labels"
  include {
    phase: TEST
  }
  data_param {
    source: "/home/jaychou/code/new_caffe/caffe-master/examples/gender_glasses/gender_glasses_val_label_lmdb"
    batch_size: 64
    backend: LMDB
  }
}
layer {
  name: "slice1"
  type: "Slice"
  bottom: "labels"
  top: "glasses"
  top: "gender"
  slice_param {
    slice_dim: 1
    slice_point: 1
  }
}
layer {
  name: "conv1"
  type: "Convolution"
  bottom: "data"
  top: "conv1"
  param {
    lr_mult: 1
  }
  param {
    lr_mult: 0.1
  }
  convolution_param {
    num_output: 20
    pad: 0
    kernel_size: 5
    stride: 1
    weight_filler {
      type: "xavier"
    }
    bias_filler {
      type: "constant"
      value: 0
    }
  }
}
layer {
  name: "relu1"
  type: "PReLU"
  bottom: "conv1"
  top: "conv1"
}
layer {
  name: "pool1"
  type: "Pooling"
  bottom: "conv1"
  top: "pool1"
  pooling_param {
    pool: MAX
    kernel_size: 2
    stride: 2
  }
}
layer {
  name: "conv2"
  type: "Convolution"
  bottom: "pool1"
  top: "conv2"
  param {
    lr_mult: 1
  }
  param {
    lr_mult: 0.1
  }
  convolution_param {
    num_output: 48
    pad: 0
    kernel_size: 5
    stride: 1
    weight_filler {
      type: "xavier"
    }
    bias_filler {
      type: "constant"
      value: 0
    }
  }
}
layer {
  name: "relu2"
  type: "PReLU"
  bottom: "conv2"
  top: "conv2"
}
layer {
  name: "pool2"
  type: "Pooling"
  bottom: "conv2"
  top: "pool2"
  pooling_param {
    pool: MAX
    kernel_size: 2
    stride: 2
  }
}
layer {
  name: "conv3"
  type: "Convolution"
  bottom: "pool2"
  top: "conv3"
  param {
    lr_mult: 0.1
  }
  param {
    lr_mult: 0.1
  }
  convolution_param {
    num_output: 64
    pad: 0
    kernel_size: 3
    stride: 1
    weight_filler {
      type: "xavier"
    }
    bias_filler {
      type: "constant"
      value: 0
    }
  }
}
layer {
  name: "relu3"
  type: "PReLU"
  bottom: "conv3"
  top: "conv3"
}
layer {
  name: "ip1"
  type: "InnerProduct"
  bottom: "conv3"
  top: "ip1"
  inner_product_param {
    num_output: 512
    weight_filler {
      type: "xavier"
    }
    bias_filler {
      type: "constant"
    }
  }
}
layer {
  name: "relu5"
  type: "PReLU"
  bottom: "ip1"
  top: "ip1"
}
layer {
  name: "drop1"
  type: "Dropout"
  bottom: "ip1"
  top: "ip1"
  dropout_param {
    dropout_ratio: 0.5
  }
}
layer {
  name: "ip2"
  type: "InnerProduct"
  bottom: "ip1"
  top: "ip2"
  inner_product_param {
    num_output: 2
    weight_filler {
      type: "xavier"
    }
    bias_filler {
      type: "constant"
    }
  }
}
layer {
  name: "loss1"
  type: "SoftmaxWithLoss"
  bottom: "ip2"
  bottom: "glasses"
  top: "loss1"
  loss_weight: 0.5
}
layer {
  name: "accuracy_glasses"
  type: "Accuracy"
  bottom: "ip2"
  bottom: "glasses"
  top: "accuracy_glasses"
  include {
    phase: TEST
  }
}
layer {
  name: "ip3"
  type: "InnerProduct"
  bottom: "ip1"
  top: "ip3"
  inner_product_param {
    num_output: 2
    weight_filler {
      type: "xavier"
    }
    bias_filler {
      type: "constant"
    }
  }
}
layer {
  name: "loss2"
  type: "SoftmaxWithLoss"
  bottom: "ip3"
  bottom: "gender"
  top: "loss2"
  loss_weight: 0.5
}
layer {
  name: "accuracy_gender"
  type: "Accuracy"
  bottom: "ip3"
  bottom: "gender"
  top: "accuracy_gender"
  include {
    phase: TEST
  }
}
I0818 21:34:33.952117  3659 layer_factory.hpp:77] Creating layer data
I0818 21:34:33.952208  3659 net.cpp:100] Creating Layer data
I0818 21:34:33.952221  3659 net.cpp:408] data -> data
I0818 21:34:33.953147  3667 db_lmdb.cpp:35] Opened lmdb /home/jaychou/code/new_caffe/caffe-master/examples/gender_glasses/gender_glasses_val_lmdb
I0818 21:34:33.953598  3659 data_layer.cpp:41] output data size: 64,3,80,80
I0818 21:34:33.962795  3659 net.cpp:150] Setting up data
I0818 21:34:33.962857  3659 net.cpp:157] Top shape: 64 3 80 80 (1228800)
I0818 21:34:33.962867  3659 net.cpp:165] Memory required for data: 4915200
I0818 21:34:33.962878  3659 layer_factory.hpp:77] Creating layer labels
I0818 21:34:33.962960  3659 net.cpp:100] Creating Layer labels
I0818 21:34:33.962975  3659 net.cpp:408] labels -> labels
I0818 21:34:33.964972  3669 db_lmdb.cpp:35] Opened lmdb /home/jaychou/code/new_caffe/caffe-master/examples/gender_glasses/gender_glasses_val_label_lmdb
I0818 21:34:33.965350  3659 data_layer.cpp:41] output data size: 64,2,1,1
I0818 21:34:33.965476  3659 net.cpp:150] Setting up labels
I0818 21:34:33.965492  3659 net.cpp:157] Top shape: 64 2 1 1 (128)
I0818 21:34:33.965502  3659 net.cpp:165] Memory required for data: 4915712
I0818 21:34:33.965510  3659 layer_factory.hpp:77] Creating layer slice1
I0818 21:34:33.965525  3659 net.cpp:100] Creating Layer slice1
I0818 21:34:33.965534  3659 net.cpp:434] slice1 <- labels
I0818 21:34:33.965548  3659 net.cpp:408] slice1 -> glasses
I0818 21:34:33.965561  3659 net.cpp:408] slice1 -> gender
I0818 21:34:33.965600  3659 net.cpp:150] Setting up slice1
I0818 21:34:33.965612  3659 net.cpp:157] Top shape: 64 1 1 1 (64)
I0818 21:34:33.965622  3659 net.cpp:157] Top shape: 64 1 1 1 (64)
I0818 21:34:33.965631  3659 net.cpp:165] Memory required for data: 4916224
I0818 21:34:33.965638  3659 layer_factory.hpp:77] Creating layer glasses_slice1_0_split
I0818 21:34:33.965649  3659 net.cpp:100] Creating Layer glasses_slice1_0_split
I0818 21:34:33.965657  3659 net.cpp:434] glasses_slice1_0_split <- glasses
I0818 21:34:33.965667  3659 net.cpp:408] glasses_slice1_0_split -> glasses_slice1_0_split_0
I0818 21:34:33.965682  3659 net.cpp:408] glasses_slice1_0_split -> glasses_slice1_0_split_1
I0818 21:34:33.965724  3659 net.cpp:150] Setting up glasses_slice1_0_split
I0818 21:34:33.965737  3659 net.cpp:157] Top shape: 64 1 1 1 (64)
I0818 21:34:33.965746  3659 net.cpp:157] Top shape: 64 1 1 1 (64)
I0818 21:34:33.965754  3659 net.cpp:165] Memory required for data: 4916736
I0818 21:34:33.965764  3659 layer_factory.hpp:77] Creating layer gender_slice1_1_split
I0818 21:34:33.965773  3659 net.cpp:100] Creating Layer gender_slice1_1_split
I0818 21:34:33.965782  3659 net.cpp:434] gender_slice1_1_split <- gender
I0818 21:34:33.965793  3659 net.cpp:408] gender_slice1_1_split -> gender_slice1_1_split_0
I0818 21:34:33.965806  3659 net.cpp:408] gender_slice1_1_split -> gender_slice1_1_split_1
I0818 21:34:33.965842  3659 net.cpp:150] Setting up gender_slice1_1_split
I0818 21:34:33.965855  3659 net.cpp:157] Top shape: 64 1 1 1 (64)
I0818 21:34:33.965865  3659 net.cpp:157] Top shape: 64 1 1 1 (64)
I0818 21:34:33.965873  3659 net.cpp:165] Memory required for data: 4917248
I0818 21:34:33.965883  3659 layer_factory.hpp:77] Creating layer conv1
I0818 21:34:33.965900  3659 net.cpp:100] Creating Layer conv1
I0818 21:34:33.965909  3659 net.cpp:434] conv1 <- data
I0818 21:34:33.965922  3659 net.cpp:408] conv1 -> conv1
I0818 21:34:33.967099  3659 net.cpp:150] Setting up conv1
I0818 21:34:33.967125  3659 net.cpp:157] Top shape: 64 20 76 76 (7393280)
I0818 21:34:33.967136  3659 net.cpp:165] Memory required for data: 34490368
I0818 21:34:33.967152  3659 layer_factory.hpp:77] Creating layer relu1
I0818 21:34:33.967170  3659 net.cpp:100] Creating Layer relu1
I0818 21:34:33.967180  3659 net.cpp:434] relu1 <- conv1
I0818 21:34:33.967192  3659 net.cpp:395] relu1 -> conv1 (in-place)
I0818 21:34:33.967422  3659 net.cpp:150] Setting up relu1
I0818 21:34:33.967437  3659 net.cpp:157] Top shape: 64 20 76 76 (7393280)
I0818 21:34:33.967445  3659 net.cpp:165] Memory required for data: 64063488
I0818 21:34:33.967458  3659 layer_factory.hpp:77] Creating layer pool1
I0818 21:34:33.967469  3659 net.cpp:100] Creating Layer pool1
I0818 21:34:33.967478  3659 net.cpp:434] pool1 <- conv1
I0818 21:34:33.967490  3659 net.cpp:408] pool1 -> pool1
I0818 21:34:33.967533  3659 net.cpp:150] Setting up pool1
I0818 21:34:33.967546  3659 net.cpp:157] Top shape: 64 20 38 38 (1848320)
I0818 21:34:33.967555  3659 net.cpp:165] Memory required for data: 71456768
I0818 21:34:33.967578  3659 layer_factory.hpp:77] Creating layer conv2
I0818 21:34:33.967597  3659 net.cpp:100] Creating Layer conv2
I0818 21:34:33.967607  3659 net.cpp:434] conv2 <- pool1
I0818 21:34:33.967618  3659 net.cpp:408] conv2 -> conv2
I0818 21:34:33.968749  3659 net.cpp:150] Setting up conv2
I0818 21:34:33.968772  3659 net.cpp:157] Top shape: 64 48 34 34 (3551232)
I0818 21:34:33.968781  3659 net.cpp:165] Memory required for data: 85661696
I0818 21:34:33.968801  3659 layer_factory.hpp:77] Creating layer relu2
I0818 21:34:33.968814  3659 net.cpp:100] Creating Layer relu2
I0818 21:34:33.968823  3659 net.cpp:434] relu2 <- conv2
I0818 21:34:33.968835  3659 net.cpp:395] relu2 -> conv2 (in-place)
I0818 21:34:33.969004  3659 net.cpp:150] Setting up relu2
I0818 21:34:33.969018  3659 net.cpp:157] Top shape: 64 48 34 34 (3551232)
I0818 21:34:33.969027  3659 net.cpp:165] Memory required for data: 99866624
I0818 21:34:33.969036  3659 layer_factory.hpp:77] Creating layer pool2
I0818 21:34:33.969048  3659 net.cpp:100] Creating Layer pool2
I0818 21:34:33.969058  3659 net.cpp:434] pool2 <- conv2
I0818 21:34:33.969069  3659 net.cpp:408] pool2 -> pool2
I0818 21:34:33.969110  3659 net.cpp:150] Setting up pool2
I0818 21:34:33.969123  3659 net.cpp:157] Top shape: 64 48 17 17 (887808)
I0818 21:34:33.969131  3659 net.cpp:165] Memory required for data: 103417856
I0818 21:34:33.969141  3659 layer_factory.hpp:77] Creating layer conv3
I0818 21:34:33.969161  3659 net.cpp:100] Creating Layer conv3
I0818 21:34:33.969171  3659 net.cpp:434] conv3 <- pool2
I0818 21:34:33.969182  3659 net.cpp:408] conv3 -> conv3
I0818 21:34:33.970584  3659 net.cpp:150] Setting up conv3
I0818 21:34:33.970603  3659 net.cpp:157] Top shape: 64 64 15 15 (921600)
I0818 21:34:33.970613  3659 net.cpp:165] Memory required for data: 107104256
I0818 21:34:33.970624  3659 layer_factory.hpp:77] Creating layer relu3
I0818 21:34:33.970635  3659 net.cpp:100] Creating Layer relu3
I0818 21:34:33.970644  3659 net.cpp:434] relu3 <- conv3
I0818 21:34:33.970660  3659 net.cpp:395] relu3 -> conv3 (in-place)
I0818 21:34:33.970763  3659 net.cpp:150] Setting up relu3
I0818 21:34:33.970777  3659 net.cpp:157] Top shape: 64 64 15 15 (921600)
I0818 21:34:33.970785  3659 net.cpp:165] Memory required for data: 110790656
I0818 21:34:33.970798  3659 layer_factory.hpp:77] Creating layer ip1
I0818 21:34:33.970814  3659 net.cpp:100] Creating Layer ip1
I0818 21:34:33.970824  3659 net.cpp:434] ip1 <- conv3
I0818 21:34:33.970834  3659 net.cpp:408] ip1 -> ip1
I0818 21:34:34.027570  3659 net.cpp:150] Setting up ip1
I0818 21:34:34.027616  3659 net.cpp:157] Top shape: 64 512 (32768)
I0818 21:34:34.027626  3659 net.cpp:165] Memory required for data: 110921728
I0818 21:34:34.027643  3659 layer_factory.hpp:77] Creating layer relu5
I0818 21:34:34.027660  3659 net.cpp:100] Creating Layer relu5
I0818 21:34:34.027672  3659 net.cpp:434] relu5 <- ip1
I0818 21:34:34.027684  3659 net.cpp:395] relu5 -> ip1 (in-place)
I0818 21:34:34.027765  3659 net.cpp:150] Setting up relu5
I0818 21:34:34.027778  3659 net.cpp:157] Top shape: 64 512 (32768)
I0818 21:34:34.027787  3659 net.cpp:165] Memory required for data: 111052800
I0818 21:34:34.027797  3659 layer_factory.hpp:77] Creating layer drop1
I0818 21:34:34.027811  3659 net.cpp:100] Creating Layer drop1
I0818 21:34:34.027819  3659 net.cpp:434] drop1 <- ip1
I0818 21:34:34.027830  3659 net.cpp:395] drop1 -> ip1 (in-place)
I0818 21:34:34.027858  3659 net.cpp:150] Setting up drop1
I0818 21:34:34.027871  3659 net.cpp:157] Top shape: 64 512 (32768)
I0818 21:34:34.027880  3659 net.cpp:165] Memory required for data: 111183872
I0818 21:34:34.027889  3659 layer_factory.hpp:77] Creating layer ip1_drop1_0_split
I0818 21:34:34.027902  3659 net.cpp:100] Creating Layer ip1_drop1_0_split
I0818 21:34:34.027910  3659 net.cpp:434] ip1_drop1_0_split <- ip1
I0818 21:34:34.027921  3659 net.cpp:408] ip1_drop1_0_split -> ip1_drop1_0_split_0
I0818 21:34:34.027933  3659 net.cpp:408] ip1_drop1_0_split -> ip1_drop1_0_split_1
I0818 21:34:34.027976  3659 net.cpp:150] Setting up ip1_drop1_0_split
I0818 21:34:34.028012  3659 net.cpp:157] Top shape: 64 512 (32768)
I0818 21:34:34.028022  3659 net.cpp:157] Top shape: 64 512 (32768)
I0818 21:34:34.028030  3659 net.cpp:165] Memory required for data: 111446016
I0818 21:34:34.028038  3659 layer_factory.hpp:77] Creating layer ip2
I0818 21:34:34.028054  3659 net.cpp:100] Creating Layer ip2
I0818 21:34:34.028065  3659 net.cpp:434] ip2 <- ip1_drop1_0_split_0
I0818 21:34:34.028076  3659 net.cpp:408] ip2 -> ip2
I0818 21:34:34.028177  3659 net.cpp:150] Setting up ip2
I0818 21:34:34.028193  3659 net.cpp:157] Top shape: 64 2 (128)
I0818 21:34:34.028201  3659 net.cpp:165] Memory required for data: 111446528
I0818 21:34:34.028213  3659 layer_factory.hpp:77] Creating layer ip2_ip2_0_split
I0818 21:34:34.028225  3659 net.cpp:100] Creating Layer ip2_ip2_0_split
I0818 21:34:34.028234  3659 net.cpp:434] ip2_ip2_0_split <- ip2
I0818 21:34:34.028244  3659 net.cpp:408] ip2_ip2_0_split -> ip2_ip2_0_split_0
I0818 21:34:34.028259  3659 net.cpp:408] ip2_ip2_0_split -> ip2_ip2_0_split_1
I0818 21:34:34.028295  3659 net.cpp:150] Setting up ip2_ip2_0_split
I0818 21:34:34.028308  3659 net.cpp:157] Top shape: 64 2 (128)
I0818 21:34:34.028318  3659 net.cpp:157] Top shape: 64 2 (128)
I0818 21:34:34.028326  3659 net.cpp:165] Memory required for data: 111447552
I0818 21:34:34.028334  3659 layer_factory.hpp:77] Creating layer loss1
I0818 21:34:34.028345  3659 net.cpp:100] Creating Layer loss1
I0818 21:34:34.028354  3659 net.cpp:434] loss1 <- ip2_ip2_0_split_0
I0818 21:34:34.028363  3659 net.cpp:434] loss1 <- glasses_slice1_0_split_0
I0818 21:34:34.028383  3659 net.cpp:408] loss1 -> loss1
…
