…
  stage: ""
}
layer {
  name: "data"
  type: "Data"
  top: "data"
  include {
    phase: TRAIN
  }
  transform_param {
    scale: 0.00390625
  }
  data_param {
    source: "/home/jaychou/code/new_caffe/caffe-master/examples/gender_glasses/gender_glasses_train_lmdb"
    batch_size: 100
    backend: LMDB
  }
}
layer {
  name: "labels"
  type: "Data"
  top: "labels"
  include {
    phase: TRAIN
  }
  data_param {
    source: "/home/jaychou/code/new_caffe/caffe-master/examples/gender_glasses/gender_glasses_train_label_lmdb"
    batch_size: 100
    backend: LMDB
  }
}
layer {
  name: "slice1"
  type: "Slice"
  bottom: "labels"
  top: "glasses"
  top: "gender"
  slice_param {
    slice_dim: 1
    slice_point: 1
  }
}
layer {
  name: "conv1"
  type: "Convolution"
  bottom: "data"
  top: "conv1"
  param {
    lr_mult: 1
  }
  param {
    lr_mult: 0.1
  }
  convolution_param {
    num_output: 20
    pad: 0
    kernel_size: 5
    stride: 1
    weight_filler {
      type: "xavier"
    }
    bias_filler {
      type: "constant"
      value: 0
    }
  }
}
layer {
  name: "relu1"
  type: "PReLU"
  bottom: "conv1"
  top: "conv1"
}
layer {
  name: "pool1"
  type: "Pooling"
  bottom: "conv1"
  top: "pool1"
  pooling_param {
    pool: MAX
    kernel_size: 2
    stride: 2
  }
}
layer {
  name: "conv2"
  type: "Convolution"
  bottom: "pool1"
  top: "conv2"
  param {
    lr_mult: 1
  }
  param {
    lr_mult: 0.1
  }
  convolution_param {
    num_output: 48
    pad: 0
    kernel_size: 5
    stride: 1
    weight_filler {
      type: "xavier"
    }
    bias_filler {
      type: "constant"
      value: 0
    }
  }
}
layer {
  name: "relu2"
  type: "PReLU"
  bottom: "conv2"
  top: "conv2"
}
layer {
  name: "pool2"
  type: "Pooling"
  bottom: "conv2"
  top: "pool2"
  pooling_param {
    pool: MAX
    kernel_size: 2
    stride: 2
  }
}
layer {
  name: "conv3"
  type: "Convolution"
  bottom: "pool2"
  top: "conv3"
  param {
    lr_mult: 0.1
  }
  param {
    lr_mult: 0.1
  }
  convolution_param {
    num_output: 64
    pad: 0
    kernel_size: 3
    stride: 1
    weight_filler {
      type: "xavier"
    }
    bias_filler {
      type: "constant"
      value: 0
    }
  }
}
layer {
  name: "relu3"
  type: "PReLU"
  bottom: "conv3"
  top: "conv3"
}
layer {
  name: "ip1"
  type: "InnerProduct"
  bottom: "conv3"
  top: "ip1"
  inner_product_param {
    num_output: 512
    weight_filler {
      type: "xavier"
    }
    bias_filler {
      type: "constant"
    }
  }
}
layer {
  name: "relu5"
  type: "PReLU"
  bottom: "ip1"
  top: "ip1"
}
layer {
  name: "drop1"
  type: "Dropout"
  bottom: "ip1"
  top: "ip1"
  dropout_param {
    dropout_ratio: 0.5
  }
}
layer {
  name: "ip2"
  type: "InnerProduct"
  bottom: "ip1"
  top: "ip2"
  inner_product_param {
    num_output: 2
    weight_filler {
      type: "xavier"
    }
    bias_filler {
      type: "constant"
    }
  }
}
layer {
  name: "loss1"
  type: "SoftmaxWithLoss"
  bottom: "ip2"
  bottom: "glasses"
  top: "loss1"
  loss_weight: 0.4
}
layer {
  name: "ip3"
  type: "InnerProduct"
  bottom: "ip1"
  top: "ip3"
  inner_product_param {
    num_output: 512
    weight_filler {
      type: "xavier"
    }
    bias_filler {
      type: "constant"
    }
  }
}
layer {
  name: "loss2"
  type: "SoftmaxWithLoss"
  bottom: "ip3"
  bottom: "gender"
  top: "loss2"
  loss_weight: 0.6
}
I0817 16:56:51.986551  2446 layer_factory.hpp:77] Creating layer data
I0817 16:56:51.991504  2446 net.cpp:100] Creating Layer data
I0817 16:56:51.991557  2446 net.cpp:408] data -> data
I0817 16:56:52.015148  2455 db_lmdb.cpp:35] Opened lmdb /home/jaychou/code/new_caffe/caffe-master/examples/gender_glasses/gender_glasses_train_lmdb
I0817 16:56:52.383718  2446 data_layer.cpp:41] output data size: 100,3,80,80
I0817 16:56:52.399705  2446 net.cpp:150] Setting up data
I0817 16:56:52.399772  2446 net.cpp:157] Top shape: 100 3 80 80 (1920000)
I0817 16:56:52.399791  2446 net.cpp:165] Memory required for data: 7680000
I0817 16:56:52.399816  2446 layer_factory.hpp:77] Creating layer labels
I0817 16:56:52.399996  2446 net.cpp:100] Creating Layer labels
I0817 16:56:52.400030  2446 net.cpp:408] labels -> labels
I0817 16:56:52.403894  2457 db_lmdb.cpp:35] Opened lmdb /home/jaychou/code/new_caffe/caffe-master/examples/gender_glasses/gender_glasses_train_label_lmdb
I0817 16:56:52.413002  2446 data_layer.cpp:41] output data size: 100,2,1,1
I0817 16:56:52.413674  2446 net.cpp:150] Setting up labels
I0817 16:56:52.413725  2446 net.cpp:157] Top shape: 100 2 1 1 (200)
I0817 16:56:52.413745  2446 net.cpp:165] Memory required for data: 7680800
I0817 16:56:52.413764  2446 layer_factory.hpp:77] Creating layer slice1
I0817 16:56:52.413800  2446 net.cpp:100] Creating Layer slice1
I0817 16:56:52.413821  2446 net.cpp:434] slice1 <- labels
I0817 16:56:52.413851  2446 net.cpp:408] slice1 -> glasses
I0817 16:56:52.413894  2446 net.cpp:408] slice1 -> gender
I0817 16:56:52.414697  2446 net.cpp:150] Setting up slice1
I0817 16:56:52.414743  2446 net.cpp:157] Top shape: 100 1 1 1 (100)
I0817 16:56:52.414763  2446 net.cpp:157] Top shape: 100 1 1 1 (100)
I0817 16:56:52.414783  2446 net.cpp:165] Memory required for data: 7681600
I0817 16:56:52.414798  2446 layer_factory.hpp:77] Creating layer conv1
I0817 16:56:52.414841  2446 net.cpp:100] Creating Layer conv1
I0817 16:56:52.414863  2446 net.cpp:434] conv1 <- data
I0817 16:56:52.414887  2446 net.cpp:408] conv1 -> conv1
I0817 16:56:53.697860  2446 net.cpp:150] Setting up conv1
I0817 16:56:53.697923  2446 net.cpp:157] Top shape: 100 20 76 76 (11552000)
I0817 16:56:53.697942  2446 net.cpp:165] Memory required for data: 53889600
I0817 16:56:53.697981  2446 layer_factory.hpp:77] Creating layer relu1
I0817 16:56:53.698012  2446 net.cpp:100] Creating Layer relu1
I0817 16:56:53.698035  2446 net.cpp:434] relu1 <- conv1
I0817 16:56:53.698055  2446 net.cpp:395] relu1 -> conv1 (in-place)
I0817 16:56:53.698869  2446 net.cpp:150] Setting up relu1
I0817 16:56:53.698915  2446 net.cpp:157] Top shape: 100 20 76 76 (11552000)
I0817 16:56:53.698943  2446 net.cpp:165] Memory required for data: 100097600
I0817 16:56:53.698966  2446 layer_factory.hpp:77] Creating layer pool1
I0817 16:56:53.698990  2446 net.cpp:100] Creating Layer pool1
I0817 16:56:53.699007  2446 net.cpp:434] pool1 <- conv1
I0817 16:56:53.699025  2446 net.cpp:408] pool1 -> pool1
I0817 16:56:53.699101  2446 net.cpp:150] Setting up pool1
I0817 16:56:53.699126  2446 net.cpp:157] Top shape: 100 20 38 38 (2888000)
I0817 16:56:53.699141  2446 net.cpp:165] Memory required for data: 111649600
I0817 16:56:53.699156  2446 layer_factory.hpp:77] Creating layer conv2
I0817 16:56:53.699182  2446 net.cpp:100] Creating Layer conv2
I0817 16:56:53.699201  2446 net.cpp:434] conv2 <- pool1
I0817 16:56:53.699220  2446 net.cpp:408] conv2 -> conv2
I0817 16:56:53.701258  2446 net.cpp:150] Setting up conv2
I0817 16:56:53.701293  2446 net.cpp:157] Top shape: 100 48 34 34 (5548800)
I0817 16:56:53.701310  2446 net.cpp:165] Memory required for data: 133844800
I0817 16:56:53.701373  2446 layer_factory.hpp:77] Creating layer relu2
I0817 16:56:53.701396  2446 net.cpp:100] Creating Layer relu2
I0817 16:56:53.701412  2446 net.cpp:434] relu2 <- conv2
I0817 16:56:53.701431  2446 net.cpp:395] relu2 -> conv2 (in-place)
I0817 16:56:53.701611  2446 net.cpp:150] Setting up relu2
I0817 16:56:53.701637  2446 net.cpp:157] Top shape: 100 48 34 34 (5548800)
I0817 16:56:53.701653  2446 net.cpp:165] Memory required for data: 156040000
I0817 16:56:53.701670  2446 layer_factory.hpp:77] Creating layer pool2
I0817 16:56:53.701691  2446 net.cpp:100] Creating Layer pool2
I0817 16:56:53.701706  2446 net.cpp:434] pool2 <- conv2
I0817 16:56:53.701725  2446 net.cpp:408] pool2 -> pool2
I0817 16:56:53.701788  2446 net.cpp:150] Setting up pool2
I0817 16:56:53.701812  2446 net.cpp:157] Top shape: 100 48 17 17 (1387200)
I0817 16:56:53.701850  2446 net.cpp:165] Memory required for data: 161588800
I0817 16:56:53.701866  2446 layer_factory.hpp:77] Creating layer conv3
I0817 16:56:53.701889  2446 net.cpp:100] Creating Layer conv3
I0817 16:56:53.701905  2446 net.cpp:434] conv3 <- pool2
I0817 16:56:53.701925  2446 net.cpp:408] conv3 -> conv3
I0817 16:56:53.703323  2446 net.cpp:150] Setting up conv3
I0817 16:56:53.703358  2446 net.cpp:157] Top shape: 100 64 15 15 (1440000)
I0817 16:56:53.703374  2446 net.cpp:165] Memory required for data: 167348800
I0817 16:56:53.703395  2446 layer_factory.hpp:77] Creating layer relu3
I0817 16:56:53.703414  2446 net.cpp:100] Creating Layer relu3
I0817 16:56:53.703430  2446 net.cpp:434] relu3 <- conv3
I0817 16:56:53.703451  2446 net.cpp:395] relu3 -> conv3 (in-place)
I0817 16:56:53.703609  2446 net.cpp:150] Setting up relu3
I0817 16:56:53.703634  2446 net.cpp:157] Top shape: 100 64 15 15 (1440000)
I0817 16:56:53.703649  2446 net.cpp:165] Memory required for data: 173108800
I0817 16:56:53.703670  2446 layer_factory.hpp:77] Creating layer ip1
I0817 16:56:53.722811  2446 net.cpp:100] Creating Layer ip1
I0817 16:56:53.722849  2446 net.cpp:434] ip1 <- conv3
I0817 16:56:53.722870  2446 net.cpp:408] ip1 -> ip1
I0817 16:56:53.799729  2446 net.cpp:150] Setting up ip1
I0817 16:56:53.799784  2446 net.cpp:157] Top shape: 100 512 (51200)
I0817 16:56:53.799798  2446 net.cpp:165] Memory required for data: 173313600
I0817 16:56:53.799818  2446 layer_factory.hpp:77] Creating layer relu5
I0817 16:56:53.799840  2446 net.cpp:100] Creating Layer relu5
I0817 16:56:53.799854  2446 net.cpp:434] relu5 <- ip1
I0817 16:56:53.799870  2446 net.cpp:395] relu5 -> ip1 (in-place)
I0817 16:56:53.799973  2446 net.cpp:150] Setting up relu5
I0817 16:56:53.799993  2446 net.cpp:157] Top shape: 100 512 (51200)
I0817 16:56:53.800004  2446 net.cpp:165] Memory required for data: 173518400
I0817 16:56:53.800017  2446 layer_factory.hpp:77] Creating layer drop1
I0817 16:56:53.813168  2446 net.cpp:100] Creating Layer drop1
I0817 16:56:53.813199  2446 net.cpp:434] drop1 <- ip1
I0817 16:56:53.813216  2446 net.cpp:395] drop1 -> ip1 (in-place)
I0817 16:56:53.813274  2446 net.cpp:150] Setting up drop1
I0817 16:56:53.813344  2446 net.cpp:157] Top shape: 100 512 (51200)
I0817 16:56:53.813359  2446 net.cpp:165] Memory required for data: 173723200
I0817 16:56:53.813370  2446 layer_factory.hpp:77] Creating layer ip1_drop1_0_split
I0817 16:56:53.820361  2446 net.cpp:100] Creating Layer ip1_drop1_0_split
I0817 16:56:53.820392  2446 net.cpp:434] ip1_drop1_0_split <- ip1
I0817 16:56:53.820410  2446 net.cpp:408] ip1_drop1_0_split -> ip1_drop1_0_split_0
I0817 16:56:53.820426  2446 net.cpp:408] ip1_drop1_0_split -> ip1_drop1_0_split_1
I0817 16:56:53.820489  2446 net.cpp:150] Setting up ip1_drop1_0_split
I0817 16:56:53.820509  2446 net.cpp:157] Top shape: 100 512 (51200)
I0817 16:56:53.820523  2446 net.cpp:157] Top shape: 100 512 (51200)
I0817 16:56:53.820534  2446 net.cpp:165] Memory required for data: 174132800
I0817 16:56:53.820545  2446 layer_factory.hpp:77] Creating layer ip2
I0817 16:56:53.820561  2446 net.cpp:100] Creating Layer ip2
I0817 16:56:53.820572  2446 net.cpp:434] ip2 <- ip1_drop1_0_split_0
I0817 16:56:53.820616  2446 net.cpp:408] ip2 -> ip2
I0817 16:56:53.820742  2446 net.cpp:150] Setting up ip2
I0817 16:56:53.820761  2446 net.cpp:157] Top shape: 100 2 (200)
I0817 16:56:53.820773  2446 net.cpp:165] Memory required for data: 174133600
I0817 16:56:53.820790  2446 layer_factory.hpp:77] Creating layer loss1
I0817 16:56:53.820811  2446 net.cpp:100] Creating Layer loss1
I0817 16:56:53.820824  2446 net.cpp:434] loss1 <- ip2
I0817 16:56:53.820837  2446 net.cpp:434] loss1 <- glasses
I0817 16:56:53.820853  2446 net.cpp:408] loss1 -> loss1
I0817 16:56:53.820875  2446 layer_factory.hpp:77] Creating layer loss1
I0817 16:56:53.821383  2446 net.cpp:150] Setting up loss1
I0817 16:56:53.821408  2446 net.cpp:157] Top shape: (1)
I0817 16:56:53.821421  2446 net.cpp:160]     with loss weight 0.4
I0817 16:56:53.821450  2446 net.cpp:165] Memory required for data: 174133604
I0817 16:56:53.821462  2446 layer_factory.hpp:77] Creating layer ip3
I0817 16:56:53.821477  2446 net.cpp:100] Creating Layer ip3
I0817 16:56:53.821490  2446 net.cpp:434] ip3 <- ip1_drop1_0_split_1
I0817 16:56:53.821507  2446 net.cpp:408] ip3 -> ip3
I0817 16:56:53.824107  2446 net.cpp:150] Setting up ip3
I0817 16:56:53.824132  2446 net.cpp:157] Top shape: 100 512 (51200)
I0817 16:56:53.824144  2446 net.cpp:165] Memory required for data: 174338404
I0817 16:56:53.824160  2446 layer_factory.hpp:77] Creating layer loss2
I0817 16:56:53.824175  2446 net.cpp:100] Creating Layer loss2
I0817 16:56:53.824187  2446 net.cpp:434] loss2 <- ip3
I0817 16:56:53.824199  2446 net.cpp:434] loss2 <- gender
I0817 16:56:53.824219  2446 net.cpp:408] loss2 -> loss2
I0817 16:56:53.824237  2446 layer_factory.hpp:77] Creating layer loss2
…
  phase: TEST
}
layer {
  name: "data"
  type: "Data"
  top: "data"
  include {
    phase: TEST
  }
  transform_param {
    scale: 0.00390625
  }
  data_param {
    source: "/home/jaychou/code/new_caffe/caffe-master/examples/gender_glasses/gender_glasses_val_lmdb"
    batch_size: 64
    backend: LMDB
  }
}
layer {
  name: "labels"
  type: "Data"
  top: "labels"
  include {
    phase: TEST
  }
  data_param {
    source: "/home/jaychou/code/new_caffe/caffe-master/examples/gender_glasses/gender_glasses_val_label_lmdb"
    batch_size: 64
    backend: LMDB
  }
}
layer {
  name: "slice1"
  type: "Slice"
  bottom: "labels"
  top: "glasses"
  top: "gender"
  slice_param {
    slice_dim: 1
    slice_point: 1
  }
}
layer {
  name: "conv1"
  type: "Convolution"
  bottom: "data"
  top: "conv1"
  param {
    lr_mult: 1
  }
  param {
    lr_mult: 0.1
  }
  convolution_param {
    num_output: 20
    pad: 0
    kernel_size: 5
    stride: 1
    weight_filler {
      type: "xavier"
    }
    bias_filler {
      type: "constant"
      value: 0
    }
  }
}
layer {
  name: "relu1"
  type: "PReLU"
  bottom: "conv1"
  top: "conv1"
}
layer {
  name: "pool1"
  type: "Pooling"
  bottom: "conv1"
  top: "pool1"
  pooling_param {
    pool: MAX
    kernel_size: 2
    stride: 2
  }
}
layer {
  name: "conv2"
  type: "Convolution"
  bottom: "pool1"
  top: "conv2"
  param {
    lr_mult: 1
  }
  param {
    lr_mult: 0.1
  }
  convolution_param {
    num_output: 48
    pad: 0
    kernel_size: 5
    stride: 1
    weight_filler {
      type: "xavier"
    }
    bias_filler {
      type: "constant"
      value: 0
    }
  }
}
layer {
  name: "relu2"
  type: "PReLU"
  bottom: "conv2"
  top: "conv2"
}
layer {
  name: "pool2"
  type: "Pooling"
  bottom: "conv2"
  top: "pool2"
  pooling_param {
    pool: MAX
    kernel_size: 2
    stride: 2
  }
}
layer {
  name: "conv3"
  type: "Convolution"
  bottom: "pool2"
  top: "conv3"
  param {
    lr_mult: 0.1
  }
  param {
    lr_mult: 0.1
  }
  convolution_param {
    num_output: 64
    pad: 0
    kernel_size: 3
    stride: 1
    weight_filler {
      type: "xavier"
    }
    bias_filler {
      type: "constant"
      value: 0
    }
  }
}
layer {
  name: "relu3"
  type: "PReLU"
  bottom: "conv3"
  top: "conv3"
}
layer {
  name: "ip1"
  type: "InnerProduct"
  bottom: "conv3"
  top: "ip1"
  inner_product_param {
    num_output: 512
    weight_filler {
      type: "xavier"
    }
    bias_filler {
      type: "constant"
    }
  }
}
layer {
  name: "relu5"
  type: "PReLU"
  bottom: "ip1"
  top: "ip1"
}
layer {
  name: "drop1"
  type: "Dropout"
  bottom: "ip1"
  top: "ip1"
  dropout_param {
    dropout_ratio: 0.5
  }
}
layer {
  name: "ip2"
  type: "InnerProduct"
  bottom: "ip1"
  top: "ip2"
  inner_product_param {
    num_output: 2
    weight_filler {
      type: "xavier"
    }
    bias_filler {
      type: "constant"
    }
  }
}
layer {
  name: "loss1"
  type: "SoftmaxWithLoss"
  bottom: "ip2"
  bottom: "glasses"
  top: "loss1"
  loss_weight: 0.4
}
layer {
  name: "accuracy_glasses"
  type: "Accuracy"
  bottom: "ip2"
  bottom: "glasses"
  top: "accuracy_glasses"
  include {
    phase: TEST
  }
}
layer {
  name: "ip3"
  type: "InnerProduct"
  bottom: "ip1"
  top: "ip3"
  inner_product_param {
    num_output: 512
    weight_filler {
      type: "xavier"
    }
    bias_filler {
      type: "constant"
    }
  }
}
layer {
  name: "loss2"
  type: "SoftmaxWithLoss"
  bottom: "ip3"
  bottom: "gender"
  top: "loss2"
  loss_weight: 0.6
}
layer {
  name: "accuracy_gender"
  type: "Accuracy"
  bottom: "ip3"
  bottom: "gender"
  top: "accuracy_gender"
  include {
    phase: TEST
  }
}
I0817 16:56:53.826494  2446 layer_factory.hpp:77] Creating layer data
I0817 16:56:53.826609  2446 net.cpp:100] Creating Layer data
I0817 16:56:53.826628  2446 net.cpp:408] data -> data
I0817 16:56:53.848220  2459 db_lmdb.cpp:35] Opened lmdb /home/jaychou/code/new_caffe/caffe-master/examples/gender_glasses/gender_glasses_val_lmdb
I0817 16:56:53.852365  2446 data_layer.cpp:41] output data size: 64,3,80,80
I0817 16:56:53.862607  2446 net.cpp:150] Setting up data
I0817 16:56:53.862670  2446 net.cpp:157] Top shape: 64 3 80 80 (1228800)
I0817 16:56:53.862684  2446 net.cpp:165] Memory required for data: 4915200
I0817 16:56:53.862700  2446 layer_factory.hpp:77] Creating layer labels
I0817 16:56:53.862977  2446 net.cpp:100] Creating Layer labels
I0817 16:56:53.863004  2446 net.cpp:408] labels -> labels
I0817 16:56:53.873970  2460 blocking_queue.cpp:50] Waiting for data
I0817 16:56:53.888023  2461 db_lmdb.cpp:35] Opened lmdb /home/jaychou/code/new_caffe/caffe-master/examples/gender_glasses/gender_glasses_val_label_lmdb
I0817 16:56:53.889396  2446 data_layer.cpp:41] output data size: 64,2,1,1
I0817 16:56:53.890175  2446 net.cpp:150] Setting up labels
I0817 16:56:53.890220  2446 net.cpp:157] Top shape: 64 2 1 1 (128)
I0817 16:56:53.890234  2446 net.cpp:165] Memory required for data: 4915712
I0817 16:56:53.890249  2446 layer_factory.hpp:77] Creating layer slice1
I0817 16:56:53.890275  2446 net.cpp:100] Creating Layer slice1
I0817 16:56:53.890295  2446 net.cpp:434] slice1 <- labels
I0817 16:56:53.890312  2446 net.cpp:408] slice1 -> glasses
I0817 16:56:53.890336  2446 net.cpp:408] slice1 -> gender
I0817 16:56:53.890396  2446 net.cpp:150] Setting up slice1
I0817 16:56:53.890419  2446 net.cpp:157] Top shape: 64 1 1 1 (64)
I0817 16:56:53.890434  2446 net.cpp:157] Top shape: 64 1 1 1 (64)
I0817 16:56:53.890446  2446 net.cpp:165] Memory required for data: 4916224
I0817 16:56:53.890458  2446 layer_factory.hpp:77] Creating layer glasses_slice1_0_split
I0817 16:56:53.890475  2446 net.cpp:100] Creating Layer glasses_slice1_0_split
I0817 16:56:53.890491  2446 net.cpp:434] glasses_slice1_0_split <- glasses
I0817 16:56:53.890506  2446 net.cpp:408] glasses_slice1_0_split -> glasses_slice1_0_split_0
I0817 16:56:53.890522  2446 net.cpp:408] glasses_slice1_0_split -> glasses_slice1_0_split_1
I0817 16:56:53.890581  2446 net.cpp:150] Setting up glasses_slice1_0_split
I0817 16:56:53.890602  2446 net.cpp:157] Top shape: 64 1 1 1 (64)
I0817 16:56:53.890616  2446 net.cpp:157] Top shape: 64 1 1 1 (64)
I0817 16:56:53.890630  2446 net.cpp:165] Memory required for data: 4916736
I0817 16:56:53.890641  2446 layer_factory.hpp:77] Creating layer gender_slice1_1_split
I0817 16:56:53.890660  2446 net.cpp:100] Creating Layer gender_slice1_1_split
I0817 16:56:53.890674  2446 net.cpp:434] gender_slice1_1_split <- gender
I0817 16:56:53.890688  2446 net.cpp:408] gender_slice1_1_split -> gender_slice1_1_split_0
I0817 16:56:53.890708  2446 net.cpp:408] gender_slice1_1_split -> gender_slice1_1_split_1
I0817 16:56:53.890761  2446 net.cpp:150] Setting up gender_slice1_1_split
I0817 16:56:53.890781  2446 net.cpp:157] Top shape: 64 1 1 1 (64)
I0817 16:56:53.890796  2446 net.cpp:157] Top shape: 64 1 1 1 (64)
I0817 16:56:53.890808  2446 net.cpp:165] Memory required for data: 4917248
I0817 16:56:53.890820  2446 layer_factory.hpp:77] Creating layer conv1
I0817 16:56:53.890842  2446 net.cpp:100] Creating Layer conv1
I0817 16:56:53.890857  2446 net.cpp:434] conv1 <- data
I0817 16:56:53.890877  2446 net.cpp:408] conv1 -> conv1
I0817 16:56:53.892920  2446 net.cpp:150] Setting up conv1
I0817 16:56:53.892956  2446 net.cpp:157] Top shape: 64 20 76 76 (7393280)
I0817 16:56:53.892983  2446 net.cpp:165] Memory required for data: 34490368
I0817 16:56:53.893009  2446 layer_factory.hpp:77] Creating layer relu1
I0817 16:56:53.893030  2446 net.cpp:100] Creating Layer relu1
I0817 16:56:53.893044  2446 net.cpp:434] relu1 <- conv1
I0817 16:56:53.893065  2446 net.cpp:395] relu1 -> conv1 (in-place)
I0817 16:56:53.893331  2446 net.cpp:150] Setting up relu1
I0817 16:56:53.893353  2446 net.cpp:157] Top shape: 64 20 76 76 (7393280)
I0817 16:56:53.893365  2446 net.cpp:165] Memory required for data: 64063488
I0817 16:56:53.893383  2446 layer_factory.hpp:77] Creating layer pool1
I0817 16:56:53.893400  2446 net.cpp:100] Creating Layer pool1
I0817 16:56:53.893414  2446 net.cpp:434] pool1 <- conv1
I0817 16:56:53.893430  2446 net.cpp:408] pool1 -> pool1
I0817 16:56:53.893491  2446 net.cpp:150] Setting up pool1
I0817 16:56:53.893513  2446 net.cpp:157] Top shape: 64 20 38 38 (1848320)
I0817 16:56:53.893548  2446 net.cpp:165] Memory required for data: 71456768
I0817 16:56:53.893561  2446 layer_factory.hpp:77] Creating layer conv2
I0817 16:56:53.893589  2446 net.cpp:100] Creating Layer conv2
I0817 16:56:53.893610  2446 net.cpp:434] conv2 <- pool1
I0817 16:56:53.893630  2446 net.cpp:408] conv2 -> conv2
I0817 16:56:53.895071  2446 net.cpp:150] Setting up conv2
I0817 16:56:53.895098  2446 net.cpp:157] Top shape: 64 48 34 34 (3551232)
I0817 16:56:53.895112  2446 net.cpp:165] Memory required for data: 85661696
I0817 16:56:53.895133  2446 layer_factory.hpp:77] Creating layer relu2
I0817 16:56:53.895151  2446 net.cpp:100] Creating Layer relu2
I0817 16:56:53.895164  2446 net.cpp:434] relu2 <- conv2
I0817 16:56:53.895179  2446 net.cpp:395] relu2 -> conv2 (in-place)
I0817 16:56:53.895368  2446 net.cpp:150] Setting up relu2
I0817 16:56:53.895390  2446 net.cpp:157] Top shape: 64 48 34 34 (3551232)
I0817 16:56:53.895403  2446 net.cpp:165] Memory required for data: 99866624
I0817 16:56:53.895417  2446 layer_factory.hpp:77] Creating layer pool2
I0817 16:56:53.895433  2446 net.cpp:100] Creating Layer pool2
I0817 16:56:53.895445  2446 net.cpp:434] pool2 <- conv2
I0817 16:56:53.895459  2446 net.cpp:408] pool2 -> pool2
I0817 16:56:53.895522  2446 net.cpp:150] Setting up pool2
I0817 16:56:53.895540  2446 net.cpp:157] Top shape: 64 48 17 17 (887808)
I0817 16:56:53.895552  2446 net.cpp:165] Memory required for data: 103417856
I0817 16:56:53.895565  2446 layer_factory.hpp:77] Creating layer conv3
I0817 16:56:53.895586  2446 net.cpp:100] Creating Layer conv3
I0817 16:56:53.895598  2446 net.cpp:434] conv3 <- pool2
I0817 16:56:53.895617  2446 net.cpp:408] conv3 -> conv3
I0817 16:56:53.897701  2446 net.cpp:150] Setting up conv3
I0817 16:56:53.897728  2446 net.cpp:157] Top shape: 64 64 15 15 (921600)
I0817 16:56:53.897742  2446 net.cpp:165] Memory required for data: 107104256
I0817 16:56:53.897759  2446 layer_factory.hpp:77] Creating layer relu3
I0817 16:56:53.897776  2446 net.cpp:100] Creating Layer relu3
I0817 16:56:53.897789  2446 net.cpp:434] relu3 <- conv3
I0817 16:56:53.897806  2446 net.cpp:395] relu3 -> conv3 (in-place)
I0817 16:56:53.897965  2446 net.cpp:150] Setting up relu3
I0817 16:56:53.897985  2446 net.cpp:157] Top shape: 64 64 15 15 (921600)
I0817 16:56:53.897997  2446 net.cpp:165] Memory required for data: 110790656
I0817 16:56:53.898016  2446 layer_factory.hpp:77] Creating layer ip1
I0817 16:56:53.898037  2446 net.cpp:100] Creating Layer ip1
I0817 16:56:53.898051  2446 net.cpp:434] ip1 <- conv3
I0817 16:56:53.898066  2446 net.cpp:408] ip1 -> ip1
I0817 16:56:53.970438  2446 net.cpp:150] Setting up ip1
I0817 16:56:53.970496  2446 net.cpp:157] Top shape: 64 512 (32768)
I0817 16:56:53.970509  2446 net.cpp:165] Memory required for data: 110921728
I0817 16:56:53.970527  2446 layer_factory.hpp:77] Creating layer relu5
I0817 16:56:53.970546  2446 net.cpp:100] Creating Layer relu5
I0817 16:56:53.970557  2446 net.cpp:434] relu5 <- ip1
I0817 16:56:53.970571  2446 net.cpp:395] relu5 -> ip1 (in-place)
I0817 16:56:53.970682  2446 net.cpp:150] Setting up relu5
I0817 16:56:53.970700  2446 net.cpp:157] Top shape: 64 512 (32768)
I0817 16:56:53.970710  2446 net.cpp:165] Memory required for data: 111052800
I0817 16:56:53.970721  2446 layer_factory.hpp:77] Creating layer drop1
I0817 16:56:53.970736  2446 net.cpp:100] Creating Layer drop1
I0817 16:56:53.970746  2446 net.cpp:434] drop1 <- ip1
I0817 16:56:53.970760  2446 net.cpp:395] drop1 -> ip1 (in-place)
I0817 16:56:53.970798  2446 net.cpp:150] Setting up drop1
I0817 16:56:53.970813  2446 net.cpp:157] Top shape: 64 512 (32768)
I0817 16:56:53.970824  2446 net.cpp:165] Memory required for data: 111183872
I0817 16:56:53.970834  2446 layer_factory.hpp:77] Creating layer ip1_drop1_0_split
I0817 16:56:53.970850  2446 net.cpp:100] Creating Layer ip1_drop1_0_split
I0817 16:56:53.970860  2446 net.cpp:434] ip1_drop1_0_split <- ip1
I0817 16:56:53.970875  2446 net.cpp:408] ip1_drop1_0_split -> ip1_drop1_0_split_0
I0817 16:56:53.970896  2446 net.cpp:408] ip1_drop1_0_split -> ip1_drop1_0_split_1
I0817 16:56:53.970970  2446 net.cpp:150] Setting up ip1_drop1_0_split
I0817 16:56:53.970986  2446 net.cpp:157] Top shape: 64 512 (32768)
I0817 16:56:53.970998  2446 net.cpp:157] Top shape: 64 512 (32768)
I0817 16:56:53.971007  2446 net.cpp:165] Memory required for data: 111446016
I0817 16:56:53.971019  2446 layer_factory.hpp:77] Creating layer ip2
I0817 16:56:53.971035  2446 net.cpp:100] Creating Layer ip2
I0817 16:56:53.971050  2446 net.cpp:434] ip2 <- ip1_drop1_0_split_0
I0817 16:56:53.971065  2446 net.cpp:408] ip2 -> ip2
I0817 16:56:53.971191  2446 net.cpp:150] Setting up ip2
I0817 16:56:53.971211  2446 net.cpp:157] Top shape: 64 2 (128)
I0817 16:56:53.971222  2446 net.cpp:165] Memory required for data: 111446528
I0817 16:56:53.971237  2446 layer_factory.hpp:77] Creating layer ip2_ip2_0_split
I0817 16:56:53.971251  2446 net.cpp:100] Creating Layer ip2_ip2_0_split
I0817 16:56:53.971261  2446 net.cpp:434] ip2_ip2_0_split <- ip2
I0817 16:56:53.971271  2446 net.cpp:408] ip2_ip2_0_split -> ip2_ip2_0_split_0
I0817 16:56:53.971288  2446 net.cpp:408] ip2_ip2_0_split -> ip2_ip2_0_split_1
I0817 16:56:53.971334  2446 net.cpp:150] Setting up ip2_ip2_0_split
I0817 16:56:53.971350  2446 net.cpp:157] Top shape: 64 2 (128)
I0817 16:56:53.971362  2446 net.cpp:157] Top shape: 64 2 (128)
I0817 16:56:53.971372  2446 net.cpp:165] Memory required for data: 111447552
I0817 16:56:53.971382  2446 layer_factory.hpp:77] Creating layer loss1
I0817 16:56:53.971396  2446 net.cpp:100] Creating Layer loss1
I0817 16:56:53.971406  2446 net.cpp:434] loss1 <- ip2_ip2_0_split_0
I0817 16:56:53.971421  2446 net.cpp:434] loss1 <- glasses_slice1_0_split_0
I0817 16:56:53.971434  2446 net.cpp:408] loss1 -> loss1
…
