…
  stage: ""
}
layer {
  name: "data"
  type: "Data"
  top: "data"
  include {
    phase: TRAIN
  }
  transform_param {
    scale: 0.00390625
  }
  data_param {
    source: "/home/jaychou/code/new_caffe/caffe-master/examples/gender_glasses/gender_glasses_train_lmdb"
    batch_size: 100
    backend: LMDB
  }
}
layer {
  name: "labels"
  type: "Data"
  top: "labels"
  include {
    phase: TRAIN
  }
  data_param {
    source: "/home/jaychou/code/new_caffe/caffe-master/examples/gender_glasses/gender_glasses_train_label_lmdb"
    batch_size: 100
    backend: LMDB
  }
}
layer {
  name: "slice1"
  type: "Slice"
  bottom: "labels"
  top: "glasses"
  top: "gender"
  slice_param {
    slice_dim: 1
    slice_point: 1
  }
}
layer {
  name: "conv1"
  type: "Convolution"
  bottom: "data"
  top: "conv1"
  param {
    lr_mult: 1
  }
  param {
    lr_mult: 0.1
  }
  convolution_param {
    num_output: 20
    pad: 0
    kernel_size: 5
    stride: 1
    weight_filler {
      type: "xavier"
    }
    bias_filler {
      type: "constant"
      value: 0
    }
  }
}
layer {
  name: "relu1"
  type: "PReLU"
  bottom: "conv1"
  top: "conv1"
}
layer {
  name: "pool1"
  type: "Pooling"
  bottom: "conv1"
  top: "pool1"
  pooling_param {
    pool: MAX
    kernel_size: 2
    stride: 2
  }
}
layer {
  name: "conv2"
  type: "Convolution"
  bottom: "pool1"
  top: "conv2"
  param {
    lr_mult: 1
  }
  param {
    lr_mult: 0.1
  }
  convolution_param {
    num_output: 48
    pad: 0
    kernel_size: 5
    stride: 1
    weight_filler {
      type: "xavier"
    }
    bias_filler {
      type: "constant"
      value: 0
    }
  }
}
layer {
  name: "relu2"
  type: "PReLU"
  bottom: "conv2"
  top: "conv2"
}
layer {
  name: "pool2"
  type: "Pooling"
  bottom: "conv2"
  top: "pool2"
  pooling_param {
    pool: MAX
    kernel_size: 2
    stride: 2
  }
}
layer {
  name: "conv3"
  type: "Convolution"
  bottom: "pool2"
  top: "conv3"
  param {
    lr_mult: 0.1
  }
  param {
    lr_mult: 0.1
  }
  convolution_param {
    num_output: 64
    pad: 0
    kernel_size: 3
    stride: 1
    weight_filler {
      type: "xavier"
    }
    bias_filler {
      type: "constant"
      value: 0
    }
  }
}
layer {
  name: "relu3"
  type: "PReLU"
  bottom: "conv3"
  top: "conv3"
}
layer {
  name: "conv4"
  type: "Convolution"
  bottom: "conv3"
  top: "conv4"
  param {
    lr_mult: 0.1
  }
  param {
    lr_mult: 0.1
  }
  convolution_param {
    num_output: 64
    pad: 0
    kernel_size: 3
    stride: 1
    weight_filler {
      type: "xavier"
    }
    bias_filler {
      type: "constant"
      value: 0
    }
  }
}
layer {
  name: "relu4"
  type: "PReLU"
  bottom: "conv4"
  top: "conv4"
}
layer {
  name: "ip1"
  type: "InnerProduct"
  bottom: "conv4"
  top: "ip1"
  inner_product_param {
    num_output: 512
    weight_filler {
      type: "xavier"
    }
    bias_filler {
      type: "constant"
    }
  }
}
layer {
  name: "relu5"
  type: "PReLU"
  bottom: "ip1"
  top: "ip1"
}
layer {
  name: "drop1"
  type: "Dropout"
  bottom: "ip1"
  top: "ip1"
  dropout_param {
    dropout_ratio: 0.5
  }
}
layer {
  name: "ip2"
  type: "InnerProduct"
  bottom: "ip1"
  top: "ip2"
  inner_product_param {
    num_output: 2
    weight_filler {
      type: "xavier"
    }
    bias_filler {
      type: "constant"
    }
  }
}
layer {
  name: "loss1"
  type: "SoftmaxWithLoss"
  bottom: "ip2"
  bottom: "glasses"
  top: "loss1"
  loss_weight: 0.5
}
layer {
  name: "ip3"
  type: "InnerProduct"
  bottom: "ip1"
  top: "ip3"
  inner_product_param {
    num_output: 2
    weight_filler {
      type: "xavier"
    }
    bias_filler {
      type: "constant"
    }
  }
}
layer {
  name: "loss2"
  type: "SoftmaxWithLoss"
  bottom: "ip3"
  bottom: "gender"
  top: "loss2"
  loss_weight: 0.5
}
I0819 10:03:53.363566 14677 layer_factory.hpp:77] Creating layer data
I0819 10:03:53.363934 14677 net.cpp:100] Creating Layer data
I0819 10:03:53.363962 14677 net.cpp:408] data -> data
I0819 10:03:53.364876 14681 db_lmdb.cpp:35] Opened lmdb /home/jaychou/code/new_caffe/caffe-master/examples/gender_glasses/gender_glasses_train_lmdb
I0819 10:03:53.373926 14677 data_layer.cpp:41] output data size: 100,3,80,80
I0819 10:03:53.384480 14677 net.cpp:150] Setting up data
I0819 10:03:53.384531 14677 net.cpp:157] Top shape: 100 3 80 80 (1920000)
I0819 10:03:53.384541 14677 net.cpp:165] Memory required for data: 7680000
I0819 10:03:53.384557 14677 layer_factory.hpp:77] Creating layer labels
I0819 10:03:53.384662 14677 net.cpp:100] Creating Layer labels
I0819 10:03:53.384680 14677 net.cpp:408] labels -> labels
I0819 10:03:53.386240 14683 db_lmdb.cpp:35] Opened lmdb /home/jaychou/code/new_caffe/caffe-master/examples/gender_glasses/gender_glasses_train_label_lmdb
I0819 10:03:53.386934 14677 data_layer.cpp:41] output data size: 100,2,1,1
I0819 10:03:53.387188 14677 net.cpp:150] Setting up labels
I0819 10:03:53.387203 14677 net.cpp:157] Top shape: 100 2 1 1 (200)
I0819 10:03:53.387208 14677 net.cpp:165] Memory required for data: 7680800
I0819 10:03:53.387214 14677 layer_factory.hpp:77] Creating layer slice1
I0819 10:03:53.387230 14677 net.cpp:100] Creating Layer slice1
I0819 10:03:53.387239 14677 net.cpp:434] slice1 <- labels
I0819 10:03:53.387255 14677 net.cpp:408] slice1 -> glasses
I0819 10:03:53.387269 14677 net.cpp:408] slice1 -> gender
I0819 10:03:53.387310 14677 net.cpp:150] Setting up slice1
I0819 10:03:53.387318 14677 net.cpp:157] Top shape: 100 1 1 1 (100)
I0819 10:03:53.387325 14677 net.cpp:157] Top shape: 100 1 1 1 (100)
I0819 10:03:53.387329 14677 net.cpp:165] Memory required for data: 7681600
I0819 10:03:53.387334 14677 layer_factory.hpp:77] Creating layer conv1
I0819 10:03:53.387352 14677 net.cpp:100] Creating Layer conv1
I0819 10:03:53.387358 14677 net.cpp:434] conv1 <- data
I0819 10:03:53.387367 14677 net.cpp:408] conv1 -> conv1
I0819 10:03:53.521311 14677 net.cpp:150] Setting up conv1
I0819 10:03:53.521358 14677 net.cpp:157] Top shape: 100 20 76 76 (11552000)
I0819 10:03:53.521368 14677 net.cpp:165] Memory required for data: 53889600
I0819 10:03:53.521394 14677 layer_factory.hpp:77] Creating layer relu1
I0819 10:03:53.521414 14677 net.cpp:100] Creating Layer relu1
I0819 10:03:53.521428 14677 net.cpp:434] relu1 <- conv1
I0819 10:03:53.521441 14677 net.cpp:395] relu1 -> conv1 (in-place)
I0819 10:03:53.521939 14677 net.cpp:150] Setting up relu1
I0819 10:03:53.521958 14677 net.cpp:157] Top shape: 100 20 76 76 (11552000)
I0819 10:03:53.521967 14677 net.cpp:165] Memory required for data: 100097600
I0819 10:03:53.521981 14677 layer_factory.hpp:77] Creating layer pool1
I0819 10:03:53.521996 14677 net.cpp:100] Creating Layer pool1
I0819 10:03:53.522004 14677 net.cpp:434] pool1 <- conv1
I0819 10:03:53.522016 14677 net.cpp:408] pool1 -> pool1
I0819 10:03:53.522061 14677 net.cpp:150] Setting up pool1
I0819 10:03:53.522076 14677 net.cpp:157] Top shape: 100 20 38 38 (2888000)
I0819 10:03:53.522085 14677 net.cpp:165] Memory required for data: 111649600
I0819 10:03:53.522116 14677 layer_factory.hpp:77] Creating layer conv2
I0819 10:03:53.522133 14677 net.cpp:100] Creating Layer conv2
I0819 10:03:53.522145 14677 net.cpp:434] conv2 <- pool1
I0819 10:03:53.522156 14677 net.cpp:408] conv2 -> conv2
I0819 10:03:53.523452 14677 net.cpp:150] Setting up conv2
I0819 10:03:53.523474 14677 net.cpp:157] Top shape: 100 48 34 34 (5548800)
I0819 10:03:53.523484 14677 net.cpp:165] Memory required for data: 133844800
I0819 10:03:53.523499 14677 layer_factory.hpp:77] Creating layer relu2
I0819 10:03:53.523511 14677 net.cpp:100] Creating Layer relu2
I0819 10:03:53.523520 14677 net.cpp:434] relu2 <- conv2
I0819 10:03:53.523531 14677 net.cpp:395] relu2 -> conv2 (in-place)
I0819 10:03:53.523638 14677 net.cpp:150] Setting up relu2
I0819 10:03:53.523653 14677 net.cpp:157] Top shape: 100 48 34 34 (5548800)
I0819 10:03:53.523661 14677 net.cpp:165] Memory required for data: 156040000
I0819 10:03:53.523672 14677 layer_factory.hpp:77] Creating layer pool2
I0819 10:03:53.523685 14677 net.cpp:100] Creating Layer pool2
I0819 10:03:53.523694 14677 net.cpp:434] pool2 <- conv2
I0819 10:03:53.523705 14677 net.cpp:408] pool2 -> pool2
I0819 10:03:53.523742 14677 net.cpp:150] Setting up pool2
I0819 10:03:53.523756 14677 net.cpp:157] Top shape: 100 48 17 17 (1387200)
I0819 10:03:53.523764 14677 net.cpp:165] Memory required for data: 161588800
I0819 10:03:53.523773 14677 layer_factory.hpp:77] Creating layer conv3
I0819 10:03:53.523787 14677 net.cpp:100] Creating Layer conv3
I0819 10:03:53.523797 14677 net.cpp:434] conv3 <- pool2
I0819 10:03:53.523808 14677 net.cpp:408] conv3 -> conv3
I0819 10:03:53.524639 14677 net.cpp:150] Setting up conv3
I0819 10:03:53.524659 14677 net.cpp:157] Top shape: 100 64 15 15 (1440000)
I0819 10:03:53.524669 14677 net.cpp:165] Memory required for data: 167348800
I0819 10:03:53.524682 14677 layer_factory.hpp:77] Creating layer relu3
I0819 10:03:53.524693 14677 net.cpp:100] Creating Layer relu3
I0819 10:03:53.524703 14677 net.cpp:434] relu3 <- conv3
I0819 10:03:53.524713 14677 net.cpp:395] relu3 -> conv3 (in-place)
I0819 10:03:53.524801 14677 net.cpp:150] Setting up relu3
I0819 10:03:53.524816 14677 net.cpp:157] Top shape: 100 64 15 15 (1440000)
I0819 10:03:53.524823 14677 net.cpp:165] Memory required for data: 173108800
I0819 10:03:53.524837 14677 layer_factory.hpp:77] Creating layer conv4
I0819 10:03:53.524852 14677 net.cpp:100] Creating Layer conv4
I0819 10:03:53.524862 14677 net.cpp:434] conv4 <- conv3
I0819 10:03:53.524873 14677 net.cpp:408] conv4 -> conv4
I0819 10:03:53.525909 14677 net.cpp:150] Setting up conv4
I0819 10:03:53.525929 14677 net.cpp:157] Top shape: 100 64 13 13 (1081600)
I0819 10:03:53.525938 14677 net.cpp:165] Memory required for data: 177435200
I0819 10:03:53.525950 14677 layer_factory.hpp:77] Creating layer relu4
I0819 10:03:53.525964 14677 net.cpp:100] Creating Layer relu4
I0819 10:03:53.525974 14677 net.cpp:434] relu4 <- conv4
I0819 10:03:53.525985 14677 net.cpp:395] relu4 -> conv4 (in-place)
I0819 10:03:53.526075 14677 net.cpp:150] Setting up relu4
I0819 10:03:53.526089 14677 net.cpp:157] Top shape: 100 64 13 13 (1081600)
I0819 10:03:53.526098 14677 net.cpp:165] Memory required for data: 181761600
I0819 10:03:53.526108 14677 layer_factory.hpp:77] Creating layer ip1
I0819 10:03:53.526125 14677 net.cpp:100] Creating Layer ip1
I0819 10:03:53.526135 14677 net.cpp:434] ip1 <- conv4
I0819 10:03:53.526146 14677 net.cpp:408] ip1 -> ip1
I0819 10:03:53.567123 14677 net.cpp:150] Setting up ip1
I0819 10:03:53.567169 14677 net.cpp:157] Top shape: 100 512 (51200)
I0819 10:03:53.567179 14677 net.cpp:165] Memory required for data: 181966400
I0819 10:03:53.567195 14677 layer_factory.hpp:77] Creating layer relu5
I0819 10:03:53.567211 14677 net.cpp:100] Creating Layer relu5
I0819 10:03:53.567221 14677 net.cpp:434] relu5 <- ip1
I0819 10:03:53.567234 14677 net.cpp:395] relu5 -> ip1 (in-place)
I0819 10:03:53.567315 14677 net.cpp:150] Setting up relu5
I0819 10:03:53.567329 14677 net.cpp:157] Top shape: 100 512 (51200)
I0819 10:03:53.567338 14677 net.cpp:165] Memory required for data: 182171200
I0819 10:03:53.567371 14677 layer_factory.hpp:77] Creating layer drop1
I0819 10:03:53.567392 14677 net.cpp:100] Creating Layer drop1
I0819 10:03:53.567404 14677 net.cpp:434] drop1 <- ip1
I0819 10:03:53.567415 14677 net.cpp:395] drop1 -> ip1 (in-place)
I0819 10:03:53.567451 14677 net.cpp:150] Setting up drop1
I0819 10:03:53.567464 14677 net.cpp:157] Top shape: 100 512 (51200)
I0819 10:03:53.567473 14677 net.cpp:165] Memory required for data: 182376000
I0819 10:03:53.567482 14677 layer_factory.hpp:77] Creating layer ip1_drop1_0_split
I0819 10:03:53.567498 14677 net.cpp:100] Creating Layer ip1_drop1_0_split
I0819 10:03:53.567507 14677 net.cpp:434] ip1_drop1_0_split <- ip1
I0819 10:03:53.567520 14677 net.cpp:408] ip1_drop1_0_split -> ip1_drop1_0_split_0
I0819 10:03:53.567534 14677 net.cpp:408] ip1_drop1_0_split -> ip1_drop1_0_split_1
I0819 10:03:53.567577 14677 net.cpp:150] Setting up ip1_drop1_0_split
I0819 10:03:53.567591 14677 net.cpp:157] Top shape: 100 512 (51200)
I0819 10:03:53.567601 14677 net.cpp:157] Top shape: 100 512 (51200)
I0819 10:03:53.567610 14677 net.cpp:165] Memory required for data: 182785600
I0819 10:03:53.567617 14677 layer_factory.hpp:77] Creating layer ip2
I0819 10:03:53.567631 14677 net.cpp:100] Creating Layer ip2
I0819 10:03:53.567639 14677 net.cpp:434] ip2 <- ip1_drop1_0_split_0
I0819 10:03:53.567651 14677 net.cpp:408] ip2 -> ip2
I0819 10:03:53.567749 14677 net.cpp:150] Setting up ip2
I0819 10:03:53.567764 14677 net.cpp:157] Top shape: 100 2 (200)
I0819 10:03:53.567772 14677 net.cpp:165] Memory required for data: 182786400
I0819 10:03:53.567788 14677 layer_factory.hpp:77] Creating layer loss1
I0819 10:03:53.567801 14677 net.cpp:100] Creating Layer loss1
I0819 10:03:53.567811 14677 net.cpp:434] loss1 <- ip2
I0819 10:03:53.567821 14677 net.cpp:434] loss1 <- glasses
I0819 10:03:53.567833 14677 net.cpp:408] loss1 -> loss1
I0819 10:03:53.567849 14677 layer_factory.hpp:77] Creating layer loss1
I0819 10:03:53.568259 14677 net.cpp:150] Setting up loss1
I0819 10:03:53.568279 14677 net.cpp:157] Top shape: (1)
I0819 10:03:53.568289 14677 net.cpp:160]     with loss weight 0.5
I0819 10:03:53.568315 14677 net.cpp:165] Memory required for data: 182786404
I0819 10:03:53.568325 14677 layer_factory.hpp:77] Creating layer ip3
I0819 10:03:53.568336 14677 net.cpp:100] Creating Layer ip3
I0819 10:03:53.568346 14677 net.cpp:434] ip3 <- ip1_drop1_0_split_1
I0819 10:03:53.568361 14677 net.cpp:408] ip3 -> ip3
I0819 10:03:53.568461 14677 net.cpp:150] Setting up ip3
I0819 10:03:53.568480 14677 net.cpp:157] Top shape: 100 2 (200)
I0819 10:03:53.568488 14677 net.cpp:165] Memory required for data: 182787204
I0819 10:03:53.568500 14677 layer_factory.hpp:77] Creating layer loss2
I0819 10:03:53.568512 14677 net.cpp:100] Creating Layer loss2
I0819 10:03:53.568521 14677 net.cpp:434] loss2 <- ip3
I0819 10:03:53.568531 14677 net.cpp:434] loss2 <- gender
I0819 10:03:53.568542 14677 net.cpp:408] loss2 -> loss2
I0819 10:03:53.568558 14677 layer_factory.hpp:77] Creating layer loss2
…
  phase: TEST
}
layer {
  name: "data"
  type: "Data"
  top: "data"
  include {
    phase: TEST
  }
  transform_param {
    scale: 0.00390625
  }
  data_param {
    source: "/home/jaychou/code/new_caffe/caffe-master/examples/gender_glasses/gender_glasses_val_lmdb"
    batch_size: 64
    backend: LMDB
  }
}
layer {
  name: "labels"
  type: "Data"
  top: "labels"
  include {
    phase: TEST
  }
  data_param {
    source: "/home/jaychou/code/new_caffe/caffe-master/examples/gender_glasses/gender_glasses_val_label_lmdb"
    batch_size: 64
    backend: LMDB
  }
}
layer {
  name: "slice1"
  type: "Slice"
  bottom: "labels"
  top: "glasses"
  top: "gender"
  slice_param {
    slice_dim: 1
    slice_point: 1
  }
}
layer {
  name: "conv1"
  type: "Convolution"
  bottom: "data"
  top: "conv1"
  param {
    lr_mult: 1
  }
  param {
    lr_mult: 0.1
  }
  convolution_param {
    num_output: 20
    pad: 0
    kernel_size: 5
    stride: 1
    weight_filler {
      type: "xavier"
    }
    bias_filler {
      type: "constant"
      value: 0
    }
  }
}
layer {
  name: "relu1"
  type: "PReLU"
  bottom: "conv1"
  top: "conv1"
}
layer {
  name: "pool1"
  type: "Pooling"
  bottom: "conv1"
  top: "pool1"
  pooling_param {
    pool: MAX
    kernel_size: 2
    stride: 2
  }
}
layer {
  name: "conv2"
  type: "Convolution"
  bottom: "pool1"
  top: "conv2"
  param {
    lr_mult: 1
  }
  param {
    lr_mult: 0.1
  }
  convolution_param {
    num_output: 48
    pad: 0
    kernel_size: 5
    stride: 1
    weight_filler {
      type: "xavier"
    }
    bias_filler {
      type: "constant"
      value: 0
    }
  }
}
layer {
  name: "relu2"
  type: "PReLU"
  bottom: "conv2"
  top: "conv2"
}
layer {
  name: "pool2"
  type: "Pooling"
  bottom: "conv2"
  top: "pool2"
  pooling_param {
    pool: MAX
    kernel_size: 2
    stride: 2
  }
}
layer {
  name: "conv3"
  type: "Convolution"
  bottom: "pool2"
  top: "conv3"
  param {
    lr_mult: 0.1
  }
  param {
    lr_mult: 0.1
  }
  convolution_param {
    num_output: 64
    pad: 0
    kernel_size: 3
    stride: 1
    weight_filler {
      type: "xavier"
    }
    bias_filler {
      type: "constant"
      value: 0
    }
  }
}
layer {
  name: "relu3"
  type: "PReLU"
  bottom: "conv3"
  top: "conv3"
}
layer {
  name: "conv4"
  type: "Convolution"
  bottom: "conv3"
  top: "conv4"
  param {
    lr_mult: 0.1
  }
  param {
    lr_mult: 0.1
  }
  convolution_param {
    num_output: 64
    pad: 0
    kernel_size: 3
    stride: 1
    weight_filler {
      type: "xavier"
    }
    bias_filler {
      type: "constant"
      value: 0
    }
  }
}
layer {
  name: "relu4"
  type: "PReLU"
  bottom: "conv4"
  top: "conv4"
}
layer {
  name: "ip1"
  type: "InnerProduct"
  bottom: "conv4"
  top: "ip1"
  inner_product_param {
    num_output: 512
    weight_filler {
      type: "xavier"
    }
    bias_filler {
      type: "constant"
    }
  }
}
layer {
  name: "relu5"
  type: "PReLU"
  bottom: "ip1"
  top: "ip1"
}
layer {
  name: "drop1"
  type: "Dropout"
  bottom: "ip1"
  top: "ip1"
  dropout_param {
    dropout_ratio: 0.5
  }
}
layer {
  name: "ip2"
  type: "InnerProduct"
  bottom: "ip1"
  top: "ip2"
  inner_product_param {
    num_output: 2
    weight_filler {
      type: "xavier"
    }
    bias_filler {
      type: "constant"
    }
  }
}
layer {
  name: "loss1"
  type: "SoftmaxWithLoss"
  bottom: "ip2"
  bottom: "glasses"
  top: "loss1"
  loss_weight: 0.5
}
layer {
  name: "accuracy_glasses"
  type: "Accuracy"
  bottom: "ip2"
  bottom: "glasses"
  top: "accuracy_glasses"
  include {
    phase: TEST
  }
}
layer {
  name: "ip3"
  type: "InnerProduct"
  bottom: "ip1"
  top: "ip3"
  inner_product_param {
    num_output: 2
    weight_filler {
      type: "xavier"
    }
    bias_filler {
      type: "constant"
    }
  }
}
layer {
  name: "loss2"
  type: "SoftmaxWithLoss"
  bottom: "ip3"
  bottom: "gender"
  top: "loss2"
  loss_weight: 0.5
}
layer {
  name: "accuracy_gender"
  type: "Accuracy"
  bottom: "ip3"
  bottom: "gender"
  top: "accuracy_gender"
  include {
    phase: TEST
  }
}
I0819 10:03:53.570405 14677 layer_factory.hpp:77] Creating layer data
I0819 10:03:53.570498 14677 net.cpp:100] Creating Layer data
I0819 10:03:53.570513 14677 net.cpp:408] data -> data
I0819 10:03:53.571415 14685 db_lmdb.cpp:35] Opened lmdb /home/jaychou/code/new_caffe/caffe-master/examples/gender_glasses/gender_glasses_val_lmdb
I0819 10:03:53.571581 14677 data_layer.cpp:41] output data size: 64,3,80,80
I0819 10:03:53.578786 14677 net.cpp:150] Setting up data
I0819 10:03:53.578829 14677 net.cpp:157] Top shape: 64 3 80 80 (1228800)
I0819 10:03:53.578838 14677 net.cpp:165] Memory required for data: 4915200
I0819 10:03:53.578850 14677 layer_factory.hpp:77] Creating layer labels
I0819 10:03:53.581445 14677 net.cpp:100] Creating Layer labels
I0819 10:03:53.581496 14677 net.cpp:408] labels -> labels
I0819 10:03:53.582679 14687 db_lmdb.cpp:35] Opened lmdb /home/jaychou/code/new_caffe/caffe-master/examples/gender_glasses/gender_glasses_val_label_lmdb
I0819 10:03:53.582898 14677 data_layer.cpp:41] output data size: 64,2,1,1
I0819 10:03:53.583055 14677 net.cpp:150] Setting up labels
I0819 10:03:53.583076 14677 net.cpp:157] Top shape: 64 2 1 1 (128)
I0819 10:03:53.583086 14677 net.cpp:165] Memory required for data: 4915712
I0819 10:03:53.583096 14677 layer_factory.hpp:77] Creating layer slice1
I0819 10:03:53.583113 14677 net.cpp:100] Creating Layer slice1
I0819 10:03:53.583127 14677 net.cpp:434] slice1 <- labels
I0819 10:03:53.583140 14677 net.cpp:408] slice1 -> glasses
I0819 10:03:53.583159 14677 net.cpp:408] slice1 -> gender
I0819 10:03:53.583201 14677 net.cpp:150] Setting up slice1
I0819 10:03:53.583216 14677 net.cpp:157] Top shape: 64 1 1 1 (64)
I0819 10:03:53.583226 14677 net.cpp:157] Top shape: 64 1 1 1 (64)
I0819 10:03:53.583235 14677 net.cpp:165] Memory required for data: 4916224
I0819 10:03:53.583243 14677 layer_factory.hpp:77] Creating layer glasses_slice1_0_split
I0819 10:03:53.583257 14677 net.cpp:100] Creating Layer glasses_slice1_0_split
I0819 10:03:53.583266 14677 net.cpp:434] glasses_slice1_0_split <- glasses
I0819 10:03:53.583277 14677 net.cpp:408] glasses_slice1_0_split -> glasses_slice1_0_split_0
I0819 10:03:53.583289 14677 net.cpp:408] glasses_slice1_0_split -> glasses_slice1_0_split_1
I0819 10:03:53.583331 14677 net.cpp:150] Setting up glasses_slice1_0_split
I0819 10:03:53.583344 14677 net.cpp:157] Top shape: 64 1 1 1 (64)
I0819 10:03:53.583356 14677 net.cpp:157] Top shape: 64 1 1 1 (64)
I0819 10:03:53.583364 14677 net.cpp:165] Memory required for data: 4916736
I0819 10:03:53.583374 14677 layer_factory.hpp:77] Creating layer gender_slice1_1_split
I0819 10:03:53.583384 14677 net.cpp:100] Creating Layer gender_slice1_1_split
I0819 10:03:53.583408 14677 net.cpp:434] gender_slice1_1_split <- gender
I0819 10:03:53.583421 14677 net.cpp:408] gender_slice1_1_split -> gender_slice1_1_split_0
I0819 10:03:53.583434 14677 net.cpp:408] gender_slice1_1_split -> gender_slice1_1_split_1
I0819 10:03:53.583470 14677 net.cpp:150] Setting up gender_slice1_1_split
I0819 10:03:53.583483 14677 net.cpp:157] Top shape: 64 1 1 1 (64)
I0819 10:03:53.583492 14677 net.cpp:157] Top shape: 64 1 1 1 (64)
I0819 10:03:53.583500 14677 net.cpp:165] Memory required for data: 4917248
I0819 10:03:53.583511 14677 layer_factory.hpp:77] Creating layer conv1
I0819 10:03:53.583531 14677 net.cpp:100] Creating Layer conv1
I0819 10:03:53.583541 14677 net.cpp:434] conv1 <- data
I0819 10:03:53.583552 14677 net.cpp:408] conv1 -> conv1
I0819 10:03:53.584902 14677 net.cpp:150] Setting up conv1
I0819 10:03:53.584930 14677 net.cpp:157] Top shape: 64 20 76 76 (7393280)
I0819 10:03:53.584942 14677 net.cpp:165] Memory required for data: 34490368
I0819 10:03:53.584961 14677 layer_factory.hpp:77] Creating layer relu1
I0819 10:03:53.584982 14677 net.cpp:100] Creating Layer relu1
I0819 10:03:53.585022 14677 net.cpp:434] relu1 <- conv1
I0819 10:03:53.585042 14677 net.cpp:395] relu1 -> conv1 (in-place)
I0819 10:03:53.585306 14677 net.cpp:150] Setting up relu1
I0819 10:03:53.585361 14677 net.cpp:157] Top shape: 64 20 76 76 (7393280)
I0819 10:03:53.585381 14677 net.cpp:165] Memory required for data: 64063488
I0819 10:03:53.585405 14677 layer_factory.hpp:77] Creating layer pool1
I0819 10:03:53.585433 14677 net.cpp:100] Creating Layer pool1
I0819 10:03:53.585443 14677 net.cpp:434] pool1 <- conv1
I0819 10:03:53.585455 14677 net.cpp:408] pool1 -> pool1
I0819 10:03:53.585511 14677 net.cpp:150] Setting up pool1
I0819 10:03:53.585525 14677 net.cpp:157] Top shape: 64 20 38 38 (1848320)
I0819 10:03:53.585535 14677 net.cpp:165] Memory required for data: 71456768
I0819 10:03:53.585543 14677 layer_factory.hpp:77] Creating layer conv2
I0819 10:03:53.585568 14677 net.cpp:100] Creating Layer conv2
I0819 10:03:53.585578 14677 net.cpp:434] conv2 <- pool1
I0819 10:03:53.585593 14677 net.cpp:408] conv2 -> conv2
I0819 10:03:53.587203 14677 net.cpp:150] Setting up conv2
I0819 10:03:53.587224 14677 net.cpp:157] Top shape: 64 48 34 34 (3551232)
I0819 10:03:53.587234 14677 net.cpp:165] Memory required for data: 85661696
I0819 10:03:53.587249 14677 layer_factory.hpp:77] Creating layer relu2
I0819 10:03:53.587260 14677 net.cpp:100] Creating Layer relu2
I0819 10:03:53.587270 14677 net.cpp:434] relu2 <- conv2
I0819 10:03:53.587280 14677 net.cpp:395] relu2 -> conv2 (in-place)
I0819 10:03:53.587416 14677 net.cpp:150] Setting up relu2
I0819 10:03:53.587431 14677 net.cpp:157] Top shape: 64 48 34 34 (3551232)
I0819 10:03:53.587440 14677 net.cpp:165] Memory required for data: 99866624
I0819 10:03:53.587450 14677 layer_factory.hpp:77] Creating layer pool2
I0819 10:03:53.587462 14677 net.cpp:100] Creating Layer pool2
I0819 10:03:53.587471 14677 net.cpp:434] pool2 <- conv2
I0819 10:03:53.587481 14677 net.cpp:408] pool2 -> pool2
I0819 10:03:53.587523 14677 net.cpp:150] Setting up pool2
I0819 10:03:53.587537 14677 net.cpp:157] Top shape: 64 48 17 17 (887808)
I0819 10:03:53.587544 14677 net.cpp:165] Memory required for data: 103417856
I0819 10:03:53.587553 14677 layer_factory.hpp:77] Creating layer conv3
I0819 10:03:53.587568 14677 net.cpp:100] Creating Layer conv3
I0819 10:03:53.587579 14677 net.cpp:434] conv3 <- pool2
I0819 10:03:53.587591 14677 net.cpp:408] conv3 -> conv3
I0819 10:03:53.588665 14677 net.cpp:150] Setting up conv3
I0819 10:03:53.588683 14677 net.cpp:157] Top shape: 64 64 15 15 (921600)
I0819 10:03:53.588692 14677 net.cpp:165] Memory required for data: 107104256
I0819 10:03:53.588711 14677 layer_factory.hpp:77] Creating layer relu3
I0819 10:03:53.588726 14677 net.cpp:100] Creating Layer relu3
I0819 10:03:53.588734 14677 net.cpp:434] relu3 <- conv3
I0819 10:03:53.588744 14677 net.cpp:395] relu3 -> conv3 (in-place)
I0819 10:03:53.588848 14677 net.cpp:150] Setting up relu3
I0819 10:03:53.588888 14677 net.cpp:157] Top shape: 64 64 15 15 (921600)
I0819 10:03:53.588897 14677 net.cpp:165] Memory required for data: 110790656
I0819 10:03:53.588913 14677 layer_factory.hpp:77] Creating layer conv4
I0819 10:03:53.588930 14677 net.cpp:100] Creating Layer conv4
I0819 10:03:53.588939 14677 net.cpp:434] conv4 <- conv3
I0819 10:03:53.588953 14677 net.cpp:408] conv4 -> conv4
I0819 10:03:53.590668 14677 net.cpp:150] Setting up conv4
I0819 10:03:53.590706 14677 net.cpp:157] Top shape: 64 64 13 13 (692224)
I0819 10:03:53.590715 14677 net.cpp:165] Memory required for data: 113559552
I0819 10:03:53.590730 14677 layer_factory.hpp:77] Creating layer relu4
I0819 10:03:53.590746 14677 net.cpp:100] Creating Layer relu4
I0819 10:03:53.590755 14677 net.cpp:434] relu4 <- conv4
I0819 10:03:53.590770 14677 net.cpp:395] relu4 -> conv4 (in-place)
I0819 10:03:53.590878 14677 net.cpp:150] Setting up relu4
I0819 10:03:53.590891 14677 net.cpp:157] Top shape: 64 64 13 13 (692224)
I0819 10:03:53.590899 14677 net.cpp:165] Memory required for data: 116328448
I0819 10:03:53.590911 14677 layer_factory.hpp:77] Creating layer ip1
I0819 10:03:53.590926 14677 net.cpp:100] Creating Layer ip1
I0819 10:03:53.590935 14677 net.cpp:434] ip1 <- conv4
I0819 10:03:53.590950 14677 net.cpp:408] ip1 -> ip1
I0819 10:03:53.631716 14677 net.cpp:150] Setting up ip1
I0819 10:03:53.631762 14677 net.cpp:157] Top shape: 64 512 (32768)
I0819 10:03:53.631772 14677 net.cpp:165] Memory required for data: 116459520
I0819 10:03:53.631789 14677 layer_factory.hpp:77] Creating layer relu5
I0819 10:03:53.631808 14677 net.cpp:100] Creating Layer relu5
I0819 10:03:53.631819 14677 net.cpp:434] relu5 <- ip1
I0819 10:03:53.631831 14677 net.cpp:395] relu5 -> ip1 (in-place)
I0819 10:03:53.631922 14677 net.cpp:150] Setting up relu5
I0819 10:03:53.631937 14677 net.cpp:157] Top shape: 64 512 (32768)
I0819 10:03:53.631944 14677 net.cpp:165] Memory required for data: 116590592
I0819 10:03:53.631955 14677 layer_factory.hpp:77] Creating layer drop1
I0819 10:03:53.631968 14677 net.cpp:100] Creating Layer drop1
I0819 10:03:53.631978 14677 net.cpp:434] drop1 <- ip1
I0819 10:03:53.631988 14677 net.cpp:395] drop1 -> ip1 (in-place)
I0819 10:03:53.632016 14677 net.cpp:150] Setting up drop1
I0819 10:03:53.632030 14677 net.cpp:157] Top shape: 64 512 (32768)
I0819 10:03:53.632038 14677 net.cpp:165] Memory required for data: 116721664
I0819 10:03:53.632046 14677 layer_factory.hpp:77] Creating layer ip1_drop1_0_split
I0819 10:03:53.632060 14677 net.cpp:100] Creating Layer ip1_drop1_0_split
I0819 10:03:53.632071 14677 net.cpp:434] ip1_drop1_0_split <- ip1
I0819 10:03:53.632082 14677 net.cpp:408] ip1_drop1_0_split -> ip1_drop1_0_split_0
I0819 10:03:53.632096 14677 net.cpp:408] ip1_drop1_0_split -> ip1_drop1_0_split_1
I0819 10:03:53.632138 14677 net.cpp:150] Setting up ip1_drop1_0_split
I0819 10:03:53.632154 14677 net.cpp:157] Top shape: 64 512 (32768)
I0819 10:03:53.632165 14677 net.cpp:157] Top shape: 64 512 (32768)
I0819 10:03:53.632174 14677 net.cpp:165] Memory required for data: 116983808
I0819 10:03:53.632182 14677 layer_factory.hpp:77] Creating layer ip2
I0819 10:03:53.632194 14677 net.cpp:100] Creating Layer ip2
I0819 10:03:53.632202 14677 net.cpp:434] ip2 <- ip1_drop1_0_split_0
I0819 10:03:53.632213 14677 net.cpp:408] ip2 -> ip2
I0819 10:03:53.632313 14677 net.cpp:150] Setting up ip2
I0819 10:03:53.632326 14677 net.cpp:157] Top shape: 64 2 (128)
I0819 10:03:53.632335 14677 net.cpp:165] Memory required for data: 116984320
I0819 10:03:53.632352 14677 layer_factory.hpp:77] Creating layer ip2_ip2_0_split
I0819 10:03:53.632365 14677 net.cpp:100] Creating Layer ip2_ip2_0_split
I0819 10:03:53.632377 14677 net.cpp:434] ip2_ip2_0_split <- ip2
I0819 10:03:53.632390 14677 net.cpp:408] ip2_ip2_0_split -> ip2_ip2_0_split_0
I0819 10:03:53.632403 14677 net.cpp:408] ip2_ip2_0_split -> ip2_ip2_0_split_1
I0819 10:03:53.632441 14677 net.cpp:150] Setting up ip2_ip2_0_split
I0819 10:03:53.632454 14677 net.cpp:157] Top shape: 64 2 (128)
I0819 10:03:53.632464 14677 net.cpp:157] Top shape: 64 2 (128)
I0819 10:03:53.632495 14677 net.cpp:165] Memory required for data: 116985344
I0819 10:03:53.632504 14677 layer_factory.hpp:77] Creating layer loss1
I0819 10:03:53.632516 14677 net.cpp:100] Creating Layer loss1
I0819 10:03:53.632524 14677 net.cpp:434] loss1 <- ip2_ip2_0_split_0
I0819 10:03:53.632534 14677 net.cpp:434] loss1 <- glasses_slice1_0_split_0
I0819 10:03:53.632545 14677 net.cpp:408] loss1 -> loss1
…
